…
      0.027217344838127953,
      0.024683874636180818,
      0.022882191404792716,
      0.021338859841122174,
      0.020080033271536707
    ],
    "valid_vector": [
      0.023772908299704635,
      0.021454166657458158,
      0.020572391710728645,
      0.01975374399778197,
      0.019782108908170646,
      0.020207480763269864
    ],
    "test_vector": [
      0.023562764341849635,
      0.021265741751424032,
      0.020412703793344974,
      0.01958245250867056,
      0.01963541501247362,
      0.01990765082771018
    ],
    "train_finish": "2018-12-18 15:59:27.841650",
    "model": "CRNN(\n  (embedding): Embedding(400000, 100)\n  (convs): ModuleList(\n    (0): Conv2d(1, 762, kernel_size=(3, 100), stride=(2, 2))\n    (1): Conv2d(1, 762, kernel_size=(4, 100), stride=(2, 2))\n    (2): Conv2d(1, 762, kernel_size=(5, 100), stride=(2, 2))\n    (3): Conv2d(1, 762, kernel_size=(6, 100), stride=(2, 2))\n  )\n  (batch_norms): ModuleList(\n    (0): BatchNorm2d(762, eps=1e-05, momentum=0.1, affine=True, track_running_stats=True)\n    (1): BatchNorm2d(762, eps=1e-05, momentum=0.1, affine=True, track_running_stats=True)\n    (2): BatchNorm2d(762, eps=1e-05, momentum=0.1, affine=True, track_running_stats=True)\n    (3): BatchNorm2d(762, eps=1e-05, momentum=0.1, affine=True, track_running_stats=True)\n  )\n  (gru): GRU(100, 22, num_layers=3, batch_first=True, dropout=0.38, bidirectional=True)\n  (fc1): Linear(in_features=3180, out_features=202, bias=True)\n  (fc2): Linear(in_features=202, out_features=126, bias=True)\n  (dropout): Dropout(p=0.38)\n)"
  },
  "{\"batch_norm\": true, \"bottleneck_fc_dim\": 419.0, \"cpu_mode\": false, \"dropout_pctg\": 0.30414994213713376, \"filter_sizes\": [2, 3, 4, 5], \"glove_dim\": 100, \"gpu_no\": 2, \"num_filters\": 750.0, \"rnn_bidirectional\": false, \"rnn_hidden_size\": 44.0, \"rnn_num_layers\": 3.0, \"stride\": 1, \"txt_length\": 583.0}": {
…
      0.014398003145013692
    ],
    "valid_vector": [
      0.021681026222486136,
      0.01984440067783991,
      0.018641562140765174,
      0.0181926689180198,
      0.017704092699891406,
      0.017660638143649515,
      0.0180264601896235,
      0.018444465428614602
    ],
    "test_vector": [
      0.02153496476990391,
      0.019731345846613586,
      0.018539981122241853,
      0.01811417336784192,
      0.017635730780295726,
      0.017690664264502557,
      0.01788790058741755,
      0.01843402223752887
    ],
    "train_finish": "2018-12-18 16:36:04.152582",
    "model": "CRNN(\n  (embedding): Embedding(400000, 100)\n  (convs): ModuleList(\n    (0): Conv2d(1, 750, kernel_size=(2, 100), stride=(1, 1))\n    (1): Conv2d(1, 750, kernel_size=(3, 100), stride=(1, 1))\n    (2): Conv2d(1, 750, kernel_size=(4, 100), stride=(1, 1))\n    (3): Conv2d(1, 750, kernel_size=(5, 100), stride=(1, 1))\n  )\n  (batch_norms): ModuleList(\n    (0): BatchNorm2d(750, eps=1e-05, momentum=0.1, affine=True, track_running_stats=True)\n    (1): BatchNorm2d(750, eps=1e-05, momentum=0.1, affine=True, track_running_stats=True)\n    (2): BatchNorm2d(750, eps=1e-05, momentum=0.1, affine=True, track_running_stats=True)\n    (3): BatchNorm2d(750, eps=1e-05, momentum=0.1, affine=True, track_running_stats=True)\n  )\n  (gru): GRU(100, 44, num_layers=3, batch_first=True, dropout=0.3)\n  (fc1): Linear(in_features=3132, out_features=419, bias=True)\n  (fc2): Linear(in_features=419, out_features=126, bias=True)\n  (dropout): Dropout(p=0.3)\n)"
  },
  "{\"batch_norm\": false, \"bottleneck_fc_dim\": 405.0, \"cpu_mode\": false, \"dropout_pctg\": 0.10918196297922018, \"filter_sizes\": [3, 4, 5], \"glove_dim\": 100, \"gpu_no\": 2, \"num_filters\": 1015.0, \"rnn_bidirectional\": false, \"rnn_hidden_size\": 16.0, \"rnn_num_layers\": 1.0, \"stride\": 1, \"txt_length\": 590.0}": {
…
      "pAtK_1": 0.9674506929637526,
      "pAtK_3": 0.8324671286425018,
      "pAtK_5": 0.5749200426439233
    },
    "train_vector": [
      0.02578425456137618,
      0.018096359397071982,
      0.015857472574599723,
      0.014151570600881902
    ],
    "valid_vector": [
      0.019082213660998982,
      0.01840355518117134,
      0.01860566037398741,
      0.01919145235776413
    ],
    "test_vector": [
      0.018953528062605272,
      0.018303750513760902,
      0.018542038473382053,
      0.019261498683328823
    ],
    "train_finish": "2018-12-18 16:49:16.931280",
    "model": "CRNN(\n  (embedding): Embedding(400000, 100)\n  (convs): ModuleList(\n    (0): Conv2d(1, 1015, kernel_size=(3, 100), stride=(1, 1))\n    (1): Conv2d(1, 1015, kernel_size=(4, 100), stride=(1, 1))\n    (2): Conv2d(1, 1015, kernel_size=(5, 100), stride=(1, 1))\n  )\n  (batch_norms): ModuleList(\n    (0): BatchNorm2d(1015, eps=1e-05, momentum=0.1, affine=True, track_running_stats=True)\n    (1): BatchNorm2d(1015, eps=1e-05, momentum=0.1, affine=True, track_running_stats=True)\n    (2): BatchNorm2d(1015, eps=1e-05, momentum=0.1, affine=True, track_running_stats=True)\n  )\n  (gru): GRU(100, 16, batch_first=True, dropout=0.11)\n  (fc1): Linear(in_features=3061, out_features=405, bias=True)\n  (fc2): Linear(in_features=405, out_features=126, bias=True)\n  (dropout): Dropout(p=0.11)\n)"
  },
  "{\"batch_norm\": false, \"bottleneck_fc_dim\": 231.0, \"cpu_mode\": false, \"dropout_pctg\": 0.06377024615074997, \"filter_sizes\": [2, 3, 4, 5], \"glove_dim\": 100, \"gpu_no\": 2, \"num_filters\": 862.0, \"rnn_bidirectional\": true, \"rnn_hidden_size\": 42.0, \"rnn_num_layers\": 2.0, \"stride\": 2, \"txt_length\": 676.0}": {
…
      "pAtK_1": 0.9682835820895522,
      "pAtK_3": 0.8319451847903341,
      "pAtK_5": 0.5750199893390192
    },
    "train_vector": [
      0.027093242206327466,
      0.018476254421533778,
      0.015982515399399926,
      0.014084930014458616
    ],
    "valid_vector": [
      0.01994190044921519,
      0.01835677815330173,
      0.018505869737726006,
      0.019115349310246714
    ],
    "test_vector": [
      0.019794782599819493,
      0.018292214491092827,
      0.018394589096482502,
      0.018977375035839423
    ],
    "train_finish": "2018-12-18 17:07:22.494028",
    "model": "CRNN(\n  (embedding): Embedding(400000, 100)\n  (convs): ModuleList(\n    (0): Conv2d(1, 862, kernel_size=(2, 100), stride=(2, 2))\n    (1): Conv2d(1, 862, kernel_size=(3, 100), stride=(2, 2))\n    (2): Conv2d(1, 862, kernel_size=(4, 100), stride=(2, 2))\n    (3): Conv2d(1, 862, kernel_size=(5, 100), stride=(2, 2))\n  )\n  (batch_norms): ModuleList(\n    (0): BatchNorm2d(862, eps=1e-05, momentum=0.1, affine=True, track_running_stats=True)\n    (1): BatchNorm2d(862, eps=1e-05, momentum=0.1, affine=True, track_running_stats=True)\n    (2): BatchNorm2d(862, eps=1e-05, momentum=0.1, affine=True, track_running_stats=True)\n    (3): BatchNorm2d(862, eps=1e-05, momentum=0.1, affine=True, track_running_stats=True)\n  )\n  (gru): GRU(100, 42, num_layers=2, batch_first=True, dropout=0.06, bidirectional=True)\n  (fc1): Linear(in_features=3616, out_features=231, bias=True)\n  (fc2): Linear(in_features=231, out_features=126, bias=True)\n  (dropout): Dropout(p=0.06)\n)"
  },
  "{\"batch_norm\": false, \"bottleneck_fc_dim\": 243.0, \"cpu_mode\": false, \"dropout_pctg\": 0.48699768795948817, \"filter_sizes\": [1, 2, 3], \"glove_dim\": 100, \"gpu_no\": 2, \"num_filters\": 1084.0, \"rnn_bidirectional\": true, \"rnn_hidden_size\": 41.0, \"rnn_num_layers\": 1.0, \"stride\": 1, \"txt_length\": 697.0}": {
…
      0.019675478560595577
    ],
    "valid_vector": [
      0.02196573677099447,
      0.02064821073638478,
      0.020291169678647396,
      0.021352369634897263,
      0.020023678490859287,
      0.0198354427275786,
      0.02086962758402612,
      0.020722904576927915
    ],
    "test_vector": [
      0.02178927706177237,
      0.02050712242174441,
      0.020270891418096734,
      0.021167611373640073,
      0.02006489161584677,
      0.019637596523409077,
      0.020653060834004935,
      0.020590349662500913
    ],
    "train_finish": "2018-12-18 17:42:13.455345",
    "model": "CRNN(\n  (embedding): Embedding(400000, 100)\n  (convs): ModuleList(\n    (0): Conv2d(1, 1084, kernel_size=(1, 100), stride=(1, 1))\n    (1): Conv2d(1, 1084, kernel_size=(2, 100), stride=(1, 1))\n    (2): Conv2d(1, 1084, kernel_size=(3, 100), stride=(1, 1))\n  )\n  (batch_norms): ModuleList(\n    (0): BatchNorm2d(1084, eps=1e-05, momentum=0.1, affine=True, track_running_stats=True)\n    (1): BatchNorm2d(1084, eps=1e-05, momentum=0.1, affine=True, track_running_stats=True)\n    (2): BatchNorm2d(1084, eps=1e-05, momentum=0.1, affine=True, track_running_stats=True)\n  )\n  (gru): GRU(100, 41, batch_first=True, dropout=0.49, bidirectional=True)\n  (fc1): Linear(in_features=3334, out_features=243, bias=True)\n  (fc2): Linear(in_features=243, out_features=126, bias=True)\n  (dropout): Dropout(p=0.49)\n)"
  },
  "{\"batch_norm\": false, \"bottleneck_fc_dim\": 368.0, \"cpu_mode\": false, \"dropout_pctg\": 0.07915275957243756, \"filter_sizes\": [1, 2, 3, 4, 5, 6], \"glove_dim\": 100, \"gpu_no\": 2, \"num_filters\": 654.0, \"rnn_bidirectional\": true, \"rnn_hidden_size\": 17.0, \"rnn_num_layers\": 2.0, \"stride\": 2, \"txt_length\": 535.0}": {
…
      "pAtK_1": 0.9661847014925373,
      "pAtK_3": 0.8311900319829424,
      "pAtK_5": 0.5738006396588486
    },
    "train_vector": [
      0.026212749608892753,
      0.018104393557116603,
      0.015638299493477933,
      0.013626402275529446
    ],
    "valid_vector": [
      0.019810679352788657,
      0.0183930184354813,
      0.01888108579305384,
      0.01922324783494398
    ],
    "test_vector": [
      0.019669857714126614,
      0.01834539414198795,
      0.018976088182361267,
      0.019285868930775347
    ],
    "train_finish": "2018-12-18 17:58:07.226113",
    "model": "CRNN(\n  (embedding): Embedding(400000, 100)\n  (convs): ModuleList(\n    (0): Conv2d(1, 654, kernel_size=(1, 100), stride=(2, 2))\n    (1): Conv2d(1, 654, kernel_size=(2, 100), stride=(2, 2))\n    (2): Conv2d(1, 654, kernel_size=(3, 100), stride=(2, 2))\n    (3): Conv2d(1, 654, kernel_size=(4, 100), stride=(2, 2))\n    (4): Conv2d(1, 654, kernel_size=(5, 100), stride=(2, 2))\n    (5): Conv2d(1, 654, kernel_size=(6, 100), stride=(2, 2))\n  )\n  (batch_norms): ModuleList(\n    (0): BatchNorm2d(654, eps=1e-05, momentum=0.1, affine=True, track_running_stats=True)\n    (1): BatchNorm2d(654, eps=1e-05, momentum=0.1, affine=True, track_running_stats=True)\n    (2): BatchNorm2d(654, eps=1e-05, momentum=0.1, affine=True, track_running_stats=True)\n    (3): BatchNorm2d(654, eps=1e-05, momentum=0.1, affine=True, track_running_stats=True)\n    (4): BatchNorm2d(654, eps=1e-05, momentum=0.1, affine=True, track_running_stats=True)\n    (5): BatchNorm2d(654, eps=1e-05, momentum=0.1, affine=True, track_running_stats=True)\n  )\n  (gru): GRU(100, 17, num_layers=2, batch_first=True, dropout=0.08, bidirectional=True)\n  (fc1): Linear(in_features=3992, out_features=368, bias=True)\n  (fc2): Linear(in_features=368, out_features=126, bias=True)\n  (dropout): Dropout(p=0.08)\n)"
  },
  "{\"batch_norm\": false, \"bottleneck_fc_dim\": 332.0, \"cpu_mode\": false, \"dropout_pctg\": 0.4326903202498243, \"filter_sizes\": [3, 4, 5], \"glove_dim\": 100, \"gpu_no\": 2, \"num_filters\": 1049.0, \"rnn_bidirectional\": true, \"rnn_hidden_size\": 44.0, \"rnn_num_layers\": 3.0, \"stride\": 2, \"txt_length\": 504.0}": {
…
      "pAtK_5": 0.575319829424307
    },
    "train_vector": [
      0.030440023794607234,
      0.02161625962805802,
      0.019524979425729387,
      0.018033771266268213,
      0.01680639988269156
    ],
    "valid_vector": [
      0.02095585146190118,
      0.01929095048228525,
      0.018859567879604848,
      0.019138579778219346,
      0.019007535494078617
    ],
    "test_vector": [
      0.020916369598684533,
      0.01911643638349037,
      0.01881141485229357,
      0.019366220328837697,
      0.018959124697678124
    ],
    "train_finish": "2018-12-18 18:20:31.354245",
    "model": "CRNN(\n  (embedding): Embedding(400000, 100)\n  (convs): ModuleList(\n    (0): Conv2d(1, 1049, kernel_size=(3, 100), stride=(2, 2))\n    (1): Conv2d(1, 1049, kernel_size=(4, 100), stride=(2, 2))\n    (2): Conv2d(1, 1049, kernel_size=(5, 100), stride=(2, 2))\n  )\n  (batch_norms): ModuleList(\n    (0): BatchNorm2d(1049, eps=1e-05, momentum=0.1, affine=True, track_running_stats=True)\n    (1): BatchNorm2d(1049, eps=1e-05, momentum=0.1, affine=True, track_running_stats=True)\n    (2): BatchNorm2d(1049, eps=1e-05, momentum=0.1, affine=True, track_running_stats=True)\n  )\n  (gru): GRU(100, 44, num_layers=3, batch_first=True, dropout=0.43, bidirectional=True)\n  (fc1): Linear(in_features=3411, out_features=332, bias=True)\n  (fc2): Linear(in_features=332, out_features=126, bias=True)\n  (dropout): Dropout(p=0.43)\n)"
  },
  "{\"batch_norm\": false, \"bottleneck_fc_dim\": 451.0, \"cpu_mode\": false, \"dropout_pctg\": 0.41131145815584347, \"filter_sizes\": [1, 2, 3, 4, 5, 6], \"glove_dim\": 100, \"gpu_no\": 2, \"num_filters\": 865.0, \"rnn_bidirectional\": false, \"rnn_hidden_size\": 48.0, \"rnn_num_layers\": 2.0, \"stride\": 1, \"txt_length\": 674.0}": {
…
      "pAtK_5": 0.5743536780383796
    },
    "train_vector": [
      0.030006979969842012,
      0.021556875427932404,
      0.01956974414327324,
      0.018112346216496537,
      0.01704813462752638
    ],
    "valid_vector": [
      0.02035281091763664,
      0.019073410575012013,
      0.018842792497135635,
      0.01949695093859571,
      0.019726211796137396
    ],
    "test_vector": [
      0.020166221027101663,
      0.01902618093380351,
      0.018786080020751907,
      0.019357878021768797,
      0.01972738431810316
    ],
    "train_finish": "2018-12-18 18:54:12.564830",
    "model": "CRNN(\n  (embedding): Embedding(400000, 100)\n  (convs): ModuleList(\n    (0): Conv2d(1, 865, kernel_size=(1, 100), stride=(1, 1))\n    (1): Conv2d(1, 865, kernel_size=(2, 100), stride=(1, 1))\n    (2): Conv2d(1, 865, kernel_size=(3, 100), stride=(1, 1))\n    (3): Conv2d(1, 865, kernel_size=(4, 100), stride=(1, 1))\n    (4): Conv2d(1, 865, kernel_size=(5, 100), stride=(1, 1))\n    (5): Conv2d(1, 865, kernel_size=(6, 100), stride=(1, 1))\n  )\n  (batch_norms): ModuleList(\n    (0): BatchNorm2d(865, eps=1e-05, momentum=0.1, affine=True, track_running_stats=True)\n    (1): BatchNorm2d(865, eps=1e-05, momentum=0.1, affine=True, track_running_stats=True)\n    (2): BatchNorm2d(865, eps=1e-05, momentum=0.1, affine=True, track_running_stats=True)\n    (3): BatchNorm2d(865, eps=1e-05, momentum=0.1, affine=True, track_running_stats=True)\n    (4): BatchNorm2d(865, eps=1e-05, momentum=0.1, affine=True, track_running_stats=True)\n    (5): BatchNorm2d(865, eps=1e-05, momentum=0.1, affine=True, track_running_stats=True)\n  )\n  (gru): GRU(100, 48, num_layers=2, batch_first=True, dropout=0.41)\n  (fc1): Linear(in_features=5286, out_features=451, bias=True)\n  (fc2): Linear(in_features=451, out_features=126, bias=True)\n  (dropout): Dropout(p=0.41)\n)"
  },
  "{\"batch_norm\": false, \"bottleneck_fc_dim\": 203.0, \"cpu_mode\": false, \"dropout_pctg\": 0.392690388735136, \"filter_sizes\": [2, 3, 4, 5], \"glove_dim\": 100, \"gpu_no\": 2, \"num_filters\": 771.0, \"rnn_bidirectional\": false, \"rnn_hidden_size\": 6.0, \"rnn_num_layers\": 3.0, \"stride\": 2, \"txt_length\": 666.0}": {
…
      "pAtK_5": 0.5706423240938167
    },
    "train_vector": [
      0.03292488473867093,
      0.02367783870360155,
      0.021475095498418334,
      0.019968470232760018,
      0.018813768799566807
    ],
    "valid_vector": [
      0.02189455422084294,
      0.020785761678140603,
      0.020368196935490218,
      0.020478372042105078,
      0.02125372212573286
    ],
    "test_vector": [
      0.021721983177543702,
      0.0206734141362692,
      0.020301930584521816,
      0.020325920322159335,
      0.02116754344865076
    ],
    "train_finish": "2018-12-18 19:12:25.828883",
    "model": "CRNN(\n  (embedding): Embedding(400000, 100)\n  (convs): ModuleList(\n    (0): Conv2d(1, 771, kernel_size=(2, 100), stride=(2, 2))\n    (1): Conv2d(1, 771, kernel_size=(3, 100), stride=(2, 2))\n    (2): Conv2d(1, 771, kernel_size=(4, 100), stride=(2, 2))\n    (3): Conv2d(1, 771, kernel_size=(5, 100), stride=(2, 2))\n  )\n  (batch_norms): ModuleList(\n    (0): BatchNorm2d(771, eps=1e-05, momentum=0.1, affine=True, track_running_stats=True)\n    (1): BatchNorm2d(771, eps=1e-05, momentum=0.1, affine=True, track_running_stats=True)\n    (2): BatchNorm2d(771, eps=1e-05, momentum=0.1, affine=True, track_running_stats=True)\n    (3): BatchNorm2d(771, eps=1e-05, momentum=0.1, affine=True, track_running_stats=True)\n  )\n  (gru): GRU(100, 6, num_layers=3, batch_first=True, dropout=0.39)\n  (fc1): Linear(in_features=3102, out_features=203, bias=True)\n  (fc2): Linear(in_features=203, out_features=126, bias=True)\n  (dropout): Dropout(p=0.39)\n)"
  },
  "{\"batch_norm\": false, \"bottleneck_fc_dim\": 487.0, \"cpu_mode\": false, \"dropout_pctg\": 0.4548160173506772, \"filter_sizes\": [2, 3, 4, 5], \"glove_dim\": 100, \"gpu_no\": 2, \"num_filters\": 738.0, \"rnn_bidirectional\": false, \"rnn_hidden_size\": 49.0, \"rnn_num_layers\": 3.0, \"stride\": 1, \"txt_length\": 657.0}": {
…
      "pAtK_5": 0.5738939232409381
    },
    "train_vector": [
      0.03018092767190359,
      0.021737125183862168,
      0.01982124617821244,
      0.01851684687730708,
      0.017498983462488234
    ],
    "valid_vector": [
      0.020509204577291204,
      0.019685129480767075,
      0.018658209652669712,
      0.019162303510631844,
      0.020035234628431896
    ],
    "test_vector": [
      0.02033709814704494,
      0.019373332201910298,
      0.018402161718066187,
      0.018989227775698787,
      0.019816464933155697
    ],
    "train_finish": "2018-12-18 19:38:29.425512",
    "model": "CRNN(\n  (embedding): Embedding(400000, 100)\n  (convs): ModuleList(\n    (0): Conv2d(1, 738, kernel_size=(2, 100), stride=(1, 1))\n    (1): Conv2d(1, 738, kernel_size=(3, 100), stride=(1, 1))\n    (2): Conv2d(1, 738, kernel_size=(4, 100), stride=(1, 1))\n    (3): Conv2d(1, 738, kernel_size=(5, 100), stride=(1, 1))\n  )\n  (batch_norms): ModuleList(\n    (0): BatchNorm2d(738, eps=1e-05, momentum=0.1, affine=True, track_running_stats=True)\n    (1): BatchNorm2d(738, eps=1e-05, momentum=0.1, affine=True, track_running_stats=True)\n    (2): BatchNorm2d(738, eps=1e-05, momentum=0.1, affine=True, track_running_stats=True)\n    (3): BatchNorm2d(738, eps=1e-05, momentum=0.1, affine=True, track_running_stats=True)\n  )\n  (gru): GRU(100, 49, num_layers=3, batch_first=True, dropout=0.45)\n  (fc1): Linear(in_features=3099, out_features=487, bias=True)\n  (fc2): Linear(in_features=487, out_features=126, bias=True)\n  (dropout): Dropout(p=0.45)\n)"
  },
  "{\"batch_norm\": false, \"bottleneck_fc_dim\": 386.0, \"cpu_mode\": false, \"dropout_pctg\": 0.2726717972987557, \"filter_sizes\": [3, 4, 5, 6], \"glove_dim\": 100, \"gpu_no\": 2, \"num_filters\": 696.0, \"rnn_bidirectional\": false, \"rnn_hidden_size\": 45.0, \"rnn_num_layers\": 2.0, \"stride\": 1, \"txt_length\": 705.0}": {
…
      "pAtK_5": 0.5733808635394456
    },
    "train_vector": [
      0.02837847881744692,
      0.019874684808312604,
      0.01775754495658549,
      0.016211602450328558,
      0.015007349708204018
    ],
    "valid_vector": [
      0.019641715405471147,
      0.018934810195174782,
      0.01882715611410802,
      0.019184014853536845,
      0.019759294115377267
    ],
    "test_vector": [
      0.019527591473019835,
      0.018780962023923774,
      0.01865266571476706,
      0.019121095883662006,
      0.019793699032811723
    ],
    "train_finish": "2018-12-18 20:01:25.458515",
    "model": "CRNN(\n  (embedding): Embedding(400000, 100)\n  (convs): ModuleList(\n    (0): Conv2d(1, 696, kernel_size=(3, 100), stride=(1, 1))\n    (1): Conv2d(1, 696, kernel_size=(4, 100), stride=(1, 1))\n    (2): Conv2d(1, 696, kernel_size=(5, 100), stride=(1, 1))\n    (3): Conv2d(1, 696, kernel_size=(6, 100), stride=(1, 1))\n  )\n  (batch_norms): ModuleList(\n    (0): BatchNorm2d(696, eps=1e-05, momentum=0.1, affine=True, track_running_stats=True)\n    (1): BatchNorm2d(696, eps=1e-05, momentum=0.1, affine=True, track_running_stats=True)\n    (2): BatchNorm2d(696, eps=1e-05, momentum=0.1, affine=True, track_running_stats=True)\n    (3): BatchNorm2d(696, eps=1e-05, momentum=0.1, affine=True, track_running_stats=True)\n  )\n  (gru): GRU(100, 45, num_layers=2, batch_first=True, dropout=0.27)\n  (fc1): Linear(in_features=2874, out_features=386, bias=True)\n  (fc2): Linear(in_features=386, out_features=126, bias=True)\n  (dropout): Dropout(p=0.27)\n)"
  },
  "{\"batch_norm\": false, \"bottleneck_fc_dim\": 364.0, \"cpu_mode\": false, \"dropout_pctg\": 0.19469261673385557, \"filter_sizes\": [1, 2, 3, 4, 5], \"glove_dim\": 100, \"gpu_no\": 2, \"num_filters\": 938.0, \"rnn_bidirectional\": false, \"rnn_hidden_size\": 10.0, \"rnn_num_layers\": 3.0, \"stride\": 1, \"txt_length\": 600.0}": {
…
      "pAtK_5": 0.5751199360341152
    },
    "train_vector": [
      0.027006069897985128,
      0.019147994059978874,
      0.0169707534793991,
      0.015275627498643168,
      0.013948149219122512
    ],
    "valid_vector": [
      0.01981728898993294,
      0.018726516900378576,
      0.01837504695663338,
      0.01884840457926818,
      0.01955172203062698
    ],
    "test_vector": [
      0.019725009729501915,
      0.01867193438962642,
      0.018424085267920737,
      0.018855495428019113,
      0.01945244789774865
    ],
    "train_finish": "2018-12-18 20:31:47.204293",
    "model": "CRNN(\n  (embedding): Embedding(400000, 100)\n  (convs): ModuleList(\n    (0): Conv2d(1, 938, kernel_size=(1, 100), stride=(1, 1))\n    (1): Conv2d(1, 938, kernel_size=(2, 100), stride=(1, 1))\n    (2): Conv2d(1, 938, kernel_size=(3, 100), stride=(1, 1))\n    (3): Conv2d(1, 938, kernel_size=(4, 100), stride=(1, 1))\n    (4): Conv2d(1, 938, kernel_size=(5, 100), stride=(1, 1))\n  )\n  (batch_norms): ModuleList(\n    (0): BatchNorm2d(938, eps=1e-05, momentum=0.1, affine=True, track_running_stats=True)\n    (1): BatchNorm2d(938, eps=1e-05, momentum=0.1, affine=True, track_running_stats=True)\n    (2): BatchNorm2d(938, eps=1e-05, momentum=0.1, affine=True, track_running_stats=True)\n    (3): BatchNorm2d(938, eps=1e-05, momentum=0.1, affine=True, track_running_stats=True)\n    (4): BatchNorm2d(938, eps=1e-05, momentum=0.1, affine=True, track_running_stats=True)\n  )\n  (gru): GRU(100, 10, num_layers=3, batch_first=True, dropout=0.19)\n  (fc1): Linear(in_features=4720, out_features=364, bias=True)\n  (fc2): Linear(in_features=364, out_features=126, bias=True)\n  (dropout): Dropout(p=0.19)\n)"
  },
  "{\"batch_norm\": false, \"bottleneck_fc_dim\": 253.0, \"cpu_mode\": false, \"dropout_pctg\": 0.28532167991487556, \"filter_sizes\": [2, 3, 4, 5], \"glove_dim\": 100, \"gpu_no\": 2, \"num_filters\": 1145.0, \"rnn_bidirectional\": true, \"rnn_hidden_size\": 20.0, \"rnn_num_layers\": 2.0, \"stride\": 1, \"txt_length\": 621.0}": {
…
      0.021321140994787963,
      0.019197141037748982,
      0.01765214107528611,
      0.016442954300464455,
      0.015555545691030027
    ],
    "valid_vector": [
      0.020318882482281246,
      0.019402503426040787,
      0.019361506720735774,
      0.019037442608313984,
      0.019384529422730334,
      0.02003051413451262
    ],
    "test_vector": [
      0.020181510887388735,
      0.019136148371866772,
      0.019306183016217594,
      0.01891127002558538,
      0.01945851349246019,
      0.020010822198427182
    ],
    "train_finish": "2018-12-18 21:09:17.544029",
    "model": "CRNN(\n  (embedding): Embedding(400000, 100)\n  (convs): ModuleList(\n    (0): Conv2d(1, 1145, kernel_size=(2, 100), stride=(1, 1))\n    (1): Conv2d(1, 1145, kernel_size=(3, 100), stride=(1, 1))\n    (2): Conv2d(1, 1145, kernel_size=(4, 100), stride=(1, 1))\n    (3): Conv2d(1, 1145, kernel_size=(5, 100), stride=(1, 1))\n  )\n  (batch_norms): ModuleList(\n    (0): BatchNorm2d(1145, eps=1e-05, momentum=0.1, affine=True, track_running_stats=True)\n    (1): BatchNorm2d(1145, eps=1e-05, momentum=0.1, affine=True, track_running_stats=True)\n    (2): BatchNorm2d(1145, eps=1e-05, momentum=0.1, affine=True, track_running_stats=True)\n    (3): BatchNorm2d(1145, eps=1e-05, momentum=0.1, affine=True, track_running_stats=True)\n  )\n  (gru): GRU(100, 20, num_layers=2, batch_first=True, dropout=0.29, bidirectional=True)\n  (fc1): Linear(in_features=4660, out_features=253, bias=True)\n  (fc2): Linear(in_features=253, out_features=126, bias=True)\n  (dropout): Dropout(p=0.29)\n)"
  },
  "{\"batch_norm\": false, \"bottleneck_fc_dim\": 283.0, \"cpu_mode\": false, \"dropout_pctg\": 0.41640263905986036, \"filter_sizes\": [3, 4, 5, 6], \"glove_dim\": 100, \"gpu_no\": 2, \"num_filters\": 993.0, \"rnn_bidirectional\": true, \"rnn_hidden_size\": 8.0, \"rnn_num_layers\": 1.0, \"stride\": 1, \"txt_length\": 583.0}": {
…
      "pAtK_5": 0.5742670575692964
    },
    "train_vector": [
      0.03034457240354075,
      0.021627354876932427,
      0.019669277669032967,
      0.018246885295162173,
      0.017160747790278763
    ],
    "valid_vector": [
      0.020305146481583655,
      0.019469515847187164,
      0.019157729456141623,
      0.019432398693403727,
      0.01958397280130444
    ],
    "test_vector": [
      0.020088173413295735,
      0.019316956734479362,
      0.019090459515243324,
      0.019361022615563005,
      0.019520186749634457
    ],
    "train_finish": "2018-12-18 21:32:00.968249",
    "model": "CRNN(\n  (embedding): Embedding(400000, 100)\n  (convs): ModuleList(\n    (0): Conv2d(1, 993, kernel_size=(3, 100), stride=(1, 1))\n    (1): Conv2d(1, 993, kernel_size=(4, 100), stride=(1, 1))\n    (2): Conv2d(1, 993, kernel_size=(5, 100), stride=(1, 1))\n    (3): Conv2d(1, 993, kernel_size=(6, 100), stride=(1, 1))\n  )\n  (batch_norms): ModuleList(\n    (0): BatchNorm2d(993, eps=1e-05, momentum=0.1, affine=True, track_running_stats=True)\n    (1): BatchNorm2d(993, eps=1e-05, momentum=0.1, affine=True, track_running_stats=True)\n    (2): BatchNorm2d(993, eps=1e-05, momentum=0.1, affine=True, track_running_stats=True)\n    (3): BatchNorm2d(993, eps=1e-05, momentum=0.1, affine=True, track_running_stats=True)\n  )\n  (gru): GRU(100, 8, batch_first=True, dropout=0.42, bidirectional=True)\n  (fc1): Linear(in_features=3988, out_features=283, bias=True)\n  (fc2): Linear(in_features=283, out_features=126, bias=True)\n  (dropout): Dropout(p=0.42)\n)"
  },
  "{\"batch_norm\": false, \"bottleneck_fc_dim\": 356.0, \"cpu_mode\": false, \"dropout_pctg\": 0.12707467237989717, \"filter_sizes\": [3, 4, 5, 6], \"glove_dim\": 100, \"gpu_no\": 2, \"num_filters\": 1083.0, \"rnn_bidirectional\": true, \"rnn_hidden_size\": 46.0, \"rnn_num_layers\": 2.0, \"stride\": 1, \"txt_length\": 634.0}": {
…
      "pAtK_5": 0.5757662579957356
    },
    "train_vector": [
      0.02596814519568697,
      0.017929187877796463,
      0.01577886933507547,
      0.014261164552638489,
      0.012806069945495102
    ],
    "valid_vector": [
      0.019033406058878405,
      0.017904346451229815,
      0.017747949669212063,
      0.018549835767414768,
      0.01920704715824408
    ],
    "test_vector": [
      0.019039350641228116,
      0.017753114226832192,
      0.017682627502725576,
      0.018441251699508887,
      0.01902605662706183
    ],
    "train_finish": "2018-12-18 22:06:26.485844",
    "model": "CRNN(\n  (embedding): Embedding(400000, 100)\n  (convs): ModuleList(\n    (0): Conv2d(1, 1083, kernel_size=(3, 100), stride=(1, 1))\n    (1): Conv2d(1, 1083, kernel_size=(4, 100), stride=(1, 1))\n    (2): Conv2d(1, 1083, kernel_size=(5, 100), stride=(1, 1))\n    (3): Conv2d(1, 1083, kernel_size=(6, 100), stride=(1, 1))\n  )\n  (batch_norms): ModuleList(\n    (0): BatchNorm2d(1083, eps=1e-05, momentum=0.1, affine=True, track_running_stats=True)\n    (1): BatchNorm2d(1083, eps=1e-05, momentum=0.1, affine=True, track_running_stats=True)\n    (2): BatchNorm2d(1083, eps=1e-05, momentum=0.1, affine=True, track_running_stats=True)\n    (3): BatchNorm2d(1083, eps=1e-05, momentum=0.1, affine=True, track_running_stats=True)\n  )\n  (gru): GRU(100, 46, num_layers=2, batch_first=True, dropout=0.13, bidirectional=True)\n  (fc1): Linear(in_features=4516, out_features=356, bias=True)\n  (fc2): Linear(in_features=356, out_features=126, bias=True)\n  (dropout): Dropout(p=0.13)\n)"
  },
  "{\"batch_norm\": false, \"bottleneck_fc_dim\": 216.0, \"cpu_mode\": false, \"dropout_pctg\": 0.26730722139597746, \"filter_sizes\": [1, 2, 3], \"glove_dim\": 100, \"gpu_no\": 2, \"num_filters\": 1100.0, \"rnn_bidirectional\": false, \"rnn_hidden_size\": 32.0, \"rnn_num_layers\": 1.0, \"stride\": 1, \"txt_length\": 630.0}": {
…
      0.02224388513281711,
      0.020335989174052372,
      0.019004315804052013,
      0.017931692300239138,
      0.017098385110853306
    ],
    "valid_vector": [
      0.021332768914498278,
      0.019894261672315415,
      0.019086216505158193,
      0.019065331281554986,
      0.0194089800380776,
      0.020218863193668536
    ],
    "test_vector": [
      0.021154269742876736,
      0.019828343239706208,
      0.019091362491059406,
      0.018960869217764086,
      0.019365418632862282,
      0.02007204530907592
    ],
    "train_finish": "2018-12-18 22:27:26.958317",
    "model": "CRNN(\n  (embedding): Embedding(400000, 100)\n  (convs): ModuleList(\n    (0): Conv2d(1, 1100, kernel_size=(1, 100), stride=(1, 1))\n    (1): Conv2d(1, 1100, kernel_size=(2, 100), stride=(1, 1))\n    (2): Conv2d(1, 1100, kernel_size=(3, 100), stride=(1, 1))\n  )\n  (batch_norms): ModuleList(\n    (0): BatchNorm2d(1100, eps=1e-05, momentum=0.1, affine=True, track_running_stats=True)\n    (1): BatchNorm2d(1100, eps=1e-05, momentum=0.1, affine=True, track_running_stats=True)\n    (2): BatchNorm2d(1100, eps=1e-05, momentum=0.1, affine=True, track_running_stats=True)\n  )\n  (gru): GRU(100, 32, batch_first=True, dropout=0.27)\n  (fc1): Linear(in_features=3332, out_features=216, bias=True)\n  (fc2): Linear(in_features=216, out_features=126, bias=True)\n  (dropout): Dropout(p=0.27)\n)"
  },
  "{\"batch_norm\": true, \"bottleneck_fc_dim\": 418.0, \"cpu_mode\": false, \"dropout_pctg\": 0.20692088534170366, \"filter_sizes\": [1, 2, 3], \"glove_dim\": 100, \"gpu_no\": 2, \"num_filters\": 996.0, \"rnn_bidirectional\": false, \"rnn_hidden_size\": 47.0, \"rnn_num_layers\": 2.0, \"stride\": 1, \"txt_length\": 503.0}": {
…
      0.014120700561765506
    ],
    "valid_vector": [
      0.02111465958327349,
      0.019283129394909282,
      0.018448087186969594,
      0.01783549822065165,
      0.017383881030789913,
      0.017361868388153043,
      0.017425873473265283,
      0.017748709040523163
    ],
    "test_vector": [
      0.021057344718909722,
      0.019239844861569436,
      0.018483215321435223,
      0.017898009458521026,
      0.01742102737540502,
      0.017411047539143548,
      0.01747922971844673,
      0.01787555847328895
    ],
    "train_finish": "2018-12-18 22:54:07.822625",
    "model": "CRNN(\n  (embedding): Embedding(400000, 100)\n  (convs): ModuleList(\n    (0): Conv2d(1, 996, kernel_size=(1, 100), stride=(1, 1))\n    (1): Conv2d(1, 996, kernel_size=(2, 100), stride=(1, 1))\n    (2): Conv2d(1, 996, kernel_size=(3, 100), stride=(1, 1))\n  )\n  (batch_norms): ModuleList(\n    (0): BatchNorm2d(996, eps=1e-05, momentum=0.1, affine=True, track_running_stats=True)\n    (1): BatchNorm2d(996, eps=1e-05, momentum=0.1, affine=True, track_running_stats=True)\n    (2): BatchNorm2d(996, eps=1e-05, momentum=0.1, affine=True, track_running_stats=True)\n  )\n  (gru): GRU(100, 47, num_layers=2, batch_first=True, dropout=0.21)\n  (fc1): Linear(in_features=3082, out_features=418, bias=True)\n  (fc2): Linear(in_features=418, out_features=126, bias=True)\n  (dropout): Dropout(p=0.21)\n)"
  },
  "{\"batch_norm\": false, \"bottleneck_fc_dim\": 364.0, \"cpu_mode\": false, \"dropout_pctg\": 0.3171278631222902, \"filter_sizes\": [2, 3, 4], \"glove_dim\": 100, \"gpu_no\": 2, \"num_filters\": 1174.0, \"rnn_bidirectional\": true, \"rnn_hidden_size\": 23.0, \"rnn_num_layers\": 1.0, \"stride\": 1, \"txt_length\": 737.0}": {
…
      "pAtK_5": 0.5754331023454158
    },
    "train_vector": [
      0.028422562640534044,
      0.02027701835964062,
      0.018328116775322367,
      0.016924168466040695,
      0.01578790892666979
    ],
    "valid_vector": [
      0.01989210803043852,
      0.018541235392957902,
      0.018330026469041985,
      0.018365165759955268,
      0.01874293396182394
    ],
    "test_vector": [
      0.019634915986406144,
      0.018472159930717335,
      0.018243670489376924,
      0.01829625906815915,
      0.018768431023080973
    ],
    "train_finish": "2018-12-18 23:19:19.551463",
    "model": "CRNN(\n  (embedding): Embedding(400000, 100)\n  (convs): ModuleList(\n    (0): Conv2d(1, 1174, kernel_size=(2, 100), stride=(1, 1))\n    (1): Conv2d(1, 1174, kernel_size=(3, 100), stride=(1, 1))\n    (2): Conv2d(1, 1174, kernel_size=(4, 100), stride=(1, 1))\n  )\n  (batch_norms): ModuleList(\n    (0): BatchNorm2d(1174, eps=1e-05, momentum=0.1, affine=True, track_running_stats=True)\n    (1): BatchNorm2d(1174, eps=1e-05, momentum=0.1, affine=True, track_running_stats=True)\n    (2): BatchNorm2d(1174, eps=1e-05, momentum=0.1, affine=True, track_running_stats=True)\n  )\n  (gru): GRU(100, 23, batch_first=True, dropout=0.32, bidirectional=True)\n  (fc1): Linear(in_features=3568, out_features=364, bias=True)\n  (fc2): Linear(in_features=364, out_features=126, bias=True)\n  (dropout): Dropout(p=0.32)\n)"
  },
  "{\"batch_norm\": false, \"bottleneck_fc_dim\": 256.0, \"cpu_mode\": false, \"dropout_pctg\": 0.2363829988447331, \"filter_sizes\": [2, 3, 4, 5], \"glove_dim\": 100, \"gpu_no\": 2, \"num_filters\": 918.0, \"rnn_bidirectional\": true, \"rnn_hidden_size\": 26.0, \"rnn_num_layers\": 1.0, \"stride\": 1, \"txt_length\": 675.0}": {
…
      "pAtK_1": 0.9669842750533049,
      "pAtK_3": 0.830190565031983,
      "pAtK_5": 0.5744802771855011
    },
    "train_vector": [
      0.028827267833374113,
      0.020274051164426984,
      0.018153639727822735,
      0.01663073318043332
    ],
    "valid_vector": [
      0.02051448005811075,
      0.018659543707968792,
      0.018759638498805818,
      0.019414258625001898
    ],
    "test_vector": [
      0.020364351040407666,
      0.018571052178025627,
      0.01875076610952425,
      0.01940299749279073
    ],
    "train_finish": "2018-12-18 23:39:32.509912",
    "model": "CRNN(\n  (embedding): Embedding(400000, 100)\n  (convs): ModuleList(\n    (0): Conv2d(1, 918, kernel_size=(2, 100), stride=(1, 1))\n    (1): Conv2d(1, 918, kernel_size=(3, 100), stride=(1, 1))\n    (2): Conv2d(1, 918, kernel_size=(4, 100), stride=(1, 1))\n    (3): Conv2d(1, 918, kernel_size=(5, 100), stride=(1, 1))\n  )\n  (batch_norms): ModuleList(\n    (0): BatchNorm2d(918, eps=1e-05, momentum=0.1, affine=True, track_running_stats=True)\n    (1): BatchNorm2d(918, eps=1e-05, momentum=0.1, affine=True, track_running_stats=True)\n    (2): BatchNorm2d(918, eps=1e-05, momentum=0.1, affine=True, track_running_stats=True)\n    (3): BatchNorm2d(918, eps=1e-05, momentum=0.1, affine=True, track_running_stats=True)\n  )\n  (gru): GRU(100, 26, batch_first=True, dropout=0.24, bidirectional=True)\n  (fc1): Linear(in_features=3724, out_features=256, bias=True)\n  (fc2): Linear(in_features=256, out_features=126, bias=True)\n  (dropout): Dropout(p=0.24)\n)"
  },
  "{\"batch_norm\": true, \"bottleneck_fc_dim\": 457.0, \"cpu_mode\": false, \"dropout_pctg\": 0.19272839976605166, \"filter_sizes\": [1, 2, 3, 4, 5, 6], \"glove_dim\": 100, \"gpu_no\": 2, \"num_filters\": 1194.0, \"rnn_bidirectional\": false, \"rnn_hidden_size\": 8.0, \"rnn_num_layers\": 3.0, \"stride\": 2, \"txt_length\": 715.0}": {
…
      0.021917139926205687,
      0.01922797027969357,
      0.0170560926935718,
      0.015222585144559103,
      0.0135858138549075
    ],
    "valid_vector": [
      0.022102479864138245,
      0.019982729534576856,
      0.018884927627500464,
      0.01797737553814994,
      0.01806979575141051,
      0.018668297124638862
    ],
    "test_vector": [
      0.021961335037181628,
      0.01982196015732756,
      0.018825510133510588,
      0.017885688990195676,
      0.01806535949902748,
      0.01850364622828771
    ],
    "train_finish": "2018-12-19 00:16:52.213051",
    "model": "CRNN(\n  (embedding): Embedding(400000, 100)\n  (convs): ModuleList(\n    (0): Conv2d(1, 1194, kernel_size=(1, 100), stride=(2, 2))\n    (1): Conv2d(1, 1194, kernel_size=(2, 100), stride=(2, 2))\n    (2): Conv2d(1, 1194, kernel_size=(3, 100), stride=(2, 2))\n    (3): Conv2d(1, 1194, kernel_size=(4, 100), stride=(2, 2))\n    (4): Conv2d(1, 1194, kernel_size=(5, 100), stride=(2, 2))\n    (5): Conv2d(1, 1194, kernel_size=(6, 100), stride=(2, 2))\n  )\n  (batch_norms): ModuleList(\n    (0): BatchNorm2d(1194, eps=1e-05, momentum=0.1, affine=True, track_running_stats=True)\n    (1): BatchNorm2d(1194, eps=1e-05, momentum=0.1, affine=True, track_running_stats=True)\n    (2): BatchNorm2d(1194, eps=1e-05, momentum=0.1, affine=True, track_running_stats=True)\n    (3): BatchNorm2d(1194, eps=1e-05, momentum=0.1, affine=True, track_running_stats=True)\n    (4): BatchNorm2d(1194, eps=1e-05, momentum=0.1, affine=True, track_running_stats=True)\n    (5): BatchNorm2d(1194, eps=1e-05, momentum=0.1, affine=True, track_running_stats=True)\n  )\n  (gru): GRU(100, 8, num_layers=3, batch_first=True, dropout=0.19)\n  (fc1): Linear(in_features=7188, out_features=457, bias=True)\n  (fc2): Linear(in_features=457, out_features=126, bias=True)\n  (dropout): Dropout(p=0.19)\n)"
  },
  "{\"batch_norm\": true, \"bottleneck_fc_dim\": 414.0, \"cpu_mode\": false, \"dropout_pctg\": 0.3388195316000127, \"filter_sizes\": [1, 2, 3], \"glove_dim\": 100, \"gpu_no\": 2, \"num_filters\": 816.0, \"rnn_bidirectional\": false, \"rnn_hidden_size\": 36.0, \"rnn_num_layers\": 3.0, \"stride\": 1, \"txt_length\": 545.0}": {
…
      0.0168610662348636
    ],
    "valid_vector": [
      0.02167307034801088,
      0.019996895328355725,
      0.01894205022625117,
      0.0183447321367039,
      0.018197927390536002,
      0.017839998272788732,
      0.018022347865107435,
      0.018320280428442644
    ],
    "test_vector": [
      0.02150371524173695,
      0.019815099840638225,
      0.018895369622784892,
      0.018230198644228708,
      0.018066660874386204,
      0.017744521209314815,
      0.018009002252952502,
      0.018291462989234085
    ],
    "train_finish": "2018-12-19 00:47:09.160255",
    "model": "CRNN(\n  (embedding): Embedding(400000, 100)\n  (convs): ModuleList(\n    (0): Conv2d(1, 816, kernel_size=(1, 100), stride=(1, 1))\n    (1): Conv2d(1, 816, kernel_size=(2, 100), stride=(1, 1))\n    (2): Conv2d(1, 816, kernel_size=(3, 100), stride=(1, 1))\n  )\n  (batch_norms): ModuleList(\n    (0): BatchNorm2d(816, eps=1e-05, momentum=0.1, affine=True, track_running_stats=True)\n    (1): BatchNorm2d(816, eps=1e-05, momentum=0.1, affine=True, track_running_stats=True)\n    (2): BatchNorm2d(816, eps=1e-05, momentum=0.1, affine=True, track_running_stats=True)\n  )\n  (gru): GRU(100, 36, num_layers=3, batch_first=True, dropout=0.34)\n  (fc1): Linear(in_features=2556, out_features=414, bias=True)\n  (fc2): Linear(in_features=414, out_features=126, bias=True)\n  (dropout): Dropout(p=0.34)\n)"
  },
  "{\"batch_norm\": true, \"bottleneck_fc_dim\": 323.0, \"cpu_mode\": false, \"dropout_pctg\": 0.1551273394021332, \"filter_sizes\": [1, 2, 3], \"glove_dim\": 100, \"gpu_no\": 2, \"num_filters\": 955.0, \"rnn_bidirectional\": false, \"rnn_hidden_size\": 37.0, \"rnn_num_layers\": 2.0, \"stride\": 1, \"txt_length\": 777.0}": {
…
      0.014404350690933276
    ],
    "valid_vector": [
      0.021494646032930595,
      0.019769188198970875,
      0.018629210350264522,
      0.017853112135609705,
      0.01764746448337865,
      0.017277040106898695,
      0.017359878225842798,
      0.01800785296304183
    ],
    "test_vector": [
      0.02131264270749936,
      0.01957199956649847,
      0.018473192143923185,
      0.017734096226677584,
      0.01748925511206963,
      0.017159997457777385,
      0.017232755053121208,
      0.01780932918607966
    ],
    "train_finish": "2018-12-19 01:28:44.868974",
    "model": "CRNN(\n  (embedding): Embedding(400000, 100)\n  (convs): ModuleList(\n    (0): Conv2d(1, 955, kernel_size=(1, 100), stride=(1, 1))\n    (1): Conv2d(1, 955, kernel_size=(2, 100), stride=(1, 1))\n    (2): Conv2d(1, 955, kernel_size=(3, 100), stride=(1, 1))\n  )\n  (batch_norms): ModuleList(\n    (0): BatchNorm2d(955, eps=1e-05, momentum=0.1, affine=True, track_running_stats=True)\n    (1): BatchNorm2d(955, eps=1e-05, momentum=0.1, affine=True, track_running_stats=True)\n    (2): BatchNorm2d(955, eps=1e-05, momentum=0.1, affine=True, track_running_stats=True)\n  )\n  (gru): GRU(100, 37, num_layers=2, batch_first=True, dropout=0.16)\n  (fc1): Linear(in_features=2939, out_features=323, bias=True)\n  (fc2): Linear(in_features=323, out_features=126, bias=True)\n  (dropout): Dropout(p=0.16)\n)"
  },
  "{\"batch_norm\": true, \"bottleneck_fc_dim\": 327.0, \"cpu_mode\": false, \"dropout_pctg\": 0.010257823286940554, \"filter_sizes\": [1, 2, 3], \"glove_dim\": 100, \"gpu_no\": 2, \"num_filters\": 964.0, \"rnn_bidirectional\": false, \"rnn_hidden_size\": 37.0, \"rnn_num_layers\": 2.0, \"stride\": 1, \"txt_length\": 796.0}": {
…
      0.011899719611873796
    ],
    "valid_vector": [
      0.02171512199977814,
      0.01911346468767191,
      0.018182424302307217,
      0.017495048213884163,
      0.017239868828864482,
      0.017221752798675237,
      0.017453458348375018,
      0.01815923201210642
    ],
    "test_vector": [
      0.021400763919310912,
      0.018846937189144746,
      0.01789015189988781,
      0.017285372168302282,
      0.017075792842630003,
      0.016999583025135274,
      0.017288998278703834,
      0.017788518957896973
    ],
    "train_finish": "2018-12-19 02:11:38.785673",
    "model": "CRNN(\n  (embedding): Embedding(400000, 100)\n  (convs): ModuleList(\n    (0): Conv2d(1, 964, kernel_size=(1, 100), stride=(1, 1))\n    (1): Conv2d(1, 964, kernel_size=(2, 100), stride=(1, 1))\n    (2): Conv2d(1, 964, kernel_size=(3, 100), stride=(1, 1))\n  )\n  (batch_norms): ModuleList(\n    (0): BatchNorm2d(964, eps=1e-05, momentum=0.1, affine=True, track_running_stats=True)\n    (1): BatchNorm2d(964, eps=1e-05, momentum=0.1, affine=True, track_running_stats=True)\n    (2): BatchNorm2d(964, eps=1e-05, momentum=0.1, affine=True, track_running_stats=True)\n  )\n  (gru): GRU(100, 37, num_layers=2, batch_first=True, dropout=0.01)\n  (fc1): Linear(in_features=2966, out_features=327, bias=True)\n  (fc2): Linear(in_features=327, out_features=126, bias=True)\n  (dropout): Dropout(p=0.01)\n)"
  },
  "{\"batch_norm\": true, \"bottleneck_fc_dim\": 317.0, \"cpu_mode\": false, \"dropout_pctg\": 0.017765281781168596, \"filter_sizes\": [1, 2, 3], \"glove_dim\": 100, \"gpu_no\": 2, \"num_filters\": 948.0, \"rnn_bidirectional\": false, \"rnn_hidden_size\": 36.0, \"rnn_num_layers\": 2.0, \"stride\": 1, \"txt_length\": 798.0}": {
…
      0.015117413961709245,
      0.013996978132715181,
      0.012973317223687516
    ],
    "valid_vector": [
      0.021232228234672405,
      0.019092354788951306,
      0.018165939714762568,
      0.017710226770641328,
      0.017367384245265214,
      0.017463130419386297,
      0.01739076985266439
    ],
    "test_vector": [
      0.02097041610239157,
      0.0188537792010761,
      0.017937100551990683,
      0.01758014882352751,
      0.017127468675645047,
      0.017158119297866373,
      0.017121192650682827
    ],
    "train_finish": "2018-12-19 02:48:42.341265",
    "model": "CRNN(\n  (embedding): Embedding(400000, 100)\n  (convs): ModuleList(\n    (0): Conv2d(1, 948, kernel_size=(1, 100), stride=(1, 1))\n    (1): Conv2d(1, 948, kernel_size=(2, 100), stride=(1, 1))\n    (2): Conv2d(1, 948, kernel_size=(3, 100), stride=(1, 1))\n  )\n  (batch_norms): ModuleList(\n    (0): BatchNorm2d(948, eps=1e-05, momentum=0.1, affine=True, track_running_stats=True)\n    (1): BatchNorm2d(948, eps=1e-05, momentum=0.1, affine=True, track_running_stats=True)\n    (2): BatchNorm2d(948, eps=1e-05, momentum=0.1, affine=True, track_running_stats=True)\n  )\n  (gru): GRU(100, 36, num_layers=2, batch_first=True, dropout=0.02)\n  (fc1): Linear(in_features=2916, out_features=317, bias=True)\n  (fc2): Linear(in_features=317, out_features=126, bias=True)\n  (dropout): Dropout(p=0.02)\n)"
  },
  "{\"batch_norm\": true, \"bottleneck_fc_dim\": 300.0, \"cpu_mode\": false, \"dropout_pctg\": 0.015555804812547924, \"filter_sizes\": [1, 2, 3], \"glove_dim\": 100, \"gpu_no\": 2, \"num_filters\": 874.0, \"rnn_bidirectional\": false, \"rnn_hidden_size\": 32.0, \"rnn_num_layers\": 2.0, \"stride\": 1, \"txt_length\": 777.0}": {
…
      0.015406621778965306,
      0.014303743122321959,
      0.013345044876921926
    ],
    "valid_vector": [
      0.0214661040240581,
      0.01913560252921628,
      0.018231724159790078,
      0.01768590920385835,
      0.017324889701396933,
      0.01759508366399665,
      0.017385729771878904
    ],
    "test_vector": [
      0.021160899101496378,
      0.018939386578654047,
      0.018025711347569407,
      0.017572508973957124,
      0.017190568715032103,
      0.017400283989971125,
      0.017250943829668866
    ],
    "train_finish": "2018-12-19 03:22:00.916457",
    "model": "CRNN(\n  (embedding): Embedding(400000, 100)\n  (convs): ModuleList(\n    (0): Conv2d(1, 874, kernel_size=(1, 100), stride=(1, 1))\n    (1): Conv2d(1, 874, kernel_size=(2, 100), stride=(1, 1))\n    (2): Conv2d(1, 874, kernel_size=(3, 100), stride=(1, 1))\n  )\n  (batch_norms): ModuleList(\n    (0): BatchNorm2d(874, eps=1e-05, momentum=0.1, affine=True, track_running_stats=True)\n    (1): BatchNorm2d(874, eps=1e-05, momentum=0.1, affine=True, track_running_stats=True)\n    (2): BatchNorm2d(874, eps=1e-05, momentum=0.1, affine=True, track_running_stats=True)\n  )\n  (gru): GRU(100, 32, num_layers=2, batch_first=True, dropout=0.02)\n  (fc1): Linear(in_features=2686, out_features=300, bias=True)\n  (fc2): Linear(in_features=300, out_features=126, bias=True)\n  (dropout): Dropout(p=0.02)\n)"
  },
  "{\"batch_norm\": true, \"bottleneck_fc_dim\": 281.0, \"cpu_mode\": false, \"dropout_pctg\": 0.16170939543889404, \"filter_sizes\": [1, 2, 3, 4, 5], \"glove_dim\": 100, \"gpu_no\": 2, \"num_filters\": 818.0, \"rnn_bidirectional\": false, \"rnn_hidden_size\": 39.0, \"rnn_num_layers\": 2.0, \"stride\": 1, \"txt_length\": 762.0}": {
…
      0.017214955085403463,
      0.015932220415104868,
      0.014770702124456999
    ],
    "valid_vector": [
      0.021402076599366868,
      0.02036796962526609,
      0.01873354387664691,
      0.018019366816534148,
      0.01790486058559833,
      0.018016075730564067,
      0.018222398980498822
    ],
    "test_vector": [
      0.021250163687508244,
      0.02008837629864211,
      0.018470497220071522,
      0.01784236469605902,
      0.017525032478402546,
      0.017768060383416696,
      0.017888598706025178
    ],
    "train_finish": "2018-12-19 04:08:09.705875",
    "model": "CRNN(\n  (embedding): Embedding(400000, 100)\n  (convs): ModuleList(\n    (0): Conv2d(1, 818, kernel_size=(1, 100), stride=(1, 1))\n    (1): Conv2d(1, 818, kernel_size=(2, 100), stride=(1, 1))\n    (2): Conv2d(1, 818, kernel_size=(3, 100), stride=(1, 1))\n    (3): Conv2d(1, 818, kernel_size=(4, 100), stride=(1, 1))\n    (4): Conv2d(1, 818, kernel_size=(5, 100), stride=(1, 1))\n  )\n  (batch_norms): ModuleList(\n    (0): BatchNorm2d(818, eps=1e-05, momentum=0.1, affine=True, track_running_stats=True)\n    (1): BatchNorm2d(818, eps=1e-05, momentum=0.1, affine=True, track_running_stats=True)\n    (2): BatchNorm2d(818, eps=1e-05, momentum=0.1, affine=True, track_running_stats=True)\n    (3): BatchNorm2d(818, eps=1e-05, momentum=0.1, affine=True, track_running_stats=True)\n    (4): BatchNorm2d(818, eps=1e-05, momentum=0.1, affine=True, track_running_stats=True)\n  )\n  (gru): GRU(100, 39, num_layers=2, batch_first=True, dropout=0.16)\n  (fc1): Linear(in_features=4168, out_features=281, bias=True)\n  (fc2): Linear(in_features=281, out_features=126, bias=True)\n  (dropout): Dropout(p=0.16)\n)"
  },
  "{\"batch_norm\": true, \"bottleneck_fc_dim\": 327.0, \"cpu_mode\": false, \"dropout_pctg\": 0.03944953297294092, \"filter_sizes\": [2, 3, 4], \"glove_dim\": 100, \"gpu_no\": 2, \"num_filters\": 992.0, \"rnn_bidirectional\": false, \"rnn_hidden_size\": 32.0, \"rnn_num_layers\": 2.0, \"stride\": 1, \"txt_length\": 798.0}": {
…
      0.015367142732251185,
      0.014013480013156889,
      0.01286049640768286
    ],
    "valid_vector": [
      0.021231941970637137,
      0.019675073895364135,
      0.01878465750743188,
      0.018222792553770017,
      0.017518062799447166,
      0.017774684822682275,
      0.01801628801148327
    ],
    "test_vector": [
      0.02091812908546185,
      0.019350604074739063,
      0.018350430390934574,
      0.017894547630244416,
      0.017297579133426392,
      0.017558202358967524,
      0.017713425103138124
    ],
    "train_finish": "2018-12-19 04:45:31.788477",
    "model": "CRNN(\n  (embedding): Embedding(400000, 100)\n  (convs): ModuleList(\n    (0): Conv2d(1, 992, kernel_size=(2, 100), stride=(1, 1))\n    (1): Conv2d(1, 992, kernel_size=(3, 100), stride=(1, 1))\n    (2): Conv2d(1, 992, kernel_size=(4, 100), stride=(1, 1))\n  )\n  (batch_norms): ModuleList(\n    (0): BatchNorm2d(992, eps=1e-05, momentum=0.1, affine=True, track_running_stats=True)\n    (1): BatchNorm2d(992, eps=1e-05, momentum=0.1, affine=True, track_running_stats=True)\n    (2): BatchNorm2d(992, eps=1e-05, momentum=0.1, affine=True, track_running_stats=True)\n  )\n  (gru): GRU(100, 32, num_layers=2, batch_first=True, dropout=0.04)\n  (fc1): Linear(in_features=3040, out_features=327, bias=True)\n  (fc2): Linear(in_features=327, out_features=126, bias=True)\n  (dropout): Dropout(p=0.04)\n)"
  },
  "{\"batch_norm\": true, \"bottleneck_fc_dim\": 299.0, \"cpu_mode\": false, \"dropout_pctg\": 0.13866563755809866, \"filter_sizes\": [1, 2, 3], \"glove_dim\": 100, \"gpu_no\": 2, \"num_filters\": 953.0, \"rnn_bidirectional\": false, \"rnn_hidden_size\": 28.0, \"rnn_num_layers\": 2.0, \"stride\": 1, \"txt_length\": 767.0}": {
…
      0.01450745741292047
    ],
    "valid_vector": [
      0.021203027451351317,
      0.01984190694969902,
      0.018618531642915572,
      0.018282682984880706,
      0.017766364334922617,
      0.017707420321656012,
      0.01780553375368815,
      0.018062132805313314
    ],
    "test_vector": [
      0.02105431802777339,
      0.019602206209972342,
      0.018441072551966475,
      0.01805258850489598,
      0.017607333216029825,
      0.017605773012425854,
      0.01765812937813654,
      0.017899784280348625
    ],
    "train_finish": "2018-12-19 05:25:50.341034",
    "model": "CRNN(\n  (embedding): Embedding(400000, 100)\n  (convs): ModuleList(\n    (0): Conv2d(1, 953, kernel_size=(1, 100), stride=(1, 1))\n    (1): Conv2d(1, 953, kernel_size=(2, 100), stride=(1, 1))\n    (2): Conv2d(1, 953, kernel_size=(3, 100), stride=(1, 1))\n  )\n  (batch_norms): ModuleList(\n    (0): BatchNorm2d(953, eps=1e-05, momentum=0.1, affine=True, track_running_stats=True)\n    (1): BatchNorm2d(953, eps=1e-05, momentum=0.1, affine=True, track_running_stats=True)\n    (2): BatchNorm2d(953, eps=1e-05, momentum=0.1, affine=True, track_running_stats=True)\n  )\n  (gru): GRU(100, 28, num_layers=2, batch_first=True, dropout=0.14)\n  (fc1): Linear(in_features=2915, out_features=299, bias=True)\n  (fc2): Linear(in_features=299, out_features=126, bias=True)\n  (dropout): Dropout(p=0.14)\n)"
  },
  "{\"batch_norm\": true, \"bottleneck_fc_dim\": 341.0, \"cpu_mode\": false, \"dropout_pctg\": 0.08849024698319236, \"filter_sizes\": [1, 2, 3], \"glove_dim\": 100, \"gpu_no\": 2, \"num_filters\": 1133.0, \"rnn_bidirectional\": false, \"rnn_hidden_size\": 37.0, \"rnn_num_layers\": 2.0, \"stride\": 2, \"txt_length\": 739.0}": {
…
      0.021408072825354247,
      0.01923512797424989,
      0.017583358129377107,
      0.016190227527512296,
      0.014941713975229585
    ],
    "valid_vector": [
      0.021371576897571607,
      0.020004098511872882,
      0.019024966417430546,
      0.01817798231218779,
      0.018369090003790514,
      0.018408975109203793
    ],
    "test_vector": [
      0.021087213749014365,
      0.01982965452799093,
      0.01891940264408586,
      0.01809635292738676,
      0.018404137265723524,
      0.01825218740850687
    ],
    "train_finish": "2018-12-19 05:45:29.813693",
    "model": "CRNN(\n  (embedding): Embedding(400000, 100)\n  (convs): ModuleList(\n    (0): Conv2d(1, 1133, kernel_size=(1, 100), stride=(2, 2))\n    (1): Conv2d(1, 1133, kernel_size=(2, 100), stride=(2, 2))\n    (2): Conv2d(1, 1133, kernel_size=(3, 100), stride=(2, 2))\n  )\n  (batch_norms): ModuleList(\n    (0): BatchNorm2d(1133, eps=1e-05, momentum=0.1, affine=True, track_running_stats=True)\n    (1): BatchNorm2d(1133, eps=1e-05, momentum=0.1, affine=True, track_running_stats=True)\n    (2): BatchNorm2d(1133, eps=1e-05, momentum=0.1, affine=True, track_running_stats=True)\n  )\n  (gru): GRU(100, 37, num_layers=2, batch_first=True, dropout=0.09)\n  (fc1): Linear(in_features=3473, out_features=341, bias=True)\n  (fc2): Linear(in_features=341, out_features=126, bias=True)\n  (dropout): Dropout(p=0.09)\n)"
  },
  "{\"batch_norm\": true, \"bottleneck_fc_dim\": 274.0, \"cpu_mode\": false, \"dropout_pctg\": 0.04386593322189031, \"filter_sizes\": [1, 2, 3], \"glove_dim\": 100, \"gpu_no\": 2, \"num_filters\": 821.0, \"rnn_bidirectional\": false, \"rnn_hidden_size\": 29.0, \"rnn_num_layers\": 1.0, \"stride\": 1, \"txt_length\": 785.0}": {
…
      0.012997313425966276
    ],
    "valid_vector": [
      0.021218038418256778,
      0.019679593999854236,
      0.018138979425353967,
      0.017994073145379468,
      0.017648539209648022,
      0.01738901727851222,
      0.017445337797663035,
      0.017725943407016016
    ],
    "test_vector": [
      0.020938147359819553,
      0.019432775271154924,
      0.017874192936953578,
      0.01779134852736235,
      0.01745759880841414,
      0.017273611303712768,
      0.017261026397363335,
      0.01744903822832588
    ],
    "train_finish": "2018-12-19 06:16:51.402392",
    "model": "CRNN(\n  (embedding): Embedding(400000, 100)\n  (convs): ModuleList(\n    (0): Conv2d(1, 821, kernel_size=(1, 100), stride=(1, 1))\n    (1): Conv2d(1, 821, kernel_size=(2, 100), stride=(1, 1))\n    (2): Conv2d(1, 821, kernel_size=(3, 100), stride=(1, 1))\n  )\n  (batch_norms): ModuleList(\n    (0): BatchNorm2d(821, eps=1e-05, momentum=0.1, affine=True, track_running_stats=True)\n    (1): BatchNorm2d(821, eps=1e-05, momentum=0.1, affine=True, track_running_stats=True)\n    (2): BatchNorm2d(821, eps=1e-05, momentum=0.1, affine=True, track_running_stats=True)\n  )\n  (gru): GRU(100, 29, batch_first=True, dropout=0.04)\n  (fc1): Linear(in_features=2492, out_features=274, bias=True)\n  (fc2): Linear(in_features=274, out_features=126, bias=True)\n  (dropout): Dropout(p=0.04)\n)"
  },
  "{\"batch_norm\": true, \"bottleneck_fc_dim\": 316.0, \"cpu_mode\": false, \"dropout_pctg\": 0.15932970480619224, \"filter_sizes\": [3, 4, 5], \"glove_dim\": 100, \"gpu_no\": 2, \"num_filters\": 1031.0, \"rnn_bidirectional\": false, \"rnn_hidden_size\": 34.0, \"rnn_num_layers\": 2.0, \"stride\": 2, \"txt_length\": 756.0}": {
…
      0.021852974432770046,
      0.019336361417908662,
      0.01734604372463031,
      0.01562925926489177,
      0.014113331844497437
    ],
    "valid_vector": [
      0.021915120421164135,
      0.019773061221677945,
      0.019038327234878596,
      0.01843613102140505,
      0.018591264405894453,
      0.018469298989432597
    ],
    "test_vector": [
      0.02158262549059541,
      0.019552885125806208,
      0.018785908520380572,
      0.018091616335946487,
      0.01833040113729645,
      0.018177671044238848
    ],
    "train_finish": "2018-12-19 06:36:57.849666",
    "model": "CRNN(\n  (embedding): Embedding(400000, 100)\n  (convs): ModuleList(\n    (0): Conv2d(1, 1031, kernel_size=(3, 100), stride=(2, 2))\n    (1): Conv2d(1, 1031, kernel_size=(4, 100), stride=(2, 2))\n    (2): Conv2d(1, 1031, kernel_size=(5, 100), stride=(2, 2))\n  )\n  (batch_norms): ModuleList(\n    (0): BatchNorm2d(1031, eps=1e-05, momentum=0.1, affine=True, track_running_stats=True)\n    (1): BatchNorm2d(1031, eps=1e-05, momentum=0.1, affine=True, track_running_stats=True)\n    (2): BatchNorm2d(1031, eps=1e-05, momentum=0.1, affine=True, track_running_stats=True)\n  )\n  (gru): GRU(100, 34, num_layers=2, batch_first=True, dropout=0.16)\n  (fc1): Linear(in_features=3161, out_features=316, bias=True)\n  (fc2): Linear(in_features=316, out_features=126, bias=True)\n  (dropout): Dropout(p=0.16)\n)"
  },
  "{\"batch_norm\": true, \"bottleneck_fc_dim\": 392.0, \"cpu_mode\": false, \"dropout_pctg\": 0.22757328664037663, \"filter_sizes\": [2, 3, 4], \"glove_dim\": 100, \"gpu_no\": 2, \"num_filters\": 962.0, \"rnn_bidirectional\": false, \"rnn_hidden_size\": 40.0, \"rnn_num_layers\": 3.0, \"stride\": 1, \"txt_length\": 798.0}": {
…
      0.017132801948370673,
      0.016000909001363705,
      0.015010987313910564
    ],
    "valid_vector": [
      0.021670247872185303,
      0.019438618630382307,
      0.018537029325872707,
      0.01784028599474595,
      0.01758028085860831,
      0.017851619343116965,
      0.01786760777166274
    ],
    "test_vector": [
      0.02137057712353242,
      0.019225322732777356,
      0.018335577640642742,
      0.01770207603205877,
      0.01743419708680115,
      0.017642301339497252,
      0.017528573138468555
    ],
    "train_finish": "2018-12-19 07:20:14.139330",
    "model": "CRNN(\n  (embedding): Embedding(400000, 100)\n  (convs): ModuleList(\n    (0): Conv2d(1, 962, kernel_size=(2, 100), stride=(1, 1))\n    (1): Conv2d(1, 962, kernel_size=(3, 100), stride=(1, 1))\n    (2): Conv2d(1, 962, kernel_size=(4, 100), stride=(1, 1))\n  )\n  (batch_norms): ModuleList(\n    (0): BatchNorm2d(962, eps=1e-05, momentum=0.1, affine=True, track_running_stats=True)\n    (1): BatchNorm2d(962, eps=1e-05, momentum=0.1, affine=True, track_running_stats=True)\n    (2): BatchNorm2d(962, eps=1e-05, momentum=0.1, affine=True, track_running_stats=True)\n  )\n  (gru): GRU(100, 40, num_layers=3, batch_first=True, dropout=0.23)\n  (fc1): Linear(in_features=3006, out_features=392, bias=True)\n  (fc2): Linear(in_features=392, out_features=126, bias=True)\n  (dropout): Dropout(p=0.23)\n)"
  },
  "{\"batch_norm\": true, \"bottleneck_fc_dim\": 436.0, \"cpu_mode\": false, \"dropout_pctg\": 0.09467678078372935, \"filter_sizes\": [1, 2, 3], \"glove_dim\": 100, \"gpu_no\": 2, \"num_filters\": 911.0, \"rnn_bidirectional\": false, \"rnn_hidden_size\": 25.0, \"rnn_num_layers\": 2.0, \"stride\": 1, \"txt_length\": 743.0}": {
…
      0.012942862100208431
    ],
    "valid_vector": [
      0.02058049852648047,
      0.019055495103910518,
      0.018476982043546215,
      0.017621155780206905,
      0.017431028207504886,
      0.017318838306872458,
      0.01764051808010308,
      0.017895240697630946
    ],
    "test_vector": [
      0.020518517931863697,
      0.018862066715002568,
      0.01826216264375682,
      0.017572301223492827,
      0.017266563528072414,
      0.01716976135826187,
      0.017339488473544117,
      0.01762537189574638
    ],
    "train_finish": "2018-12-19 07:58:50.583814",
    "model": "CRNN(\n  (embedding): Embedding(400000, 100)\n  (convs): ModuleList(\n    (0): Conv2d(1, 911, kernel_size=(1, 100), stride=(1, 1))\n    (1): Conv2d(1, 911, kernel_size=(2, 100), stride=(1, 1))\n    (2): Conv2d(1, 911, kernel_size=(3, 100), stride=(1, 1))\n  )\n  (batch_norms): ModuleList(\n    (0): BatchNorm2d(911, eps=1e-05, momentum=0.1, affine=True, track_running_stats=True)\n    (1): BatchNorm2d(911, eps=1e-05, momentum=0.1, affine=True, track_running_stats=True)\n    (2): BatchNorm2d(911, eps=1e-05, momentum=0.1, affine=True, track_running_stats=True)\n  )\n  (gru): GRU(100, 25, num_layers=2, batch_first=True, dropout=0.09)\n  (fc1): Linear(in_features=2783, out_features=436, bias=True)\n  (fc2): Linear(in_features=436, out_features=126, bias=True)\n  (dropout): Dropout(p=0.09)\n)"
  },
  "{\"batch_norm\": true, \"bottleneck_fc_dim\": 388.0, \"cpu_mode\": false, \"dropout_pctg\": 0.056615391819768615, \"filter_sizes\": [1, 2, 3, 4, 5], \"glove_dim\": 100, \"gpu_no\": 2, \"num_filters\": 1046.0, \"rnn_bidirectional\": false, \"rnn_hidden_size\": 43.0, \"rnn_num_layers\": 1.0, \"stride\": 1, \"txt_length\": 715.0}": {
…
      0.020497409122416564,
      0.018158444328921407,
      0.016303183561093556,
      0.01470972079581908,
      0.013225890556151563
    ],
    "valid_vector": [
      0.02164826664908815,
      0.019007307482135694,
      0.017932511985362536,
      0.01733061642339354,
      0.017447788433208048,
      0.01746548488849093
    ],
    "test_vector": [
      0.02145231384903129,
      0.018741686343908437,
      0.017746009021949793,
      0.01713590034599434,
      0.0173148792415762,
      0.01728977807072688
    ],
    "train_finish": "2018-12-19 08:40:10.911628",
    "model": "CRNN(\n  (embedding): Embedding(400000, 100)\n  (convs): ModuleList(\n    (0): Conv2d(1, 1046, kernel_size=(1, 100), stride=(1, 1))\n    (1): Conv2d(1, 1046, kernel_size=(2, 100), stride=(1, 1))\n    (2): Conv2d(1, 1046, kernel_size=(3, 100), stride=(1, 1))\n    (3): Conv2d(1, 1046, kernel_size=(4, 100), stride=(1, 1))\n    (4): Conv2d(1, 1046, kernel_size=(5, 100), stride=(1, 1))\n  )\n  (batch_norms): ModuleList(\n    (0): BatchNorm2d(1046, eps=1e-05, momentum=0.1, affine=True, track_running_stats=True)\n    (1): BatchNorm2d(1046, eps=1e-05, momentum=0.1, affine=True, track_running_stats=True)\n    (2): BatchNorm2d(1046, eps=1e-05, momentum=0.1, affine=True, track_running_stats=True)\n    (3): BatchNorm2d(1046, eps=1e-05, momentum=0.1, affine=True, track_running_stats=True)\n    (4): BatchNorm2d(1046, eps=1e-05, momentum=0.1, affine=True, track_running_stats=True)\n  )\n  (gru): GRU(100, 43, batch_first=True, dropout=0.06)\n  (fc1): Linear(in_features=5273, out_features=388, bias=True)\n  (fc2): Linear(in_features=388, out_features=126, bias=True)\n  (dropout): Dropout(p=0.06)\n)"
  },
  "{\"batch_norm\": true, \"bottleneck_fc_dim\": 297.0, \"cpu_mode\": false, \"dropout_pctg\": 0.3556901069383091, \"filter_sizes\": [3, 4, 5], \"glove_dim\": 100, \"gpu_no\": 2, \"num_filters\": 888.0, \"rnn_bidirectional\": false, \"rnn_hidden_size\": 14.0, \"rnn_num_layers\": 2.0, \"stride\": 2, \"txt_length\": 695.0}": {
…
      0.020448890240095642,
      0.01909721453983253,
      0.01811205772454418
    ],
    "valid_vector": [
      0.023489069197573133,
      0.021739598437111134,
      0.020617000323765948,
      0.020121105355463787,
      0.019620259996748834,
      0.019974626257825992,
      0.01981336684206993
    ],
    "test_vector": [
      0.023146472424507014,
      0.02147092427144935,
      0.020442836846449354,
      0.01982170684155879,
      0.01939651085091616,
      0.01972866568690551,
      0.01964177793737795
    ],
    "train_finish": "2018-12-19 08:59:46.500237",
    "model": "CRNN(\n  (embedding): Embedding(400000, 100)\n  (convs): ModuleList(\n    (0): Conv2d(1, 888, kernel_size=(3, 100), stride=(2, 2))\n    (1): Conv2d(1, 888, kernel_size=(4, 100), stride=(2, 2))\n    (2): Conv2d(1, 888, kernel_size=(5, 100), stride=(2, 2))\n  )\n  (batch_norms): ModuleList(\n    (0): BatchNorm2d(888, eps=1e-05, momentum=0.1, affine=True, track_running_stats=True)\n    (1): BatchNorm2d(888, eps=1e-05, momentum=0.1, affine=True, track_running_stats=True)\n    (2): BatchNorm2d(888, eps=1e-05, momentum=0.1, affine=True, track_running_stats=True)\n  )\n  (gru): GRU(100, 14, num_layers=2, batch_first=True, dropout=0.36)\n  (fc1): Linear(in_features=2692, out_features=297, bias=True)\n  (fc2): Linear(in_features=297, out_features=126, bias=True)\n  (dropout): Dropout(p=0.36)\n)"
  },
  "{\"batch_norm\": true, \"bottleneck_fc_dim\": 227.0, \"cpu_mode\": false, \"dropout_pctg\": 0.15924337503357325, \"filter_sizes\": [1, 2, 3], \"glove_dim\": 100, \"gpu_no\": 2, \"num_filters\": 604.0, \"rnn_bidirectional\": false, \"rnn_hidden_size\": 38.0, \"rnn_num_layers\": 1.0, \"stride\": 1, \"txt_length\": 782.0}": {
…
      0.018431855683695035,
      0.01752686780915181,
      0.01669720509347954
    ],
    "valid_vector": [
      0.021576836662762153,
      0.019834419194140286,
      0.019325781223137797,
      0.018605525015360877,
      0.017998954391917153,
      0.01811652665380448,
      0.01812046823731717
    ],
    "test_vector": [
      0.02146284731982677,
      0.01960717425195139,
      0.01912053697097149,
      0.018444672220948536,
      0.01786407796558795,
      0.01786604024040928,
      0.01787969076048845
    ],
    "train_finish": "2018-12-19 09:22:05.678385",
    "model": "CRNN(\n  (embedding): Embedding(400000, 100)\n  (convs): ModuleList(\n    (0): Conv2d(1, 604, kernel_size=(1, 100), stride=(1, 1))\n    (1): Conv2d(1, 604, kernel_size=(2, 100), stride=(1, 1))\n    (2): Conv2d(1, 604, kernel_size=(3, 100), stride=(1, 1))\n  )\n  (batch_norms): ModuleList(\n    (0): BatchNorm2d(604, eps=1e-05, momentum=0.1, affine=True, track_running_stats=True)\n    (1): BatchNorm2d(604, eps=1e-05, momentum=0.1, affine=True, track_running_stats=True)\n    (2): BatchNorm2d(604, eps=1e-05, momentum=0.1, affine=True, track_running_stats=True)\n  )\n  (gru): GRU(100, 38, batch_first=True, dropout=0.16)\n  (fc1): Linear(in_features=1850, out_features=227, bias=True)\n  (fc2): Linear(in_features=227, out_features=126, bias=True)\n  (dropout): Dropout(p=0.16)\n)"
  },
  "{\"batch_norm\": true, \"bottleneck_fc_dim\": 341.0, \"cpu_mode\": false, \"dropout_pctg\": 0.11269512456052197, \"filter_sizes\": [1, 2, 3, 4, 5, 6], \"glove_dim\": 100, \"gpu_no\": 2, \"num_filters\": 840.0, \"rnn_bidirectional\": false, \"rnn_hidden_size\": 30.0, \"rnn_num_layers\": 3.0, \"stride\": 2, \"txt_length\": 560.0}": {
…
      0.021287361578618276,
      0.018758836104917232,
      0.0166165319836938,
      0.014731463811707184,
      0.013049336893507851
    ],
    "valid_vector": [
      0.021790037758703997,
      0.019816878499455258,
      0.01859430915145859,
      0.01801564411529755,
      0.018393429206696146,
      0.018903973036016753
    ],
    "test_vector": [
      0.021599730576025142,
      0.019702388503864757,
      0.01848599241415003,
      0.017987082793768535,
      0.018383042260345175,
      0.01881404861466272
    ],
    "train_finish": "2018-12-19 09:47:35.937627",
    "model": "CRNN(\n  (embedding): Embedding(400000, 100)\n  (convs): ModuleList(\n    (0): Conv2d(1, 840, kernel_size=(1, 100), stride=(2, 2))\n    (1): Conv2d(1, 840, kernel_size=(2, 100), stride=(2, 2))\n    (2): Conv2d(1, 840, kernel_size=(3, 100), stride=(2, 2))\n    (3): Conv2d(1, 840, kernel_size=(4, 100), stride=(2, 2))\n    (4): Conv2d(1, 840, kernel_size=(5, 100), stride=(2, 2))\n    (5): Conv2d(1, 840, kernel_size=(6, 100), stride=(2, 2))\n  )\n  (batch_norms): ModuleList(\n    (0): BatchNorm2d(840, eps=1e-05, momentum=0.1, affine=True, track_running_stats=True)\n    (1): BatchNorm2d(840, eps=1e-05, momentum=0.1, affine=True, track_running_stats=True)\n    (2): BatchNorm2d(840, eps=1e-05, momentum=0.1, affine=True, track_running_stats=True)\n    (3): BatchNorm2d(840, eps=1e-05, momentum=0.1, affine=True, track_running_stats=True)\n    (4): BatchNorm2d(840, eps=1e-05, momentum=0.1, affine=True, track_running_stats=True)\n    (5): BatchNorm2d(840, eps=1e-05, momentum=0.1, affine=True, track_running_stats=True)\n  )\n  (gru): GRU(100, 30, num_layers=3, batch_first=True, dropout=0.11)\n  (fc1): Linear(in_features=5130, out_features=341, bias=True)\n  (fc2): Linear(in_features=341, out_features=126, bias=True)\n  (dropout): Dropout(p=0.11)\n)"
  },
  "{\"batch_norm\": true, \"bottleneck_fc_dim\": 260.0, \"cpu_mode\": false, \"dropout_pctg\": 0.018731814879292458, \"filter_sizes\": [1, 2, 3], \"glove_dim\": 100, \"gpu_no\": 2, \"num_filters\": 768.0, \"rnn_bidirectional\": false, \"rnn_hidden_size\": 41.0, \"rnn_num_layers\": 2.0, \"stride\": 1, \"txt_length\": 724.0}": {
…
      0.015649962070867173,
      0.0146036623888167,
      0.013603251097423672
    ],
    "valid_vector": [
      0.021577921339811117,
      0.019231091626286348,
      0.018759474667262778,
      0.017813093210783983,
      0.01737977358957391,
      0.017719828496515346,
      0.017601105758100193
    ],
    "test_vector": [
      0.021336221563091666,
      0.019126864882912844,
      0.018616783726555324,
      0.01775399181070422,
      0.017301462603601884,
      0.017661050522028765,
      0.01761541970924083
    ],
    "train_finish": "2018-12-19 10:16:26.775007",
    "model": "CRNN(\n  (embedding): Embedding(400000, 100)\n  (convs): ModuleList(\n    (0): Conv2d(1, 768, kernel_size=(1, 100), stride=(1, 1))\n    (1): Conv2d(1, 768, kernel_size=(2, 100), stride=(1, 1))\n    (2): Conv2d(1, 768, kernel_size=(3, 100), stride=(1, 1))\n  )\n  (batch_norms): ModuleList(\n    (0): BatchNorm2d(768, eps=1e-05, momentum=0.1, affine=True, track_running_stats=True)\n    (1): BatchNorm2d(768, eps=1e-05, momentum=0.1, affine=True, track_running_stats=True)\n    (2): BatchNorm2d(768, eps=1e-05, momentum=0.1, affine=True, track_running_stats=True)\n  )\n  (gru): GRU(100, 41, num_layers=2, batch_first=True, dropout=0.02)\n  (fc1): Linear(in_features=2386, out_features=260, bias=True)\n  (fc2): Linear(in_features=260, out_features=126, bias=True)\n  (dropout): Dropout(p=0.02)\n)"
  },
  "{\"batch_norm\": true, \"bottleneck_fc_dim\": 379.0, \"cpu_mode\": false, \"dropout_pctg\": 0.07184078154948352, \"filter_sizes\": [3, 4, 5], \"glove_dim\": 100, \"gpu_no\": 2, \"num_filters\": 1099.0, \"rnn_bidirectional\": true, \"rnn_hidden_size\": 20.0, \"rnn_num_layers\": 3.0, \"stride\": 1, \"txt_length\": 691.0}": {
…
      0.014085455403266636,
      0.012625436831549954,
      0.011377634541350223
    ],
    "valid_vector": [
      0.020574987667159976,
      0.018343304985387526,
      0.017308245958593576,
      0.016806984958085004,
      0.016746015586048317,
      0.017100574815574327,
      0.017602716461193862
    ],
    "test_vector": [
      0.02035932975219511,
      0.018273896611194367,
      0.01714060054039523,
      0.016791797756378266,
      0.016762704467341336,
      0.017168057868991896,
      0.017492931038300113
    ],
    "train_finish": "2018-12-19 11:09:32.987071",
    "model": "CRNN(\n  (embedding): Embedding(400000, 100)\n  (convs): ModuleList(\n    (0): Conv2d(1, 1099, kernel_size=(3, 100), stride=(1, 1))\n    (1): Conv2d(1, 1099, kernel_size=(4, 100), stride=(1, 1))\n    (2): Conv2d(1, 1099, kernel_size=(5, 100), stride=(1, 1))\n  )\n  (batch_norms): ModuleList(\n    (0): BatchNorm2d(1099, eps=1e-05, momentum=0.1, affine=True, track_running_stats=True)\n    (1): BatchNorm2d(1099, eps=1e-05, momentum=0.1, affine=True, track_running_stats=True)\n    (2): BatchNorm2d(1099, eps=1e-05, momentum=0.1, affine=True, track_running_stats=True)\n  )\n  (gru): GRU(100, 20, num_layers=3, batch_first=True, dropout=0.07, bidirectional=True)\n  (fc1): Linear(in_features=3417, out_features=379, bias=True)\n  (fc2): Linear(in_features=379, out_features=126, bias=True)\n  (dropout): Dropout(p=0.07)\n)"
  },
  "{\"batch_norm\": true, \"bottleneck_fc_dim\": 426.0, \"cpu_mode\": false, \"dropout_pctg\": 0.14864245259235354, \"filter_sizes\": [1, 2, 3], \"glove_dim\": 100, \"gpu_no\": 1, \"num_filters\": 1082.0, \"rnn_bidirectional\": false, \"rnn_hidden_size\": 14.0, \"rnn_num_layers\": 2.0, \"stride\": 1, \"txt_length\": 571.0}": {
…
      0.01598544187770248,
      0.014891086991830643,
      0.013975156984752166
    ],
    "valid_vector": [
      0.0208967701821868,
      0.01936934526929302,
      0.018406165003561095,
      0.017396940044867103,
      0.017088008928112686,
      0.017357508542757333,
      0.017725508023268863
    ],
    "test_vector": [
      0.02076024781547185,
      0.019337323033558663,
      0.018267449813642735,
      0.017274136031503236,
      0.016969167337472887,
      0.017073220170255917,
      0.017600614283638977
    ],
    "train_finish": "2018-12-18 17:26:41.177542",
    "model": "CRNN(\n  (embedding): Embedding(400000, 100)\n  (convs): ModuleList(\n    (0): Conv2d(1, 1082, kernel_size=(1, 100), stride=(1, 1))\n    (1): Conv2d(1, 1082, kernel_size=(2, 100), stride=(1, 1))\n    (2): Conv2d(1, 1082, kernel_size=(3, 100), stride=(1, 1))\n  )\n  (batch_norms): ModuleList(\n    (0): BatchNorm2d(1082, eps=1e-05, momentum=0.1, affine=True, track_running_stats=True)\n    (1): BatchNorm2d(1082, eps=1e-05, momentum=0.1, affine=True, track_running_stats=True)\n    (2): BatchNorm2d(1082, eps=1e-05, momentum=0.1, affine=True, track_running_stats=True)\n  )\n  (gru): GRU(100, 14, num_layers=2, batch_first=True, dropout=0.15)\n  (fc1): Linear(in_features=3274, out_features=426, bias=True)\n  (fc2): Linear(in_features=426, out_features=126, bias=True)\n  (dropout): Dropout(p=0.15)\n)"
  },
  "{\"batch_norm\": true, \"bottleneck_fc_dim\": 202.0, \"cpu_mode\": false, \"dropout_pctg\": 0.3932669367080765, \"filter_sizes\": [1, 2, 3], \"glove_dim\": 100, \"gpu_no\": 1, \"num_filters\": 815.0, \"rnn_bidirectional\": false, \"rnn_hidden_size\": 5.0, \"rnn_num_layers\": 1.0, \"stride\": 2, \"txt_length\": 578.0}": {
…
      0.019697478252948583
    ],
    "valid_vector": [
      0.023839941899131325,
      0.022221584548689187,
      0.021461961620640176,
      0.020512173990599875,
      0.02001977543647427,
      0.019520546771836147,
      0.019636378069269236,
      0.02019733194545257
    ],
    "test_vector": [
      0.023651507867774223,
      0.022042323799450387,
      0.02116968265490364,
      0.02032913538073299,
      0.019890777852092343,
      0.019284198439912373,
      0.01946157283747374,
      0.020108771178799906
    ],
    "train_finish": "2018-12-18 17:40:02.725779",
    "model": "CRNN(\n  (embedding): Embedding(400000, 100)\n  (convs): ModuleList(\n    (0): Conv2d(1, 815, kernel_size=(1, 100), stride=(2, 2))\n    (1): Conv2d(1, 815, kernel_size=(2, 100), stride=(2, 2))\n    (2): Conv2d(1, 815, kernel_size=(3, 100), stride=(2, 2))\n  )\n  (batch_norms): ModuleList(\n    (0): BatchNorm2d(815, eps=1e-05, momentum=0.1, affine=True, track_running_stats=True)\n    (1): BatchNorm2d(815, eps=1e-05, momentum=0.1, affine=True, track_running_stats=True)\n    (2): BatchNorm2d(815, eps=1e-05, momentum=0.1, affine=True, track_running_stats=True)\n  )\n  (gru): GRU(100, 5, batch_first=True, dropout=0.39)\n  (fc1): Linear(in_features=2450, out_features=202, bias=True)\n  (fc2): Linear(in_features=202, out_features=126, bias=True)\n  (dropout): Dropout(p=0.39)\n)"
  },
  "{\"batch_norm\": true, \"bottleneck_fc_dim\": 364.0, \"cpu_mode\": false, \"dropout_pctg\": 0.4969110097214808, \"filter_sizes\": [2, 3, 4], \"glove_dim\": 100, \"gpu_no\": 1, \"num_filters\": 619.0, \"rnn_bidirectional\": true, \"rnn_hidden_size\": 21.0, \"rnn_num_layers\": 1.0, \"stride\": 1, \"txt_length\": 624.0}": {
…
      0.0187600164304126,
      0.018592084780695843,
      0.018572744844021646,
      0.018651505175760506,
      0.01823263792648737,
      0.01879178783878672,
      0.01880316177074279
    ],
    "test_vector": [
      0.023169231763891955,
      0.020819617927805192,
      0.01936530131799008,
      0.019192709190361916,
      0.018477704439526683,
      0.01837735468231793,
      0.018424985983939185,
      0.01842572341865695,
      0.018069624710184678,
      0.018645733459862566,
      0.018686986768614255
    ],
    "train_finish": "2018-12-18 18:10:36.429958",
    "model": "CRNN(\n  (embedding): Embedding(400000, 100)\n  (convs): ModuleList(\n    (0): Conv2d(1, 619, kernel_size=(2, 100), stride=(1, 1))\n    (1): Conv2d(1, 619, kernel_size=(3, 100), stride=(1, 1))\n    (2): Conv2d(1, 619, kernel_size=(4, 100), stride=(1, 1))\n  )\n  (batch_norms): ModuleList(\n    (0): BatchNorm2d(619, eps=1e-05, momentum=0.1, affine=True, track_running_stats=True)\n    (1): BatchNorm2d(619, eps=1e-05, momentum=0.1, affine=True, track_running_stats=True)\n    (2): BatchNorm2d(619, eps=1e-05, momentum=0.1, affine=True, track_running_stats=True)\n  )\n  (gru): GRU(100, 21, batch_first=True, dropout=0.5, bidirectional=True)\n  (fc1): Linear(in_features=1899, out_features=364, bias=True)\n  (fc2): Linear(in_features=364, out_features=126, bias=True)\n  (dropout): Dropout(p=0.5)\n)"
  },
  "{\"batch_norm\": true, \"bottleneck_fc_dim\": 333.0, \"cpu_mode\": false, \"dropout_pctg\": 0.04919964029302168, \"filter_sizes\": [1, 2, 3], \"glove_dim\": 100, \"gpu_no\": 1, \"num_filters\": 930.0, \"rnn_bidirectional\": true, \"rnn_hidden_size\": 27.0, \"rnn_num_layers\": 2.0, \"stride\": 2, \"txt_length\": 788.0}": {
…
      0.01480057555461539,
      0.013627180221849375,
      0.012589892063746099
    ],
    "valid_vector": [
      0.020566082982245142,
      0.01894106366746088,
      0.017834627866568264,
      0.017284813657480438,
      0.017197229871293032,
      0.017434994234139526,
      0.01761776853803553
    ],
    "test_vector": [
      0.020318982100038768,
      0.01881205677183897,
      0.017555941087898732,
      0.017101029492120372,
      0.017002829827114083,
      0.017229077203679822,
      0.01743262850923706
    ],
    "train_finish": "2018-12-18 18:42:47.182733",
    "model": "CRNN(\n  (embedding): Embedding(400000, 100)\n  (convs): ModuleList(\n    (0): Conv2d(1, 930, kernel_size=(1, 100), stride=(2, 2))\n    (1): Conv2d(1, 930, kernel_size=(2, 100), stride=(2, 2))\n    (2): Conv2d(1, 930, kernel_size=(3, 100), stride=(2, 2))\n  )\n  (batch_norms): ModuleList(\n    (0): BatchNorm2d(930, eps=1e-05, momentum=0.1, affine=True, track_running_stats=True)\n    (1): BatchNorm2d(930, eps=1e-05, momentum=0.1, affine=True, track_running_stats=True)\n    (2): BatchNorm2d(930, eps=1e-05, momentum=0.1, affine=True, track_running_stats=True)\n  )\n  (gru): GRU(100, 27, num_layers=2, batch_first=True, dropout=0.05, bidirectional=True)\n  (fc1): Linear(in_features=2898, out_features=333, bias=True)\n  (fc2): Linear(in_features=333, out_features=126, bias=True)\n  (dropout): Dropout(p=0.05)\n)"
  },
  "{\"batch_norm\": true, \"bottleneck_fc_dim\": 295.0, \"cpu_mode\": false, \"dropout_pctg\": 0.018332109650710075, \"filter_sizes\": [1, 2, 3, 4, 5, 6], \"glove_dim\": 100, \"gpu_no\": 1, \"num_filters\": 672.0, \"rnn_bidirectional\": false, \"rnn_hidden_size\": 11.0, \"rnn_num_layers\": 2.0, \"stride\": 1, \"txt_length\": 627.0}": {
…
      0.019951244744371818,
      0.017654968814635123,
      0.015862254331086185,
      0.014177802636679719,
      0.012570476166286735
    ],
    "valid_vector": [
      0.021248911008753105,
      0.019138603494055807,
      0.018269539038131416,
      0.01767996473482121,
      0.017719918645723268,
      0.01787461611304009
    ],
    "test_vector": [
      0.021076756686385253,
      0.01901511395814767,
      0.01815475606278125,
      0.017663276857579315,
      0.0176830411529236,
      0.017629925894346445
    ],
    "train_finish": "2018-12-18 19:15:40.177244",
    "model": "CRNN(\n  (embedding): Embedding(400000, 100)\n  (convs): ModuleList(\n    (0): Conv2d(1, 672, kernel_size=(1, 100), stride=(1, 1))\n    (1): Conv2d(1, 672, kernel_size=(2, 100), stride=(1, 1))\n    (2): Conv2d(1, 672, kernel_size=(3, 100), stride=(1, 1))\n    (3): Conv2d(1, 672, kernel_size=(4, 100), stride=(1, 1))\n    (4): Conv2d(1, 672, kernel_size=(5, 100), stride=(1, 1))\n    (5): Conv2d(1, 672, kernel_size=(6, 100), stride=(1, 1))\n  )\n  (batch_norms): ModuleList(\n    (0): BatchNorm2d(672, eps=1e-05, momentum=0.1, affine=True, track_running_stats=True)\n    (1): BatchNorm2d(672, eps=1e-05, momentum=0.1, affine=True, track_running_stats=True)\n    (2): BatchNorm2d(672, eps=1e-05, momentum=0.1, affine=True, track_running_stats=True)\n    (3): BatchNorm2d(672, eps=1e-05, momentum=0.1, affine=True, track_running_stats=True)\n    (4): BatchNorm2d(672, eps=1e-05, momentum=0.1, affine=True, track_running_stats=True)\n    (5): BatchNorm2d(672, eps=1e-05, momentum=0.1, affine=True, track_running_stats=True)\n  )\n  (gru): GRU(100, 11, num_layers=2, batch_first=True, dropout=0.02)\n  (fc1): Linear(in_features=4054, out_features=295, bias=True)\n  (fc2): Linear(in_features=295, out_features=126, bias=True)\n  (dropout): Dropout(p=0.02)\n)"
  },
  "{\"batch_norm\": false, \"bottleneck_fc_dim\": 436.0, \"cpu_mode\": false, \"dropout_pctg\": 0.07978115170595802, \"filter_sizes\": [1, 2, 3, 4, 5], \"glove_dim\": 100, \"gpu_no\": 1, \"num_filters\": 1021.0, \"rnn_bidirectional\": true, \"rnn_hidden_size\": 9.0, \"rnn_num_layers\": 2.0, \"stride\": 2, \"txt_length\": 772.0}": {
…
      "pAtK_1": 0.964818763326226,
      "pAtK_3": 0.8275031094527363,
      "pAtK_5": 0.5733142324093816
    },
    "train_vector": [
      0.02606059822503362,
      0.018216581914147507,
      0.015767385262753435,
      0.013705871820851381
    ],
    "valid_vector": [
      0.01946356233188521,
      0.01903716690164667,
      0.01956435421438042,
      0.020041517208519974
    ],
    "test_vector": [
      0.019314871489334463,
      0.018915029802619776,
      0.01924417552147021,
      0.019818664133262786
    ],
    "train_finish": "2018-12-18 19:38:17.875693",
    "model": "CRNN(\n  (embedding): Embedding(400000, 100)\n  (convs): ModuleList(\n    (0): Conv2d(1, 1021, kernel_size=(1, 100), stride=(2, 2))\n    (1): Conv2d(1, 1021, kernel_size=(2, 100), stride=(2, 2))\n    (2): Conv2d(1, 1021, kernel_size=(3, 100), stride=(2, 2))\n    (3): Conv2d(1, 1021, kernel_size=(4, 100), stride=(2, 2))\n    (4): Conv2d(1, 1021, kernel_size=(5, 100), stride=(2, 2))\n  )\n  (batch_norms): ModuleList(\n    (0): BatchNorm2d(1021, eps=1e-05, momentum=0.1, affine=True, track_running_stats=True)\n    (1): BatchNorm2d(1021, eps=1e-05, momentum=0.1, affine=True, track_running_stats=True)\n    (2): BatchNorm2d(1021, eps=1e-05, momentum=0.1, affine=True, track_running_stats=True)\n    (3): BatchNorm2d(1021, eps=1e-05, momentum=0.1, affine=True, track_running_stats=True)\n    (4): BatchNorm2d(1021, eps=1e-05, momentum=0.1, affine=True, track_running_stats=True)\n  )\n  (gru): GRU(100, 9, num_layers=2, batch_first=True, dropout=0.08, bidirectional=True)\n  (fc1): Linear(in_features=5141, out_features=436, bias=True)\n  (fc2): Linear(in_features=436, out_features=126, bias=True)\n  (dropout): Dropout(p=0.08)\n)"
  },
  "{\"batch_norm\": false, \"bottleneck_fc_dim\": 437.0, \"cpu_mode\": false, \"dropout_pctg\": 0.3952074846521286, \"filter_sizes\": [3, 4, 5, 6], \"glove_dim\": 100, \"gpu_no\": 1, \"num_filters\": 757.0, \"rnn_bidirectional\": false, \"rnn_hidden_size\": 19.0, \"rnn_num_layers\": 2.0, \"stride\": 2, \"txt_length\": 767.0}": {
…
      "pAtK_5": 0.5717683901918976
    },
    "train_vector": [
      0.030324186133558733,
      0.02149030159917345,
      0.019342430884400214,
      0.01782509017777465,
      0.016669558706567122
    ],
    "valid_vector": [
      0.02110589006287691,
      0.01993606171110518,
      0.01991973925522888,
      0.02010306420359713,
      0.02059590034417685
    ],
    "test_vector": [
      0.020880641350185056,
      0.019774254949600584,
      0.01959274357943329,
      0.019849253639674137,
      0.02060361743481683
    ],
    "train_finish": "2018-12-18 19:54:54.305220",
    "model": "CRNN(\n  (embedding): Embedding(400000, 100)\n  (convs): ModuleList(\n    (0): Conv2d(1, 757, kernel_size=(3, 100), stride=(2, 2))\n    (1): Conv2d(1, 757, kernel_size=(4, 100), stride=(2, 2))\n    (2): Conv2d(1, 757, kernel_size=(5, 100), stride=(2, 2))\n    (3): Conv2d(1, 757, kernel_size=(6, 100), stride=(2, 2))\n  )\n  (batch_norms): ModuleList(\n    (0): BatchNorm2d(757, eps=1e-05, momentum=0.1, affine=True, track_running_stats=True)\n    (1): BatchNorm2d(757, eps=1e-05, momentum=0.1, affine=True, track_running_stats=True)\n    (2): BatchNorm2d(757, eps=1e-05, momentum=0.1, affine=True, track_running_stats=True)\n    (3): BatchNorm2d(757, eps=1e-05, momentum=0.1, affine=True, track_running_stats=True)\n  )\n  (gru): GRU(100, 19, num_layers=2, batch_first=True, dropout=0.4)\n  (fc1): Linear(in_features=3066, out_features=437, bias=True)\n  (fc2): Linear(in_features=437, out_features=126, bias=True)\n  (dropout): Dropout(p=0.4)\n)"
  },
  "{\"batch_norm\": false, \"bottleneck_fc_dim\": 217.0, \"cpu_mode\": false, \"dropout_pctg\": 0.4938896330121438, \"filter_sizes\": [2, 3, 4], \"glove_dim\": 100, \"gpu_no\": 1, \"num_filters\": 1126.0, \"rnn_bidirectional\": false, \"rnn_hidden_size\": 43.0, \"rnn_num_layers\": 2.0, \"stride\": 2, \"txt_length\": 625.0}": {
…
      "pAtK_5": 0.5697694562899787
    },
    "train_vector": [
      0.035120416124000464,
      0.025739587507963086,
      0.023632943238357327,
      0.022290634857580115,
      0.02125027575609627
    ],
    "valid_vector": [
      0.022639204493797284,
      0.021212613973855925,
      0.020878972418517914,
      0.021011250835261557,
      0.02128625469198371
    ],
    "test_vector": [
      0.02248184558059742,
      0.020944544372321572,
      0.020740894302884654,
      0.020860303274747024,
      0.02121338949624155
    ],
    "train_finish": "2018-12-18 20:09:05.463966",
    "model": "CRNN(\n  (embedding): Embedding(400000, 100)\n  (convs): ModuleList(\n    (0): Conv2d(1, 1126, kernel_size=(2, 100), stride=(2, 2))\n    (1): Conv2d(1, 1126, kernel_size=(3, 100), stride=(2, 2))\n    (2): Conv2d(1, 1126, kernel_size=(4, 100), stride=(2, 2))\n  )\n  (batch_norms): ModuleList(\n    (0): BatchNorm2d(1126, eps=1e-05, momentum=0.1, affine=True, track_running_stats=True)\n    (1): BatchNorm2d(1126, eps=1e-05, momentum=0.1, affine=True, track_running_stats=True)\n    (2): BatchNorm2d(1126, eps=1e-05, momentum=0.1, affine=True, track_running_stats=True)\n  )\n  (gru): GRU(100, 43, num_layers=2, batch_first=True, dropout=0.49)\n  (fc1): Linear(in_features=3464, out_features=217, bias=True)\n  (fc2): Linear(in_features=217, out_features=126, bias=True)\n  (dropout): Dropout(p=0.49)\n)"
  },
  "{\"batch_norm\": true, \"bottleneck_fc_dim\": 410.0, \"cpu_mode\": false, \"dropout_pctg\": 0.33854944754364014, \"filter_sizes\": [1, 2, 3], \"glove_dim\": 100, \"gpu_no\": 1, \"num_filters\": 840.0, \"rnn_bidirectional\": true, \"rnn_hidden_size\": 18.0, \"rnn_num_layers\": 2.0, \"stride\": 1, \"txt_length\": 798.0}": {
…
      0.02161939202898196,
      0.01957889195771884,
      0.018332715860497492,
      0.01798051812098737,
      0.017766717108098594,
      0.017579778600588385,
      0.017324433297734025,
      0.017538786944146376,
      0.017695164060352174
    ],
    "test_vector": [
      0.02143446351292291,
      0.019334184812076056,
      0.018099189763749714,
      0.017726217813567438,
      0.01750904037309354,
      0.01736302052570908,
      0.01707552151599609,
      0.017330237249257977,
      0.017381899813408538
    ],
    "train_finish": "2018-12-18 21:05:20.868031",
    "model": "CRNN(\n  (embedding): Embedding(400000, 100)\n  (convs): ModuleList(\n    (0): Conv2d(1, 840, kernel_size=(1, 100), stride=(1, 1))\n    (1): Conv2d(1, 840, kernel_size=(2, 100), stride=(1, 1))\n    (2): Conv2d(1, 840, kernel_size=(3, 100), stride=(1, 1))\n  )\n  (batch_norms): ModuleList(\n    (0): BatchNorm2d(840, eps=1e-05, momentum=0.1, affine=True, track_running_stats=True)\n    (1): BatchNorm2d(840, eps=1e-05, momentum=0.1, affine=True, track_running_stats=True)\n    (2): BatchNorm2d(840, eps=1e-05, momentum=0.1, affine=True, track_running_stats=True)\n  )\n  (gru): GRU(100, 18, num_layers=2, batch_first=True, dropout=0.34, bidirectional=True)\n  (fc1): Linear(in_features=2592, out_features=410, bias=True)\n  (fc2): Linear(in_features=410, out_features=126, bias=True)\n  (dropout): Dropout(p=0.34)\n)"
  },
  "{\"batch_norm\": false, \"bottleneck_fc_dim\": 388.0, \"cpu_mode\": false, \"dropout_pctg\": 0.4708798517833525, \"filter_sizes\": [3, 4, 5], \"glove_dim\": 100, \"gpu_no\": 1, \"num_filters\": 1067.0, \"rnn_bidirectional\": false, \"rnn_hidden_size\": 37.0, \"rnn_num_layers\": 2.0, \"stride\": 2, \"txt_length\": 739.0}": {
…
      0.022920920309315463,
      0.0208604705893696,
      0.0193945417002245,
      0.01824565984287847,
      0.017334739676862557
    ],
    "valid_vector": [
      0.02152190233932248,
      0.020381713750214178,
      0.020229755888761542,
      0.020117233981560075,
      0.02076763649575853,
      0.021311605665167526
    ],
    "test_vector": [
      0.021287645022672757,
      0.020248461427337834,
      0.020118427321886713,
      0.020080926597737934,
      0.020567421503523902,
      0.021070046364260252
    ],
    "train_finish": "2018-12-18 21:24:40.869748",
    "model": "CRNN(\n  (embedding): Embedding(400000, 100)\n  (convs): ModuleList(\n    (0): Conv2d(1, 1067, kernel_size=(3, 100), stride=(2, 2))\n    (1): Conv2d(1, 1067, kernel_size=(4, 100), stride=(2, 2))\n    (2): Conv2d(1, 1067, kernel_size=(5, 100), stride=(2, 2))\n  )\n  (batch_norms): ModuleList(\n    (0): BatchNorm2d(1067, eps=1e-05, momentum=0.1, affine=True, track_running_stats=True)\n    (1): BatchNorm2d(1067, eps=1e-05, momentum=0.1, affine=True, track_running_stats=True)\n    (2): BatchNorm2d(1067, eps=1e-05, momentum=0.1, affine=True, track_running_stats=True)\n  )\n  (gru): GRU(100, 37, num_layers=2, batch_first=True, dropout=0.47)\n  (fc1): Linear(in_features=3275, out_features=388, bias=True)\n  (fc2): Linear(in_features=388, out_features=126, bias=True)\n  (dropout): Dropout(p=0.47)\n)"
  },
  "{\"batch_norm\": false, \"bottleneck_fc_dim\": 437.0, \"cpu_mode\": false, \"dropout_pctg\": 0.4066629183619566, \"filter_sizes\": [3, 4, 5, 6], \"glove_dim\": 100, \"gpu_no\": 1, \"num_filters\": 993.0, \"rnn_bidirectional\": true, \"rnn_hidden_size\": 19.0, \"rnn_num_layers\": 2.0, \"stride\": 1, \"txt_length\": 593.0}": {
…
      "pAtK_5": 0.5745069296375267
    },
    "train_vector": [
      0.028636170914714706,
      0.02051936332750151,
      0.018563634489604304,
      0.01714072352722029,
      0.0160786966627251
    ],
    "valid_vector": [
      0.019849786068747707,
      0.01885871638108029,
      0.018387383200041553,
      0.018736407169074352,
      0.019981609892843765
    ],
    "test_vector": [
      0.019665050544718437,
      0.0188788672897226,
      0.018351268414447685,
      0.018775410543102573,
      0.020050221392864994
    ],
    "train_finish": "2018-12-18 21:55:07.995302",
    "model": "CRNN(\n  (embedding): Embedding(400000, 100)\n  (convs): ModuleList(\n    (0): Conv2d(1, 993, kernel_size=(3, 100), stride=(1, 1))\n    (1): Conv2d(1, 993, kernel_size=(4, 100), stride=(1, 1))\n    (2): Conv2d(1, 993, kernel_size=(5, 100), stride=(1, 1))\n    (3): Conv2d(1, 993, kernel_size=(6, 100), stride=(1, 1))\n  )\n  (batch_norms): ModuleList(\n    (0): BatchNorm2d(993, eps=1e-05, momentum=0.1, affine=True, track_running_stats=True)\n    (1): BatchNorm2d(993, eps=1e-05, momentum=0.1, affine=True, track_running_stats=True)\n    (2): BatchNorm2d(993, eps=1e-05, momentum=0.1, affine=True, track_running_stats=True)\n    (3): BatchNorm2d(993, eps=1e-05, momentum=0.1, affine=True, track_running_stats=True)\n  )\n  (gru): GRU(100, 19, num_layers=2, batch_first=True, dropout=0.41, bidirectional=True)\n  (fc1): Linear(in_features=4048, out_features=437, bias=True)\n  (fc2): Linear(in_features=437, out_features=126, bias=True)\n  (dropout): Dropout(p=0.41)\n)"
  },
  "{\"batch_norm\": false, \"bottleneck_fc_dim\": 391.0, \"cpu_mode\": false, \"dropout_pctg\": 0.47412532590501827, \"filter_sizes\": [2, 3, 4], \"glove_dim\": 100, \"gpu_no\": 1, \"num_filters\": 819.0, \"rnn_bidirectional\": true, \"rnn_hidden_size\": 9.0, \"rnn_num_layers\": 2.0, \"stride\": 2, \"txt_length\": 609.0}": {
…
      0.023003203624893245,
      0.02102706854190904,
      0.019723666864154082,
      0.01871416383579954,
      0.017857495915510453
    ],
    "valid_vector": [
      0.02123861495918755,
      0.019978534411152462,
      0.019915215163948393,
      0.019746836888959316,
      0.019916278978949712,
      0.020345726649267978
    ],
    "test_vector": [
      0.021008844850763583,
      0.019901313965937605,
      0.01972558450049111,
      0.019476247127296956,
      0.019777882371598214,
      0.020182918145585416
    ],
    "train_finish": "2018-12-18 22:17:09.951539",
    "model": "CRNN(\n  (embedding): Embedding(400000, 100)\n  (convs): ModuleList(\n    (0): Conv2d(1, 819, kernel_size=(2, 100), stride=(2, 2))\n    (1): Conv2d(1, 819, kernel_size=(3, 100), stride=(2, 2))\n    (2): Conv2d(1, 819, kernel_size=(4, 100), stride=(2, 2))\n  )\n  (batch_norms): ModuleList(\n    (0): BatchNorm2d(819, eps=1e-05, momentum=0.1, affine=True, track_running_stats=True)\n    (1): BatchNorm2d(819, eps=1e-05, momentum=0.1, affine=True, track_running_stats=True)\n    (2): BatchNorm2d(819, eps=1e-05, momentum=0.1, affine=True, track_running_stats=True)\n  )\n  (gru): GRU(100, 9, num_layers=2, batch_first=True, dropout=0.47, bidirectional=True)\n  (fc1): Linear(in_features=2493, out_features=391, bias=True)\n  (fc2): Linear(in_features=391, out_features=126, bias=True)\n  (dropout): Dropout(p=0.47)\n)"
  },
  "{\"batch_norm\": false, \"bottleneck_fc_dim\": 248.0, \"cpu_mode\": false, \"dropout_pctg\": 0.4141980572772701, \"filter_sizes\": [1, 2, 3, 4, 5, 6], \"glove_dim\": 100, \"gpu_no\": 1, \"num_filters\": 677.0, \"rnn_bidirectional\": false, \"rnn_hidden_size\": 8.0, \"rnn_num_layers\": 1.0, \"stride\": 2, \"txt_length\": 606.0}": {
…
      "pAtK_5": 0.57204157782516
    },
    "train_vector": [
      0.03201447875043149,
      0.02291273262964019,
      0.020762490750694987,
      0.01924656647612344,
      0.018086238261043882
    ],
    "valid_vector": [
      0.021734650115242234,
      0.020129034950235075,
      0.01997406392590081,
      0.02010048174650283,
      0.020976171938395665
    ],
    "test_vector": [
      0.021459870191334662,
      0.0200037525168487,
      0.019861407339699995,
      0.020026992011600846,
      0.020861331101403688
    ],
    "train_finish": "2018-12-18 22:29:51.105826",
    "model": "CRNN(\n  (embedding): Embedding(400000, 100)\n  (convs): ModuleList(\n    (0): Conv2d(1, 677, kernel_size=(1, 100), stride=(2, 2))\n    (1): Conv2d(1, 677, kernel_size=(2, 100), stride=(2, 2))\n    (2): Conv2d(1, 677, kernel_size=(3, 100), stride=(2, 2))\n    (3): Conv2d(1, 677, kernel_size=(4, 100), stride=(2, 2))\n    (4): Conv2d(1, 677, kernel_size=(5, 100), stride=(2, 2))\n    (5): Conv2d(1, 677, kernel_size=(6, 100), stride=(2, 2))\n  )\n  (batch_norms): ModuleList(\n    (0): BatchNorm2d(677, eps=1e-05, momentum=0.1, affine=True, track_running_stats=True)\n    (1): BatchNorm2d(677, eps=1e-05, momentum=0.1, affine=True, track_running_stats=True)\n    (2): BatchNorm2d(677, eps=1e-05, momentum=0.1, affine=True, track_running_stats=True)\n    (3): BatchNorm2d(677, eps=1e-05, momentum=0.1, affine=True, track_running_stats=True)\n    (4): BatchNorm2d(677, eps=1e-05, momentum=0.1, affine=True, track_running_stats=True)\n    (5): BatchNorm2d(677, eps=1e-05, momentum=0.1, affine=True, track_running_stats=True)\n  )\n  (gru): GRU(100, 8, batch_first=True, dropout=0.41)\n  (fc1): Linear(in_features=4070, out_features=248, bias=True)\n  (fc2): Linear(in_features=248, out_features=126, bias=True)\n  (dropout): Dropout(p=0.41)\n)"
  },
  "{\"batch_norm\": true, \"bottleneck_fc_dim\": 233.0, \"cpu_mode\": false, \"dropout_pctg\": 0.28733981783374507, \"filter_sizes\": [2, 3, 4, 5], \"glove_dim\": 100, \"gpu_no\": 1, \"num_filters\": 686.0, \"rnn_bidirectional\": true, \"rnn_hidden_size\": 42.0, \"rnn_num_layers\": 2.0, \"stride\": 1, \"txt_length\": 681.0}": {
…
      0.018484134273628407,
      0.0174008695755463,
      0.016390533174071045
    ],
    "valid_vector": [
      0.021735403686513634,
      0.01993138652974005,
      0.018377594048850365,
      0.01785822712251845,
      0.01754686210256344,
      0.017702037412951243,
      0.017770781581387368
    ],
    "test_vector": [
      0.021546082366615343,
      0.019815117996464026,
      0.01825994245612672,
      0.017732922508041742,
      0.01736396866074122,
      0.017574168241290905,
      0.017602981431588435
    ],
    "train_finish": "2018-12-18 23:10:18.147472",
    "model": "CRNN(\n  (embedding): Embedding(400000, 100)\n  (convs): ModuleList(\n    (0): Conv2d(1, 686, kernel_size=(2, 100), stride=(1, 1))\n    (1): Conv2d(1, 686, kernel_size=(3, 100), stride=(1, 1))\n    (2): Conv2d(1, 686, kernel_size=(4, 100), stride=(1, 1))\n    (3): Conv2d(1, 686, kernel_size=(5, 100), stride=(1, 1))\n  )\n  (batch_norms): ModuleList(\n    (0): BatchNorm2d(686, eps=1e-05, momentum=0.1, affine=True, track_running_stats=True)\n    (1): BatchNorm2d(686, eps=1e-05, momentum=0.1, affine=True, track_running_stats=True)\n    (2): BatchNorm2d(686, eps=1e-05, momentum=0.1, affine=True, track_running_stats=True)\n    (3): BatchNorm2d(686, eps=1e-05, momentum=0.1, affine=True, track_running_stats=True)\n  )\n  (gru): GRU(100, 42, num_layers=2, batch_first=True, dropout=0.29, bidirectional=True)\n  (fc1): Linear(in_features=2912, out_features=233, bias=True)\n  (fc2): Linear(in_features=233, out_features=126, bias=True)\n  (dropout): Dropout(p=0.29)\n)"
  },
  "{\"batch_norm\": true, \"bottleneck_fc_dim\": 355.0, \"cpu_mode\": false, \"dropout_pctg\": 0.10686294400759314, \"filter_sizes\": [1, 2, 3], \"glove_dim\": 100, \"gpu_no\": 1, \"num_filters\": 617.0, \"rnn_bidirectional\": false, \"rnn_hidden_size\": 46.0, \"rnn_num_layers\": 2.0, \"stride\": 2, \"txt_length\": 578.0}": {
…
      0.01344500335103364
    ],
    "valid_vector": [
      0.02125356775194184,
      0.019348815743521507,
      0.01834004502947023,
      0.01815661248467517,
      0.017923482178426438,
      0.01780206359625518,
      0.01813571451024325,
      0.01833424362989921
    ],
    "test_vector": [
      0.021113631043479894,
      0.019179552225574756,
      0.018227090080107835,
      0.018112964062357764,
      0.017783788316793787,
      0.01773287441486171,
      0.018075139214123872,
      0.018144682711010166
    ],
    "train_finish": "2018-12-18 23:27:47.323897",
    "model": "CRNN(\n  (embedding): Embedding(400000, 100)\n  (convs): ModuleList(\n    (0): Conv2d(1, 617, kernel_size=(1, 100), stride=(2, 2))\n    (1): Conv2d(1, 617, kernel_size=(2, 100), stride=(2, 2))\n    (2): Conv2d(1, 617, kernel_size=(3, 100), stride=(2, 2))\n  )\n  (batch_norms): ModuleList(\n    (0): BatchNorm2d(617, eps=1e-05, momentum=0.1, affine=True, track_running_stats=True)\n    (1): BatchNorm2d(617, eps=1e-05, momentum=0.1, affine=True, track_running_stats=True)\n    (2): BatchNorm2d(617, eps=1e-05, momentum=0.1, affine=True, track_running_stats=True)\n  )\n  (gru): GRU(100, 46, num_layers=2, batch_first=True, dropout=0.11)\n  (fc1): Linear(in_features=1943, out_features=355, bias=True)\n  (fc2): Linear(in_features=355, out_features=126, bias=True)\n  (dropout): Dropout(p=0.11)\n)"
  },
  "{\"batch_norm\": false, \"bottleneck_fc_dim\": 344.0, \"cpu_mode\": false, \"dropout_pctg\": 0.3463074224247536, \"filter_sizes\": [1, 2, 3, 4, 5, 6], \"glove_dim\": 100, \"gpu_no\": 1, \"num_filters\": 779.0, \"rnn_bidirectional\": true, \"rnn_hidden_size\": 31.0, \"rnn_num_layers\": 2.0, \"stride\": 1, \"txt_length\": 658.0}": {
…
      0.020549007833576508,
      0.01855363675294764,
      0.017037120472794855,
      0.015966921258049847,
      0.014984070289737904
    ],
    "valid_vector": [
      0.01969560302832702,
      0.01866501520712004,
      0.01865406284284498,
      0.01864308797950938,
      0.018810266193793293,
      0.019891850165536264
    ],
    "test_vector": [
      0.01958911266845109,
      0.01856615378269191,
      0.018553951137593942,
      0.01855661689655295,
      0.018711224369116937,
      0.019927808486703617
    ],
    "train_finish": "2018-12-19 00:12:20.572845",
    "model": "CRNN(\n  (embedding): Embedding(400000, 100)\n  (convs): ModuleList(\n    (0): Conv2d(1, 779, kernel_size=(1, 100), stride=(1, 1))\n    (1): Conv2d(1, 779, kernel_size=(2, 100), stride=(1, 1))\n    (2): Conv2d(1, 779, kernel_size=(3, 100), stride=(1, 1))\n    (3): Conv2d(1, 779, kernel_size=(4, 100), stride=(1, 1))\n    (4): Conv2d(1, 779, kernel_size=(5, 100), stride=(1, 1))\n    (5): Conv2d(1, 779, kernel_size=(6, 100), stride=(1, 1))\n  )\n  (batch_norms): ModuleList(\n    (0): BatchNorm2d(779, eps=1e-05, momentum=0.1, affine=True, track_running_stats=True)\n    (1): BatchNorm2d(779, eps=1e-05, momentum=0.1, affine=True, track_running_stats=True)\n    (2): BatchNorm2d(779, eps=1e-05, momentum=0.1, affine=True, track_running_stats=True)\n    (3): BatchNorm2d(779, eps=1e-05, momentum=0.1, affine=True, track_running_stats=True)\n    (4): BatchNorm2d(779, eps=1e-05, momentum=0.1, affine=True, track_running_stats=True)\n    (5): BatchNorm2d(779, eps=1e-05, momentum=0.1, affine=True, track_running_stats=True)\n  )\n  (gru): GRU(100, 31, num_layers=2, batch_first=True, dropout=0.35, bidirectional=True)\n  (fc1): Linear(in_features=4798, out_features=344, bias=True)\n  (fc2): Linear(in_features=344, out_features=126, bias=True)\n  (dropout): Dropout(p=0.35)\n)"
  },
  "{\"batch_norm\": true, \"bottleneck_fc_dim\": 234.0, \"cpu_mode\": false, \"dropout_pctg\": 0.11491978727323417, \"filter_sizes\": [3, 4, 5, 6], \"glove_dim\": 100, \"gpu_no\": 1, \"num_filters\": 768.0, \"rnn_bidirectional\": false, \"rnn_hidden_size\": 24.0, \"rnn_num_layers\": 3.0, \"stride\": 2, \"txt_length\": 589.0}": {
…
      0.015847827200534313,
      0.014281303670034688,
      0.01293195260496335
    ],
    "valid_vector": [
      0.021798285187782047,
      0.020631167896415618,
      0.019220111385009675,
      0.019604937219346908,
      0.018772903187791193,
      0.019424531453247885,
      0.020773625872316345
    ],
    "test_vector": [
      0.02158016790308233,
      0.020444739661586563,
      0.019084078674790447,
      0.019369878327605058,
      0.018655169471256387,
      0.019293538666070142,
      0.0208018311321227
    ],
    "train_finish": "2018-12-19 00:37:17.925445",
    "model": "CRNN(\n  (embedding): Embedding(400000, 100)\n  (convs): ModuleList(\n    (0): Conv2d(1, 768, kernel_size=(3, 100), stride=(2, 2))\n    (1): Conv2d(1, 768, kernel_size=(4, 100), stride=(2, 2))\n    (2): Conv2d(1, 768, kernel_size=(5, 100), stride=(2, 2))\n    (3): Conv2d(1, 768, kernel_size=(6, 100), stride=(2, 2))\n  )\n  (batch_norms): ModuleList(\n    (0): BatchNorm2d(768, eps=1e-05, momentum=0.1, affine=True, track_running_stats=True)\n    (1): BatchNorm2d(768, eps=1e-05, momentum=0.1, affine=True, track_running_stats=True)\n    (2): BatchNorm2d(768, eps=1e-05, momentum=0.1, affine=True, track_running_stats=True)\n    (3): BatchNorm2d(768, eps=1e-05, momentum=0.1, affine=True, track_running_stats=True)\n  )\n  (gru): GRU(100, 24, num_layers=3, batch_first=True, dropout=0.11)\n  (fc1): Linear(in_features=3144, out_features=234, bias=True)\n  (fc2): Linear(in_features=234, out_features=126, bias=True)\n  (dropout): Dropout(p=0.11)\n)"
  },
  "{\"batch_norm\": false, \"bottleneck_fc_dim\": 491.0, \"cpu_mode\": false, \"dropout_pctg\": 0.26775022315478336, \"filter_sizes\": [1, 2, 3, 4, 5, 6], \"glove_dim\": 100, \"gpu_no\": 1, \"num_filters\": 1195.0, \"rnn_bidirectional\": false, \"rnn_hidden_size\": 10.0, \"rnn_num_layers\": 2.0, \"stride\": 1, \"txt_length\": 622.0}": {
…
      "pAtK_5": 0.5756529850746268
    },
    "train_vector": [
      0.026850173447137995,
      0.01932700212710421,
      0.017208983966004274,
      0.015595654062201193,
      0.01439160598517001
    ],
    "valid_vector": [
      0.02038565900490514,
      0.01892604511010268,
      0.018476035190509884,
      0.018956194365601132,
      0.019426187920408435
    ],
    "test_vector": [
      0.020191359623615294,
      0.018741262107610956,
      0.018408686083469437,
      0.018680222838846988,
      0.019532785361716105
    ],
    "train_finish": "2018-12-19 01:17:25.265202",
    "model": "CRNN(\n  (embedding): Embedding(400000, 100)\n  (convs): ModuleList(\n    (0): Conv2d(1, 1195, kernel_size=(1, 100), stride=(1, 1))\n    (1): Conv2d(1, 1195, kernel_size=(2, 100), stride=(1, 1))\n    (2): Conv2d(1, 1195, kernel_size=(3, 100), stride=(1, 1))\n    (3): Conv2d(1, 1195, kernel_size=(4, 100), stride=(1, 1))\n    (4): Conv2d(1, 1195, kernel_size=(5, 100), stride=(1, 1))\n    (5): Conv2d(1, 1195, kernel_size=(6, 100), stride=(1, 1))\n  )\n  (batch_norms): ModuleList(\n    (0): BatchNorm2d(1195, eps=1e-05, momentum=0.1, affine=True, track_running_stats=True)\n    (1): BatchNorm2d(1195, eps=1e-05, momentum=0.1, affine=True, track_running_stats=True)\n    (2): BatchNorm2d(1195, eps=1e-05, momentum=0.1, affine=True, track_running_stats=True)\n    (3): BatchNorm2d(1195, eps=1e-05, momentum=0.1, affine=True, track_running_stats=True)\n    (4): BatchNorm2d(1195, eps=1e-05, momentum=0.1, affine=True, track_running_stats=True)\n    (5): BatchNorm2d(1195, eps=1e-05, momentum=0.1, affine=True, track_running_stats=True)\n  )\n  (gru): GRU(100, 10, num_layers=2, batch_first=True, dropout=0.27)\n  (fc1): Linear(in_features=7190, out_features=491, bias=True)\n  (fc2): Linear(in_features=491, out_features=126, bias=True)\n  (dropout): Dropout(p=0.27)\n)"
  },
  "{\"batch_norm\": false, \"bottleneck_fc_dim\": 421.0, \"cpu_mode\": false, \"dropout_pctg\": 0.47678485819248273, \"filter_sizes\": [1, 2, 3], \"glove_dim\": 100, \"gpu_no\": 1, \"num_filters\": 1183.0, \"rnn_bidirectional\": false, \"rnn_hidden_size\": 46.0, \"rnn_num_layers\": 1.0, \"stride\": 2, \"txt_length\": 664.0}": {
…
      "pAtK_1": 0.9650519722814499,
      "pAtK_3": 0.826181592039801,
      "pAtK_5": 0.5718683368869936
    },
    "train_vector": [
      0.03266193658131371,
      0.023902837803046615,
      0.02190028812329751,
      0.020612778703298463
    ],
    "valid_vector": [
      0.021949300934413652,
      0.019972324631472766,
      0.02064001088667073,
      0.020014163122690127
    ],
    "test_vector": [
      0.021688800368672496,
      0.01996531906619128,
      0.020618133507033527,
      0.019843714430864686
    ],
    "train_finish": "2018-12-19 01:27:10.407490",
    "model": "CRNN(\n  (embedding): Embedding(400000, 100)\n  (convs): ModuleList(\n    (0): Conv2d(1, 1183, kernel_size=(1, 100), stride=(2, 2))\n    (1): Conv2d(1, 1183, kernel_size=(2, 100), stride=(2, 2))\n    (2): Conv2d(1, 1183, kernel_size=(3, 100), stride=(2, 2))\n  )\n  (batch_norms): ModuleList(\n    (0): BatchNorm2d(1183, eps=1e-05, momentum=0.1, affine=True, track_running_stats=True)\n    (1): BatchNorm2d(1183, eps=1e-05, momentum=0.1, affine=True, track_running_stats=True)\n    (2): BatchNorm2d(1183, eps=1e-05, momentum=0.1, affine=True, track_running_stats=True)\n  )\n  (gru): GRU(100, 46, batch_first=True, dropout=0.48)\n  (fc1): Linear(in_features=3595, out_features=421, bias=True)\n  (fc2): Linear(in_features=421, out_features=126, bias=True)\n  (dropout): Dropout(p=0.48)\n)"
  },
  "{\"batch_norm\": false, \"bottleneck_fc_dim\": 312.0, \"cpu_mode\": false, \"dropout_pctg\": 0.445241867097154, \"filter_sizes\": [1, 2, 3, 4, 5, 6], \"glove_dim\": 100, \"gpu_no\": 1, \"num_filters\": 772.0, \"rnn_bidirectional\": false, \"rnn_hidden_size\": 6.0, \"rnn_num_layers\": 3.0, \"stride\": 2, \"txt_length\": 726.0}": {
…
      0.023958190675007863,
      0.021803957005125833,
      0.020277202785116487,
      0.019171863549320364,
      0.018206105222244695
    ],
    "valid_vector": [
      0.02234379695539774,
      0.02101207979947829,
      0.021050661906420288,
      0.020512971170206885,
      0.02141484475782963,
      0.02164858676416716
    ],
    "test_vector": [
      0.022050223476104518,
      0.020877295554971007,
      0.02089608175112113,
      0.020265777255775833,
      0.021200984384793082,
      0.02142102315799514
    ],
    "train_finish": "2018-12-19 01:55:26.330604",
    "model": "CRNN(\n  (embedding): Embedding(400000, 100)\n  (convs): ModuleList(\n    (0): Conv2d(1, 772, kernel_size=(1, 100), stride=(2, 2))\n    (1): Conv2d(1, 772, kernel_size=(2, 100), stride=(2, 2))\n    (2): Conv2d(1, 772, kernel_size=(3, 100), stride=(2, 2))\n    (3): Conv2d(1, 772, kernel_size=(4, 100), stride=(2, 2))\n    (4): Conv2d(1, 772, kernel_size=(5, 100), stride=(2, 2))\n    (5): Conv2d(1, 772, kernel_size=(6, 100), stride=(2, 2))\n  )\n  (batch_norms): ModuleList(\n    (0): BatchNorm2d(772, eps=1e-05, momentum=0.1, affine=True, track_running_stats=True)\n    (1): BatchNorm2d(772, eps=1e-05, momentum=0.1, affine=True, track_running_stats=True)\n    (2): BatchNorm2d(772, eps=1e-05, momentum=0.1, affine=True, track_running_stats=True)\n    (3): BatchNorm2d(772, eps=1e-05, momentum=0.1, affine=True, track_running_stats=True)\n    (4): BatchNorm2d(772, eps=1e-05, momentum=0.1, affine=True, track_running_stats=True)\n    (5): BatchNorm2d(772, eps=1e-05, momentum=0.1, affine=True, track_running_stats=True)\n  )\n  (gru): GRU(100, 6, num_layers=3, batch_first=True, dropout=0.45)\n  (fc1): Linear(in_features=4650, out_features=312, bias=True)\n  (fc2): Linear(in_features=312, out_features=126, bias=True)\n  (dropout): Dropout(p=0.45)\n)"
  },
  "{\"batch_norm\": true, \"bottleneck_fc_dim\": 480.0, \"cpu_mode\": false, \"dropout_pctg\": 0.17471533706807413, \"filter_sizes\": [1, 2, 3], \"glove_dim\": 100, \"gpu_no\": 1, \"num_filters\": 932.0, \"rnn_bidirectional\": true, \"rnn_hidden_size\": 31.0, \"rnn_num_layers\": 3.0, \"stride\": 1, \"txt_length\": 519.0}": {
…
      0.015287828440986685,
      0.014332349035688134,
      0.013472417750288488
    ],
    "valid_vector": [
      0.01994657646894439,
      0.017854248154421905,
      0.017146271430571545,
      0.017121881946051586,
      0.016420817626183474,
      0.016471603667231473,
      0.017173546449919697
    ],
    "test_vector": [
      0.01982947268974044,
      0.017717708678626175,
      0.017073884036447575,
      0.01707669612028197,
      0.016370159222373067,
      0.016490314332549886,
      0.017303390232826284
    ],
    "train_finish": "2018-12-19 02:35:53.438430",
    "model": "CRNN(\n  (embedding): Embedding(400000, 100)\n  (convs): ModuleList(\n    (0): Conv2d(1, 932, kernel_size=(1, 100), stride=(1, 1))\n    (1): Conv2d(1, 932, kernel_size=(2, 100), stride=(1, 1))\n    (2): Conv2d(1, 932, kernel_size=(3, 100), stride=(1, 1))\n  )\n  (batch_norms): ModuleList(\n    (0): BatchNorm2d(932, eps=1e-05, momentum=0.1, affine=True, track_running_stats=True)\n    (1): BatchNorm2d(932, eps=1e-05, momentum=0.1, affine=True, track_running_stats=True)\n    (2): BatchNorm2d(932, eps=1e-05, momentum=0.1, affine=True, track_running_stats=True)\n  )\n  (gru): GRU(100, 31, num_layers=3, batch_first=True, dropout=0.17, bidirectional=True)\n  (fc1): Linear(in_features=2982, out_features=480, bias=True)\n  (fc2): Linear(in_features=480, out_features=126, bias=True)\n  (dropout): Dropout(p=0.17)\n)"
  },
  "{\"batch_norm\": true, \"bottleneck_fc_dim\": 497.0, \"cpu_mode\": false, \"dropout_pctg\": 0.1846518204138666, \"filter_sizes\": [1, 2, 3], \"glove_dim\": 100, \"gpu_no\": 1, \"num_filters\": 927.0, \"rnn_bidirectional\": true, \"rnn_hidden_size\": 35.0, \"rnn_num_layers\": 3.0, \"stride\": 1, \"txt_length\": 520.0}": {
…
      0.015349585210840866,
      0.014388053160008707,
      0.013574498879754064
    ],
    "valid_vector": [
      0.020246536913030008,
      0.018489985008548294,
      0.01699789001783634,
      0.01672445366227094,
      0.016367618753852797,
      0.016474371807012302,
      0.016572692753947668
    ],
    "test_vector": [
      0.02009066746536412,
      0.018359475882291032,
      0.01688790851945816,
      0.016644046750110286,
      0.016328523792366167,
      0.016498317130839327,
      0.016587617703830635
    ],
    "train_finish": "2018-12-19 03:16:46.509146",
    "model": "CRNN(\n  (embedding): Embedding(400000, 100)\n  (convs): ModuleList(\n    (0): Conv2d(1, 927, kernel_size=(1, 100), stride=(1, 1))\n    (1): Conv2d(1, 927, kernel_size=(2, 100), stride=(1, 1))\n    (2): Conv2d(1, 927, kernel_size=(3, 100), stride=(1, 1))\n  )\n  (batch_norms): ModuleList(\n    (0): BatchNorm2d(927, eps=1e-05, momentum=0.1, affine=True, track_running_stats=True)\n    (1): BatchNorm2d(927, eps=1e-05, momentum=0.1, affine=True, track_running_stats=True)\n    (2): BatchNorm2d(927, eps=1e-05, momentum=0.1, affine=True, track_running_stats=True)\n  )\n  (gru): GRU(100, 35, num_layers=3, batch_first=True, dropout=0.18, bidirectional=True)\n  (fc1): Linear(in_features=2991, out_features=497, bias=True)\n  (fc2): Linear(in_features=497, out_features=126, bias=True)\n  (dropout): Dropout(p=0.18)\n)"
  },
  "{\"batch_norm\": true, \"bottleneck_fc_dim\": 500.0, \"cpu_mode\": false, \"dropout_pctg\": 0.2007015668168154, \"filter_sizes\": [3, 4, 5], \"glove_dim\": 100, \"gpu_no\": 1, \"num_filters\": 915.0, \"rnn_bidirectional\": true, \"rnn_hidden_size\": 33.0, \"rnn_num_layers\": 3.0, \"stride\": 1, \"txt_length\": 503.0}": {
…
      0.014962034919816035,
      0.013686446164011074,
      0.01260428588150075
    ],
    "valid_vector": [
      0.02018357423726898,
      0.019198407597992736,
      0.017095563633651382,
      0.0167447001684327,
      0.016623224816354577,
      0.017204548607442353,
      0.017329513178969514
    ],
    "test_vector": [
      0.020125641001027022,
      0.019066224798067674,
      0.017094793086097057,
      0.016750198475190443,
      0.01667566900886198,
      0.017124927942273712,
      0.017294400744934452
    ],
    "train_finish": "2018-12-19 03:56:48.567435",
    "model": "CRNN(\n  (embedding): Embedding(400000, 100)\n  (convs): ModuleList(\n    (0): Conv2d(1, 915, kernel_size=(3, 100), stride=(1, 1))\n    (1): Conv2d(1, 915, kernel_size=(4, 100), stride=(1, 1))\n    (2): Conv2d(1, 915, kernel_size=(5, 100), stride=(1, 1))\n  )\n  (batch_norms): ModuleList(\n    (0): BatchNorm2d(915, eps=1e-05, momentum=0.1, affine=True, track_running_stats=True)\n    (1): BatchNorm2d(915, eps=1e-05, momentum=0.1, affine=True, track_running_stats=True)\n    (2): BatchNorm2d(915, eps=1e-05, momentum=0.1, affine=True, track_running_stats=True)\n  )\n  (gru): GRU(100, 33, num_layers=3, batch_first=True, dropout=0.2, bidirectional=True)\n  (fc1): Linear(in_features=2943, out_features=500, bias=True)\n  (fc2): Linear(in_features=500, out_features=126, bias=True)\n  (dropout): Dropout(p=0.2)\n)"
  },
  "{\"batch_norm\": true, \"bottleneck_fc_dim\": 474.0, \"cpu_mode\": false, \"dropout_pctg\": 0.20380449039691084, \"filter_sizes\": [1, 2, 3, 4, 5], \"glove_dim\": 100, \"gpu_no\": 1, \"num_filters\": 970.0, \"rnn_bidirectional\": true, \"rnn_hidden_size\": 37.0, \"rnn_num_layers\": 3.0, \"stride\": 1, \"txt_length\": 505.0}": {
…
      0.015493523863366861,
      0.014238665463713971,
      0.013170098066513834
    ],
    "valid_vector": [
      0.021511185072314764,
      0.018526589585173288,
      0.0172709310365253,
      0.016775871260225204,
      0.01643771715256185,
      0.01710069836921561,
      0.017028901610522965
    ],
    "test_vector": [
      0.02143942296250797,
      0.018513148040897938,
      0.01731781804088209,
      0.016815706322998253,
      0.016475774397426195,
      0.01716110679303119,
      0.017118154769775264
    ],
    "train_finish": "2018-12-19 04:47:45.323999",
    "model": "CRNN(\n  (embedding): Embedding(400000, 100)\n  (convs): ModuleList(\n    (0): Conv2d(1, 970, kernel_size=(1, 100), stride=(1, 1))\n    (1): Conv2d(1, 970, kernel_size=(2, 100), stride=(1, 1))\n    (2): Conv2d(1, 970, kernel_size=(3, 100), stride=(1, 1))\n    (3): Conv2d(1, 970, kernel_size=(4, 100), stride=(1, 1))\n    (4): Conv2d(1, 970, kernel_size=(5, 100), stride=(1, 1))\n  )\n  (batch_norms): ModuleList(\n    (0): BatchNorm2d(970, eps=1e-05, momentum=0.1, affine=True, track_running_stats=True)\n    (1): BatchNorm2d(970, eps=1e-05, momentum=0.1, affine=True, track_running_stats=True)\n    (2): BatchNorm2d(970, eps=1e-05, momentum=0.1, affine=True, track_running_stats=True)\n    (3): BatchNorm2d(970, eps=1e-05, momentum=0.1, affine=True, track_running_stats=True)\n    (4): BatchNorm2d(970, eps=1e-05, momentum=0.1, affine=True, track_running_stats=True)\n  )\n  (gru): GRU(100, 37, num_layers=3, batch_first=True, dropout=0.2, bidirectional=True)\n  (fc1): Linear(in_features=5072, out_features=474, bias=True)\n  (fc2): Linear(in_features=474, out_features=126, bias=True)\n  (dropout): Dropout(p=0.2)\n)"
  },
  "{\"batch_norm\": true, \"bottleneck_fc_dim\": 470.0, \"cpu_mode\": false, \"dropout_pctg\": 0.1993363622585696, \"filter_sizes\": [2, 3, 4, 5], \"glove_dim\": 100, \"gpu_no\": 1, \"num_filters\": 856.0, \"rnn_bidirectional\": true, \"rnn_hidden_size\": 31.0, \"rnn_num_layers\": 3.0, \"stride\": 1, \"txt_length\": 539.0}": {
…
      0.015304561624384963,
      0.014062384242865803,
      0.012980409918239653
    ],
    "valid_vector": [
      0.020668242834131125,
      0.01847569777968842,
      0.01733542613259185,
      0.01711957144917352,
      0.016481102588943947,
      0.0167880895838483,
      0.017447465574736202
    ],
    "test_vector": [
      0.02043396910664433,
      0.018305657868351,
      0.017239142979767277,
      0.016997386443255935,
      0.016535593705104868,
      0.016711124751184667,
      0.017439940010012783
    ],
    "train_finish": "2018-12-19 05:33:42.467519",
    "model": "CRNN(\n  (embedding): Embedding(400000, 100)\n  (convs): ModuleList(\n    (0): Conv2d(1, 856, kernel_size=(2, 100), stride=(1, 1))\n    (1): Conv2d(1, 856, kernel_size=(3, 100), stride=(1, 1))\n    (2): Conv2d(1, 856, kernel_size=(4, 100), stride=(1, 1))\n    (3): Conv2d(1, 856, kernel_size=(5, 100), stride=(1, 1))\n  )\n  (batch_norms): ModuleList(\n    (0): BatchNorm2d(856, eps=1e-05, momentum=0.1, affine=True, track_running_stats=True)\n    (1): BatchNorm2d(856, eps=1e-05, momentum=0.1, affine=True, track_running_stats=True)\n    (2): BatchNorm2d(856, eps=1e-05, momentum=0.1, affine=True, track_running_stats=True)\n    (3): BatchNorm2d(856, eps=1e-05, momentum=0.1, affine=True, track_running_stats=True)\n  )\n  (gru): GRU(100, 31, num_layers=3, batch_first=True, dropout=0.2, bidirectional=True)\n  (fc1): Linear(in_features=3610, out_features=470, bias=True)\n  (fc2): Linear(in_features=470, out_features=126, bias=True)\n  (dropout): Dropout(p=0.2)\n)"
  },
  "{\"batch_norm\": true, \"bottleneck_fc_dim\": 465.0, \"cpu_mode\": false, \"dropout_pctg\": 0.1541336565426926, \"filter_sizes\": [1, 2, 3], \"glove_dim\": 100, \"gpu_no\": 1, \"num_filters\": 874.0, \"rnn_bidirectional\": true, \"rnn_hidden_size\": 37.0, \"rnn_num_layers\": 3.0, \"stride\": 1, \"txt_length\": 540.0}": {
…
      0.012541502678996447
    ],
    "valid_vector": [
      0.019570265647653403,
      0.017993791581023294,
      0.017053611549004706,
      0.016664449565560877,
      0.016519720360427214,
      0.01641701397937544,
      0.016747267190816262,
      0.01708919235321729
    ],
    "test_vector": [
      0.019578574312680057,
      0.017983211714750542,
      0.01700980892019676,
      0.01655602923878379,
      0.01650029804204096,
      0.016306295617620575,
      0.01667315930699997,
      0.01698773724636607
    ],
    "train_finish": "2018-12-19 06:20:26.757600",
    "model": "CRNN(\n  (embedding): Embedding(400000, 100)\n  (convs): ModuleList(\n    (0): Conv2d(1, 874, kernel_size=(1, 100), stride=(1, 1))\n    (1): Conv2d(1, 874, kernel_size=(2, 100), stride=(1, 1))\n    (2): Conv2d(1, 874, kernel_size=(3, 100), stride=(1, 1))\n  )\n  (batch_norms): ModuleList(\n    (0): BatchNorm2d(874, eps=1e-05, momentum=0.1, affine=True, track_running_stats=True)\n    (1): BatchNorm2d(874, eps=1e-05, momentum=0.1, affine=True, track_running_stats=True)\n    (2): BatchNorm2d(874, eps=1e-05, momentum=0.1, affine=True, track_running_stats=True)\n  )\n  (gru): GRU(100, 37, num_layers=3, batch_first=True, dropout=0.15, bidirectional=True)\n  (fc1): Linear(in_features=2844, out_features=465, bias=True)\n  (fc2): Linear(in_features=465, out_features=126, bias=True)\n  (dropout): Dropout(p=0.15)\n)"
  },
  "{\"batch_norm\": true, \"bottleneck_fc_dim\": 498.0, \"cpu_mode\": false, \"dropout_pctg\": 0.2368684752981514, \"filter_sizes\": [1, 2, 3], \"glove_dim\": 100, \"gpu_no\": 1, \"num_filters\": 875.0, \"rnn_bidirectional\": true, \"rnn_hidden_size\": 38.0, \"rnn_num_layers\": 3.0, \"stride\": 1, \"txt_length\": 544.0}": {
…
      0.01381219646199174
    ],
    "valid_vector": [
      0.02065260576353327,
      0.018341874673233817,
      0.017349778372334687,
      0.016766545045669122,
      0.01660661720369172,
      0.016574270734903532,
      0.016855931260094575,
      0.016869246978519995
    ],
    "test_vector": [
      0.02047062763519315,
      0.018309738766997735,
      0.017328117580921537,
      0.016660894836181963,
      0.01654976154310204,
      0.016419230047851674,
      0.016808677310827,
      0.01678746269503509
    ],
    "train_finish": "2018-12-19 07:07:03.520012",
    "model": "CRNN(\n  (embedding): Embedding(400000, 100)\n  (convs): ModuleList(\n    (0): Conv2d(1, 875, kernel_size=(1, 100), stride=(1, 1))\n    (1): Conv2d(1, 875, kernel_size=(2, 100), stride=(1, 1))\n    (2): Conv2d(1, 875, kernel_size=(3, 100), stride=(1, 1))\n  )\n  (batch_norms): ModuleList(\n    (0): BatchNorm2d(875, eps=1e-05, momentum=0.1, affine=True, track_running_stats=True)\n    (1): BatchNorm2d(875, eps=1e-05, momentum=0.1, affine=True, track_running_stats=True)\n    (2): BatchNorm2d(875, eps=1e-05, momentum=0.1, affine=True, track_running_stats=True)\n  )\n  (gru): GRU(100, 38, num_layers=3, batch_first=True, dropout=0.24, bidirectional=True)\n  (fc1): Linear(in_features=2853, out_features=498, bias=True)\n  (fc2): Linear(in_features=498, out_features=126, bias=True)\n  (dropout): Dropout(p=0.24)\n)"
  },
  "{\"batch_norm\": true, \"bottleneck_fc_dim\": 452.0, \"cpu_mode\": false, \"dropout_pctg\": 0.010201928764357104, \"filter_sizes\": [1, 2, 3], \"glove_dim\": 100, \"gpu_no\": 1, \"num_filters\": 970.0, \"rnn_bidirectional\": true, \"rnn_hidden_size\": 49.0, \"rnn_num_layers\": 3.0, \"stride\": 1, \"txt_length\": 552.0}": {
…
      0.01838868646161867,
      0.016332297769286686,
      0.014872982594226323,
      0.013595994964953643,
      0.01247953480082736
    ],
    "valid_vector": [
      0.01982726110368848,
      0.017871346678147947,
      0.01659429951611636,
      0.01615330516883204,
      0.01632003813844496,
      0.016640811455066202
    ],
    "test_vector": [
      0.019674916328715365,
      0.017785123642732593,
      0.01657380678974934,
      0.01612637178309119,
      0.016342748526428173,
      0.016712313405732548
    ],
    "train_finish": "2018-12-19 07:45:45.374279",
    "model": "CRNN(\n  (embedding): Embedding(400000, 100)\n  (convs): ModuleList(\n    (0): Conv2d(1, 970, kernel_size=(1, 100), stride=(1, 1))\n    (1): Conv2d(1, 970, kernel_size=(2, 100), stride=(1, 1))\n    (2): Conv2d(1, 970, kernel_size=(3, 100), stride=(1, 1))\n  )\n  (batch_norms): ModuleList(\n    (0): BatchNorm2d(970, eps=1e-05, momentum=0.1, affine=True, track_running_stats=True)\n    (1): BatchNorm2d(970, eps=1e-05, momentum=0.1, affine=True, track_running_stats=True)\n    (2): BatchNorm2d(970, eps=1e-05, momentum=0.1, affine=True, track_running_stats=True)\n  )\n  (gru): GRU(100, 49, num_layers=3, batch_first=True, dropout=0.01, bidirectional=True)\n  (fc1): Linear(in_features=3204, out_features=452, bias=True)\n  (fc2): Linear(in_features=452, out_features=126, bias=True)\n  (dropout): Dropout(p=0.01)\n)"
  },
  "{\"batch_norm\": true, \"bottleneck_fc_dim\": 451.0, \"cpu_mode\": false, \"dropout_pctg\": 0.016228089363445553, \"filter_sizes\": [1, 2, 3, 4, 5], \"glove_dim\": 100, \"gpu_no\": 1, \"num_filters\": 1076.0, \"rnn_bidirectional\": true, \"rnn_hidden_size\": 49.0, \"rnn_num_layers\": 3.0, \"stride\": 1, \"txt_length\": 557.0}": {
…
      0.01871731624070837,
      0.016430814140461377,
      0.014671192217837888,
      0.013066829699553795,
      0.011551683263770198
    ],
    "valid_vector": [
      0.020095288946376695,
      0.01787534963053121,
      0.0170710727170076,
      0.016359435008485804,
      0.016603189555909247,
      0.016639400046874288
    ],
    "test_vector": [
      0.019985262074196007,
      0.01771123977953882,
      0.016959135328282488,
      0.01632421488053541,
      0.01659565589634944,
      0.01670516381409567
    ],
    "train_finish": "2018-12-19 08:37:28.434074",
    "model": "CRNN(\n  (embedding): Embedding(400000, 100)\n  (convs): ModuleList(\n    (0): Conv2d(1, 1076, kernel_size=(1, 100), stride=(1, 1))\n    (1): Conv2d(1, 1076, kernel_size=(2, 100), stride=(1, 1))\n    (2): Conv2d(1, 1076, kernel_size=(3, 100), stride=(1, 1))\n    (3): Conv2d(1, 1076, kernel_size=(4, 100), stride=(1, 1))\n    (4): Conv2d(1, 1076, kernel_size=(5, 100), stride=(1, 1))\n  )\n  (batch_norms): ModuleList(\n    (0): BatchNorm2d(1076, eps=1e-05, momentum=0.1, affine=True, track_running_stats=True)\n    (1): BatchNorm2d(1076, eps=1e-05, momentum=0.1, affine=True, track_running_stats=True)\n    (2): BatchNorm2d(1076, eps=1e-05, momentum=0.1, affine=True, track_running_stats=True)\n    (3): BatchNorm2d(1076, eps=1e-05, momentum=0.1, affine=True, track_running_stats=True)\n    (4): BatchNorm2d(1076, eps=1e-05, momentum=0.1, affine=True, track_running_stats=True)\n  )\n  (gru): GRU(100, 49, num_layers=3, batch_first=True, dropout=0.02, bidirectional=True)\n  (fc1): Linear(in_features=5674, out_features=451, bias=True)\n  (fc2): Linear(in_features=451, out_features=126, bias=True)\n  (dropout): Dropout(p=0.02)\n)"
  },
  "{\"batch_norm\": true, \"bottleneck_fc_dim\": 453.0, \"cpu_mode\": false, \"dropout_pctg\": 0.017026967344680007, \"filter_sizes\": [1, 2, 3, 4, 5], \"glove_dim\": 100, \"gpu_no\": 1, \"num_filters\": 1099.0, \"rnn_bidirectional\": true, \"rnn_hidden_size\": 49.0, \"rnn_num_layers\": 3.0, \"stride\": 1, \"txt_length\": 557.0}": {
…
      0.01859896359970175,
      0.01636958796381374,
      0.014573976089641165,
      0.012994972247359012,
      0.011529638796121382
    ],
    "valid_vector": [
      0.020558914313388705,
      0.017552698917214327,
      0.016914010021725354,
      0.016335831995907504,
      0.016685275251228513,
      0.01689687650315642
    ],
    "test_vector": [
      0.020341570594353972,
      0.017461354260457987,
      0.0167688643639244,
      0.016232530023457845,
      0.01667133126574666,
      0.016877699451747417
    ],
    "train_finish": "2018-12-19 09:29:34.938360",
    "model": "CRNN(\n  (embedding): Embedding(400000, 100)\n  (convs): ModuleList(\n    (0): Conv2d(1, 1099, kernel_size=(1, 100), stride=(1, 1))\n    (1): Conv2d(1, 1099, kernel_size=(2, 100), stride=(1, 1))\n    (2): Conv2d(1, 1099, kernel_size=(3, 100), stride=(1, 1))\n    (3): Conv2d(1, 1099, kernel_size=(4, 100), stride=(1, 1))\n    (4): Conv2d(1, 1099, kernel_size=(5, 100), stride=(1, 1))\n  )\n  (batch_norms): ModuleList(\n    (0): BatchNorm2d(1099, eps=1e-05, momentum=0.1, affine=True, track_running_stats=True)\n    (1): BatchNorm2d(1099, eps=1e-05, momentum=0.1, affine=True, track_running_stats=True)\n    (2): BatchNorm2d(1099, eps=1e-05, momentum=0.1, affine=True, track_running_stats=True)\n    (3): BatchNorm2d(1099, eps=1e-05, momentum=0.1, affine=True, track_running_stats=True)\n    (4): BatchNorm2d(1099, eps=1e-05, momentum=0.1, affine=True, track_running_stats=True)\n  )\n  (gru): GRU(100, 49, num_layers=3, batch_first=True, dropout=0.02, bidirectional=True)\n  (fc1): Linear(in_features=5789, out_features=453, bias=True)\n  (fc2): Linear(in_features=453, out_features=126, bias=True)\n  (dropout): Dropout(p=0.02)\n)"
  },
  "{\"batch_norm\": true, \"bottleneck_fc_dim\": 397.0, \"cpu_mode\": false, \"dropout_pctg\": 0.05210201757926661, \"filter_sizes\": [1, 2, 3, 4, 5], \"glove_dim\": 100, \"gpu_no\": 1, \"num_filters\": 1129.0, \"rnn_bidirectional\": true, \"rnn_hidden_size\": 49.0, \"rnn_num_layers\": 3.0, \"stride\": 1, \"txt_length\": 560.0}": {
…
      0.013609271196985424,
      0.012200453353691906,
      0.0108976069835448
    ],
    "valid_vector": [
      0.020180494035544522,
      0.01774815149924982,
      0.017344537758772798,
      0.01650706776272583,
      0.016390539738766627,
      0.016889619115027173,
      0.017324805248286456
    ],
    "test_vector": [
      0.02011815770499424,
      0.017701496032557128,
      0.017235622916029078,
      0.01644213499028736,
      0.01640513606631616,
      0.01701251447879906,
      0.017461121026704562
    ],
    "train_finish": "2018-12-19 10:30:43.031322",
    "model": "CRNN(\n  (embedding): Embedding(400000, 100)\n  (convs): ModuleList(\n    (0): Conv2d(1, 1129, kernel_size=(1, 100), stride=(1, 1))\n    (1): Conv2d(1, 1129, kernel_size=(2, 100), stride=(1, 1))\n    (2): Conv2d(1, 1129, kernel_size=(3, 100), stride=(1, 1))\n    (3): Conv2d(1, 1129, kernel_size=(4, 100), stride=(1, 1))\n    (4): Conv2d(1, 1129, kernel_size=(5, 100), stride=(1, 1))\n  )\n  (batch_norms): ModuleList(\n    (0): BatchNorm2d(1129, eps=1e-05, momentum=0.1, affine=True, track_running_stats=True)\n    (1): BatchNorm2d(1129, eps=1e-05, momentum=0.1, affine=True, track_running_stats=True)\n    (2): BatchNorm2d(1129, eps=1e-05, momentum=0.1, affine=True, track_running_stats=True)\n    (3): BatchNorm2d(1129, eps=1e-05, momentum=0.1, affine=True, track_running_stats=True)\n    (4): BatchNorm2d(1129, eps=1e-05, momentum=0.1, affine=True, track_running_stats=True)\n  )\n  (gru): GRU(100, 49, num_layers=3, batch_first=True, dropout=0.05, bidirectional=True)\n  (fc1): Linear(in_features=5939, out_features=397, bias=True)\n  (fc2): Linear(in_features=397, out_features=126, bias=True)\n  (dropout): Dropout(p=0.05)\n)"
  },
  "{\"batch_norm\": true, \"bottleneck_fc_dim\": 372.0, \"cpu_mode\": false, \"dropout_pctg\": 0.04738006035522013, \"filter_sizes\": [1, 2, 3, 4, 5], \"glove_dim\": 100, \"gpu_no\": 1, \"num_filters\": 1121.0, \"rnn_bidirectional\": true, \"rnn_hidden_size\": 41.0, \"rnn_num_layers\": 3.0, \"stride\": 1, \"txt_length\": 699.0}": {
…
      0.019427320303190637,
      0.017153249212154043,
      0.01546226823073787,
      0.014000722915436099,
      0.012703835820578428
    ],
    "valid_vector": [
      0.020753595735262167,
      0.01820265126130633,
      0.01693604036340061,
      0.01647143718699164,
      0.016479759377046134,
      0.016749331452968176
    ],
    "test_vector": [
      0.02051980010489983,
      0.01807682454061788,
      0.016750188512620386,
      0.01643697372171035,
      0.01647562574126573,
      0.016755460160794353
    ],
    "train_finish": "2018-12-19 11:36:04.016561",
    "model": "CRNN(\n  (embedding): Embedding(400000, 100)\n  (convs): ModuleList(\n    (0): Conv2d(1, 1121, kernel_size=(1, 100), stride=(1, 1))\n    (1): Conv2d(1, 1121, kernel_size=(2, 100), stride=(1, 1))\n    (2): Conv2d(1, 1121, kernel_size=(3, 100), stride=(1, 1))\n    (3): Conv2d(1, 1121, kernel_size=(4, 100), stride=(1, 1))\n    (4): Conv2d(1, 1121, kernel_size=(5, 100), stride=(1, 1))\n  )\n  (batch_norms): ModuleList(\n    (0): BatchNorm2d(1121, eps=1e-05, momentum=0.1, affine=True, track_running_stats=True)\n    (1): BatchNorm2d(1121, eps=1e-05, momentum=0.1, affine=True, track_running_stats=True)\n    (2): BatchNorm2d(1121, eps=1e-05, momentum=0.1, affine=True, track_running_stats=True)\n    (3): BatchNorm2d(1121, eps=1e-05, momentum=0.1, affine=True, track_running_stats=True)\n    (4): BatchNorm2d(1121, eps=1e-05, momentum=0.1, affine=True, track_running_stats=True)\n  )\n  (gru): GRU(100, 41, num_layers=3, batch_first=True, dropout=0.05, bidirectional=True)\n  (fc1): Linear(in_features=5851, out_features=372, bias=True)\n  (fc2): Linear(in_features=372, out_features=126, bias=True)\n  (dropout): Dropout(p=0.05)\n)"
  },
  "{\"batch_norm\": true, \"bottleneck_fc_dim\": 296.0, \"cpu_mode\": false, \"dropout_pctg\": 0.30528984664254843, \"filter_sizes\": [2, 3, 4], \"glove_dim\": 100, \"gpu_no\": 0, \"num_filters\": 716.0, \"rnn_bidirectional\": true, \"rnn_hidden_size\": 16.0, \"rnn_num_layers\": 3.0, \"stride\": 1, \"txt_length\": 539.0}": {
…
      0.02139598102733763,
      0.019619430841030135,
      0.018992119883152365,
      0.018375946346596915,
      0.017834557708216778,
      0.017854794545639267,
      0.01777205709802376,
      0.017916474041830836,
      0.01815315135538693
    ],
    "test_vector": [
      0.021231757177075726,
      0.01958364824742587,
      0.01901306182559111,
      0.018352786279611115,
      0.01778100858897225,
      0.017739702292136166,
      0.017685238909381413,
      0.01784575819127214,
      0.018117559505805278
    ],
    "train_finish": "2018-12-18 17:44:06.723059",
    "model": "CRNN(\n  (embedding): Embedding(400000, 100)\n  (convs): ModuleList(\n    (0): Conv2d(1, 716, kernel_size=(2, 100), stride=(1, 1))\n    (1): Conv2d(1, 716, kernel_size=(3, 100), stride=(1, 1))\n    (2): Conv2d(1, 716, kernel_size=(4, 100), stride=(1, 1))\n  )\n  (batch_norms): ModuleList(\n    (0): BatchNorm2d(716, eps=1e-05, momentum=0.1, affine=True, track_running_stats=True)\n    (1): BatchNorm2d(716, eps=1e-05, momentum=0.1, affine=True, track_running_stats=True)\n    (2): BatchNorm2d(716, eps=1e-05, momentum=0.1, affine=True, track_running_stats=True)\n  )\n  (gru): GRU(100, 16, num_layers=3, batch_first=True, dropout=0.31, bidirectional=True)\n  (fc1): Linear(in_features=2244, out_features=296, bias=True)\n  (fc2): Linear(in_features=296, out_features=126, bias=True)\n  (dropout): Dropout(p=0.31)\n)"
  },
  "{\"batch_norm\": true, \"bottleneck_fc_dim\": 367.0, \"cpu_mode\": false, \"dropout_pctg\": 0.2912952297012163, \"filter_sizes\": [3, 4, 5, 6], \"glove_dim\": 100, \"gpu_no\": 0, \"num_filters\": 1177.0, \"rnn_bidirectional\": false, \"rnn_hidden_size\": 31.0, \"rnn_num_layers\": 3.0, \"stride\": 1, \"txt_length\": 699.0}": {
…
      0.014182131370706454
    ],
    "valid_vector": [
      0.02221759610639603,
      0.019923306398663614,
      0.018658607796545445,
      0.018480269957571103,
      0.017909660340107575,
      0.01787364736269129,
      0.017910223033379462,
      0.019000451492608837
    ],
    "test_vector": [
      0.021923369555267445,
      0.019654179657144204,
      0.018540103981362733,
      0.01836983791625957,
      0.017885875743208154,
      0.017939430667456787,
      0.01789754667857499,
      0.019000917633395713
    ],
    "train_finish": "2018-12-18 18:47:47.054649",
    "model": "CRNN(\n  (embedding): Embedding(400000, 100)\n  (convs): ModuleList(\n    (0): Conv2d(1, 1177, kernel_size=(3, 100), stride=(1, 1))\n    (1): Conv2d(1, 1177, kernel_size=(4, 100), stride=(1, 1))\n    (2): Conv2d(1, 1177, kernel_size=(5, 100), stride=(1, 1))\n    (3): Conv2d(1, 1177, kernel_size=(6, 100), stride=(1, 1))\n  )\n  (batch_norms): ModuleList(\n    (0): BatchNorm2d(1177, eps=1e-05, momentum=0.1, affine=True, track_running_stats=True)\n    (1): BatchNorm2d(1177, eps=1e-05, momentum=0.1, affine=True, track_running_stats=True)\n    (2): BatchNorm2d(1177, eps=1e-05, momentum=0.1, affine=True, track_running_stats=True)\n    (3): BatchNorm2d(1177, eps=1e-05, momentum=0.1, affine=True, track_running_stats=True)\n  )\n  (gru): GRU(100, 31, num_layers=3, batch_first=True, dropout=0.29)\n  (fc1): Linear(in_features=4801, out_features=367, bias=True)\n  (fc2): Linear(in_features=367, out_features=126, bias=True)\n  (dropout): Dropout(p=0.29)\n)"
  },
  "{\"batch_norm\": true, \"bottleneck_fc_dim\": 498.0, \"cpu_mode\": false, \"dropout_pctg\": 0.05068522625561185, \"filter_sizes\": [1, 2, 3, 4, 5, 6], \"glove_dim\": 100, \"gpu_no\": 0, \"num_filters\": 1029.0, \"rnn_bidirectional\": false, \"rnn_hidden_size\": 32.0, \"rnn_num_layers\": 2.0, \"stride\": 1, \"txt_length\": 564.0}": {
…
      0.0198800530875541,
      0.017350334303380014,
      0.0154068273239448,
      0.013606080743896685,
      0.011927048326966928
    ],
    "valid_vector": [
      0.0210778829480297,
      0.01838143922943078,
      0.017538544508307847,
      0.017108275659947294,
      0.017331743127738893,
      0.01782477758566676
    ],
    "test_vector": [
      0.020867043000056165,
      0.018194733020752224,
      0.017455442004334697,
      0.016913279773854116,
      0.01730221836889254,
      0.017763469680976956
    ],
    "train_finish": "2018-12-18 19:30:38.166502",
    "model": "CRNN(\n  (embedding): Embedding(400000, 100)\n  (convs): ModuleList(\n    (0): Conv2d(1, 1029, kernel_size=(1, 100), stride=(1, 1))\n    (1): Conv2d(1, 1029, kernel_size=(2, 100), stride=(1, 1))\n    (2): Conv2d(1, 1029, kernel_size=(3, 100), stride=(1, 1))\n    (3): Conv2d(1, 1029, kernel_size=(4, 100), stride=(1, 1))\n    (4): Conv2d(1, 1029, kernel_size=(5, 100), stride=(1, 1))\n    (5): Conv2d(1, 1029, kernel_size=(6, 100), stride=(1, 1))\n  )\n  (batch_norms): ModuleList(\n    (0): BatchNorm2d(1029, eps=1e-05, momentum=0.1, affine=True, track_running_stats=True)\n    (1): BatchNorm2d(1029, eps=1e-05, momentum=0.1, affine=True, track_running_stats=True)\n    (2): BatchNorm2d(1029, eps=1e-05, momentum=0.1, affine=True, track_running_stats=True)\n    (3): BatchNorm2d(1029, eps=1e-05, momentum=0.1, affine=True, track_running_stats=True)\n    (4): BatchNorm2d(1029, eps=1e-05, momentum=0.1, affine=True, track_running_stats=True)\n    (5): BatchNorm2d(1029, eps=1e-05, momentum=0.1, affine=True, track_running_stats=True)\n  )\n  (gru): GRU(100, 32, num_layers=2, batch_first=True, dropout=0.05)\n  (fc1): Linear(in_features=6238, out_features=498, bias=True)\n  (fc2): Linear(in_features=498, out_features=126, bias=True)\n  (dropout): Dropout(p=0.05)\n)"
  },
  "{\"batch_norm\": false, \"bottleneck_fc_dim\": 343.0, \"cpu_mode\": false, \"dropout_pctg\": 0.229061123111767, \"filter_sizes\": [2, 3, 4], \"glove_dim\": 100, \"gpu_no\": 0, \"num_filters\": 1128.0, \"rnn_bidirectional\": false, \"rnn_hidden_size\": 38.0, \"rnn_num_layers\": 2.0, \"stride\": 2, \"txt_length\": 798.0}": {
…
      "pAtK_5": 0.571102078891258
    },
    "train_vector": [
      0.029711039404642224,
      0.020979118246929034,
      0.01872269406712444,
      0.01715722291684623,
      0.015847078532729948
    ],
    "valid_vector": [
      0.02083858270605188,
      0.020144574130688712,
      0.020102194343472143,
      0.020200798202475816,
      0.0207012395660799
    ],
    "test_vector": [
      0.02062670434159892,
      0.02007018976104158,
      0.019803266156155037,
      0.019923934180821692,
      0.020470414783305198
    ],
    "train_finish": "2018-12-18 19:47:51.710727",
    "model": "CRNN(\n  (embedding): Embedding(400000, 100)\n  (convs): ModuleList(\n    (0): Conv2d(1, 1128, kernel_size=(2, 100), stride=(2, 2))\n    (1): Conv2d(1, 1128, kernel_size=(3, 100), stride=(2, 2))\n    (2): Conv2d(1, 1128, kernel_size=(4, 100), stride=(2, 2))\n  )\n  (batch_norms): ModuleList(\n    (0): BatchNorm2d(1128, eps=1e-05, momentum=0.1, affine=True, track_running_stats=True)\n    (1): BatchNorm2d(1128, eps=1e-05, momentum=0.1, affine=True, track_running_stats=True)\n    (2): BatchNorm2d(1128, eps=1e-05, momentum=0.1, affine=True, track_running_stats=True)\n  )\n  (gru): GRU(100, 38, num_layers=2, batch_first=True, dropout=0.23)\n  (fc1): Linear(in_features=3460, out_features=343, bias=True)\n  (fc2): Linear(in_features=343, out_features=126, bias=True)\n  (dropout): Dropout(p=0.23)\n)"
  },
  "{\"batch_norm\": true, \"bottleneck_fc_dim\": 362.0, \"cpu_mode\": false, \"dropout_pctg\": 0.03865485289597081, \"filter_sizes\": [1, 2, 3], \"glove_dim\": 100, \"gpu_no\": 0, \"num_filters\": 1007.0, \"rnn_bidirectional\": true, \"rnn_hidden_size\": 24.0, \"rnn_num_layers\": 2.0, \"stride\": 1, \"txt_length\": 577.0}": {
…
      0.01454769761841784,
      0.01345535438160413,
      0.012478066343300268
    ],
    "valid_vector": [
      0.020615149527164634,
      0.018003055392064527,
      0.01725973183292149,
      0.017041919522606995,
      0.01668444345519046,
      0.0168077348296328,
      0.017310556311627975
    ],
    "test_vector": [
      0.020498227721243018,
      0.01786840392121755,
      0.01725786890008493,
      0.017045989017020157,
      0.016636192089697317,
      0.01681311863131011,
      0.01737370638291973
    ],
    "train_finish": "2018-12-18 20:22:01.237229",
    "model": "CRNN(\n  (embedding): Embedding(400000, 100)\n  (convs): ModuleList(\n    (0): Conv2d(1, 1007, kernel_size=(1, 100), stride=(1, 1))\n    (1): Conv2d(1, 1007, kernel_size=(2, 100), stride=(1, 1))\n    (2): Conv2d(1, 1007, kernel_size=(3, 100), stride=(1, 1))\n  )\n  (batch_norms): ModuleList(\n    (0): BatchNorm2d(1007, eps=1e-05, momentum=0.1, affine=True, track_running_stats=True)\n    (1): BatchNorm2d(1007, eps=1e-05, momentum=0.1, affine=True, track_running_stats=True)\n    (2): BatchNorm2d(1007, eps=1e-05, momentum=0.1, affine=True, track_running_stats=True)\n  )\n  (gru): GRU(100, 24, num_layers=2, batch_first=True, dropout=0.04, bidirectional=True)\n  (fc1): Linear(in_features=3117, out_features=362, bias=True)\n  (fc2): Linear(in_features=362, out_features=126, bias=True)\n  (dropout): Dropout(p=0.04)\n)"
  },
  "{\"batch_norm\": false, \"bottleneck_fc_dim\": 385.0, \"cpu_mode\": false, \"dropout_pctg\": 0.37149415055938134, \"filter_sizes\": [1, 2, 3, 4, 5], \"glove_dim\": 100, \"gpu_no\": 0, \"num_filters\": 724.0, \"rnn_bidirectional\": false, \"rnn_hidden_size\": 19.0, \"rnn_num_layers\": 3.0, \"stride\": 1, \"txt_length\": 622.0}": {
…
      0.021319255390102113,
      0.019292366375357486,
      0.017938428722036725,
      0.016851057446330166,
      0.015982123309241463
    ],
    "valid_vector": [
      0.020445720994594827,
      0.019063595402886522,
      0.019139857756208255,
      0.01887808428361897,
      0.019657770619426827,
      0.019849056016598175
    ],
    "test_vector": [
      0.02026703657268652,
      0.019016424084761376,
      0.0193871479294797,
      0.01890457902492872,
      0.019459793673776614,
      0.02002438913180884
    ],
    "train_finish": "2018-12-18 20:53:28.148775",
    "model": "CRNN(\n  (embedding): Embedding(400000, 100)\n  (convs): ModuleList(\n    (0): Conv2d(1, 724, kernel_size=(1, 100), stride=(1, 1))\n    (1): Conv2d(1, 724, kernel_size=(2, 100), stride=(1, 1))\n    (2): Conv2d(1, 724, kernel_size=(3, 100), stride=(1, 1))\n    (3): Conv2d(1, 724, kernel_size=(4, 100), stride=(1, 1))\n    (4): Conv2d(1, 724, kernel_size=(5, 100), stride=(1, 1))\n  )\n  (batch_norms): ModuleList(\n    (0): BatchNorm2d(724, eps=1e-05, momentum=0.1, affine=True, track_running_stats=True)\n    (1): BatchNorm2d(724, eps=1e-05, momentum=0.1, affine=True, track_running_stats=True)\n    (2): BatchNorm2d(724, eps=1e-05, momentum=0.1, affine=True, track_running_stats=True)\n    (3): BatchNorm2d(724, eps=1e-05, momentum=0.1, affine=True, track_running_stats=True)\n    (4): BatchNorm2d(724, eps=1e-05, momentum=0.1, affine=True, track_running_stats=True)\n  )\n  (gru): GRU(100, 19, num_layers=3, batch_first=True, dropout=0.37)\n  (fc1): Linear(in_features=3677, out_features=385, bias=True)\n  (fc2): Linear(in_features=385, out_features=126, bias=True)\n  (dropout): Dropout(p=0.37)\n)"
  },
  "{\"batch_norm\": false, \"bottleneck_fc_dim\": 461.0, \"cpu_mode\": false, \"dropout_pctg\": 0.15447617150391763, \"filter_sizes\": [3, 4, 5, 6], \"glove_dim\": 100, \"gpu_no\": 0, \"num_filters\": 902.0, \"rnn_bidirectional\": true, \"rnn_hidden_size\": 37.0, \"rnn_num_layers\": 2.0, \"stride\": 2, \"txt_length\": 656.0}": {
…
      "pAtK_1": 0.9691164712153518,
      "pAtK_3": 0.8322783404406539,
      "pAtK_5": 0.5758928571428571
    },
    "train_vector": [
      0.026176423292851577,
      0.018181480884898887,
      0.01576374439853606,
      0.013918986446979548
    ],
    "valid_vector": [
      0.01955637395052291,
      0.018414718976645456,
      0.01845041388419391,
      0.018711843378424867
    ],
    "test_vector": [
      0.01946896830323472,
      0.018340045081844718,
      0.01833230578330661,
      0.018625886507157578
    ],
    "train_finish": "2018-12-18 21:12:53.642404",
    "model": "CRNN(\n  (embedding): Embedding(400000, 100)\n  (convs): ModuleList(\n    (0): Conv2d(1, 902, kernel_size=(3, 100), stride=(2, 2))\n    (1): Conv2d(1, 902, kernel_size=(4, 100), stride=(2, 2))\n    (2): Conv2d(1, 902, kernel_size=(5, 100), stride=(2, 2))\n    (3): Conv2d(1, 902, kernel_size=(6, 100), stride=(2, 2))\n  )\n  (batch_norms): ModuleList(\n    (0): BatchNorm2d(902, eps=1e-05, momentum=0.1, affine=True, track_running_stats=True)\n    (1): BatchNorm2d(902, eps=1e-05, momentum=0.1, affine=True, track_running_stats=True)\n    (2): BatchNorm2d(902, eps=1e-05, momentum=0.1, affine=True, track_running_stats=True)\n    (3): BatchNorm2d(902, eps=1e-05, momentum=0.1, affine=True, track_running_stats=True)\n  )\n  (gru): GRU(100, 37, num_layers=2, batch_first=True, dropout=0.15, bidirectional=True)\n  (fc1): Linear(in_features=3756, out_features=461, bias=True)\n  (fc2): Linear(in_features=461, out_features=126, bias=True)\n  (dropout): Dropout(p=0.15)\n)"
  },
  "{\"batch_norm\": false, \"bottleneck_fc_dim\": 352.0, \"cpu_mode\": false, \"dropout_pctg\": 0.12211277042107561, \"filter_sizes\": [1, 2, 3, 4, 5], \"glove_dim\": 100, \"gpu_no\": 0, \"num_filters\": 787.0, \"rnn_bidirectional\": false, \"rnn_hidden_size\": 30.0, \"rnn_num_layers\": 2.0, \"stride\": 2, \"txt_length\": 664.0}": {
…
      "pAtK_1": 0.9634528251599147,
      "pAtK_3": 0.8262593283582089,
      "pAtK_5": 0.5721681769722814
    },
    "train_vector": [
      0.026991944429101848,
      0.018946812920502945,
      0.016533651102553924,
      0.01463368121028173
    ],
    "valid_vector": [
      0.020827448058343218,
      0.0193613754097136,
      0.019494796964724156,
      0.0203150239283356
    ],
    "test_vector": [
      0.02071974933870248,
      0.01912472509086005,
      0.019294573609699318,
      0.020130170535034082
    ],
    "train_finish": "2018-12-18 21:26:16.828707",
    "model": "CRNN(\n  (embedding): Embedding(400000, 100)\n  (convs): ModuleList(\n    (0): Conv2d(1, 787, kernel_size=(1, 100), stride=(2, 2))\n    (1): Conv2d(1, 787, kernel_size=(2, 100), stride=(2, 2))\n    (2): Conv2d(1, 787, kernel_size=(3, 100), stride=(2, 2))\n    (3): Conv2d(1, 787, kernel_size=(4, 100), stride=(2, 2))\n    (4): Conv2d(1, 787, kernel_size=(5, 100), stride=(2, 2))\n  )\n  (batch_norms): ModuleList(\n    (0): BatchNorm2d(787, eps=1e-05, momentum=0.1, affine=True, track_running_stats=True)\n    (1): BatchNorm2d(787, eps=1e-05, momentum=0.1, affine=True, track_running_stats=True)\n    (2): BatchNorm2d(787, eps=1e-05, momentum=0.1, affine=True, track_running_stats=True)\n    (3): BatchNorm2d(787, eps=1e-05, momentum=0.1, affine=True, track_running_stats=True)\n    (4): BatchNorm2d(787, eps=1e-05, momentum=0.1, affine=True, track_running_stats=True)\n  )\n  (gru): GRU(100, 30, num_layers=2, batch_first=True, dropout=0.12)\n  (fc1): Linear(in_features=3995, out_features=352, bias=True)\n  (fc2): Linear(in_features=352, out_features=126, bias=True)\n  (dropout): Dropout(p=0.12)\n)"
  },
  "{\"batch_norm\": true, \"bottleneck_fc_dim\": 398.0, \"cpu_mode\": false, \"dropout_pctg\": 0.16981821510233144, \"filter_sizes\": [1, 2, 3, 4, 5, 6], \"glove_dim\": 100, \"gpu_no\": 0, \"num_filters\": 1086.0, \"rnn_bidirectional\": true, \"rnn_hidden_size\": 40.0, \"rnn_num_layers\": 1.0, \"stride\": 1, \"txt_length\": 793.0}": {
…
      0.021131833602764754,
      0.0186958248956127,
      0.016840104249245393,
      0.015364931082415614,
      0.013991891411570444
    ],
    "valid_vector": [
      0.02191727433844146,
      0.018454226697343333,
      0.017529638487347232,
      0.01676314023061733,
      0.01710453295860805,
      0.016909090784636004
    ],
    "test_vector": [
      0.021604092023186465,
      0.01830491257199982,
      0.017337480039675352,
      0.01666902237311641,
      0.01689263084915274,
      0.016850972286999416
    ],
    "train_finish": "2018-12-18 22:27:26.552213",
    "model": "CRNN(\n  (embedding): Embedding(400000, 100)\n  (convs): ModuleList(\n    (0): Conv2d(1, 1086, kernel_size=(1, 100), stride=(1, 1))\n    (1): Conv2d(1, 1086, kernel_size=(2, 100), stride=(1, 1))\n    (2): Conv2d(1, 1086, kernel_size=(3, 100), stride=(1, 1))\n    (3): Conv2d(1, 1086, kernel_size=(4, 100), stride=(1, 1))\n    (4): Conv2d(1, 1086, kernel_size=(5, 100), stride=(1, 1))\n    (5): Conv2d(1, 1086, kernel_size=(6, 100), stride=(1, 1))\n  )\n  (batch_norms): ModuleList(\n    (0): BatchNorm2d(1086, eps=1e-05, momentum=0.1, affine=True, track_running_stats=True)\n    (1): BatchNorm2d(1086, eps=1e-05, momentum=0.1, affine=True, track_running_stats=True)\n    (2): BatchNorm2d(1086, eps=1e-05, momentum=0.1, affine=True, track_running_stats=True)\n    (3): BatchNorm2d(1086, eps=1e-05, momentum=0.1, affine=True, track_running_stats=True)\n    (4): BatchNorm2d(1086, eps=1e-05, momentum=0.1, affine=True, track_running_stats=True)\n    (5): BatchNorm2d(1086, eps=1e-05, momentum=0.1, affine=True, track_running_stats=True)\n  )\n  (gru): GRU(100, 40, batch_first=True, dropout=0.17, bidirectional=True)\n  (fc1): Linear(in_features=6596, out_features=398, bias=True)\n  (fc2): Linear(in_features=398, out_features=126, bias=True)\n  (dropout): Dropout(p=0.17)\n)"
  },
  "{\"batch_norm\": true, \"bottleneck_fc_dim\": 483.0, \"cpu_mode\": false, \"dropout_pctg\": 0.4430641474433266, \"filter_sizes\": [2, 3, 4, 5], \"glove_dim\": 100, \"gpu_no\": 0, \"num_filters\": 908.0, \"rnn_bidirectional\": true, \"rnn_hidden_size\": 9.0, \"rnn_num_layers\": 2.0, \"stride\": 2, \"txt_length\": 727.0}": {
…
      0.025219456148070453,
      0.022486601361066595,
      0.020650353564223792,
      0.019171549065442103,
      0.017906059896157955
    ],
    "valid_vector": [
      0.023403379422769363,
      0.020703347987368274,
      0.019223491452000877,
      0.018765490520735586,
      0.01906355034618545,
      0.018819457893175427
    ],
    "test_vector": [
      0.023280329450265938,
      0.020545846474831545,
      0.019076289074904502,
      0.01861046540981798,
      0.01883618736059776,
      0.018607799209026832
    ],
    "train_finish": "2018-12-18 22:57:19.953736",
    "model": "CRNN(\n  (embedding): Embedding(400000, 100)\n  (convs): ModuleList(\n    (0): Conv2d(1, 908, kernel_size=(2, 100), stride=(2, 2))\n    (1): Conv2d(1, 908, kernel_size=(3, 100), stride=(2, 2))\n    (2): Conv2d(1, 908, kernel_size=(4, 100), stride=(2, 2))\n    (3): Conv2d(1, 908, kernel_size=(5, 100), stride=(2, 2))\n  )\n  (batch_norms): ModuleList(\n    (0): BatchNorm2d(908, eps=1e-05, momentum=0.1, affine=True, track_running_stats=True)\n    (1): BatchNorm2d(908, eps=1e-05, momentum=0.1, affine=True, track_running_stats=True)\n    (2): BatchNorm2d(908, eps=1e-05, momentum=0.1, affine=True, track_running_stats=True)\n    (3): BatchNorm2d(908, eps=1e-05, momentum=0.1, affine=True, track_running_stats=True)\n  )\n  (gru): GRU(100, 9, num_layers=2, batch_first=True, dropout=0.44, bidirectional=True)\n  (fc1): Linear(in_features=3668, out_features=483, bias=True)\n  (fc2): Linear(in_features=483, out_features=126, bias=True)\n  (dropout): Dropout(p=0.44)\n)"
  },
  "{\"batch_norm\": true, \"bottleneck_fc_dim\": 408.0, \"cpu_mode\": false, \"dropout_pctg\": 0.20532347418928798, \"filter_sizes\": [1, 2, 3], \"glove_dim\": 100, \"gpu_no\": 0, \"num_filters\": 695.0, \"rnn_bidirectional\": false, \"rnn_hidden_size\": 8.0, \"rnn_num_layers\": 2.0, \"stride\": 1, \"txt_length\": 778.0}": {
…
      0.021250041962505926,
      0.01988054250083022,
      0.01844234656835936,
      0.01810843810495704,
      0.0178754436336696,
      0.01772156894740178,
      0.017694361446333972,
      0.017854574041864052,
      0.01770528252517034
    ],
    "test_vector": [
      0.021058359171456494,
      0.019661620843099123,
      0.018262743971733525,
      0.01782328733252977,
      0.017697102981986904,
      0.017513113614640384,
      0.017545927105459578,
      0.01775208171576198,
      0.017512431141854856
    ],
    "train_finish": "2018-12-18 23:33:38.319510",
    "model": "CRNN(\n  (embedding): Embedding(400000, 100)\n  (convs): ModuleList(\n    (0): Conv2d(1, 695, kernel_size=(1, 100), stride=(1, 1))\n    (1): Conv2d(1, 695, kernel_size=(2, 100), stride=(1, 1))\n    (2): Conv2d(1, 695, kernel_size=(3, 100), stride=(1, 1))\n  )\n  (batch_norms): ModuleList(\n    (0): BatchNorm2d(695, eps=1e-05, momentum=0.1, affine=True, track_running_stats=True)\n    (1): BatchNorm2d(695, eps=1e-05, momentum=0.1, affine=True, track_running_stats=True)\n    (2): BatchNorm2d(695, eps=1e-05, momentum=0.1, affine=True, track_running_stats=True)\n  )\n  (gru): GRU(100, 8, num_layers=2, batch_first=True, dropout=0.21)\n  (fc1): Linear(in_features=2101, out_features=408, bias=True)\n  (fc2): Linear(in_features=408, out_features=126, bias=True)\n  (dropout): Dropout(p=0.21)\n)"
  },
  "{\"batch_norm\": true, \"bottleneck_fc_dim\": 226.0, \"cpu_mode\": false, \"dropout_pctg\": 0.17333987314417132, \"filter_sizes\": [3, 4, 5, 6], \"glove_dim\": 100, \"gpu_no\": 0, \"num_filters\": 982.0, \"rnn_bidirectional\": false, \"rnn_hidden_size\": 25.0, \"rnn_num_layers\": 3.0, \"stride\": 1, \"txt_length\": 710.0}": {
…
      0.01701735553772486,
      0.015606803443579037,
      0.014348062650964515
    ],
    "valid_vector": [
      0.02182729088707265,
      0.01999387464179262,
      0.018660446341737295,
      0.018544891722319618,
      0.018291365944900547,
      0.0189160094381735,
      0.018817885629105458
    ],
    "test_vector": [
      0.02155799130156541,
      0.019853056307191023,
      0.018457865449728997,
      0.018321306156768982,
      0.018264004551589108,
      0.018712406193634977,
      0.018697944138127604
    ],
    "train_finish": "2018-12-19 00:23:53.190163",
    "model": "CRNN(\n  (embedding): Embedding(400000, 100)\n  (convs): ModuleList(\n    (0): Conv2d(1, 982, kernel_size=(3, 100), stride=(1, 1))\n    (1): Conv2d(1, 982, kernel_size=(4, 100), stride=(1, 1))\n    (2): Conv2d(1, 982, kernel_size=(5, 100), stride=(1, 1))\n    (3): Conv2d(1, 982, kernel_size=(6, 100), stride=(1, 1))\n  )\n  (batch_norms): ModuleList(\n    (0): BatchNorm2d(982, eps=1e-05, momentum=0.1, affine=True, track_running_stats=True)\n    (1): BatchNorm2d(982, eps=1e-05, momentum=0.1, affine=True, track_running_stats=True)\n    (2): BatchNorm2d(982, eps=1e-05, momentum=0.1, affine=True, track_running_stats=True)\n    (3): BatchNorm2d(982, eps=1e-05, momentum=0.1, affine=True, track_running_stats=True)\n  )\n  (gru): GRU(100, 25, num_layers=3, batch_first=True, dropout=0.17)\n  (fc1): Linear(in_features=4003, out_features=226, bias=True)\n  (fc2): Linear(in_features=226, out_features=126, bias=True)\n  (dropout): Dropout(p=0.17)\n)"
  },
  "{\"batch_norm\": true, \"bottleneck_fc_dim\": 265.0, \"cpu_mode\": false, \"dropout_pctg\": 0.12153876288474474, \"filter_sizes\": [3, 4, 5], \"glove_dim\": 100, \"gpu_no\": 0, \"num_filters\": 610.0, \"rnn_bidirectional\": false, \"rnn_hidden_size\": 11.0, \"rnn_num_layers\": 2.0, \"stride\": 2, \"txt_length\": 656.0}": {
…
      0.015947195894374107,
      0.01459127572551966,
      0.013460403821394325
    ],
    "valid_vector": [
      0.021787960723445597,
      0.020252601011966003,
      0.01904528374587104,
      0.018549888281212217,
      0.018445964507348558,
      0.01885566447324344,
      0.01906624210833101
    ],
    "test_vector": [
      0.021550376857839414,
      0.02005644515156746,
      0.01881610088622265,
      0.018469586549426067,
      0.018362865660156904,
      0.01877302361894518,
      0.019014726730504396
    ],
    "train_finish": "2018-12-19 00:40:49.511404",
    "model": "CRNN(\n  (embedding): Embedding(400000, 100)\n  (convs): ModuleList(\n    (0): Conv2d(1, 610, kernel_size=(3, 100), stride=(2, 2))\n    (1): Conv2d(1, 610, kernel_size=(4, 100), stride=(2, 2))\n    (2): Conv2d(1, 610, kernel_size=(5, 100), stride=(2, 2))\n  )\n  (batch_norms): ModuleList(\n    (0): BatchNorm2d(610, eps=1e-05, momentum=0.1, affine=True, track_running_stats=True)\n    (1): BatchNorm2d(610, eps=1e-05, momentum=0.1, affine=True, track_running_stats=True)\n    (2): BatchNorm2d(610, eps=1e-05, momentum=0.1, affine=True, track_running_stats=True)\n  )\n  (gru): GRU(100, 11, num_layers=2, batch_first=True, dropout=0.12)\n  (fc1): Linear(in_features=1852, out_features=265, bias=True)\n  (fc2): Linear(in_features=265, out_features=126, bias=True)\n  (dropout): Dropout(p=0.12)\n)"
  },
  "{\"batch_norm\": false, \"bottleneck_fc_dim\": 361.0, \"cpu_mode\": false, \"dropout_pctg\": 0.26381807872397145, \"filter_sizes\": [3, 4, 5], \"glove_dim\": 100, \"gpu_no\": 0, \"num_filters\": 807.0, \"rnn_bidirectional\": true, \"rnn_hidden_size\": 14.0, \"rnn_num_layers\": 1.0, \"stride\": 2, \"txt_length\": 517.0}": {
…
      "pAtK_5": 0.5715351812366738
    },
    "train_vector": [
      0.028946633584371977,
      0.020057850197035116,
      0.017860758291525624,
      0.016240645973300095,
      0.014984283179319052
    ],
    "valid_vector": [
      0.020469928576078798,
      0.019079932864300653,
      0.018814683521488136,
      0.01913547305303858,
      0.020146003025504493
    ],
    "test_vector": [
      0.02037817705621216,
      0.019004699494093974,
      0.01875365947260023,
      0.019119369684220122,
      0.020229092751468804
    ],
    "train_finish": "2018-12-19 00:50:55.882334",
    "model": "CRNN(\n  (embedding): Embedding(400000, 100)\n  (convs): ModuleList(\n    (0): Conv2d(1, 807, kernel_size=(3, 100), stride=(2, 2))\n    (1): Conv2d(1, 807, kernel_size=(4, 100), stride=(2, 2))\n    (2): Conv2d(1, 807, kernel_size=(5, 100), stride=(2, 2))\n  )\n  (batch_norms): ModuleList(\n    (0): BatchNorm2d(807, eps=1e-05, momentum=0.1, affine=True, track_running_stats=True)\n    (1): BatchNorm2d(807, eps=1e-05, momentum=0.1, affine=True, track_running_stats=True)\n    (2): BatchNorm2d(807, eps=1e-05, momentum=0.1, affine=True, track_running_stats=True)\n  )\n  (gru): GRU(100, 14, batch_first=True, dropout=0.26, bidirectional=True)\n  (fc1): Linear(in_features=2449, out_features=361, bias=True)\n  (fc2): Linear(in_features=361, out_features=126, bias=True)\n  (dropout): Dropout(p=0.26)\n)"
  },
  "{\"batch_norm\": false, \"bottleneck_fc_dim\": 459.0, \"cpu_mode\": false, \"dropout_pctg\": 0.44684906405847813, \"filter_sizes\": [2, 3, 4], \"glove_dim\": 100, \"gpu_no\": 0, \"num_filters\": 867.0, \"rnn_bidirectional\": true, \"rnn_hidden_size\": 28.0, \"rnn_num_layers\": 2.0, \"stride\": 1, \"txt_length\": 519.0}": {
…
      "pAtK_5": 0.5764792110874201
    },
    "train_vector": [
      0.029418144541570924,
      0.021153557530515843,
      0.019226242886411907,
      0.018022054684096938,
      0.016989423456555082
    ],
    "valid_vector": [
      0.0198155782387298,
      0.018781329131201664,
      0.018074380191189964,
      0.018112795615964915,
      0.01825080788570212
    ],
    "test_vector": [
      0.01970779770480862,
      0.0187823229443544,
      0.018058202765596065,
      0.01812187412670299,
      0.01842119663294508
    ],
    "train_finish": "2018-12-19 01:10:58.252870",
    "model": "CRNN(\n  (embedding): Embedding(400000, 100)\n  (convs): ModuleList(\n    (0): Conv2d(1, 867, kernel_size=(2, 100), stride=(1, 1))\n    (1): Conv2d(1, 867, kernel_size=(3, 100), stride=(1, 1))\n    (2): Conv2d(1, 867, kernel_size=(4, 100), stride=(1, 1))\n  )\n  (batch_norms): ModuleList(\n    (0): BatchNorm2d(867, eps=1e-05, momentum=0.1, affine=True, track_running_stats=True)\n    (1): BatchNorm2d(867, eps=1e-05, momentum=0.1, affine=True, track_running_stats=True)\n    (2): BatchNorm2d(867, eps=1e-05, momentum=0.1, affine=True, track_running_stats=True)\n  )\n  (gru): GRU(100, 28, num_layers=2, batch_first=True, dropout=0.45, bidirectional=True)\n  (fc1): Linear(in_features=2713, out_features=459, bias=True)\n  (fc2): Linear(in_features=459, out_features=126, bias=True)\n  (dropout): Dropout(p=0.45)\n)"
  },
  "{\"batch_norm\": false, \"bottleneck_fc_dim\": 237.0, \"cpu_mode\": false, \"dropout_pctg\": 0.04929601278443803, \"filter_sizes\": [1, 2, 3, 4, 5], \"glove_dim\": 100, \"gpu_no\": 0, \"num_filters\": 988.0, \"rnn_bidirectional\": false, \"rnn_hidden_size\": 8.0, \"rnn_num_layers\": 2.0, \"stride\": 1, \"txt_length\": 729.0}": {
…
      "pAtK_1": 0.9670509061833689,
      "pAtK_3": 0.8305903518123667,
      "pAtK_5": 0.5737006929637527
    },
    "train_vector": [
      0.026635590903689586,
      0.018514132629354408,
      0.016127110966689995,
      0.014247819510454524
    ],
    "valid_vector": [
      0.020447865651269107,
      0.01880008261874199,
      0.019388762551289337,
      0.020574880949743312
    ],
    "test_vector": [
      0.020389865015520217,
      0.018677521864377232,
      0.01915000130468086,
      0.020434730257322665
    ],
    "train_finish": "2018-12-19 01:38:55.788047",
    "model": "CRNN(\n  (embedding): Embedding(400000, 100)\n  (convs): ModuleList(\n    (0): Conv2d(1, 988, kernel_size=(1, 100), stride=(1, 1))\n    (1): Conv2d(1, 988, kernel_size=(2, 100), stride=(1, 1))\n    (2): Conv2d(1, 988, kernel_size=(3, 100), stride=(1, 1))\n    (3): Conv2d(1, 988, kernel_size=(4, 100), stride=(1, 1))\n    (4): Conv2d(1, 988, kernel_size=(5, 100), stride=(1, 1))\n  )\n  (batch_norms): ModuleList(\n    (0): BatchNorm2d(988, eps=1e-05, momentum=0.1, affine=True, track_running_stats=True)\n    (1): BatchNorm2d(988, eps=1e-05, momentum=0.1, affine=True, track_running_stats=True)\n    (2): BatchNorm2d(988, eps=1e-05, momentum=0.1, affine=True, track_running_stats=True)\n    (3): BatchNorm2d(988, eps=1e-05, momentum=0.1, affine=True, track_running_stats=True)\n    (4): BatchNorm2d(988, eps=1e-05, momentum=0.1, affine=True, track_running_stats=True)\n  )\n  (gru): GRU(100, 8, num_layers=2, batch_first=True, dropout=0.05)\n  (fc1): Linear(in_features=4956, out_features=237, bias=True)\n  (fc2): Linear(in_features=237, out_features=126, bias=True)\n  (dropout): Dropout(p=0.05)\n)"
  },
  "{\"batch_norm\": true, \"bottleneck_fc_dim\": 334.0, \"cpu_mode\": false, \"dropout_pctg\": 0.17049640414179726, \"filter_sizes\": [1, 2, 3], \"glove_dim\": 100, \"gpu_no\": 0, \"num_filters\": 789.0, \"rnn_bidirectional\": true, \"rnn_hidden_size\": 38.0, \"rnn_num_layers\": 1.0, \"stride\": 1, \"txt_length\": 612.0}": {
…
      0.016169637060334575,
      0.01520791002129291,
      0.014378866091322873
    ],
    "valid_vector": [
      0.020401531019742524,
      0.018359136613044166,
      0.017860059992277195,
      0.017260484503401414,
      0.016727159324753434,
      0.016967915884429603,
      0.01708854902731771
    ],
    "test_vector": [
      0.02025545614638499,
      0.018157665873927347,
      0.0177507006080706,
      0.017123614791343843,
      0.016604674102337375,
      0.016919880581181695,
      0.016965733180795587
    ],
    "train_finish": "2018-12-19 02:02:17.895537",
    "model": "CRNN(\n  (embedding): Embedding(400000, 100)\n  (convs): ModuleList(\n    (0): Conv2d(1, 789, kernel_size=(1, 100), stride=(1, 1))\n    (1): Conv2d(1, 789, kernel_size=(2, 100), stride=(1, 1))\n    (2): Conv2d(1, 789, kernel_size=(3, 100), stride=(1, 1))\n  )\n  (batch_norms): ModuleList(\n    (0): BatchNorm2d(789, eps=1e-05, momentum=0.1, affine=True, track_running_stats=True)\n    (1): BatchNorm2d(789, eps=1e-05, momentum=0.1, affine=True, track_running_stats=True)\n    (2): BatchNorm2d(789, eps=1e-05, momentum=0.1, affine=True, track_running_stats=True)\n  )\n  (gru): GRU(100, 38, batch_first=True, dropout=0.17, bidirectional=True)\n  (fc1): Linear(in_features=2443, out_features=334, bias=True)\n  (fc2): Linear(in_features=334, out_features=126, bias=True)\n  (dropout): Dropout(p=0.17)\n)"
  },
  "{\"batch_norm\": true, \"bottleneck_fc_dim\": 401.0, \"cpu_mode\": false, \"dropout_pctg\": 0.29220894404496434, \"filter_sizes\": [1, 2, 3, 4, 5, 6], \"glove_dim\": 100, \"gpu_no\": 0, \"num_filters\": 1052.0, \"rnn_bidirectional\": false, \"rnn_hidden_size\": 36.0, \"rnn_num_layers\": 3.0, \"stride\": 2, \"txt_length\": 542.0}": {
…
      0.024139864433342102,
      0.021262482864724565,
      0.019171743520278096,
      0.01740682087781498,
      0.015832751356472788
    ],
    "valid_vector": [
      0.022571741710049605,
      0.02040521580644492,
      0.01932297788125012,
      0.018505230724468018,
      0.018529660482483824,
      0.018685769888873733
    ],
    "test_vector": [
      0.022400369825981446,
      0.020224596216861627,
      0.01912497321981738,
      0.018357740125374625,
      0.018539441890442675,
      0.018708670881193584
    ],
    "train_finish": "2018-12-19 02:30:11.597831",
    "model": "CRNN(\n  (embedding): Embedding(400000, 100)\n  (convs): ModuleList(\n    (0): Conv2d(1, 1052, kernel_size=(1, 100), stride=(2, 2))\n    (1): Conv2d(1, 1052, kernel_size=(2, 100), stride=(2, 2))\n    (2): Conv2d(1, 1052, kernel_size=(3, 100), stride=(2, 2))\n    (3): Conv2d(1, 1052, kernel_size=(4, 100), stride=(2, 2))\n    (4): Conv2d(1, 1052, kernel_size=(5, 100), stride=(2, 2))\n    (5): Conv2d(1, 1052, kernel_size=(6, 100), stride=(2, 2))\n  )\n  (batch_norms): ModuleList(\n    (0): BatchNorm2d(1052, eps=1e-05, momentum=0.1, affine=True, track_running_stats=True)\n    (1): BatchNorm2d(1052, eps=1e-05, momentum=0.1, affine=True, track_running_stats=True)\n    (2): BatchNorm2d(1052, eps=1e-05, momentum=0.1, affine=True, track_running_stats=True)\n    (3): BatchNorm2d(1052, eps=1e-05, momentum=0.1, affine=True, track_running_stats=True)\n    (4): BatchNorm2d(1052, eps=1e-05, momentum=0.1, affine=True, track_running_stats=True)\n    (5): BatchNorm2d(1052, eps=1e-05, momentum=0.1, affine=True, track_running_stats=True)\n  )\n  (gru): GRU(100, 36, num_layers=3, batch_first=True, dropout=0.29)\n  (fc1): Linear(in_features=6420, out_features=401, bias=True)\n  (fc2): Linear(in_features=401, out_features=126, bias=True)\n  (dropout): Dropout(p=0.29)\n)"
  },
  "{\"batch_norm\": false, \"bottleneck_fc_dim\": 473.0, \"cpu_mode\": false, \"dropout_pctg\": 0.37925471380636505, \"filter_sizes\": [1, 2, 3], \"glove_dim\": 100, \"gpu_no\": 0, \"num_filters\": 631.0, \"rnn_bidirectional\": false, \"rnn_hidden_size\": 44.0, \"rnn_num_layers\": 2.0, \"stride\": 1, \"txt_length\": 761.0}": {
…
      "pAtK_5": 0.5743003731343284
    },
    "train_vector": [
      0.03024615852530994,
      0.02163400432927854,
      0.019882294276317734,
      0.01865275848367159,
      0.01774590630422216
    ],
    "valid_vector": [
      0.02115391955690097,
      0.01923270901724168,
      0.018962102589447662,
      0.0189979738950643,
      0.019105193126119618
    ],
    "test_vector": [
      0.02088826074044524,
      0.019091425958012085,
      0.018620976622202502,
      0.019011268497450648,
      0.018848353228382846
    ],
    "train_finish": "2018-12-19 02:48:27.818812",
    "model": "CRNN(\n  (embedding): Embedding(400000, 100)\n  (convs): ModuleList(\n    (0): Conv2d(1, 631, kernel_size=(1, 100), stride=(1, 1))\n    (1): Conv2d(1, 631, kernel_size=(2, 100), stride=(1, 1))\n    (2): Conv2d(1, 631, kernel_size=(3, 100), stride=(1, 1))\n  )\n  (batch_norms): ModuleList(\n    (0): BatchNorm2d(631, eps=1e-05, momentum=0.1, affine=True, track_running_stats=True)\n    (1): BatchNorm2d(631, eps=1e-05, momentum=0.1, affine=True, track_running_stats=True)\n    (2): BatchNorm2d(631, eps=1e-05, momentum=0.1, affine=True, track_running_stats=True)\n  )\n  (gru): GRU(100, 44, num_layers=2, batch_first=True, dropout=0.38)\n  (fc1): Linear(in_features=1981, out_features=473, bias=True)\n  (fc2): Linear(in_features=473, out_features=126, bias=True)\n  (dropout): Dropout(p=0.38)\n)"
  },
  "{\"batch_norm\": true, \"bottleneck_fc_dim\": 271.0, \"cpu_mode\": false, \"dropout_pctg\": 0.3011496248565166, \"filter_sizes\": [1, 2, 3], \"glove_dim\": 100, \"gpu_no\": 0, \"num_filters\": 631.0, \"rnn_bidirectional\": true, \"rnn_hidden_size\": 24.0, \"rnn_num_layers\": 2.0, \"stride\": 1, \"txt_length\": 698.0}": {
…
      0.016923329279297843
    ],
    "valid_vector": [
      0.021908771842400403,
      0.020146111337426328,
      0.018666778764834423,
      0.018197437981640033,
      0.017701857748614158,
      0.01754272348773199,
      0.017698853757472703,
      0.018014046124868722
    ],
    "test_vector": [
      0.02175772120989462,
      0.01999075572961556,
      0.01858327701401863,
      0.01815295544887847,
      0.017599962971437334,
      0.017539937785868324,
      0.017744981280680912,
      0.017887043735898063
    ],
    "train_finish": "2018-12-19 03:25:32.931590",
    "model": "CRNN(\n  (embedding): Embedding(400000, 100)\n  (convs): ModuleList(\n    (0): Conv2d(1, 631, kernel_size=(1, 100), stride=(1, 1))\n    (1): Conv2d(1, 631, kernel_size=(2, 100), stride=(1, 1))\n    (2): Conv2d(1, 631, kernel_size=(3, 100), stride=(1, 1))\n  )\n  (batch_norms): ModuleList(\n    (0): BatchNorm2d(631, eps=1e-05, momentum=0.1, affine=True, track_running_stats=True)\n    (1): BatchNorm2d(631, eps=1e-05, momentum=0.1, affine=True, track_running_stats=True)\n    (2): BatchNorm2d(631, eps=1e-05, momentum=0.1, affine=True, track_running_stats=True)\n  )\n  (gru): GRU(100, 24, num_layers=2, batch_first=True, dropout=0.3, bidirectional=True)\n  (fc1): Linear(in_features=1989, out_features=271, bias=True)\n  (fc2): Linear(in_features=271, out_features=126, bias=True)\n  (dropout): Dropout(p=0.3)\n)"
  },
  "{\"batch_norm\": true, \"bottleneck_fc_dim\": 314.0, \"cpu_mode\": false, \"dropout_pctg\": 0.015902772170754226, \"filter_sizes\": [1, 2, 3], \"glove_dim\": 100, \"gpu_no\": 0, \"num_filters\": 847.0, \"rnn_bidirectional\": true, \"rnn_hidden_size\": 48.0, \"rnn_num_layers\": 1.0, \"stride\": 1, \"txt_length\": 598.0}": {
…
      0.014298716272508751,
      0.013195770201019807,
      0.012189042651722666
    ],
    "valid_vector": [
      0.019733188704384973,
      0.018425803898629158,
      0.017276833655495347,
      0.016989909917928342,
      0.016722978600650838,
      0.016740401325906727,
      0.016938844417680555
    ],
    "test_vector": [
      0.019563771530127984,
      0.01829797485624867,
      0.017136139104138814,
      0.016813478723509925,
      0.016759265907235872,
      0.01653057634770902,
      0.01689218326922514
    ],
    "train_finish": "2018-12-19 03:48:57.202431",
    "model": "CRNN(\n  (embedding): Embedding(400000, 100)\n  (convs): ModuleList(\n    (0): Conv2d(1, 847, kernel_size=(1, 100), stride=(1, 1))\n    (1): Conv2d(1, 847, kernel_size=(2, 100), stride=(1, 1))\n    (2): Conv2d(1, 847, kernel_size=(3, 100), stride=(1, 1))\n  )\n  (batch_norms): ModuleList(\n    (0): BatchNorm2d(847, eps=1e-05, momentum=0.1, affine=True, track_running_stats=True)\n    (1): BatchNorm2d(847, eps=1e-05, momentum=0.1, affine=True, track_running_stats=True)\n    (2): BatchNorm2d(847, eps=1e-05, momentum=0.1, affine=True, track_running_stats=True)\n  )\n  (gru): GRU(100, 48, batch_first=True, dropout=0.02, bidirectional=True)\n  (fc1): Linear(in_features=2637, out_features=314, bias=True)\n  (fc2): Linear(in_features=314, out_features=126, bias=True)\n  (dropout): Dropout(p=0.02)\n)"
  },
  "{\"batch_norm\": true, \"bottleneck_fc_dim\": 315.0, \"cpu_mode\": false, \"dropout_pctg\": 0.01492440768321851, \"filter_sizes\": [1, 2, 3], \"glove_dim\": 100, \"gpu_no\": 0, \"num_filters\": 958.0, \"rnn_bidirectional\": true, \"rnn_hidden_size\": 49.0, \"rnn_num_layers\": 1.0, \"stride\": 1, \"txt_length\": 588.0}": {
…
      0.014275134005111701,
      0.01314229047469588,
      0.012150571203349295
    ],
    "valid_vector": [
      0.019977347975197648,
      0.01818465470494742,
      0.017268489270698406,
      0.016762241195236494,
      0.016683214370023285,
      0.017007152335336014,
      0.017328783537934857
    ],
    "test_vector": [
      0.0197962971110302,
      0.018099655377378725,
      0.017126298120328738,
      0.016581783708590054,
      0.0165848197884111,
      0.016833967875752812,
      0.01710109621572342
    ],
    "train_finish": "2018-12-19 04:15:03.510526",
    "model": "CRNN(\n  (embedding): Embedding(400000, 100)\n  (convs): ModuleList(\n    (0): Conv2d(1, 958, kernel_size=(1, 100), stride=(1, 1))\n    (1): Conv2d(1, 958, kernel_size=(2, 100), stride=(1, 1))\n    (2): Conv2d(1, 958, kernel_size=(3, 100), stride=(1, 1))\n  )\n  (batch_norms): ModuleList(\n    (0): BatchNorm2d(958, eps=1e-05, momentum=0.1, affine=True, track_running_stats=True)\n    (1): BatchNorm2d(958, eps=1e-05, momentum=0.1, affine=True, track_running_stats=True)\n    (2): BatchNorm2d(958, eps=1e-05, momentum=0.1, affine=True, track_running_stats=True)\n  )\n  (gru): GRU(100, 49, batch_first=True, dropout=0.01, bidirectional=True)\n  (fc1): Linear(in_features=2972, out_features=315, bias=True)\n  (fc2): Linear(in_features=315, out_features=126, bias=True)\n  (dropout): Dropout(p=0.01)\n)"
  },
  "{\"batch_norm\": true, \"bottleneck_fc_dim\": 426.0, \"cpu_mode\": false, \"dropout_pctg\": 0.07626795379050241, \"filter_sizes\": [1, 2, 3], \"glove_dim\": 100, \"gpu_no\": 0, \"num_filters\": 970.0, \"rnn_bidirectional\": true, \"rnn_hidden_size\": 21.0, \"rnn_num_layers\": 1.0, \"stride\": 1, \"txt_length\": 578.0}": {
…
      0.01470469121496703,
      0.0136281858252266,
      0.012679780359686081
    ],
    "valid_vector": [
      0.020241987941139288,
      0.01825507976504952,
      0.01722157613494928,
      0.016735359651050462,
      0.01647922344173668,
      0.016822459444881224,
      0.016856172428861546
    ],
    "test_vector": [
      0.020075197212461596,
      0.018183755031081914,
      0.01726700679492404,
      0.016724619091049567,
      0.01645338547819141,
      0.016691998616337522,
      0.016666050116692397
    ],
    "train_finish": "2018-12-19 04:40:25.141802",
    "model": "CRNN(\n  (embedding): Embedding(400000, 100)\n  (convs): ModuleList(\n    (0): Conv2d(1, 970, kernel_size=(1, 100), stride=(1, 1))\n    (1): Conv2d(1, 970, kernel_size=(2, 100), stride=(1, 1))\n    (2): Conv2d(1, 970, kernel_size=(3, 100), stride=(1, 1))\n  )\n  (batch_norms): ModuleList(\n    (0): BatchNorm2d(970, eps=1e-05, momentum=0.1, affine=True, track_running_stats=True)\n    (1): BatchNorm2d(970, eps=1e-05, momentum=0.1, affine=True, track_running_stats=True)\n    (2): BatchNorm2d(970, eps=1e-05, momentum=0.1, affine=True, track_running_stats=True)\n  )\n  (gru): GRU(100, 21, batch_first=True, dropout=0.08, bidirectional=True)\n  (fc1): Linear(in_features=2952, out_features=426, bias=True)\n  (fc2): Linear(in_features=426, out_features=126, bias=True)\n  (dropout): Dropout(p=0.08)\n)"
  },
  "{\"batch_norm\": true, \"bottleneck_fc_dim\": 434.0, \"cpu_mode\": false, \"dropout_pctg\": 0.07989933434323732, \"filter_sizes\": [2, 3, 4, 5], \"glove_dim\": 100, \"gpu_no\": 0, \"num_filters\": 934.0, \"rnn_bidirectional\": true, \"rnn_hidden_size\": 20.0, \"rnn_num_layers\": 1.0, \"stride\": 1, \"txt_length\": 583.0}": {
…
      0.01418816236286596,
      0.012743104685827485,
      0.011506986006172006
    ],
    "valid_vector": [
      0.01984741908909161,
      0.018403806972371012,
      0.017447313740611203,
      0.016968499315701036,
      0.016814401175621756,
      0.01717494223462934,
      0.017907612017050052
    ],
    "test_vector": [
      0.01978797924075363,
      0.018251634576220883,
      0.017406250816831458,
      0.016952329235814655,
      0.016849469542423928,
      0.017093983906775967,
      0.017875106687516545
    ],
    "train_finish": "2018-12-19 05:12:25.045708",
    "model": "CRNN(\n  (embedding): Embedding(400000, 100)\n  (convs): ModuleList(\n    (0): Conv2d(1, 934, kernel_size=(2, 100), stride=(1, 1))\n    (1): Conv2d(1, 934, kernel_size=(3, 100), stride=(1, 1))\n    (2): Conv2d(1, 934, kernel_size=(4, 100), stride=(1, 1))\n    (3): Conv2d(1, 934, kernel_size=(5, 100), stride=(1, 1))\n  )\n  (batch_norms): ModuleList(\n    (0): BatchNorm2d(934, eps=1e-05, momentum=0.1, affine=True, track_running_stats=True)\n    (1): BatchNorm2d(934, eps=1e-05, momentum=0.1, affine=True, track_running_stats=True)\n    (2): BatchNorm2d(934, eps=1e-05, momentum=0.1, affine=True, track_running_stats=True)\n    (3): BatchNorm2d(934, eps=1e-05, momentum=0.1, affine=True, track_running_stats=True)\n  )\n  (gru): GRU(100, 20, batch_first=True, dropout=0.08, bidirectional=True)\n  (fc1): Linear(in_features=3776, out_features=434, bias=True)\n  (fc2): Linear(in_features=434, out_features=126, bias=True)\n  (dropout): Dropout(p=0.08)\n)"
  },
  "{\"batch_norm\": true, \"bottleneck_fc_dim\": 443.0, \"cpu_mode\": false, \"dropout_pctg\": 0.08631957683459757, \"filter_sizes\": [1, 2, 3], \"glove_dim\": 100, \"gpu_no\": 0, \"num_filters\": 958.0, \"rnn_bidirectional\": true, \"rnn_hidden_size\": 46.0, \"rnn_num_layers\": 1.0, \"stride\": 1, \"txt_length\": 628.0}": {
…
      0.014710046093152556,
      0.013657599075929944,
      0.012742482690566012
    ],
    "valid_vector": [
      0.019910148367770254,
      0.018015385730497872,
      0.017161146417803277,
      0.016773190403328354,
      0.016504105004017302,
      0.016547314245189265,
      0.016947945202591578
    ],
    "test_vector": [
      0.019790958944779596,
      0.01785999486274493,
      0.01704737606214117,
      0.016608754143134744,
      0.01640799992890564,
      0.016498220732995568,
      0.01679101604511584
    ],
    "train_finish": "2018-12-19 05:40:21.074657",
    "model": "CRNN(\n  (embedding): Embedding(400000, 100)\n  (convs): ModuleList(\n    (0): Conv2d(1, 958, kernel_size=(1, 100), stride=(1, 1))\n    (1): Conv2d(1, 958, kernel_size=(2, 100), stride=(1, 1))\n    (2): Conv2d(1, 958, kernel_size=(3, 100), stride=(1, 1))\n  )\n  (batch_norms): ModuleList(\n    (0): BatchNorm2d(958, eps=1e-05, momentum=0.1, affine=True, track_running_stats=True)\n    (1): BatchNorm2d(958, eps=1e-05, momentum=0.1, affine=True, track_running_stats=True)\n    (2): BatchNorm2d(958, eps=1e-05, momentum=0.1, affine=True, track_running_stats=True)\n  )\n  (gru): GRU(100, 46, batch_first=True, dropout=0.09, bidirectional=True)\n  (fc1): Linear(in_features=2966, out_features=443, bias=True)\n  (fc2): Linear(in_features=443, out_features=126, bias=True)\n  (dropout): Dropout(p=0.09)\n)"
  },
  "{\"batch_norm\": true, \"bottleneck_fc_dim\": 433.0, \"cpu_mode\": false, \"dropout_pctg\": 0.10800595125678089, \"filter_sizes\": [1, 2, 3], \"glove_dim\": 100, \"gpu_no\": 0, \"num_filters\": 1197.0, \"rnn_bidirectional\": true, \"rnn_hidden_size\": 45.0, \"rnn_num_layers\": 1.0, \"stride\": 1, \"txt_length\": 628.0}": {
…
      0.015014112306427779,
      0.01392954236975888,
      0.012982285904062946
    ],
    "valid_vector": [
      0.020121134144923232,
      0.018533557407937246,
      0.01725416088405786,
      0.016736508384327105,
      0.016606437734393742,
      0.01675906922932077,
      0.016853550314478306
    ],
    "test_vector": [
      0.020061907594773307,
      0.01834249255189827,
      0.017188141656630455,
      0.016674102837049058,
      0.016457887463716427,
      0.016715485326596287,
      0.016798994588310214
    ],
    "train_finish": "2018-12-19 06:12:37.995874",
    "model": "CRNN(\n  (embedding): Embedding(400000, 100)\n  (convs): ModuleList(\n    (0): Conv2d(1, 1197, kernel_size=(1, 100), stride=(1, 1))\n    (1): Conv2d(1, 1197, kernel_size=(2, 100), stride=(1, 1))\n    (2): Conv2d(1, 1197, kernel_size=(3, 100), stride=(1, 1))\n  )\n  (batch_norms): ModuleList(\n    (0): BatchNorm2d(1197, eps=1e-05, momentum=0.1, affine=True, track_running_stats=True)\n    (1): BatchNorm2d(1197, eps=1e-05, momentum=0.1, affine=True, track_running_stats=True)\n    (2): BatchNorm2d(1197, eps=1e-05, momentum=0.1, affine=True, track_running_stats=True)\n  )\n  (gru): GRU(100, 45, batch_first=True, dropout=0.11, bidirectional=True)\n  (fc1): Linear(in_features=3681, out_features=433, bias=True)\n  (fc2): Linear(in_features=433, out_features=126, bias=True)\n  (dropout): Dropout(p=0.11)\n)"
  },
  "{\"batch_norm\": true, \"bottleneck_fc_dim\": 433.0, \"cpu_mode\": false, \"dropout_pctg\": 0.07454994725506073, \"filter_sizes\": [2, 3, 4, 5], \"glove_dim\": 100, \"gpu_no\": 0, \"num_filters\": 1112.0, \"rnn_bidirectional\": true, \"rnn_hidden_size\": 19.0, \"rnn_num_layers\": 1.0, \"stride\": 1, \"txt_length\": 556.0}": {
…
      0.019759066955791736,
      0.01740636121098493,
      0.015562701860756843,
      0.013879734921401312,
      0.012325878824970089
    ],
    "valid_vector": [
      0.01991701695094032,
      0.01820823061925325,
      0.017442608523100162,
      0.017019695764072914,
      0.017050671248152148,
      0.017502107794447712
    ],
    "test_vector": [
      0.019802945179503356,
      0.01812082313017042,
      0.017306244187454172,
      0.01695874272716611,
      0.017002129757494877,
      0.017339319286585997
    ],
    "train_finish": "2018-12-19 06:42:01.964677",
    "model": "CRNN(\n  (embedding): Embedding(400000, 100)\n  (convs): ModuleList(\n    (0): Conv2d(1, 1112, kernel_size=(2, 100), stride=(1, 1))\n    (1): Conv2d(1, 1112, kernel_size=(3, 100), stride=(1, 1))\n    (2): Conv2d(1, 1112, kernel_size=(4, 100), stride=(1, 1))\n    (3): Conv2d(1, 1112, kernel_size=(5, 100), stride=(1, 1))\n  )\n  (batch_norms): ModuleList(\n    (0): BatchNorm2d(1112, eps=1e-05, momentum=0.1, affine=True, track_running_stats=True)\n    (1): BatchNorm2d(1112, eps=1e-05, momentum=0.1, affine=True, track_running_stats=True)\n    (2): BatchNorm2d(1112, eps=1e-05, momentum=0.1, affine=True, track_running_stats=True)\n    (3): BatchNorm2d(1112, eps=1e-05, momentum=0.1, affine=True, track_running_stats=True)\n  )\n  (gru): GRU(100, 19, batch_first=True, dropout=0.07, bidirectional=True)\n  (fc1): Linear(in_features=4486, out_features=433, bias=True)\n  (fc2): Linear(in_features=433, out_features=126, bias=True)\n  (dropout): Dropout(p=0.07)\n)"
  },
  "{\"batch_norm\": true, \"bottleneck_fc_dim\": 447.0, \"cpu_mode\": false, \"dropout_pctg\": 0.2202611408416647, \"filter_sizes\": [1, 2, 3], \"glove_dim\": 100, \"gpu_no\": 0, \"num_filters\": 1051.0, \"rnn_bidirectional\": true, \"rnn_hidden_size\": 21.0, \"rnn_num_layers\": 1.0, \"stride\": 1, \"txt_length\": 677.0}": {
…
      0.016434546489106527,
      0.015447455707449454,
      0.014639493935764344
    ],
    "valid_vector": [
      0.020801975173371307,
      0.018632874233094152,
      0.017784722345838472,
      0.017179664682600893,
      0.016903615038869762,
      0.0169679765261388,
      0.01695368030487792
    ],
    "test_vector": [
      0.020714195063913556,
      0.01859971880317052,
      0.01776033407573634,
      0.017116382932548583,
      0.016841547711611365,
      0.016900138688216142,
      0.01698093268194242
    ],
    "train_finish": "2018-12-19 07:13:29.551038",
    "model": "CRNN(\n  (embedding): Embedding(400000, 100)\n  (convs): ModuleList(\n    (0): Conv2d(1, 1051, kernel_size=(1, 100), stride=(1, 1))\n    (1): Conv2d(1, 1051, kernel_size=(2, 100), stride=(1, 1))\n    (2): Conv2d(1, 1051, kernel_size=(3, 100), stride=(1, 1))\n  )\n  (batch_norms): ModuleList(\n    (0): BatchNorm2d(1051, eps=1e-05, momentum=0.1, affine=True, track_running_stats=True)\n    (1): BatchNorm2d(1051, eps=1e-05, momentum=0.1, affine=True, track_running_stats=True)\n    (2): BatchNorm2d(1051, eps=1e-05, momentum=0.1, affine=True, track_running_stats=True)\n  )\n  (gru): GRU(100, 21, batch_first=True, dropout=0.22, bidirectional=True)\n  (fc1): Linear(in_features=3195, out_features=447, bias=True)\n  (fc2): Linear(in_features=447, out_features=126, bias=True)\n  (dropout): Dropout(p=0.22)\n)"
  },
  "{\"batch_norm\": true, \"bottleneck_fc_dim\": 416.0, \"cpu_mode\": false, \"dropout_pctg\": 0.07454679846684693, \"filter_sizes\": [3, 4, 5], \"glove_dim\": 100, \"gpu_no\": 0, \"num_filters\": 860.0, \"rnn_bidirectional\": true, \"rnn_hidden_size\": 15.0, \"rnn_num_layers\": 1.0, \"stride\": 1, \"txt_length\": 634.0}": {
…
      0.014410205443092525,
      0.013000181389216178,
      0.011745918851510771
    ],
    "valid_vector": [
      0.020522508104997023,
      0.01865813663742666,
      0.0177141528035244,
      0.017338363006452858,
      0.017074740592709015,
      0.017492606910988133,
      0.018123683289809428
    ],
    "test_vector": [
      0.020373931565661547,
      0.01854164596758227,
      0.01763421615490368,
      0.017235628182271014,
      0.017008601580617396,
      0.017310536536040592,
      0.01797223090728336
    ],
    "train_finish": "2018-12-19 07:39:26.314189",
    "model": "CRNN(\n  (embedding): Embedding(400000, 100)\n  (convs): ModuleList(\n    (0): Conv2d(1, 860, kernel_size=(3, 100), stride=(1, 1))\n    (1): Conv2d(1, 860, kernel_size=(4, 100), stride=(1, 1))\n    (2): Conv2d(1, 860, kernel_size=(5, 100), stride=(1, 1))\n  )\n  (batch_norms): ModuleList(\n    (0): BatchNorm2d(860, eps=1e-05, momentum=0.1, affine=True, track_running_stats=True)\n    (1): BatchNorm2d(860, eps=1e-05, momentum=0.1, affine=True, track_running_stats=True)\n    (2): BatchNorm2d(860, eps=1e-05, momentum=0.1, affine=True, track_running_stats=True)\n  )\n  (gru): GRU(100, 15, batch_first=True, dropout=0.07, bidirectional=True)\n  (fc1): Linear(in_features=2610, out_features=416, bias=True)\n  (fc2): Linear(in_features=416, out_features=126, bias=True)\n  (dropout): Dropout(p=0.07)\n)"
  },
  "{\"batch_norm\": true, \"bottleneck_fc_dim\": 383.0, \"cpu_mode\": false, \"dropout_pctg\": 0.13439495489775402, \"filter_sizes\": [2, 3, 4], \"glove_dim\": 100, \"gpu_no\": 0, \"num_filters\": 945.0, \"rnn_bidirectional\": true, \"rnn_hidden_size\": 33.0, \"rnn_num_layers\": 1.0, \"stride\": 1, \"txt_length\": 500.0}": {
…
      0.01518643632833821,
      0.013930990744959623,
      0.012861673817959919
    ],
    "valid_vector": [
      0.020452562619054288,
      0.01864173689294658,
      0.01764033413564127,
      0.017020504826358133,
      0.0168263407575879,
      0.016936583471904472,
      0.017220842250650608
    ],
    "test_vector": [
      0.020309884303700187,
      0.01857175267359087,
      0.017682209692355285,
      0.017042191184834757,
      0.01685814565913414,
      0.016977854725370594,
      0.01724395114900683
    ],
    "train_finish": "2018-12-19 08:01:49.472370",
    "model": "CRNN(\n  (embedding): Embedding(400000, 100)\n  (convs): ModuleList(\n    (0): Conv2d(1, 945, kernel_size=(2, 100), stride=(1, 1))\n    (1): Conv2d(1, 945, kernel_size=(3, 100), stride=(1, 1))\n    (2): Conv2d(1, 945, kernel_size=(4, 100), stride=(1, 1))\n  )\n  (batch_norms): ModuleList(\n    (0): BatchNorm2d(945, eps=1e-05, momentum=0.1, affine=True, track_running_stats=True)\n    (1): BatchNorm2d(945, eps=1e-05, momentum=0.1, affine=True, track_running_stats=True)\n    (2): BatchNorm2d(945, eps=1e-05, momentum=0.1, affine=True, track_running_stats=True)\n  )\n  (gru): GRU(100, 33, batch_first=True, dropout=0.13, bidirectional=True)\n  (fc1): Linear(in_features=2901, out_features=383, bias=True)\n  (fc2): Linear(in_features=383, out_features=126, bias=True)\n  (dropout): Dropout(p=0.13)\n)"
  },
  "{\"batch_norm\": true, \"bottleneck_fc_dim\": 498.0, \"cpu_mode\": false, \"dropout_pctg\": 0.36410399214045935, \"filter_sizes\": [1, 2, 3], \"glove_dim\": 100, \"gpu_no\": 0, \"num_filters\": 1158.0, \"rnn_bidirectional\": true, \"rnn_hidden_size\": 42.0, \"rnn_num_layers\": 1.0, \"stride\": 1, \"txt_length\": 604.0}": {
…
      0.021580978531761767,
      0.01922877456646349,
      0.0181638135735853,
      0.017541968272125192,
      0.01722678189068588,
      0.017354898814381018,
      0.017061369302474073,
      0.0171362218738192,
      0.01763941941267527
    ],
    "test_vector": [
      0.021254986983293027,
      0.01915809185083296,
      0.01808472751959491,
      0.017383224956357655,
      0.017069273848714095,
      0.01721709343725875,
      0.0169603993782579,
      0.017049861710462997,
      0.017572569386807204
    ],
    "train_finish": "2018-12-19 08:40:10.617478",
    "model": "CRNN(\n  (embedding): Embedding(400000, 100)\n  (convs): ModuleList(\n    (0): Conv2d(1, 1158, kernel_size=(1, 100), stride=(1, 1))\n    (1): Conv2d(1, 1158, kernel_size=(2, 100), stride=(1, 1))\n    (2): Conv2d(1, 1158, kernel_size=(3, 100), stride=(1, 1))\n  )\n  (batch_norms): ModuleList(\n    (0): BatchNorm2d(1158, eps=1e-05, momentum=0.1, affine=True, track_running_stats=True)\n    (1): BatchNorm2d(1158, eps=1e-05, momentum=0.1, affine=True, track_running_stats=True)\n    (2): BatchNorm2d(1158, eps=1e-05, momentum=0.1, affine=True, track_running_stats=True)\n  )\n  (gru): GRU(100, 42, batch_first=True, dropout=0.36, bidirectional=True)\n  (fc1): Linear(in_features=3558, out_features=498, bias=True)\n  (fc2): Linear(in_features=498, out_features=126, bias=True)\n  (dropout): Dropout(p=0.36)\n)"
  },
  "{\"batch_norm\": true, \"bottleneck_fc_dim\": 486.0, \"cpu_mode\": false, \"dropout_pctg\": 0.49838015991179835, \"filter_sizes\": [3, 4, 5, 6], \"glove_dim\": 100, \"gpu_no\": 0, \"num_filters\": 1078.0, \"rnn_bidirectional\": true, \"rnn_hidden_size\": 13.0, \"rnn_num_layers\": 1.0, \"stride\": 1, \"txt_length\": 639.0}": {
…
      0.02048858716560124,
      0.019290268571258165,
      0.01825318116187282
    ],
    "valid_vector": [
      0.023573919307631152,
      0.020822017946576416,
      0.020098910717639144,
      0.018835853662903804,
      0.018359626510561798,
      0.01860796514529187,
      0.0183908867651968
    ],
    "test_vector": [
      0.02337950251615251,
      0.020694223762765876,
      0.0199880447687466,
      0.018675322066555654,
      0.018285016314799726,
      0.018451917527326896,
      0.01825978535849021
    ],
    "train_finish": "2018-12-19 09:21:37.999685",
    "model": "CRNN(\n  (embedding): Embedding(400000, 100)\n  (convs): ModuleList(\n    (0): Conv2d(1, 1078, kernel_size=(3, 100), stride=(1, 1))\n    (1): Conv2d(1, 1078, kernel_size=(4, 100), stride=(1, 1))\n    (2): Conv2d(1, 1078, kernel_size=(5, 100), stride=(1, 1))\n    (3): Conv2d(1, 1078, kernel_size=(6, 100), stride=(1, 1))\n  )\n  (batch_norms): ModuleList(\n    (0): BatchNorm2d(1078, eps=1e-05, momentum=0.1, affine=True, track_running_stats=True)\n    (1): BatchNorm2d(1078, eps=1e-05, momentum=0.1, affine=True, track_running_stats=True)\n    (2): BatchNorm2d(1078, eps=1e-05, momentum=0.1, affine=True, track_running_stats=True)\n    (3): BatchNorm2d(1078, eps=1e-05, momentum=0.1, affine=True, track_running_stats=True)\n  )\n  (gru): GRU(100, 13, batch_first=True, dropout=0.5, bidirectional=True)\n  (fc1): Linear(in_features=4338, out_features=486, bias=True)\n  (fc2): Linear(in_features=486, out_features=126, bias=True)\n  (dropout): Dropout(p=0.5)\n)"
  },
  "{\"batch_norm\": true, \"bottleneck_fc_dim\": 379.0, \"cpu_mode\": false, \"dropout_pctg\": 0.2495102199494496, \"filter_sizes\": [1, 2, 3, 4, 5, 6], \"glove_dim\": 100, \"gpu_no\": 0, \"num_filters\": 733.0, \"rnn_bidirectional\": true, \"rnn_hidden_size\": 34.0, \"rnn_num_layers\": 1.0, \"stride\": 1, \"txt_length\": 561.0}": {
…
      0.01342167741862069
    ],
    "valid_vector": [
      0.021189485393119042,
      0.01897714550454003,
      0.017935494138826447,
      0.017421288479520167,
      0.017328709236972693,
      0.017193798570017984,
      0.018172376506243534,
      0.018389159702320596
    ],
    "test_vector": [
      0.02104875412600826,
      0.018888668059857925,
      0.017767495573011795,
      0.017378883170230047,
      0.017198268808662764,
      0.01727529310647136,
      0.018150259263074793,
      0.018417422427360945
    ],
    "train_finish": "2018-12-19 10:01:35.155372",
    "model": "CRNN(\n  (embedding): Embedding(400000, 100)\n  (convs): ModuleList(\n    (0): Conv2d(1, 733, kernel_size=(1, 100), stride=(1, 1))\n    (1): Conv2d(1, 733, kernel_size=(2, 100), stride=(1, 1))\n    (2): Conv2d(1, 733, kernel_size=(3, 100), stride=(1, 1))\n    (3): Conv2d(1, 733, kernel_size=(4, 100), stride=(1, 1))\n    (4): Conv2d(1, 733, kernel_size=(5, 100), stride=(1, 1))\n    (5): Conv2d(1, 733, kernel_size=(6, 100), stride=(1, 1))\n  )\n  (batch_norms): ModuleList(\n    (0): BatchNorm2d(733, eps=1e-05, momentum=0.1, affine=True, track_running_stats=True)\n    (1): BatchNorm2d(733, eps=1e-05, momentum=0.1, affine=True, track_running_stats=True)\n    (2): BatchNorm2d(733, eps=1e-05, momentum=0.1, affine=True, track_running_stats=True)\n    (3): BatchNorm2d(733, eps=1e-05, momentum=0.1, affine=True, track_running_stats=True)\n    (4): BatchNorm2d(733, eps=1e-05, momentum=0.1, affine=True, track_running_stats=True)\n    (5): BatchNorm2d(733, eps=1e-05, momentum=0.1, affine=True, track_running_stats=True)\n  )\n  (gru): GRU(100, 34, batch_first=True, dropout=0.25, bidirectional=True)\n  (fc1): Linear(in_features=4466, out_features=379, bias=True)\n  (fc2): Linear(in_features=379, out_features=126, bias=True)\n  (dropout): Dropout(p=0.25)\n)"
  },
  "{\"batch_norm\": true, \"bottleneck_fc_dim\": 422.0, \"cpu_mode\": false, \"dropout_pctg\": 0.19785079640713676, \"filter_sizes\": [1, 2, 3], \"glove_dim\": 100, \"gpu_no\": 0, \"num_filters\": 1020.0, \"rnn_bidirectional\": true, \"rnn_hidden_size\": 27.0, \"rnn_num_layers\": 1.0, \"stride\": 1, \"txt_length\": 677.0}": {
…
      0.016131305029683348,
      0.015164347401031928,
      0.014317503950649051
    ],
    "valid_vector": [
      0.02063523581686384,
      0.01885238496799157,
      0.0175779269033197,
      0.017095039587846198,
      0.016767358691218114,
      0.01690835330505242,
      0.017222341257400676
    ],
    "test_vector": [
      0.020517824944466162,
      0.018839365633915483,
      0.01746993741667919,
      0.016977368023937574,
      0.016633067252253417,
      0.016783009026088376,
      0.017170817721317382
    ],
    "train_finish": "2018-12-19 10:32:14.013569",
    "model": "CRNN(\n  (embedding): Embedding(400000, 100)\n  (convs): ModuleList(\n    (0): Conv2d(1, 1020, kernel_size=(1, 100), stride=(1, 1))\n    (1): Conv2d(1, 1020, kernel_size=(2, 100), stride=(1, 1))\n    (2): Conv2d(1, 1020, kernel_size=(3, 100), stride=(1, 1))\n  )\n  (batch_norms): ModuleList(\n    (0): BatchNorm2d(1020, eps=1e-05, momentum=0.1, affine=True, track_running_stats=True)\n    (1): BatchNorm2d(1020, eps=1e-05, momentum=0.1, affine=True, track_running_stats=True)\n    (2): BatchNorm2d(1020, eps=1e-05, momentum=0.1, affine=True, track_running_stats=True)\n  )\n  (gru): GRU(100, 27, batch_first=True, dropout=0.2, bidirectional=True)\n  (fc1): Linear(in_features=3114, out_features=422, bias=True)\n  (fc2): Linear(in_features=422, out_features=126, bias=True)\n  (dropout): Dropout(p=0.2)\n)"
  },
  "{\"batch_norm\": true, \"bottleneck_fc_dim\": 451.0, \"cpu_mode\": false, \"dropout_pctg\": 0.09371425823916639, \"filter_sizes\": [2, 3, 4], \"glove_dim\": 100, \"gpu_no\": 0, \"num_filters\": 1167.0, \"rnn_bidirectional\": true, \"rnn_hidden_size\": 17.0, \"rnn_num_layers\": 3.0, \"stride\": 2, \"txt_length\": 522.0}": {
…
      0.019778309478658065,
      0.017453612920230805,
      0.015570579648063604,
      0.013893531245157608,
      0.012403603197272227
    ],
    "valid_vector": [
      0.020338751000117884,
      0.01838649425103065,
      0.01769393754488568,
      0.01726461330608431,
      0.017436182069560404,
      0.01796420501445287
    ],
    "test_vector": [
      0.020122061215484065,
      0.018184695480220607,
      0.017604730565593377,
      0.01716025113892644,
      0.017449954125498022,
      0.017940618826556943
    ],
    "train_finish": "2018-12-19 11:01:24.178831",
    "model": "CRNN(\n  (embedding): Embedding(400000, 100)\n  (convs): ModuleList(\n    (0): Conv2d(1, 1167, kernel_size=(2, 100), stride=(2, 2))\n    (1): Conv2d(1, 1167, kernel_size=(3, 100), stride=(2, 2))\n    (2): Conv2d(1, 1167, kernel_size=(4, 100), stride=(2, 2))\n  )\n  (batch_norms): ModuleList(\n    (0): BatchNorm2d(1167, eps=1e-05, momentum=0.1, affine=True, track_running_stats=True)\n    (1): BatchNorm2d(1167, eps=1e-05, momentum=0.1, affine=True, track_running_stats=True)\n    (2): BatchNorm2d(1167, eps=1e-05, momentum=0.1, affine=True, track_running_stats=True)\n  )\n  (gru): GRU(100, 17, num_layers=3, batch_first=True, dropout=0.09, bidirectional=True)\n  (fc1): Linear(in_features=3603, out_features=451, bias=True)\n  (fc2): Linear(in_features=451, out_features=126, bias=True)\n  (dropout): Dropout(p=0.09)\n)"
  },
  "{\"batch_norm\": true, \"bottleneck_fc_dim\": 471.0, \"cpu_mode\": false, \"dropout_pctg\": 0.024427885088410123, \"filter_sizes\": [1, 2, 3, 4, 5], \"glove_dim\": 100, \"gpu_no\": 0, \"num_filters\": 918.0, \"rnn_bidirectional\": true, \"rnn_hidden_size\": 6.0, \"rnn_num_layers\": 1.0, \"stride\": 1, \"txt_length\": 577.0}": {
…
      0.013504267682886923,
      0.011985136190799077,
      0.010679645867861227
    ],
    "valid_vector": [
      0.020145882471605564,
      0.0184608519311621,
      0.01748317545555385,
      0.017189432134125025,
      0.01682727896461466,
      0.017537209044730884,
      0.01792971342246034
    ],
    "test_vector": [
      0.020065541365253393,
      0.018277754576237343,
      0.01738705445946788,
      0.017172788334355107,
      0.01679915966275436,
      0.01748429722130807,
      0.0179298325205472
    ],
    "train_finish": "2018-12-19 11:37:52.362186",
    "model": "CRNN(\n  (embedding): Embedding(400000, 100)\n  (convs): ModuleList(\n    (0): Conv2d(1, 918, kernel_size=(1, 100), stride=(1, 1))\n    (1): Conv2d(1, 918, kernel_size=(2, 100), stride=(1, 1))\n    (2): Conv2d(1, 918, kernel_size=(3, 100), stride=(1, 1))\n    (3): Conv2d(1, 918, kernel_size=(4, 100), stride=(1, 1))\n    (4): Conv2d(1, 918, kernel_size=(5, 100), stride=(1, 1))\n  )\n  (batch_norms): ModuleList(\n    (0): BatchNorm2d(918, eps=1e-05, momentum=0.1, affine=True, track_running_stats=True)\n    (1): BatchNorm2d(918, eps=1e-05, momentum=0.1, affine=True, track_running_stats=True)\n    (2): BatchNorm2d(918, eps=1e-05, momentum=0.1, affine=True, track_running_stats=True)\n    (3): BatchNorm2d(918, eps=1e-05, momentum=0.1, affine=True, track_running_stats=True)\n    (4): BatchNorm2d(918, eps=1e-05, momentum=0.1, affine=True, track_running_stats=True)\n  )\n  (gru): GRU(100, 6, batch_first=True, dropout=0.02, bidirectional=True)\n  (fc1): Linear(in_features=4602, out_features=471, bias=True)\n  (fc2): Linear(in_features=471, out_features=126, bias=True)\n  (dropout): Dropout(p=0.02)\n)"
  }
}