…
      0.1944999451938119,
      0.062120106205542126,
      0.056107845581516595,
      0.053566112951773166,
      0.048483345678793636,
      0.043937170188838665,
      0.04250545585545688,
      0.04166502350732769,
      0.04108831423566282,
      0.0405810368680298
    ],
    "loss_vector": [
      0.07040058183720556,
      0.057721624245583,
      0.05445143574122655,
      0.052440541338617516,
      0.045133084185042624,
      0.04322713783989519,
      0.04233261374598843,
      0.041764856521355906,
      0.0413816623642283,
      0.041081382877240745
    ],
    "model": "Model(\n  (embedding): Embedding(400000, 50)\n  (conv1): Conv2d(1, 50, kernel_size=(1, 50), stride=(1, 1))\n  (bn1): BatchNorm2d(50, eps=1e-05, momentum=0.1, affine=True, track_running_stats=True)\n  (conv2): Conv2d(1, 50, kernel_size=(4, 50), stride=(1, 1))\n  (bn2): BatchNorm2d(50, eps=1e-05, momentum=0.1, affine=True, track_running_stats=True)\n  (conv3): Conv2d(1, 50, kernel_size=(7, 50), stride=(1, 1))\n  (bn3): BatchNorm2d(50, eps=1e-05, momentum=0.1, affine=True, track_running_stats=True)\n  (fc1): Linear(in_features=150, out_features=10, bias=True)\n  (fc2): Linear(in_features=10, out_features=126, bias=True)\n  (dropout): Dropout(p=0.0)\n)",
    "train_start": "2018-12-09 16:20:22.388201",
    "train_finish": "2018-12-09 16:24:16.786160",
    "f1_scores": {
      "f1_score_2": 0.6248588730370522,
      "f1_score_3": 0.6829688214564335,
      "f1_score_4": 0.6462504980494992
    },
    "pAtK_scores": {
      "pAtK_1": 0.9257481461864406,
      "pAtK_3": 0.7003663488700564,
…
      0.12912599634965863,
      0.046911188113225706,
      0.04001910537057176,
      0.03646813345758467,
      0.03400400845047645,
      0.032145617473198974,
      0.030845972714659387,
      0.029930558458564405,
      0.029253371632472387,
      0.028710714143752147
    ],
    "loss_vector": [
      0.05295542046680289,
      0.042339015941498644,
      0.038044376519777004,
      0.03557509676379673,
      0.03369304266268924,
      0.03240624932035551,
      0.03134093411519366,
      0.030719760963219708,
      0.03052819476036702,
      0.029948255868028788
    ],
    "model": "Model(\n  (embedding): Embedding(400000, 100)\n  (conv1): Conv2d(1, 50, kernel_size=(1, 100), stride=(1, 1))\n  (bn1): BatchNorm2d(50, eps=1e-05, momentum=0.1, affine=True, track_running_stats=True)\n  (conv2): Conv2d(1, 50, kernel_size=(4, 100), stride=(1, 1))\n  (bn2): BatchNorm2d(50, eps=1e-05, momentum=0.1, affine=True, track_running_stats=True)\n  (conv3): Conv2d(1, 50, kernel_size=(7, 100), stride=(1, 1))\n  (bn3): BatchNorm2d(50, eps=1e-05, momentum=0.1, affine=True, track_running_stats=True)\n  (fc1): Linear(in_features=150, out_features=10, bias=True)\n  (fc2): Linear(in_features=10, out_features=126, bias=True)\n  (dropout): Dropout(p=0.0)\n)",
    "train_start": "2018-12-09 16:28:09.320622",
    "train_finish": "2018-12-09 16:32:19.823544",
    "f1_scores": {
      "f1_score_2": 0.6711613466078209,
      "f1_score_3": 0.752578484383827,
      "f1_score_4": 0.7086294604386542
    },
    "pAtK_scores": {
      "pAtK_1": 0.9467028601694916,
      "pAtK_3": 0.7717492055084746,
…
      0.09081167634399838,
      0.04132918624005915,
      0.035109686281751186,
      0.031779787080818384,
      0.02977312385215931,
      0.02846686093161409,
      0.027540721504664512,
      0.026857707999378047,
      0.026299859876028727,
      0.025841537979652354
    ],
    "loss_vector": [
      0.04643925102585453,
      0.037249125950669836,
      0.03313043138990968,
      0.03080240734931776,
      0.02936427266794746,
      0.028486138304411355,
      0.02779797758212534,
      0.02732345499729706,
      0.026986583278088245,
      0.02675534304925951
    ],
    "model": "Model(\n  (embedding): Embedding(400000, 50)\n  (conv1): Conv2d(1, 50, kernel_size=(1, 50), stride=(1, 1))\n  (bn1): BatchNorm2d(50, eps=1e-05, momentum=0.1, affine=True, track_running_stats=True)\n  (conv2): Conv2d(1, 50, kernel_size=(4, 50), stride=(1, 1))\n  (bn2): BatchNorm2d(50, eps=1e-05, momentum=0.1, affine=True, track_running_stats=True)\n  (conv3): Conv2d(1, 50, kernel_size=(7, 50), stride=(1, 1))\n  (bn3): BatchNorm2d(50, eps=1e-05, momentum=0.1, affine=True, track_running_stats=True)\n  (fc1): Linear(in_features=150, out_features=30, bias=True)\n  (fc2): Linear(in_features=30, out_features=126, bias=True)\n  (dropout): Dropout(p=0.0)\n)",
    "train_start": "2018-12-09 16:36:26.504204",
    "train_finish": "2018-12-09 16:40:27.044957",
    "f1_scores": {
      "f1_score_2": 0.6806681720209381,
      "f1_score_3": 0.7671912409544562,
      "f1_score_4": 0.7254473179455343
    },
    "pAtK_scores": {
      "pAtK_1": 0.9460076800847458,
      "pAtK_3": 0.7867341984463276,
…
      0.13480004244810942,
      0.054397409658108534,
      0.04632531260573208,
      0.0427707769047377,
      0.04067659867923898,
      0.039214140302598816,
      0.03821905016672905,
      0.037459262323334276,
      0.03695177305949254,
      0.0364576313623441
    ],
    "loss_vector": [
      0.06189270784794274,
      0.048621460416559445,
      0.04402636199937028,
      0.041592172710067134,
      0.039990464067560134,
      0.03901205773828393,
      0.0382180077860416,
      0.03766423018680791,
      0.037281431131443735,
      0.03695315990786431
    ],
    "model": "Model(\n  (embedding): Embedding(400000, 50)\n  (conv1): Conv2d(1, 50, kernel_size=(3, 50), stride=(1, 1))\n  (bn1): BatchNorm2d(50, eps=1e-05, momentum=0.1, affine=True, track_running_stats=True)\n  (conv2): Conv2d(1, 50, kernel_size=(4, 50), stride=(1, 1))\n  (bn2): BatchNorm2d(50, eps=1e-05, momentum=0.1, affine=True, track_running_stats=True)\n  (conv3): Conv2d(1, 50, kernel_size=(5, 50), stride=(1, 1))\n  (bn3): BatchNorm2d(50, eps=1e-05, momentum=0.1, affine=True, track_running_stats=True)\n  (fc1): Linear(in_features=150, out_features=10, bias=True)\n  (fc2): Linear(in_features=10, out_features=126, bias=True)\n  (dropout): Dropout(p=0.0)\n)",
    "train_start": "2018-12-09 16:20:15.431806",
    "train_finish": "2018-12-09 16:24:10.382454",
    "f1_scores": {
      "f1_score_2": 0.639536077183619,
      "f1_score_3": 0.7074597153848223,
      "f1_score_4": 0.6708981569852022
    },
    "pAtK_scores": {
      "pAtK_1": 0.9371358580508474,
      "pAtK_3": 0.7254811087570622,
…
      0.1282428601222993,
      0.052040485407188676,
      0.04270724663104459,
      0.03843646851391222,
      0.03577126010163798,
      0.033960858656825105,
      0.032734842331235275,
      0.031857330797406255,
      0.031247182040558368,
      0.03078124279145724
    ],
    "loss_vector": [
      0.058658683262134005,
      0.04598409297355151,
      0.04002518358372026,
      0.03701638487183442,
      0.034854666913970045,
      0.033472245874798905,
      0.03244911380491014,
      0.03187683246777219,
      0.03153497245857271,
      0.03117317703189486
    ],
    "model": "Model(\n  (embedding): Embedding(400000, 50)\n  (conv1): Conv2d(1, 50, kernel_size=(1, 50), stride=(1, 1))\n  (bn1): BatchNorm2d(50, eps=1e-05, momentum=0.1, affine=True, track_running_stats=True)\n  (conv2): Conv2d(1, 50, kernel_size=(3, 50), stride=(1, 1))\n  (bn2): BatchNorm2d(50, eps=1e-05, momentum=0.1, affine=True, track_running_stats=True)\n  (conv3): Conv2d(1, 50, kernel_size=(5, 50), stride=(1, 1))\n  (bn3): BatchNorm2d(50, eps=1e-05, momentum=0.1, affine=True, track_running_stats=True)\n  (fc1): Linear(in_features=150, out_features=10, bias=True)\n  (fc2): Linear(in_features=10, out_features=126, bias=True)\n  (dropout): Dropout(p=0.0)\n)",
    "train_start": "2018-12-09 16:20:20.467346",
    "train_finish": "2018-12-09 16:24:16.042591",
    "f1_scores": {
      "f1_score_2": 0.6639767012213896,
      "f1_score_3": 0.7443682242487828,
      "f1_score_4": 0.7021617664773308
    },
    "pAtK_scores": {
      "pAtK_1": 0.9431276483050848,
      "pAtK_3": 0.763329802259887,
…
      0.16996908634618293,
      0.06214176551695114,
      0.05401273759566177,
      0.050761062142914565,
      0.048961431841300605,
      0.04777384097679064,
      0.04691778229411684,
      0.046217917561870374,
      0.045523717865149936,
      0.04501254064873907
    ],
    "loss_vector": [
      0.07050712368750976,
      0.05619423659676212,
      0.05208508556677123,
      0.049770710958262625,
      0.04857738505480653,
      0.047599731171030106,
      0.047073941046403625,
      0.046620323812052354,
      0.04605621718249078,
      0.04578648949578657
    ],
    "model": "Model(\n  (embedding): Embedding(400000, 100)\n  (conv1): Conv2d(1, 50, kernel_size=(3, 100), stride=(1, 1))\n  (bn1): BatchNorm2d(50, eps=1e-05, momentum=0.1, affine=True, track_running_stats=True)\n  (conv2): Conv2d(1, 50, kernel_size=(4, 100), stride=(1, 1))\n  (bn2): BatchNorm2d(50, eps=1e-05, momentum=0.1, affine=True, track_running_stats=True)\n  (conv3): Conv2d(1, 50, kernel_size=(5, 100), stride=(1, 1))\n  (bn3): BatchNorm2d(50, eps=1e-05, momentum=0.1, affine=True, track_running_stats=True)\n  (fc1): Linear(in_features=150, out_features=10, bias=True)\n  (fc2): Linear(in_features=10, out_features=126, bias=True)\n  (dropout): Dropout(p=0.0)\n)",
    "train_start": "2018-12-09 16:28:03.155413",
    "train_finish": "2018-12-09 16:32:14.209554",
    "f1_scores": {
      "f1_score_2": 0.5977753258749872,
      "f1_score_3": 0.6442417883948028,
      "f1_score_4": 0.6143753301025751
    },
    "pAtK_scores": {
      "pAtK_1": 0.9320709745762712,
      "pAtK_3": 0.6606528072033898,
…
      0.20277752703235996,
      0.043751433901700845,
      0.03701703639902471,
      0.034608806269614475,
      0.03322763385452627,
      0.032212059361686966,
      0.03149891648604137,
      0.03100619927062821,
      0.030584428247340038,
      0.030237598026584857
    ],
    "loss_vector": [
      0.05441793875168946,
      0.038789095262349665,
      0.035611242434736026,
      0.03419109582269596,
      0.0332201751170017,
      0.032792602744648014,
      0.032109162375583485,
      0.03192286262825384,
      0.031632320229279795,
      0.03152640252295187
    ],
    "model": "Model(\n  (embedding): Embedding(400000, 100)\n  (conv1): Conv2d(1, 50, kernel_size=(1, 100), stride=(1, 1))\n  (bn1): BatchNorm2d(50, eps=1e-05, momentum=0.1, affine=True, track_running_stats=True)\n  (conv2): Conv2d(1, 50, kernel_size=(3, 100), stride=(1, 1))\n  (bn2): BatchNorm2d(50, eps=1e-05, momentum=0.1, affine=True, track_running_stats=True)\n  (conv3): Conv2d(1, 50, kernel_size=(5, 100), stride=(1, 1))\n  (bn3): BatchNorm2d(50, eps=1e-05, momentum=0.1, affine=True, track_running_stats=True)\n  (fc1): Linear(in_features=150, out_features=10, bias=True)\n  (fc2): Linear(in_features=10, out_features=126, bias=True)\n  (dropout): Dropout(p=0.0)\n)",
    "train_start": "2018-12-09 16:28:12.107539",
    "train_finish": "2018-12-09 16:32:14.526169",
    "f1_scores": {
      "f1_score_2": 0.663720106743303,
      "f1_score_3": 0.7412799612622065,
      "f1_score_4": 0.6981032421864141
    },
    "pAtK_scores": {
      "pAtK_1": 0.947265625,
      "pAtK_3": 0.7601628707627118,
…
      0.09082580553597472,
      0.04105597869466559,
      0.03507312462511393,
      0.031710319535584106,
      0.02958450119313298,
      0.028243428689959604,
      0.027308056431431926,
      0.026637840015810176,
      0.026110281524525873,
      0.02573128814404332
    ],
    "loss_vector": [
      0.04577814995989961,
      0.03715009466445042,
      0.033123292597168584,
      0.03059960971191778,
      0.029041463067218408,
      0.02802504393887722,
      0.027454618585564323,
      0.02703996441500672,
      0.026579448953270912,
      0.02638322935771134
    ],
    "model": "Model(\n  (embedding): Embedding(400000, 50)\n  (conv1): Conv2d(1, 50, kernel_size=(1, 50), stride=(1, 1))\n  (bn1): BatchNorm2d(50, eps=1e-05, momentum=0.1, affine=True, track_running_stats=True)\n  (conv2): Conv2d(1, 50, kernel_size=(3, 50), stride=(1, 1))\n  (bn2): BatchNorm2d(50, eps=1e-05, momentum=0.1, affine=True, track_running_stats=True)\n  (conv3): Conv2d(1, 50, kernel_size=(5, 50), stride=(1, 1))\n  (bn3): BatchNorm2d(50, eps=1e-05, momentum=0.1, affine=True, track_running_stats=True)\n  (fc1): Linear(in_features=150, out_features=30, bias=True)\n  (fc2): Linear(in_features=30, out_features=126, bias=True)\n  (dropout): Dropout(p=0.0)\n)",
    "train_start": "2018-12-09 16:36:14.633393",
    "train_finish": "2018-12-09 16:40:15.588313",
    "f1_scores": {
      "f1_score_2": 0.6818998255157549,
      "f1_score_3": 0.7686223872165281,
      "f1_score_4": 0.7277638272440025
    },
    "pAtK_scores": {
      "pAtK_1": 0.9460076800847458,
      "pAtK_3": 0.7882018008474576,
…
      0.09050270074543736,
      0.04097543282883217,
      0.03472236817812219,
      0.03160709994836256,
      0.02959398265779584,
      0.0282135063312255,
      0.027201861468279836,
      0.026481061145323954,
      0.025927648906095883,
      0.02549569736423936
    ],
    "loss_vector": [
      0.04631809650336282,
      0.03661884013879097,
      0.032861996157947236,
      0.03061335521229243,
      0.029213549916521978,
      0.028224302960907,
      0.027550789922223252,
      0.026962400240413215,
      0.02659823271935269,
      0.026329885252704053
    ],
    "model": "Model(\n  (embedding): Embedding(400000, 50)\n  (conv1): Conv2d(1, 50, kernel_size=(3, 50), stride=(1, 1))\n  (bn1): BatchNorm2d(50, eps=1e-05, momentum=0.1, affine=True, track_running_stats=True)\n  (conv2): Conv2d(1, 50, kernel_size=(4, 50), stride=(1, 1))\n  (bn2): BatchNorm2d(50, eps=1e-05, momentum=0.1, affine=True, track_running_stats=True)\n  (conv3): Conv2d(1, 50, kernel_size=(5, 50), stride=(1, 1))\n  (bn3): BatchNorm2d(50, eps=1e-05, momentum=0.1, affine=True, track_running_stats=True)\n  (fc1): Linear(in_features=150, out_features=30, bias=True)\n  (fc2): Linear(in_features=30, out_features=126, bias=True)\n  (dropout): Dropout(p=0.0)\n)",
    "train_start": "2018-12-09 16:36:17.446885",
    "train_finish": "2018-12-09 16:40:18.248985",
    "f1_scores": {
      "f1_score_2": 0.6824515036436416,
      "f1_score_3": 0.7693756220913028,
      "f1_score_4": 0.7265499763716051
    },
    "pAtK_scores": {
      "pAtK_1": 0.945511122881356,
      "pAtK_3": 0.7889742231638418,
…
      0.08961606677444882,
      0.03568700045361351,
      0.02933076701959351,
      0.026574963021606376,
      0.02505329684610611,
      0.0240932556339301,
      0.023387668717942383,
      0.022814830337461983,
      0.02234798111728405,
      0.021943924195739303
    ],
    "loss_vector": [
      0.04088526155989049,
      0.03152122645307395,
      0.027964265196252676,
      0.026254333334706597,
      0.025235884049433773,
      0.02481511405716508,
      0.024164007913510678,
      0.02385395563254922,
      0.023635214605068757,
      0.023310743461726076
    ],
    "model": "Model(\n  (embedding): Embedding(400000, 100)\n  (conv1): Conv2d(1, 50, kernel_size=(1, 100), stride=(1, 1))\n  (bn1): BatchNorm2d(50, eps=1e-05, momentum=0.1, affine=True, track_running_stats=True)\n  (conv2): Conv2d(1, 50, kernel_size=(3, 100), stride=(1, 1))\n  (bn2): BatchNorm2d(50, eps=1e-05, momentum=0.1, affine=True, track_running_stats=True)\n  (conv3): Conv2d(1, 50, kernel_size=(5, 100), stride=(1, 1))\n  (bn3): BatchNorm2d(50, eps=1e-05, momentum=0.1, affine=True, track_running_stats=True)\n  (fc1): Linear(in_features=150, out_features=30, bias=True)\n  (fc2): Linear(in_features=30, out_features=126, bias=True)\n  (dropout): Dropout(p=0.0)\n)",
    "train_start": "2018-12-09 16:44:15.995255",
    "train_finish": "2018-12-09 16:48:18.024033",
    "f1_scores": {
      "f1_score_2": 0.6955506517499743,
      "f1_score_3": 0.7851397519705161,
      "f1_score_4": 0.7398745378563949
    },
    "pAtK_scores": {
      "pAtK_1": 0.9534229343220338,
      "pAtK_3": 0.8051399187853108,
…
      0.08707538903805744,
      0.0365940975573133,
      0.03036265785627392,
      0.02705306992415459,
      0.025345462167624958,
      0.024247166391398466,
      0.023435427710074626,
      0.022800824285062485,
      0.022296546702140648,
      0.021865124494346314
    ],
    "loss_vector": [
      0.04174088749845149,
      0.03271284566844924,
      0.028713478659421712,
      0.026624133999822504,
      0.02556415795648502,
      0.02491827021842286,
      0.024475706899065083,
      0.024081588833261343,
      0.023729092993978726,
      0.023643509690034186
    ],
    "model": "Model(\n  (embedding): Embedding(400000, 100)\n  (conv1): Conv2d(1, 50, kernel_size=(3, 100), stride=(1, 1))\n  (bn1): BatchNorm2d(50, eps=1e-05, momentum=0.1, affine=True, track_running_stats=True)\n  (conv2): Conv2d(1, 50, kernel_size=(4, 100), stride=(1, 1))\n  (bn2): BatchNorm2d(50, eps=1e-05, momentum=0.1, affine=True, track_running_stats=True)\n  (conv3): Conv2d(1, 50, kernel_size=(5, 100), stride=(1, 1))\n  (bn3): BatchNorm2d(50, eps=1e-05, momentum=0.1, affine=True, track_running_stats=True)\n  (fc1): Linear(in_features=150, out_features=30, bias=True)\n  (fc2): Linear(in_features=30, out_features=126, bias=True)\n  (dropout): Dropout(p=0.0)\n)",
    "train_start": "2018-12-09 16:44:17.337367",
    "train_finish": "2018-12-09 16:48:27.360272",
    "f1_scores": {
      "f1_score_2": 0.6944344657702965,
      "f1_score_3": 0.7845048825760632,
      "f1_score_4": 0.7404675642368028
    },
    "pAtK_scores": {
      "pAtK_1": 0.9509070444915254,
      "pAtK_3": 0.804488877118644,
…
      0.07879816578874325,
      0.034637151081008975,
      0.029276731143046377,
      0.026610236176673102,
      0.024982289840560938,
      0.023875941474704634,
      0.023023728974008017,
      0.02237908447080025,
      0.02183257683093679,
      0.021356748360468948
    ],
    "loss_vector": [
      0.03995657787989762,
      0.03121487808934713,
      0.028018680764204364,
      0.026223335888678746,
      0.02523304398913505,
      0.024542396256731727,
      0.02398099267255452,
      0.023511341315204815,
      0.023210773497062215,
      0.022980106236823533
    ],
    "model": "Model(\n  (embedding): Embedding(400000, 100)\n  (conv1): Conv2d(1, 50, kernel_size=(1, 100), stride=(1, 1))\n  (bn1): BatchNorm2d(50, eps=1e-05, momentum=0.1, affine=True, track_running_stats=True)\n  (conv2): Conv2d(1, 50, kernel_size=(4, 100), stride=(1, 1))\n  (bn2): BatchNorm2d(50, eps=1e-05, momentum=0.1, affine=True, track_running_stats=True)\n  (conv3): Conv2d(1, 50, kernel_size=(7, 100), stride=(1, 1))\n  (bn3): BatchNorm2d(50, eps=1e-05, momentum=0.1, affine=True, track_running_stats=True)\n  (fc1): Linear(in_features=150, out_features=30, bias=True)\n  (fc2): Linear(in_features=30, out_features=126, bias=True)\n  (dropout): Dropout(p=0.0)\n)",
    "train_start": "2018-12-09 16:44:23.836423",
    "train_finish": "2018-12-09 16:48:39.198273",
    "f1_scores": {
      "f1_score_2": 0.6964359026993739,
      "f1_score_3": 0.7869259946735534,
      "f1_score_4": 0.7422003131920573
    },
    "pAtK_scores": {
      "pAtK_1": 0.9509401483050848,
      "pAtK_3": 0.8069716631355932,
…
      0.08120883475331699,
      0.03863999374083595,
      0.03276687095638018,
      0.02952354320764994,
      0.0276058495108328,
      0.026381324711600335,
      0.025476542278502202,
      0.02483797401359457,
      0.024307978245830853,
      0.023865550130860176
    ],
    "loss_vector": [
      0.04300618380055589,
      0.034879937673271716,
      0.030721732146911703,
      0.028493887602777806,
      0.027260538127462743,
      0.026358132834656763,
      0.025834775545586972,
      0.025181934426901705,
      0.02482876191073555,
      0.024556014244839296
    ],
    "model": "Model(\n  (embedding): Embedding(400000, 50)\n  (conv1): Conv2d(1, 50, kernel_size=(1, 50), stride=(1, 1))\n  (bn1): BatchNorm2d(50, eps=1e-05, momentum=0.1, affine=True, track_running_stats=True)\n  (conv2): Conv2d(1, 50, kernel_size=(3, 50), stride=(1, 1))\n  (bn2): BatchNorm2d(50, eps=1e-05, momentum=0.1, affine=True, track_running_stats=True)\n  (conv3): Conv2d(1, 50, kernel_size=(5, 50), stride=(1, 1))\n  (bn3): BatchNorm2d(50, eps=1e-05, momentum=0.1, affine=True, track_running_stats=True)\n  (fc1): Linear(in_features=150, out_features=50, bias=True)\n  (fc2): Linear(in_features=50, out_features=126, bias=True)\n  (dropout): Dropout(p=0.0)\n)",
    "train_start": "2018-12-09 16:52:15.654849",
    "train_finish": "2018-12-09 16:56:10.615993",
    "f1_scores": {
      "f1_score_2": 0.6880965821615518,
      "f1_score_3": 0.7769725338283164,
      "f1_score_4": 0.733944274052316
    },
    "pAtK_scores": {
      "pAtK_1": 0.9479277012711864,
      "pAtK_3": 0.7967646539548022,
…
      0.07794741672628067,
      0.03721627571126994,
      0.030975909062450933,
      0.02809154306957233,
      0.0264065737254649,
      0.025262423647846848,
      0.024437834015663934,
      0.023828904284075948,
      0.02335137546953146,
      0.022966184937863468
    ],
    "loss_vector": [
      0.042801801367836484,
      0.03300479635343713,
      0.02918824730283123,
      0.027244073228310732,
      0.02610366059056783,
      0.02532584431691695,
      0.02481075979264106,
      0.02441527625009165,
      0.02417043378671347,
      0.023901844870741085
    ],
    "model": "Model(\n  (embedding): Embedding(400000, 50)\n  (conv1): Conv2d(1, 50, kernel_size=(3, 50), stride=(1, 1))\n  (bn1): BatchNorm2d(50, eps=1e-05, momentum=0.1, affine=True, track_running_stats=True)\n  (conv2): Conv2d(1, 50, kernel_size=(4, 50), stride=(1, 1))\n  (bn2): BatchNorm2d(50, eps=1e-05, momentum=0.1, affine=True, track_running_stats=True)\n  (conv3): Conv2d(1, 50, kernel_size=(5, 50), stride=(1, 1))\n  (bn3): BatchNorm2d(50, eps=1e-05, momentum=0.1, affine=True, track_running_stats=True)\n  (fc1): Linear(in_features=150, out_features=50, bias=True)\n  (fc2): Linear(in_features=50, out_features=126, bias=True)\n  (dropout): Dropout(p=0.0)\n)",
    "train_start": "2018-12-09 16:52:33.718150",
    "train_finish": "2018-12-09 16:56:25.937584",
    "f1_scores": {
      "f1_score_2": 0.6911115672790722,
      "f1_score_3": 0.7802006832916364,
      "f1_score_4": 0.7367796814336413
    },
    "pAtK_scores": {
      "pAtK_1": 0.9491856461864406,
      "pAtK_3": 0.8000750353107344,
…
      0.08168900888095092,
      0.03927019041250734,
      0.03344716807116933,
      0.030140345771240327,
      0.028182070592747015,
      0.026855839865257438,
      0.02581268051317566,
      0.02503875723599935,
      0.024422955644481322,
      0.02391142502738131
    ],
    "loss_vector": [
      0.04371255301570488,
      0.03559635361751257,
      0.03167406842112541,
      0.029237745392878177,
      0.027963097002041543,
      0.026900488946397426,
      0.026100394552794552,
      0.025660216492616524,
      0.025242042996115602,
      0.024854922730286243
    ],
    "model": "Model(\n  (embedding): Embedding(400000, 50)\n  (conv1): Conv2d(1, 50, kernel_size=(1, 50), stride=(1, 1))\n  (bn1): BatchNorm2d(50, eps=1e-05, momentum=0.1, affine=True, track_running_stats=True)\n  (conv2): Conv2d(1, 50, kernel_size=(4, 50), stride=(1, 1))\n  (bn2): BatchNorm2d(50, eps=1e-05, momentum=0.1, affine=True, track_running_stats=True)\n  (conv3): Conv2d(1, 50, kernel_size=(7, 50), stride=(1, 1))\n  (bn3): BatchNorm2d(50, eps=1e-05, momentum=0.1, affine=True, track_running_stats=True)\n  (fc1): Linear(in_features=150, out_features=50, bias=True)\n  (fc2): Linear(in_features=50, out_features=126, bias=True)\n  (dropout): Dropout(p=0.0)\n)",
    "train_start": "2018-12-09 16:52:52.805786",
    "train_finish": "2018-12-09 16:56:48.516999",
    "f1_scores": {
      "f1_score_2": 0.687160012316535,
      "f1_score_3": 0.7752723751109676,
      "f1_score_4": 0.732628496770786
    },
    "pAtK_scores": {
      "pAtK_1": 0.9469014830508474,
      "pAtK_3": 0.795021186440678,
…
      0.0820489203384185,
      0.035475980949922124,
      0.02956016239422096,
      0.026902155576015784,
      0.025037002747973863,
      0.023793954734444844,
      0.02294069987702302,
      0.022225588955960645,
      0.021703503322584354,
      0.021272108736368464
    ],
    "loss_vector": [
      0.04086913825091669,
      0.03145444292133137,
      0.028218651506102692,
      0.02635134892317198,
      0.02497759170956531,
      0.024179576564643344,
      0.023661104614956904,
      0.023112671544491235,
      0.022938042089848194,
      0.022481239669151224
    ],
    "model": "Model(\n  (embedding): Embedding(400000, 100)\n  (conv1): Conv2d(1, 50, kernel_size=(1, 100), stride=(1, 1))\n  (bn1): BatchNorm2d(50, eps=1e-05, momentum=0.1, affine=True, track_running_stats=True)\n  (conv2): Conv2d(1, 50, kernel_size=(3, 100), stride=(1, 1))\n  (bn2): BatchNorm2d(50, eps=1e-05, momentum=0.1, affine=True, track_running_stats=True)\n  (conv3): Conv2d(1, 50, kernel_size=(5, 100), stride=(1, 1))\n  (bn3): BatchNorm2d(50, eps=1e-05, momentum=0.1, affine=True, track_running_stats=True)\n  (fc1): Linear(in_features=150, out_features=50, bias=True)\n  (fc2): Linear(in_features=50, out_features=126, bias=True)\n  (dropout): Dropout(p=0.0)\n)",
    "train_start": "2018-12-09 17:00:07.604422",
    "train_finish": "2018-12-09 17:04:11.854599",
    "f1_scores": {
      "f1_score_2": 0.6991044852714768,
      "f1_score_3": 0.7895730772334759,
      "f1_score_4": 0.7445816847508826
    },
    "pAtK_scores": {
      "pAtK_1": 0.9532574152542372,
      "pAtK_3": 0.8096861758474576,
…
      0.07099657023654264,
      0.03199117089952192,
      0.026883836418559928,
      0.0245589492153341,
      0.023123999909131984,
      0.022166993744685483,
      0.02145264729631241,
      0.02088548015428449,
      0.02040334114454955,
      0.020021653972721643
    ],
    "loss_vector": [
      0.03670776427044707,
      0.02868916807790934,
      0.02597146702267356,
      0.024357184325739488,
      0.023496482647576575,
      0.022962663259546635,
      0.022498375467829786,
      0.022151088973475716,
      0.021961023241786632,
      0.021960458007909484
    ],
    "model": "Model(\n  (embedding): Embedding(400000, 100)\n  (conv1): Conv2d(1, 50, kernel_size=(3, 100), stride=(1, 1))\n  (bn1): BatchNorm2d(50, eps=1e-05, momentum=0.1, affine=True, track_running_stats=True)\n  (conv2): Conv2d(1, 50, kernel_size=(4, 100), stride=(1, 1))\n  (bn2): BatchNorm2d(50, eps=1e-05, momentum=0.1, affine=True, track_running_stats=True)\n  (conv3): Conv2d(1, 50, kernel_size=(5, 100), stride=(1, 1))\n  (bn3): BatchNorm2d(50, eps=1e-05, momentum=0.1, affine=True, track_running_stats=True)\n  (fc1): Linear(in_features=150, out_features=50, bias=True)\n  (fc2): Linear(in_features=50, out_features=126, bias=True)\n  (dropout): Dropout(p=0.0)\n)",
    "train_start": "2018-12-09 17:00:22.883434",
    "train_finish": "2018-12-09 17:04:32.910502",
    "f1_scores": {
      "f1_score_2": 0.7013625166786411,
      "f1_score_3": 0.792306243779087,
      "f1_score_4": 0.7469352581981265
    },
    "pAtK_scores": {
      "pAtK_1": 0.9548132944915254,
      "pAtK_3": 0.8124889653954802,
…
      0.07402236835299453,
      0.03313712747078353,
      0.027522904328309155,
      0.024829633890932155,
      0.023290809933131516,
      0.022268198907686367,
      0.021547143031229784,
      0.020993288730110343,
      0.0205364604524745,
      0.020155389169390105
    ],
    "loss_vector": [
      0.03798714958889,
      0.029760199362191105,
      0.026358331064299002,
      0.024666374233567108,
      0.02366744073391971,
      0.023197524186413167,
      0.022824990642020256,
      0.02235281985189955,
      0.022111490621405133,
      0.022043492139901144
    ],
    "model": "Model(\n  (embedding): Embedding(400000, 100)\n  (conv1): Conv2d(1, 50, kernel_size=(1, 100), stride=(1, 1))\n  (bn1): BatchNorm2d(50, eps=1e-05, momentum=0.1, affine=True, track_running_stats=True)\n  (conv2): Conv2d(1, 50, kernel_size=(4, 100), stride=(1, 1))\n  (bn2): BatchNorm2d(50, eps=1e-05, momentum=0.1, affine=True, track_running_stats=True)\n  (conv3): Conv2d(1, 50, kernel_size=(7, 100), stride=(1, 1))\n  (bn3): BatchNorm2d(50, eps=1e-05, momentum=0.1, affine=True, track_running_stats=True)\n  (fc1): Linear(in_features=150, out_features=50, bias=True)\n  (fc2): Linear(in_features=50, out_features=126, bias=True)\n  (dropout): Dropout(p=0.0)\n)",
    "train_start": "2018-12-09 17:00:43.854908",
    "train_finish": "2018-12-09 17:05:05.038703",
    "f1_scores": {
      "f1_score_2": 0.6995150364364159,
      "f1_score_3": 0.791176391466925,
      "f1_score_4": 0.7458974620324126
    },
    "pAtK_scores": {
      "pAtK_1": 0.9538863877118644,
      "pAtK_3": 0.811330331920904,
…
      0.06718065516150201,
      0.034924681102273814,
      0.02956410616183869,
      0.026808050579516893,
      0.025114721507258162,
      0.023992156910319484,
      0.0231942597642343,
      0.022582573766698196,
      0.022121764995171857,
      0.0217358566947861
    ],
    "loss_vector": [
      0.03880932731396061,
      0.03145222968848075,
      0.027924933802273313,
      0.02609765914789701,
      0.024904530716396995,
      0.024177697281968797,
      0.02359860267300727,
      0.023194711844799883,
      0.022817093342290085,
      0.022583042508212185
    ],
    "model": "Model(\n  (embedding): Embedding(400000, 50)\n  (conv1): Conv2d(1, 50, kernel_size=(1, 50), stride=(1, 1))\n  (bn1): BatchNorm2d(50, eps=1e-05, momentum=0.1, affine=True, track_running_stats=True)\n  (conv2): Conv2d(1, 50, kernel_size=(3, 50), stride=(1, 1))\n  (bn2): BatchNorm2d(50, eps=1e-05, momentum=0.1, affine=True, track_running_stats=True)\n  (conv3): Conv2d(1, 50, kernel_size=(5, 50), stride=(1, 1))\n  (bn3): BatchNorm2d(50, eps=1e-05, momentum=0.1, affine=True, track_running_stats=True)\n  (fc1): Linear(in_features=150, out_features=100, bias=True)\n  (fc2): Linear(in_features=100, out_features=126, bias=True)\n  (dropout): Dropout(p=0.0)\n)",
    "train_start": "2018-12-09 17:08:05.667383",
    "train_finish": "2018-12-09 17:11:57.271653",
    "f1_scores": {
      "f1_score_2": 0.6937031715077492,
      "f1_score_3": 0.7837731686977109,
      "f1_score_4": 0.7410605906172107
    },
    "pAtK_scores": {
      "pAtK_1": 0.9502118644067796,
      "pAtK_3": 0.8037385240112994,
…
      0.0678486529476163,
      0.03282601506125882,
      0.02789987762948141,
      0.0256131566262166,
      0.02422371607422263,
      0.023271064890771256,
      0.022567536434480315,
      0.022014815028071177,
      0.021587631214530237,
      0.021234909086656074
    ],
    "loss_vector": [
      0.03701464304605783,
      0.029621194827101998,
      0.026735581299763615,
      0.0254443585241245,
      0.024238269428833056,
      0.023681098058567208,
      0.023211889032085063,
      0.022816211679729366,
      0.022507733744332344,
      0.02234005476584879
    ],
    "model": "Model(\n  (embedding): Embedding(400000, 50)\n  (conv1): Conv2d(1, 50, kernel_size=(3, 50), stride=(1, 1))\n  (bn1): BatchNorm2d(50, eps=1e-05, momentum=0.1, affine=True, track_running_stats=True)\n  (conv2): Conv2d(1, 50, kernel_size=(4, 50), stride=(1, 1))\n  (bn2): BatchNorm2d(50, eps=1e-05, momentum=0.1, affine=True, track_running_stats=True)\n  (conv3): Conv2d(1, 50, kernel_size=(5, 50), stride=(1, 1))\n  (bn3): BatchNorm2d(50, eps=1e-05, momentum=0.1, affine=True, track_running_stats=True)\n  (fc1): Linear(in_features=150, out_features=100, bias=True)\n  (fc2): Linear(in_features=100, out_features=126, bias=True)\n  (dropout): Dropout(p=0.0)\n)",
    "train_start": "2018-12-09 17:08:34.395480",
    "train_finish": "2018-12-09 17:12:29.806949",
    "f1_scores": {
      "f1_score_2": 0.6963204351842348,
      "f1_score_3": 0.7872703306163075,
      "f1_score_4": 0.7427192112749141
    },
    "pAtK_scores": {
      "pAtK_1": 0.9503773834745762,
      "pAtK_3": 0.807324770480226,
…
      0.06817193128578578,
      0.03339816603731838,
      0.02839811439970526,
      0.02595375281399862,
      0.02444961449693344,
      0.023450817948161312,
      0.02272274267048605,
      0.022220571057082805,
      0.02177438310981928,
      0.021409012161661824
    ],
    "loss_vector": [
      0.03787233645759397,
      0.030053719309932093,
      0.02704910132086883,
      0.025654572141119988,
      0.02440139720753088,
      0.0237715475703195,
      0.023421712535417687,
      0.023012028628234135,
      0.022734443136190965,
      0.022468039986945815
    ],
    "model": "Model(\n  (embedding): Embedding(400000, 50)\n  (conv1): Conv2d(1, 50, kernel_size=(1, 50), stride=(1, 1))\n  (bn1): BatchNorm2d(50, eps=1e-05, momentum=0.1, affine=True, track_running_stats=True)\n  (conv2): Conv2d(1, 50, kernel_size=(4, 50), stride=(1, 1))\n  (bn2): BatchNorm2d(50, eps=1e-05, momentum=0.1, affine=True, track_running_stats=True)\n  (conv3): Conv2d(1, 50, kernel_size=(7, 50), stride=(1, 1))\n  (bn3): BatchNorm2d(50, eps=1e-05, momentum=0.1, affine=True, track_running_stats=True)\n  (fc1): Linear(in_features=150, out_features=100, bias=True)\n  (fc2): Linear(in_features=100, out_features=126, bias=True)\n  (dropout): Dropout(p=0.0)\n)",
    "train_start": "2018-12-09 17:09:14.978213",
    "train_finish": "2018-12-09 17:13:08.054133",
    "f1_scores": {
      "f1_score_2": 0.6953325464436005,
      "f1_score_3": 0.7851935544615717,
      "f1_score_4": 0.7417370113323635
    },
    "pAtK_scores": {
      "pAtK_1": 0.950046345338983,
      "pAtK_3": 0.8051950918079096,
…
      0.06843768030518146,
      0.03016811939384046,
      0.025504438853354336,
      0.02345844239448913,
      0.022211250978074897,
      0.02138242054822549,
      0.020764775708515686,
      0.020281427220019035,
      0.019888782894956318,
      0.019533705750950373
    ],
    "loss_vector": [
      0.034611225759578965,
      0.02711746428098719,
      0.024556841480277352,
      0.023354108050718147,
      0.022517745588290488,
      0.021928585371223545,
      0.02188676404687813,
      0.02145611960440874,
      0.021242578087721842,
      0.020928207516543947
    ],
    "model": "Model(\n  (embedding): Embedding(400000, 100)\n  (conv1): Conv2d(1, 50, kernel_size=(1, 100), stride=(1, 1))\n  (bn1): BatchNorm2d(50, eps=1e-05, momentum=0.1, affine=True, track_running_stats=True)\n  (conv2): Conv2d(1, 50, kernel_size=(3, 100), stride=(1, 1))\n  (bn2): BatchNorm2d(50, eps=1e-05, momentum=0.1, affine=True, track_running_stats=True)\n  (conv3): Conv2d(1, 50, kernel_size=(5, 100), stride=(1, 1))\n  (bn3): BatchNorm2d(50, eps=1e-05, momentum=0.1, affine=True, track_running_stats=True)\n  (fc1): Linear(in_features=150, out_features=100, bias=True)\n  (fc2): Linear(in_features=100, out_features=126, bias=True)\n  (dropout): Dropout(p=0.0)\n)",
    "train_start": "2018-12-09 17:15:46.285387",
    "train_finish": "2018-12-09 17:19:40.604044",
    "f1_scores": {
      "f1_score_2": 0.7015421328133019,
      "f1_score_3": 0.7933715331019826,
      "f1_score_4": 0.7485475486698604
    },
    "pAtK_scores": {
      "pAtK_1": 0.9538863877118644,
      "pAtK_3": 0.8135813912429378,
…
      0.0629660674146389,
      0.029192194593557822,
      0.02490258948131689,
      0.022857791070863463,
      0.021579232816169112,
      0.020693791196089543,
      0.02002482512078656,
      0.019527780805737402,
      0.019099307439132705,
      0.018765247393349994
    ],
    "loss_vector": [
      0.03296579717326972,
      0.0265258098557844,
      0.024205528262813213,
      0.022907798573122185,
      0.02225575659234645,
      0.02170081648154784,
      0.021615862799019128,
      0.021220907632072093,
      0.020917032482260366,
      0.02067864741498636
    ],
    "model": "Model(\n  (embedding): Embedding(400000, 100)\n  (conv1): Conv2d(1, 50, kernel_size=(3, 100), stride=(1, 1))\n  (bn1): BatchNorm2d(50, eps=1e-05, momentum=0.1, affine=True, track_running_stats=True)\n  (conv2): Conv2d(1, 50, kernel_size=(4, 100), stride=(1, 1))\n  (bn2): BatchNorm2d(50, eps=1e-05, momentum=0.1, affine=True, track_running_stats=True)\n  (conv3): Conv2d(1, 50, kernel_size=(5, 100), stride=(1, 1))\n  (bn3): BatchNorm2d(50, eps=1e-05, momentum=0.1, affine=True, track_running_stats=True)\n  (fc1): Linear(in_features=150, out_features=100, bias=True)\n  (fc2): Linear(in_features=100, out_features=126, bias=True)\n  (dropout): Dropout(p=0.0)\n)",
    "train_start": "2018-12-09 17:16:27.381623",
    "train_finish": "2018-12-09 17:20:39.445347",
    "f1_scores": {
      "f1_score_2": 0.7031843374730575,
      "f1_score_3": 0.7955989562316735,
      "f1_score_4": 0.7504563523317983
    },
    "pAtK_scores": {
      "pAtK_1": 0.9555415783898306,
      "pAtK_3": 0.815865554378531,
…
      0.06318198484094704,
      0.029595270668080455,
      0.025453268951494284,
      0.023415806899430402,
      0.02214005563683822,
      0.021246854032069953,
      0.020579681277586116,
      0.020040986310174615,
      0.01958071641920866,
      0.01920469855249946
    ],
    "loss_vector": [
      0.03331003596974631,
      0.02698290979458114,
      0.02478401624929097,
      0.023487288315417403,
      0.022618570254515795,
      0.022191027431922444,
      0.02186885504525597,
      0.02159352594260442,
      0.02152545308157549,
      0.021223605673570754
    ],
    "model": "Model(\n  (embedding): Embedding(400000, 100)\n  (conv1): Conv2d(1, 50, kernel_size=(1, 100), stride=(1, 1))\n  (bn1): BatchNorm2d(50, eps=1e-05, momentum=0.1, affine=True, track_running_stats=True)\n  (conv2): Conv2d(1, 50, kernel_size=(4, 100), stride=(1, 1))\n  (bn2): BatchNorm2d(50, eps=1e-05, momentum=0.1, affine=True, track_running_stats=True)\n  (conv3): Conv2d(1, 50, kernel_size=(7, 100), stride=(1, 1))\n  (bn3): BatchNorm2d(50, eps=1e-05, momentum=0.1, affine=True, track_running_stats=True)\n  (fc1): Linear(in_features=150, out_features=100, bias=True)\n  (fc2): Linear(in_features=100, out_features=126, bias=True)\n  (dropout): Dropout(p=0.0)\n)",
    "train_start": "2018-12-09 17:17:06.154840",
    "train_finish": "2018-12-09 17:21:21.492902",
    "f1_scores": {
      "f1_score_2": 0.7008621574463717,
      "f1_score_3": 0.7926182982272079,
      "f1_score_4": 0.7477784675827689
    },
    "pAtK_scores": {
      "pAtK_1": 0.9552436440677966,
      "pAtK_3": 0.8128089689265536,
…
      0.1519071775960402,
      0.054879320852557444,
      0.04622971620658091,
      0.041630242875224044,
      0.03902127213450944,
      0.03732279526949834,
      0.036204074822238995,
      0.03537252218421881,
      0.03469583108328438,
      0.0341451706742935
    ],
    "loss_vector": [
      0.06131152789724075,
      0.04924788989000401,
      0.04318915187554844,
      0.04008947312831879,
      0.03818498974886991,
      0.03696266006110078,
      0.0363086149475332,
      0.035704848214478814,
      0.03519100768460055,
      0.03499703661743867
    ],
    "model": "Model(\n  (embedding): Embedding(400000, 50)\n  (conv1): Conv2d(1, 100, kernel_size=(1, 50), stride=(1, 1))\n  (bn1): BatchNorm2d(100, eps=1e-05, momentum=0.1, affine=True, track_running_stats=True)\n  (conv2): Conv2d(1, 100, kernel_size=(3, 50), stride=(1, 1))\n  (bn2): BatchNorm2d(100, eps=1e-05, momentum=0.1, affine=True, track_running_stats=True)\n  (conv3): Conv2d(1, 100, kernel_size=(5, 50), stride=(1, 1))\n  (bn3): BatchNorm2d(100, eps=1e-05, momentum=0.1, affine=True, track_running_stats=True)\n  (fc1): Linear(in_features=300, out_features=10, bias=True)\n  (fc2): Linear(in_features=10, out_features=126, bias=True)\n  (dropout): Dropout(p=0.0)\n)",
    "train_start": "2018-12-09 17:23:31.800173",
    "train_finish": "2018-12-09 17:27:47.465485",
    "f1_scores": {
      "f1_score_2": 0.6504413425023093,
      "f1_score_3": 0.7220294299626073,
      "f1_score_4": 0.6831015279695333
    },
    "pAtK_scores": {
      "pAtK_1": 0.9401483050847458,
      "pAtK_3": 0.7404219632768362,
…
      0.13584017749359756,
      0.05091189731626402,
      0.04216961309568253,
      0.038034296910891725,
      0.035671787785341434,
      0.03414674263723209,
      0.03301518453564318,
      0.03221384446848841,
      0.031620118494871896,
      0.03116276983235321
    ],
    "loss_vector": [
      0.05738493219270545,
      0.04522508092350879,
      0.039748173459606656,
      0.03701084650168985,
      0.035264823459467645,
      0.03416385166978432,
      0.033509366466837415,
      0.03296222843987457,
      0.03263599024612015,
      0.032451547650715055
    ],
    "model": "Model(\n  (embedding): Embedding(400000, 50)\n  (conv1): Conv2d(1, 100, kernel_size=(3, 50), stride=(1, 1))\n  (bn1): BatchNorm2d(100, eps=1e-05, momentum=0.1, affine=True, track_running_stats=True)\n  (conv2): Conv2d(1, 100, kernel_size=(4, 50), stride=(1, 1))\n  (bn2): BatchNorm2d(100, eps=1e-05, momentum=0.1, affine=True, track_running_stats=True)\n  (conv3): Conv2d(1, 100, kernel_size=(5, 50), stride=(1, 1))\n  (bn3): BatchNorm2d(100, eps=1e-05, momentum=0.1, affine=True, track_running_stats=True)\n  (fc1): Linear(in_features=300, out_features=10, bias=True)\n  (fc2): Linear(in_features=10, out_features=126, bias=True)\n  (dropout): Dropout(p=0.0)\n)",
    "train_start": "2018-12-09 17:24:42.500194",
    "train_finish": "2018-12-09 17:29:04.765755",
    "f1_scores": {
      "f1_score_2": 0.6583829415990967,
      "f1_score_3": 0.737524547386544,
      "f1_score_4": 0.696870859239629
    },
    "pAtK_scores": {
      "pAtK_1": 0.9450807733050848,
      "pAtK_3": 0.7563117937853108,
…
      0.13610705225048075,
      0.050127633856132316,
      0.04262332344671581,
      0.03852660751122225,
      0.036176168792783875,
      0.03470439602050089,
      0.033612367083836324,
      0.03278717246309516,
      0.03210306205774394,
      0.03152472991319603
    ],
    "loss_vector": [
      0.055556119498559986,
      0.04538432344541711,
      0.04015729241704537,
      0.037341523505115916,
      0.03588846603692588,
      0.03489882442153106,
      0.03418805510184522,
      0.03364846716492863,
      0.033134732016567456,
      0.032884079268423176
    ],
    "model": "Model(\n  (embedding): Embedding(400000, 50)\n  (conv1): Conv2d(1, 100, kernel_size=(1, 50), stride=(1, 1))\n  (bn1): BatchNorm2d(100, eps=1e-05, momentum=0.1, affine=True, track_running_stats=True)\n  (conv2): Conv2d(1, 100, kernel_size=(4, 50), stride=(1, 1))\n  (bn2): BatchNorm2d(100, eps=1e-05, momentum=0.1, affine=True, track_running_stats=True)\n  (conv3): Conv2d(1, 100, kernel_size=(7, 50), stride=(1, 1))\n  (bn3): BatchNorm2d(100, eps=1e-05, momentum=0.1, affine=True, track_running_stats=True)\n  (fc1): Linear(in_features=300, out_features=10, bias=True)\n  (fc2): Linear(in_features=10, out_features=126, bias=True)\n  (dropout): Dropout(p=0.0)\n)",
    "train_start": "2018-12-09 17:25:31.028228",
    "train_finish": "2018-12-09 17:29:54.195456",
    "f1_scores": {
      "f1_score_2": 0.6579210715385404,
      "f1_score_3": 0.734651494364189,
      "f1_score_4": 0.6947767348338136
    },
    "pAtK_scores": {
      "pAtK_1": 0.9425648834745762,
      "pAtK_3": 0.753365554378531,
…
      0.15687992116277313,
      0.056684046969581146,
      0.047089394012314094,
      0.042951384258847085,
      0.04061315732476155,
      0.03911306583932274,
      0.038082796408736505,
      0.037284862490430955,
      0.03645879244414181,
      0.03578949996059941
    ],
    "loss_vector": [
      0.06521190027311696,
      0.05022049531088037,
      0.04438025908449949,
      0.041817223116502926,
      0.04004734312578783,
      0.03904760477401442,
      0.038720381903951454,
      0.037918313106490395,
      0.037115859720161404,
      0.03687657422180903
    ],
    "model": "Model(\n  (embedding): Embedding(400000, 100)\n  (conv1): Conv2d(1, 100, kernel_size=(1, 100), stride=(1, 1))\n  (bn1): BatchNorm2d(100, eps=1e-05, momentum=0.1, affine=True, track_running_stats=True)\n  (conv2): Conv2d(1, 100, kernel_size=(3, 100), stride=(1, 1))\n  (bn2): BatchNorm2d(100, eps=1e-05, momentum=0.1, affine=True, track_running_stats=True)\n  (conv3): Conv2d(1, 100, kernel_size=(5, 100), stride=(1, 1))\n  (bn3): BatchNorm2d(100, eps=1e-05, momentum=0.1, affine=True, track_running_stats=True)\n  (fc1): Linear(in_features=300, out_features=10, bias=True)\n  (fc2): Linear(in_features=10, out_features=126, bias=True)\n  (dropout): Dropout(p=0.0)\n)",
    "train_start": "2018-12-09 17:31:48.656545",
    "train_finish": "2018-12-09 17:36:19.493217",
    "f1_scores": {
      "f1_score_2": 0.6431027404290259,
      "f1_score_3": 0.712366502569069,
      "f1_score_4": 0.6715838437375489
    },
    "pAtK_scores": {
      "pAtK_1": 0.9388241525423728,
      "pAtK_3": 0.730512888418079,
…
      0.16930150100696245,
      0.06068125632953825,
      0.05272433125684338,
      0.04991004963810123,
      0.048346986389759594,
      0.047214022185476726,
      0.04636186849064347,
      0.045544126383833004,
      0.044839463293891706,
      0.04422347753024192
    ],
    "loss_vector": [
      0.06745824621895612,
      0.05485987985285662,
      0.05081335890848758,
      0.04906187755829197,
      0.048142736998655025,
      0.047274420448278974,
      0.04674706532288406,
      0.04628050725086261,
      0.045740877041372204,
      0.04531785953095404
    ],
    "model": "Model(\n  (embedding): Embedding(400000, 100)\n  (conv1): Conv2d(1, 100, kernel_size=(3, 100), stride=(1, 1))\n  (bn1): BatchNorm2d(100, eps=1e-05, momentum=0.1, affine=True, track_running_stats=True)\n  (conv2): Conv2d(1, 100, kernel_size=(4, 100), stride=(1, 1))\n  (bn2): BatchNorm2d(100, eps=1e-05, momentum=0.1, affine=True, track_running_stats=True)\n  (conv3): Conv2d(1, 100, kernel_size=(5, 100), stride=(1, 1))\n  (bn3): BatchNorm2d(100, eps=1e-05, momentum=0.1, affine=True, track_running_stats=True)\n  (fc1): Linear(in_features=300, out_features=10, bias=True)\n  (fc2): Linear(in_features=10, out_features=126, bias=True)\n  (dropout): Dropout(p=0.0)\n)",
    "train_start": "2018-12-09 17:33:12.713621",
    "train_finish": "2018-12-09 17:38:13.346065",
    "f1_scores": {
      "f1_score_2": 0.5898465565021042,
      "f1_score_3": 0.6375487585075189,
      "f1_score_4": 0.609621853022118
    },
    "pAtK_scores": {
      "pAtK_1": 0.9256488347457628,
      "pAtK_3": 0.6537892831920904,
…
      0.13765927650868554,
      0.05125106217258343,
      0.04280627556357257,
      0.03871545488937304,
      0.03627090233482378,
      0.03451857244352009,
      0.03320454408465911,
      0.03219680330473965,
      0.03140626269864516,
      0.030800132968054776
    ],
    "loss_vector": [
      0.0570628355115147,
      0.04587263424517745,
      0.040309421023574925,
      0.03765670566866964,
      0.035923939008834,
      0.03514037038183818,
      0.03399044010093657,
      0.03323931597425776,
      0.03290140998186702,
      0.03280221017361697
    ],
    "model": "Model(\n  (embedding): Embedding(400000, 100)\n  (conv1): Conv2d(1, 100, kernel_size=(1, 100), stride=(1, 1))\n  (bn1): BatchNorm2d(100, eps=1e-05, momentum=0.1, affine=True, track_running_stats=True)\n  (conv2): Conv2d(1, 100, kernel_size=(4, 100), stride=(1, 1))\n  (bn2): BatchNorm2d(100, eps=1e-05, momentum=0.1, affine=True, track_running_stats=True)\n  (conv3): Conv2d(1, 100, kernel_size=(7, 100), stride=(1, 1))\n  (bn3): BatchNorm2d(100, eps=1e-05, momentum=0.1, affine=True, track_running_stats=True)\n  (fc1): Linear(in_features=300, out_features=10, bias=True)\n  (fc2): Linear(in_features=10, out_features=126, bias=True)\n  (dropout): Dropout(p=0.0)\n)",
    "train_start": "2018-12-09 17:34:03.012928",
    "train_finish": "2018-12-09 17:38:56.649100",
    "f1_scores": {
      "f1_score_2": 0.6577671148516884,
      "f1_score_3": 0.7347160573534555,
      "f1_score_4": 0.6934794896266714
    },
    "pAtK_scores": {
      "pAtK_1": 0.9458421610169492,
      "pAtK_3": 0.7534317620056498,
…
      0.08454015107376525,
      0.03763039850504394,
      0.03177318666519092,
      0.028853849516704368,
      0.027140744323833392,
      0.025952897206005382,
      0.025105016514574103,
      0.024451636559059544,
      0.023963720391043223,
      0.023519961516844705
    ],
    "loss_vector": [
      0.042206388030011775,
      0.03366418078668037,
      0.030199828983868582,
      0.02828632134123374,
      0.02712224906910274,
      0.02621251404664274,
      0.025791001521934896,
      0.02525946561057689,
      0.025086831932855866,
      0.024805308335413365
    ],
    "model": "Model(\n  (embedding): Embedding(400000, 50)\n  (conv1): Conv2d(1, 100, kernel_size=(1, 50), stride=(1, 1))\n  (bn1): BatchNorm2d(100, eps=1e-05, momentum=0.1, affine=True, track_running_stats=True)\n  (conv2): Conv2d(1, 100, kernel_size=(3, 50), stride=(1, 1))\n  (bn2): BatchNorm2d(100, eps=1e-05, momentum=0.1, affine=True, track_running_stats=True)\n  (conv3): Conv2d(1, 100, kernel_size=(5, 50), stride=(1, 1))\n  (bn3): BatchNorm2d(100, eps=1e-05, momentum=0.1, affine=True, track_running_stats=True)\n  (fc1): Linear(in_features=300, out_features=30, bias=True)\n  (fc2): Linear(in_features=30, out_features=126, bias=True)\n  (dropout): Dropout(p=0.0)\n)",
    "train_start": "2018-12-09 17:40:30.748626",
    "train_finish": "2018-12-09 17:44:41.265624",
    "f1_scores": {
      "f1_score_2": 0.6891614492456122,
      "f1_score_3": 0.7761870174589084,
      "f1_score_4": 0.73349950426701
    },
    "pAtK_scores": {
      "pAtK_1": 0.9516022245762712,
      "pAtK_3": 0.7959591278248588,
…
      0.0791673467369075,
      0.03500193215030081,
      0.02963549847338186,
      0.027024958293312414,
      0.025449233426512757,
      0.024319160913437096,
      0.02353382925282054,
      0.022873657400343403,
      0.0223948754603485,
      0.021975414046356754
    ],
    "loss_vector": [
      0.039643803769249024,
      0.03149824084366782,
      0.028533368008369107,
      0.026664110058445042,
      0.025670695860507124,
      0.024959972538685395,
      0.024439020303346343,
      0.024070794204786673,
      0.023975086161645794,
      0.023695320175108264
    ],
    "model": "Model(\n  (embedding): Embedding(400000, 50)\n  (conv1): Conv2d(1, 100, kernel_size=(3, 50), stride=(1, 1))\n  (bn1): BatchNorm2d(100, eps=1e-05, momentum=0.1, affine=True, track_running_stats=True)\n  (conv2): Conv2d(1, 100, kernel_size=(4, 50), stride=(1, 1))\n  (bn2): BatchNorm2d(100, eps=1e-05, momentum=0.1, affine=True, track_running_stats=True)\n  (conv3): Conv2d(1, 100, kernel_size=(5, 50), stride=(1, 1))\n  (bn3): BatchNorm2d(100, eps=1e-05, momentum=0.1, affine=True, track_running_stats=True)\n  (fc1): Linear(in_features=300, out_features=30, bias=True)\n  (fc2): Linear(in_features=30, out_features=126, bias=True)\n  (dropout): Dropout(p=0.0)\n)",
    "train_start": "2018-12-09 17:42:56.767969",
    "train_finish": "2018-12-09 17:47:20.340831",
    "f1_scores": {
      "f1_score_2": 0.694113722672688,
      "f1_score_3": 0.7837516477012886,
      "f1_score_4": 0.7394205020338952
    },
    "pAtK_scores": {
      "pAtK_1": 0.9509070444915254,
      "pAtK_3": 0.8037164548022598,
…
      0.09732863949558766,
      0.04164946827139755,
      0.03553251876536424,
      0.03253062735656294,
      0.03062629720206731,
      0.029240125185850674,
      0.02816033617821319,
      0.027379770552919756,
      0.02670171457136039,
      0.02620862298194439
    ],
    "loss_vector": [
      0.04644469449580726,
      0.03760382473089938,
      0.03403098521343732,
      0.03183574008487039,
      0.030612327095310567,
      0.029684610854266054,
      0.02901092651536909,
      0.028492000332828296,
      0.028135628834114235,
      0.02789330804499529
    ],
    "model": "Model(\n  (embedding): Embedding(400000, 50)\n  (conv1): Conv2d(1, 100, kernel_size=(1, 50), stride=(1, 1))\n  (bn1): BatchNorm2d(100, eps=1e-05, momentum=0.1, affine=True, track_running_stats=True)\n  (conv2): Conv2d(1, 100, kernel_size=(4, 50), stride=(1, 1))\n  (bn2): BatchNorm2d(100, eps=1e-05, momentum=0.1, affine=True, track_running_stats=True)\n  (conv3): Conv2d(1, 100, kernel_size=(7, 50), stride=(1, 1))\n  (bn3): BatchNorm2d(100, eps=1e-05, momentum=0.1, affine=True, track_running_stats=True)\n  (fc1): Linear(in_features=300, out_features=30, bias=True)\n  (fc2): Linear(in_features=30, out_features=126, bias=True)\n  (dropout): Dropout(p=0.0)\n)",
    "train_start": "2018-12-09 17:43:33.466886",
    "train_finish": "2018-12-09 17:47:52.339683",
    "f1_scores": {
      "f1_score_2": 0.6770758493277225,
      "f1_score_3": 0.7630376886449842,
      "f1_score_4": 0.7194614579182921
    },
    "pAtK_scores": {
      "pAtK_1": 0.9454780190677966,
      "pAtK_3": 0.782474841101695,
…
      0.08262343641787598,
      0.032974896726306296,
      0.02761298860202365,
      0.02510135070874976,
      0.02355083206445827,
      0.02251992214195416,
      0.02173487723326095,
      0.02110180316362141,
      0.02063937582061458,
      0.020198830935319417
    ],
    "loss_vector": [
      0.037232906825966756,
      0.02952225951446315,
      0.026491675810036013,
      0.02501469910523649,
      0.023939419411501642,
      0.023579823358331697,
      0.02310915951127723,
      0.02287521765772569,
      0.022679247909178166,
      0.022544154676340394
    ],
    "model": "Model(\n  (embedding): Embedding(400000, 100)\n  (conv1): Conv2d(1, 100, kernel_size=(1, 100), stride=(1, 1))\n  (bn1): BatchNorm2d(100, eps=1e-05, momentum=0.1, affine=True, track_running_stats=True)\n  (conv2): Conv2d(1, 100, kernel_size=(3, 100), stride=(1, 1))\n  (bn2): BatchNorm2d(100, eps=1e-05, momentum=0.1, affine=True, track_running_stats=True)\n  (conv3): Conv2d(1, 100, kernel_size=(5, 100), stride=(1, 1))\n  (bn3): BatchNorm2d(100, eps=1e-05, momentum=0.1, affine=True, track_running_stats=True)\n  (fc1): Linear(in_features=300, out_features=30, bias=True)\n  (fc2): Linear(in_features=30, out_features=126, bias=True)\n  (dropout): Dropout(p=0.0)\n)",
    "train_start": "2018-12-09 17:48:47.516060",
    "train_finish": "2018-12-09 17:53:22.876821",
    "f1_scores": {
      "f1_score_2": 0.7004259468336241,
      "f1_score_3": 0.790563043068894,
      "f1_score_4": 0.7456009488422087
    },
    "pAtK_scores": {
      "pAtK_1": 0.9556739936440678,
      "pAtK_3": 0.8107013594632768,
…
      0.0841064277675844,
      0.0341382296879615,
      0.028801958258679063,
      0.026122357600865148,
      0.02448213792828387,
      0.023357972389606643,
      0.022522425402726347,
      0.021866542999358737,
      0.02130542583834288,
      0.020839287144833542
    ],
    "loss_vector": [
      0.038629263323747505,
      0.030711751967921096,
      0.027848876886448617,
      0.02610894482014543,
      0.02517253722427255,
      0.024751618567664745,
      0.024171464902869727,
      0.024076303530295017,
      0.023899019964165606,
      0.023738984618399104
    ],
    "model": "Model(\n  (embedding): Embedding(400000, 100)\n  (conv1): Conv2d(1, 100, kernel_size=(3, 100), stride=(1, 1))\n  (bn1): BatchNorm2d(100, eps=1e-05, momentum=0.1, affine=True, track_running_stats=True)\n  (conv2): Conv2d(1, 100, kernel_size=(4, 100), stride=(1, 1))\n  (bn2): BatchNorm2d(100, eps=1e-05, momentum=0.1, affine=True, track_running_stats=True)\n  (conv3): Conv2d(1, 100, kernel_size=(5, 100), stride=(1, 1))\n  (bn3): BatchNorm2d(100, eps=1e-05, momentum=0.1, affine=True, track_running_stats=True)\n  (fc1): Linear(in_features=300, out_features=30, bias=True)\n  (fc2): Linear(in_features=30, out_features=126, bias=True)\n  (dropout): Dropout(p=0.0)\n)",
    "train_start": "2018-12-09 17:51:26.150393",
    "train_finish": "2018-12-09 17:56:22.895540",
    "f1_scores": {
      "f1_score_2": 0.696551370214513,
      "f1_score_3": 0.7865170957415328,
      "f1_score_4": 0.7410327925056291
    },
    "pAtK_scores": {
      "pAtK_1": 0.9534229343220338,
      "pAtK_3": 0.8065523481638418,
…
      0.0832432520556382,
      0.037019948243557615,
      0.030574699096819934,
      0.027465394554938943,
      0.025662745174154837,
      0.02440129132831798,
      0.02348199175702553,
      0.02273996651837111,
      0.022158050361801598,
      0.021657531861873233
    ],
    "loss_vector": [
      0.042296918645753696,
      0.032977617424675976,
      0.029075910447765203,
      0.02726235815276534,
      0.02631598212203737,
      0.025889067168710596,
      0.024907597072296225,
      0.02483617356520588,
      0.024382510806544352,
      0.024217678139270362
    ],
    "model": "Model(\n  (embedding): Embedding(400000, 100)\n  (conv1): Conv2d(1, 100, kernel_size=(1, 100), stride=(1, 1))\n  (bn1): BatchNorm2d(100, eps=1e-05, momentum=0.1, affine=True, track_running_stats=True)\n  (conv2): Conv2d(1, 100, kernel_size=(4, 100), stride=(1, 1))\n  (bn2): BatchNorm2d(100, eps=1e-05, momentum=0.1, affine=True, track_running_stats=True)\n  (conv3): Conv2d(1, 100, kernel_size=(7, 100), stride=(1, 1))\n  (bn3): BatchNorm2d(100, eps=1e-05, momentum=0.1, affine=True, track_running_stats=True)\n  (fc1): Linear(in_features=300, out_features=30, bias=True)\n  (fc2): Linear(in_features=30, out_features=126, bias=True)\n  (dropout): Dropout(p=0.0)\n)",
    "train_start": "2018-12-09 17:52:05.462899",
    "train_finish": "2018-12-09 17:57:00.069459",
    "f1_scores": {
      "f1_score_2": 0.6940110848814534,
      "f1_score_3": 0.782697118876604,
      "f1_score_4": 0.7381881190871101
    },
    "pAtK_scores": {
      "pAtK_1": 0.9520325741525424,
      "pAtK_3": 0.802635063559322,
…
      0.07029714720214114,
      0.03413295643704553,
      0.028562461600357938,
      0.025981314360134063,
      0.024446708300421314,
      0.023431672709348983,
      0.02264466156133325,
      0.022082393370441513,
      0.02163822886726662,
      0.021238628654710708
    ],
    "loss_vector": [
      0.03876540323687812,
      0.03047074724809598,
      0.027257435118495408,
      0.02546019340723248,
      0.024536936938510102,
      0.023853384242472003,
      0.023490107507776407,
      0.023070754735904225,
      0.022749319735725047,
      0.022597051241387753
    ],
    "model": "Model(\n  (embedding): Embedding(400000, 50)\n  (conv1): Conv2d(1, 100, kernel_size=(1, 50), stride=(1, 1))\n  (bn1): BatchNorm2d(100, eps=1e-05, momentum=0.1, affine=True, track_running_stats=True)\n  (conv2): Conv2d(1, 100, kernel_size=(3, 50), stride=(1, 1))\n  (bn2): BatchNorm2d(100, eps=1e-05, momentum=0.1, affine=True, track_running_stats=True)\n  (conv3): Conv2d(1, 100, kernel_size=(5, 50), stride=(1, 1))\n  (bn3): BatchNorm2d(100, eps=1e-05, momentum=0.1, affine=True, track_running_stats=True)\n  (fc1): Linear(in_features=300, out_features=50, bias=True)\n  (fc2): Linear(in_features=50, out_features=126, bias=True)\n  (dropout): Dropout(p=0.0)\n)",
    "train_start": "2018-12-09 17:57:39.471555",
    "train_finish": "2018-12-09 18:01:48.379405",
    "f1_scores": {
      "f1_score_2": 0.6960125218105306,
      "f1_score_3": 0.787044360153875,
      "f1_score_4": 0.7432844395437403
    },
    "pAtK_scores": {
      "pAtK_1": 0.9505429025423728,
      "pAtK_3": 0.8070930437853108,
…
      0.07815894869066053,
      0.03435264352843363,
      0.029435657092018418,
      0.026909909704152274,
      0.025296067143922966,
      0.024225088348877273,
      0.023385620455079106,
      0.0227328949913637,
      0.022238752212679364,
      0.021848840515290086
    ],
    "loss_vector": [
      0.03843495679103722,
      0.031276249468831695,
      0.02828195264910237,
      0.026552001614186724,
      0.025598892973641218,
      0.02493104799571684,
      0.02442112372462022,
      0.024052926860118316,
      0.023764846878031553,
      0.02353387970035359
    ],
    "model": "Model(\n  (embedding): Embedding(400000, 50)\n  (conv1): Conv2d(1, 100, kernel_size=(3, 50), stride=(1, 1))\n  (bn1): BatchNorm2d(100, eps=1e-05, momentum=0.1, affine=True, track_running_stats=True)\n  (conv2): Conv2d(1, 100, kernel_size=(4, 50), stride=(1, 1))\n  (bn2): BatchNorm2d(100, eps=1e-05, momentum=0.1, affine=True, track_running_stats=True)\n  (conv3): Conv2d(1, 100, kernel_size=(5, 50), stride=(1, 1))\n  (bn3): BatchNorm2d(100, eps=1e-05, momentum=0.1, affine=True, track_running_stats=True)\n  (fc1): Linear(in_features=300, out_features=50, bias=True)\n  (fc2): Linear(in_features=50, out_features=126, bias=True)\n  (dropout): Dropout(p=0.0)\n)",
    "train_start": "2018-12-09 18:01:01.812369",
    "train_finish": "2018-12-09 18:05:35.321154",
    "f1_scores": {
      "f1_score_2": 0.6941008929487837,
      "f1_score_3": 0.7837301267048664,
      "f1_score_4": 0.7388738058394567
    },
    "pAtK_scores": {
      "pAtK_1": 0.9514367055084746,
      "pAtK_3": 0.8036943855932204,
…
      0.07463349358830777,
      0.0345547811660131,
      0.029502560163669613,
      0.02689886074760607,
      0.02534452914498902,
      0.024239911954051178,
      0.023467970619674424,
      0.022812437856361355,
      0.02232972124283974,
      0.02188737027036058
    ],
    "loss_vector": [
      0.038145068338361836,
      0.03156426381635464,
      0.028251997053118077,
      0.026603694468484086,
      0.025587398180011975,
      0.02512754746160265,
      0.02444525126178386,
      0.024214304888905105,
      0.023803025957638935,
      0.023729948232234534
    ],
    "model": "Model(\n  (embedding): Embedding(400000, 50)\n  (conv1): Conv2d(1, 100, kernel_size=(1, 50), stride=(1, 1))\n  (bn1): BatchNorm2d(100, eps=1e-05, momentum=0.1, affine=True, track_running_stats=True)\n  (conv2): Conv2d(1, 100, kernel_size=(4, 50), stride=(1, 1))\n  (bn2): BatchNorm2d(100, eps=1e-05, momentum=0.1, affine=True, track_running_stats=True)\n  (conv3): Conv2d(1, 100, kernel_size=(7, 50), stride=(1, 1))\n  (bn3): BatchNorm2d(100, eps=1e-05, momentum=0.1, affine=True, track_running_stats=True)\n  (fc1): Linear(in_features=300, out_features=50, bias=True)\n  (fc2): Linear(in_features=50, out_features=126, bias=True)\n  (dropout): Dropout(p=0.0)\n)",
    "train_start": "2018-12-09 18:01:34.140584",
    "train_finish": "2018-12-09 18:06:02.285980",
    "f1_scores": {
      "f1_score_2": 0.6936133634404188,
      "f1_score_3": 0.7832566647835795,
      "f1_score_4": 0.7391517869552728
    },
    "pAtK_scores": {
      "pAtK_1": 0.9519332627118644,
      "pAtK_3": 0.8032088629943502,
…
      0.08204641990519113,
      0.035056193360963404,
      0.02897477671645398,
      0.026136753069805917,
      0.02447165310227328,
      0.023349783660762676,
      0.022504468273505766,
      0.021883811430556725,
      0.021367994195426437,
      0.02091967375273949
    ],
    "loss_vector": [
      0.040048331906229764,
      0.031195713175555407,
      0.02761114799117638,
      0.025847244186926695,
      0.025056272839843217,
      0.02434392614384829,
      0.024017793205329926,
      0.023547337343127042,
      0.023521299994850562,
      0.023240689409233756
    ],
    "model": "Model(\n  (embedding): Embedding(400000, 100)\n  (conv1): Conv2d(1, 100, kernel_size=(1, 100), stride=(1, 1))\n  (bn1): BatchNorm2d(100, eps=1e-05, momentum=0.1, affine=True, track_running_stats=True)\n  (conv2): Conv2d(1, 100, kernel_size=(3, 100), stride=(1, 1))\n  (bn2): BatchNorm2d(100, eps=1e-05, momentum=0.1, affine=True, track_running_stats=True)\n  (conv3): Conv2d(1, 100, kernel_size=(5, 100), stride=(1, 1))\n  (bn3): BatchNorm2d(100, eps=1e-05, momentum=0.1, affine=True, track_running_stats=True)\n  (fc1): Linear(in_features=300, out_features=50, bias=True)\n  (fc2): Linear(in_features=50, out_features=126, bias=True)\n  (dropout): Dropout(p=0.0)\n)",
    "train_start": "2018-12-09 18:05:59.987088",
    "train_finish": "2018-12-09 18:10:29.645180",
    "f1_scores": {
      "f1_score_2": 0.697077388894591,
      "f1_score_3": 0.7873671751002072,
      "f1_score_4": 0.7419130660390469
    },
    "pAtK_scores": {
      "pAtK_1": 0.9527939618644068,
      "pAtK_3": 0.807424081920904,
…
      0.07168506435781322,
      0.031021441677602915,
      0.026097318097468344,
      0.02364944658141435,
      0.022086734931202043,
      0.02103444583629182,
      0.020245513078214095,
      0.019611329250249734,
      0.019061524954675724,
      0.01864636844409315
    ],
    "loss_vector": [
      0.0351169181956073,
      0.028208881806013948,
      0.02527732421028412,
      0.023816194511571173,
      0.022995644769931243,
      0.022620585036732383,
      0.022523180297496965,
      0.022083185707866135,
      0.0219372225514913,
      0.021761213792330127
    ],
    "model": "Model(\n  (embedding): Embedding(400000, 100)\n  (conv1): Conv2d(1, 100, kernel_size=(3, 100), stride=(1, 1))\n  (bn1): BatchNorm2d(100, eps=1e-05, momentum=0.1, affine=True, track_running_stats=True)\n  (conv2): Conv2d(1, 100, kernel_size=(4, 100), stride=(1, 1))\n  (bn2): BatchNorm2d(100, eps=1e-05, momentum=0.1, affine=True, track_running_stats=True)\n  (conv3): Conv2d(1, 100, kernel_size=(5, 100), stride=(1, 1))\n  (bn3): BatchNorm2d(100, eps=1e-05, momentum=0.1, affine=True, track_running_stats=True)\n  (fc1): Linear(in_features=300, out_features=50, bias=True)\n  (fc2): Linear(in_features=50, out_features=126, bias=True)\n  (dropout): Dropout(p=0.0)\n)",
    "train_start": "2018-12-09 18:09:44.845746",
    "train_finish": "2018-12-09 18:14:40.240269",
    "f1_scores": {
      "f1_score_2": 0.7029277429949707,
      "f1_score_3": 0.794060204987491,
      "f1_score_4": 0.7488533278972582
    },
    "pAtK_scores": {
      "pAtK_1": 0.9553098516949152,
      "pAtK_3": 0.8142876059322034,
…
      0.07711156495834437,
      0.033677998385913455,
      0.02780381762961622,
      0.02518334518941349,
      0.02357773502945787,
      0.022411549205854676,
      0.021521271342514137,
      0.020862202211309657,
      0.02029834475290504,
      0.019845949150127072
    ],
    "loss_vector": [
      0.03957880231536041,
      0.029749344466096263,
      0.026661263368392394,
      0.025260002178660895,
      0.02418411942988129,
      0.023549584072020093,
      0.02323969481986458,
      0.022777307778596878,
      0.022762011105226257,
      0.022753826168886687
    ],
    "model": "Model(\n  (embedding): Embedding(400000, 100)\n  (conv1): Conv2d(1, 100, kernel_size=(1, 100), stride=(1, 1))\n  (bn1): BatchNorm2d(100, eps=1e-05, momentum=0.1, affine=True, track_running_stats=True)\n  (conv2): Conv2d(1, 100, kernel_size=(4, 100), stride=(1, 1))\n  (bn2): BatchNorm2d(100, eps=1e-05, momentum=0.1, affine=True, track_running_stats=True)\n  (conv3): Conv2d(1, 100, kernel_size=(7, 100), stride=(1, 1))\n  (bn3): BatchNorm2d(100, eps=1e-05, momentum=0.1, affine=True, track_running_stats=True)\n  (fc1): Linear(in_features=300, out_features=50, bias=True)\n  (fc2): Linear(in_features=50, out_features=126, bias=True)\n  (dropout): Dropout(p=0.0)\n)",
    "train_start": "2018-12-09 18:10:10.894563",
    "train_finish": "2018-12-09 18:14:58.609171",
    "f1_scores": {
      "f1_score_2": 0.698616955763112,
      "f1_score_3": 0.7904661985849945,
      "f1_score_4": 0.7457770035488922
    },
    "pAtK_scores": {
      "pAtK_1": 0.9533567266949152,
      "pAtK_3": 0.8106020480225988,
…
      0.06212000663355134,
      0.031482665592793946,
      0.02641875842900724,
      0.024173115491442933,
      0.022810136213672456,
      0.02187633331674213,
      0.02116135698327869,
      0.02062930516630015,
      0.02019451309059105,
      0.01983121349926918
    ],
    "loss_vector": [
      0.03619593025137812,
      0.028108181589740818,
      0.025308137254442198,
      0.02383547936076835,
      0.02318086689811642,
      0.0225718726988061,
      0.02217697655245409,
      0.02175969917769149,
      0.021619889364277913,
      0.021356929725004456
    ],
    "model": "Model(\n  (embedding): Embedding(400000, 50)\n  (conv1): Conv2d(1, 100, kernel_size=(1, 50), stride=(1, 1))\n  (bn1): BatchNorm2d(100, eps=1e-05, momentum=0.1, affine=True, track_running_stats=True)\n  (conv2): Conv2d(1, 100, kernel_size=(3, 50), stride=(1, 1))\n  (bn2): BatchNorm2d(100, eps=1e-05, momentum=0.1, affine=True, track_running_stats=True)\n  (conv3): Conv2d(1, 100, kernel_size=(5, 50), stride=(1, 1))\n  (bn3): BatchNorm2d(100, eps=1e-05, momentum=0.1, affine=True, track_running_stats=True)\n  (fc1): Linear(in_features=300, out_features=100, bias=True)\n  (fc2): Linear(in_features=100, out_features=126, bias=True)\n  (dropout): Dropout(p=0.0)\n)",
    "train_start": "2018-12-09 18:14:44.394117",
    "train_finish": "2018-12-09 18:18:55.314440",
    "f1_scores": {
      "f1_score_2": 0.7010032844093195,
      "f1_score_3": 0.7920479918220213,
      "f1_score_4": 0.7464441582268512
    },
    "pAtK_scores": {
      "pAtK_1": 0.9532905190677966,
      "pAtK_3": 0.8122241348870056,
…
      0.06163040359824387,
      0.031297989115401735,
      0.026138238736076645,
      0.023879587484180814,
      0.022516846370510404,
      0.021572191752422695,
      0.02086200537531154,
      0.020302998502888987,
      0.01984761299766897,
      0.019454948964618867
    ],
    "loss_vector": [
      0.03610638248086986,
      0.027854568025065682,
      0.02520549635134511,
      0.0237944192110987,
      0.02297075452693438,
      0.022324794335132937,
      0.02195995480958688,
      0.02165927540637174,
      0.021637726890838753,
      0.02137348930335651
    ],
    "model": "Model(\n  (embedding): Embedding(400000, 50)\n  (conv1): Conv2d(1, 100, kernel_size=(3, 50), stride=(1, 1))\n  (bn1): BatchNorm2d(100, eps=1e-05, momentum=0.1, affine=True, track_running_stats=True)\n  (conv2): Conv2d(1, 100, kernel_size=(4, 50), stride=(1, 1))\n  (bn2): BatchNorm2d(100, eps=1e-05, momentum=0.1, affine=True, track_running_stats=True)\n  (conv3): Conv2d(1, 100, kernel_size=(5, 50), stride=(1, 1))\n  (bn3): BatchNorm2d(100, eps=1e-05, momentum=0.1, affine=True, track_running_stats=True)\n  (fc1): Linear(in_features=300, out_features=100, bias=True)\n  (fc2): Linear(in_features=100, out_features=126, bias=True)\n  (dropout): Dropout(p=0.0)\n)",
    "train_start": "2018-12-09 18:19:15.437345",
    "train_finish": "2018-12-09 18:23:31.776673",
    "f1_scores": {
      "f1_score_2": 0.7003617982141024,
      "f1_score_3": 0.7917789793667447,
      "f1_score_4": 0.7471669091279732
    },
    "pAtK_scores": {
      "pAtK_1": 0.9522311970338984,
      "pAtK_3": 0.8119482697740112,
…
      0.06585048194939316,
      0.033335077500348975,
      0.02796535274858606,
      0.025322496152325645,
      0.023770608972807538,
      0.02267755632354141,
      0.0218743881532318,
      0.021202458210105687,
      0.020712858143720272,
      0.020286136237900897
    ],
    "loss_vector": [
      0.03769856498781907,
      0.029904296590110003,
      0.026761532050825782,
      0.025205720089754816,
      0.024153008551920874,
      0.023410945183644862,
      0.022898352973289408,
      0.02274880144681971,
      0.022197790759599816,
      0.022168370942443102
    ],
    "model": "Model(\n  (embedding): Embedding(400000, 50)\n  (conv1): Conv2d(1, 100, kernel_size=(1, 50), stride=(1, 1))\n  (bn1): BatchNorm2d(100, eps=1e-05, momentum=0.1, affine=True, track_running_stats=True)\n  (conv2): Conv2d(1, 100, kernel_size=(4, 50), stride=(1, 1))\n  (bn2): BatchNorm2d(100, eps=1e-05, momentum=0.1, affine=True, track_running_stats=True)\n  (conv3): Conv2d(1, 100, kernel_size=(7, 50), stride=(1, 1))\n  (bn3): BatchNorm2d(100, eps=1e-05, momentum=0.1, affine=True, track_running_stats=True)\n  (fc1): Linear(in_features=300, out_features=100, bias=True)\n  (fc2): Linear(in_features=100, out_features=126, bias=True)\n  (dropout): Dropout(p=0.0)\n)",
    "train_start": "2018-12-09 18:19:30.235041",
    "train_finish": "2018-12-09 18:23:51.252186",
    "f1_scores": {
      "f1_score_2": 0.6977317048137124,
      "f1_score_3": 0.7895623167352649,
      "f1_score_4": 0.745350765837974
    },
    "pAtK_scores": {
      "pAtK_1": 0.952198093220339,
      "pAtK_3": 0.8096751412429378,
…
      0.057852439317265546,
      0.028226998586921584,
      0.023742051579524717,
      0.02163099903309368,
      0.02038657524935774,
      0.01946413637522389,
      0.018816834391647882,
      0.018268238572824384,
      0.017848232584303878,
      0.017436922040098193
    ],
    "loss_vector": [
      0.03207004711158195,
      0.025491480636647194,
      0.022962849366210274,
      0.02199808227182445,
      0.02113591293977984,
      0.02083302980636136,
      0.020402017775607312,
      0.02014088032419904,
      0.020162105386666324,
      0.01990155462112467
    ],
    "model": "Model(\n  (embedding): Embedding(400000, 100)\n  (conv1): Conv2d(1, 100, kernel_size=(1, 100), stride=(1, 1))\n  (bn1): BatchNorm2d(100, eps=1e-05, momentum=0.1, affine=True, track_running_stats=True)\n  (conv2): Conv2d(1, 100, kernel_size=(3, 100), stride=(1, 1))\n  (bn2): BatchNorm2d(100, eps=1e-05, momentum=0.1, affine=True, track_running_stats=True)\n  (conv3): Conv2d(1, 100, kernel_size=(5, 100), stride=(1, 1))\n  (bn3): BatchNorm2d(100, eps=1e-05, momentum=0.1, affine=True, track_running_stats=True)\n  (fc1): Linear(in_features=300, out_features=100, bias=True)\n  (fc2): Linear(in_features=100, out_features=126, bias=True)\n  (dropout): Dropout(p=0.0)\n)",
    "train_start": "2018-12-09 18:23:02.480578",
    "train_finish": "2018-12-09 18:27:38.201182",
    "f1_scores": {
      "f1_score_2": 0.706430257620856,
      "f1_score_3": 0.8000430419928443,
      "f1_score_4": 0.7544129502135821
    },
    "pAtK_scores": {
      "pAtK_1": 0.9553760593220338,
      "pAtK_3": 0.8204228460451978,
…
      0.060079592949864535,
      0.02889646527550026,
      0.02404913975657503,
      0.021821406074363094,
      0.020450263929180448,
      0.019503359567988984,
      0.01874275648157047,
      0.01817013862837933,
      0.01765998648002433,
      0.01727589974763045
    ],
    "loss_vector": [
      0.03337632710019411,
      0.025937984681735606,
      0.023305088250061213,
      0.02206818415325577,
      0.021276976487015264,
      0.020923005432774453,
      0.020875516363372235,
      0.020413824988497517,
      0.02050996074547707,
      0.020278226347419166
    ],
    "model": "Model(\n  (embedding): Embedding(400000, 100)\n  (conv1): Conv2d(1, 100, kernel_size=(3, 100), stride=(1, 1))\n  (bn1): BatchNorm2d(100, eps=1e-05, momentum=0.1, affine=True, track_running_stats=True)\n  (conv2): Conv2d(1, 100, kernel_size=(4, 100), stride=(1, 1))\n  (bn2): BatchNorm2d(100, eps=1e-05, momentum=0.1, affine=True, track_running_stats=True)\n  (conv3): Conv2d(1, 100, kernel_size=(5, 100), stride=(1, 1))\n  (bn3): BatchNorm2d(100, eps=1e-05, momentum=0.1, affine=True, track_running_stats=True)\n  (fc1): Linear(in_features=300, out_features=100, bias=True)\n  (fc2): Linear(in_features=100, out_features=126, bias=True)\n  (dropout): Dropout(p=0.0)\n)",
    "train_start": "2018-12-09 18:27:44.564427",
    "train_finish": "2018-12-09 18:32:36.777714",
    "f1_scores": {
      "f1_score_2": 0.7065585548598994,
      "f1_score_3": 0.7993543701073359,
      "f1_score_4": 0.7531435031180215
    },
    "pAtK_scores": {
      "pAtK_1": 0.9558726165254238,
      "pAtK_3": 0.8197166313559322,
…
      0.05908368534251227,
      0.028647629784480218,
      0.024205427309339143,
      0.022052174416393663,
      0.020680393295564054,
      0.019737575715672813,
      0.018986958010118647,
      0.01837846557954344,
      0.0179217288896187,
      0.017462265944599653
    ],
    "loss_vector": [
      0.03252722177717645,
      0.02612795838612621,
      0.023741619061615506,
      0.022864817247047264,
      0.021971406509815637,
      0.021211155437690726,
      0.02090367253364648,
      0.02087775927226422,
      0.020558040162895697,
      0.020693588417844248
    ],
    "model": "Model(\n  (embedding): Embedding(400000, 100)\n  (conv1): Conv2d(1, 100, kernel_size=(1, 100), stride=(1, 1))\n  (bn1): BatchNorm2d(100, eps=1e-05, momentum=0.1, affine=True, track_running_stats=True)\n  (conv2): Conv2d(1, 100, kernel_size=(4, 100), stride=(1, 1))\n  (bn2): BatchNorm2d(100, eps=1e-05, momentum=0.1, affine=True, track_running_stats=True)\n  (conv3): Conv2d(1, 100, kernel_size=(7, 100), stride=(1, 1))\n  (bn3): BatchNorm2d(100, eps=1e-05, momentum=0.1, affine=True, track_running_stats=True)\n  (fc1): Linear(in_features=300, out_features=100, bias=True)\n  (fc2): Linear(in_features=100, out_features=126, bias=True)\n  (dropout): Dropout(p=0.0)\n)",
    "train_start": "2018-12-09 18:28:04.815332",
    "train_finish": "2018-12-09 18:33:00.826129",
    "f1_scores": {
      "f1_score_2": 0.7046597557220569,
      "f1_score_3": 0.7980631103220079,
      "f1_score_4": 0.7523188258077668
    },
    "pAtK_scores": {
      "pAtK_1": 0.9556408898305084,
      "pAtK_3": 0.8183924788135594,
…
      0.16877865319120816,
      0.0675392293599231,
      0.057756479688172546,
      0.05352560027840016,
      0.05133256846349651,
      0.04984567739931863,
      0.04877989849453859,
      0.047875136610622426,
      0.0471394000825891,
      0.046557006434991645
    ],
    "loss_vector": [
      0.07463359807507466,
      0.061235594673682066,
      0.054823868797492174,
      0.05218650823680021,
      0.050614668024798574,
      0.049421683143256075,
      0.0487976288896496,
      0.047964501368292306,
      0.047616265840449576,
      0.046999450204736094
    ],
    "model": "Model(\n  (embedding): Embedding(400000, 50)\n  (conv1): Conv2d(1, 150, kernel_size=(1, 50), stride=(1, 1))\n  (bn1): BatchNorm2d(150, eps=1e-05, momentum=0.1, affine=True, track_running_stats=True)\n  (conv2): Conv2d(1, 150, kernel_size=(3, 50), stride=(1, 1))\n  (bn2): BatchNorm2d(150, eps=1e-05, momentum=0.1, affine=True, track_running_stats=True)\n  (conv3): Conv2d(1, 150, kernel_size=(5, 50), stride=(1, 1))\n  (bn3): BatchNorm2d(150, eps=1e-05, momentum=0.1, affine=True, track_running_stats=True)\n  (fc1): Linear(in_features=450, out_features=10, bias=True)\n  (fc2): Linear(in_features=10, out_features=126, bias=True)\n  (dropout): Dropout(p=0.0)\n)",
    "train_start": "2018-12-09 18:31:53.397759",
    "train_finish": "2018-12-09 18:37:02.826992",
    "f1_scores": {
      "f1_score_2": 0.5875628656471312,
      "f1_score_3": 0.6195572054986147,
      "f1_score_4": 0.5993365517369187
    },
    "pAtK_scores": {
      "pAtK_1": 0.9137314618644068,
      "pAtK_3": 0.6353394244350282,
…
      0.1382972646992392,
      0.04481454643171698,
      0.037559752315424196,
      0.034118181978135,
      0.03211773587019665,
      0.030716830150593618,
      0.0296670738148169,
      0.028887136823425256,
      0.028307117030476937,
      0.027757919518952127
    ],
    "loss_vector": [
      0.05107530067532749,
      0.03991185854804718,
      0.035690319266612244,
      0.033468032729322625,
      0.03211093233045885,
      0.031182086726619027,
      0.03053923519486088,
      0.030151448228349118,
      0.029992145975514993,
      0.02952841290477979
    ],
    "model": "Model(\n  (embedding): Embedding(400000, 50)\n  (conv1): Conv2d(1, 150, kernel_size=(3, 50), stride=(1, 1))\n  (bn1): BatchNorm2d(150, eps=1e-05, momentum=0.1, affine=True, track_running_stats=True)\n  (conv2): Conv2d(1, 150, kernel_size=(4, 50), stride=(1, 1))\n  (bn2): BatchNorm2d(150, eps=1e-05, momentum=0.1, affine=True, track_running_stats=True)\n  (conv3): Conv2d(1, 150, kernel_size=(5, 50), stride=(1, 1))\n  (bn3): BatchNorm2d(150, eps=1e-05, momentum=0.1, affine=True, track_running_stats=True)\n  (fc1): Linear(in_features=450, out_features=10, bias=True)\n  (fc2): Linear(in_features=10, out_features=126, bias=True)\n  (dropout): Dropout(p=0.0)\n)",
    "train_start": "2018-12-09 18:37:08.764100",
    "train_finish": "2018-12-09 18:42:43.758987",
    "f1_scores": {
      "f1_score_2": 0.6731242943651854,
      "f1_score_3": 0.7546337395421407,
      "f1_score_4": 0.7114092715968162
    },
    "pAtK_scores": {
      "pAtK_1": 0.949318061440678,
      "pAtK_3": 0.7738568149717514,
…
      0.14931210840873746,
      0.05838788460508922,
      0.04962294297098435,
      0.045202874707542286,
      0.04272425561379889,
      0.04121416698314207,
      0.04009169070103137,
      0.03911526170355998,
      0.03841004752513354,
      0.03783703882395656
    ],
    "loss_vector": [
      0.06518355030882156,
      0.05261140019964364,
      0.04661711482173306,
      0.04468194616295523,
      0.04219941005615865,
      0.041235324753037955,
      0.040472912333779414,
      0.03988166121860682,
      0.039588281979500234,
      0.03941117650118925
    ],
    "model": "Model(\n  (embedding): Embedding(400000, 50)\n  (conv1): Conv2d(1, 150, kernel_size=(1, 50), stride=(1, 1))\n  (bn1): BatchNorm2d(150, eps=1e-05, momentum=0.1, affine=True, track_running_stats=True)\n  (conv2): Conv2d(1, 150, kernel_size=(4, 50), stride=(1, 1))\n  (bn2): BatchNorm2d(150, eps=1e-05, momentum=0.1, affine=True, track_running_stats=True)\n  (conv3): Conv2d(1, 150, kernel_size=(7, 50), stride=(1, 1))\n  (bn3): BatchNorm2d(150, eps=1e-05, momentum=0.1, affine=True, track_running_stats=True)\n  (fc1): Linear(in_features=450, out_features=10, bias=True)\n  (fc2): Linear(in_features=10, out_features=126, bias=True)\n  (dropout): Dropout(p=0.0)\n)",
    "train_start": "2018-12-09 18:37:31.475316",
    "train_finish": "2018-12-09 18:42:52.577766",
    "f1_scores": {
      "f1_score_2": 0.6259493995689213,
      "f1_score_3": 0.6910069136201007,
      "f1_score_4": 0.6526903938992411
    },
    "pAtK_scores": {
      "pAtK_1": 0.9355137711864406,
      "pAtK_3": 0.7086091984463276,
…
      0.18812612346612073,
      0.07596857745405393,
      0.06995206927099536,
      0.06679774135831863,
      0.06524118458749674,
      0.06412882764295337,
      0.06324499824298174,
      0.0625289875724171,
      0.06195572653407164,
      0.0612615979288968
    ],
    "loss_vector": [
      0.07897503446724455,
      0.07228955601231526,
      0.06774782073699821,
      0.06589673630009263,
      0.06483934175665096,
      0.06384388875153105,
      0.06323579357842267,
      0.06265034185627759,
      0.062737195863057,
      0.06185743572600817
    ],
    "model": "Model(\n  (embedding): Embedding(400000, 100)\n  (conv1): Conv2d(1, 150, kernel_size=(1, 100), stride=(1, 1))\n  (bn1): BatchNorm2d(150, eps=1e-05, momentum=0.1, affine=True, track_running_stats=True)\n  (conv2): Conv2d(1, 150, kernel_size=(3, 100), stride=(1, 1))\n  (bn2): BatchNorm2d(150, eps=1e-05, momentum=0.1, affine=True, track_running_stats=True)\n  (conv3): Conv2d(1, 150, kernel_size=(5, 100), stride=(1, 1))\n  (bn3): BatchNorm2d(150, eps=1e-05, momentum=0.1, affine=True, track_running_stats=True)\n  (fc1): Linear(in_features=450, out_features=10, bias=True)\n  (fc2): Linear(in_features=10, out_features=126, bias=True)\n  (dropout): Dropout(p=0.0)\n)",
    "train_start": "2018-12-09 18:41:42.203111",
    "train_finish": "2018-12-09 18:47:58.856704",
    "f1_scores": {
      "f1_score_2": 0.5102637791234732,
      "f1_score_3": 0.5205821429532188,
      "f1_score_4": 0.5014223367092596
    },
    "pAtK_scores": {
      "pAtK_1": 0.8695047669491526,
      "pAtK_3": 0.5338431320621468,
…
      0.13832153156541105,
      0.045017765364848236,
      0.03743976662801384,
      0.0339850178783657,
      0.0319037608470082,
      0.030475173721644863,
      0.0293430050470967,
      0.028534330516007414,
      0.02775688481073565,
      0.0271962101604839
    ],
    "loss_vector": [
      0.05266336964096053,
      0.03994171965425297,
      0.03574219671220093,
      0.033588880420488826,
      0.03238681343904996,
      0.031419837468508946,
      0.030986294466055046,
      0.0306647009831869,
      0.030226848356552042,
      0.02995343986204115
    ],
    "model": "Model(\n  (embedding): Embedding(400000, 100)\n  (conv1): Conv2d(1, 150, kernel_size=(1, 100), stride=(1, 1))\n  (bn1): BatchNorm2d(150, eps=1e-05, momentum=0.1, affine=True, track_running_stats=True)\n  (conv2): Conv2d(1, 150, kernel_size=(4, 100), stride=(1, 1))\n  (bn2): BatchNorm2d(150, eps=1e-05, momentum=0.1, affine=True, track_running_stats=True)\n  (conv3): Conv2d(1, 150, kernel_size=(7, 100), stride=(1, 1))\n  (bn3): BatchNorm2d(150, eps=1e-05, momentum=0.1, affine=True, track_running_stats=True)\n  (fc1): Linear(in_features=450, out_features=10, bias=True)\n  (fc2): Linear(in_features=10, out_features=126, bias=True)\n  (dropout): Dropout(p=0.0)\n)",
    "train_start": "2018-12-09 18:47:46.279231",
    "train_finish": "2018-12-09 18:54:40.754427",
    "f1_scores": {
      "f1_score_2": 0.6715205788771427,
      "f1_score_3": 0.7522771904339172,
      "f1_score_4": 0.7085090019551339
    },
    "pAtK_scores": {
      "pAtK_1": 0.9518670550847458,
      "pAtK_3": 0.771440236581921,
…
      0.17513713803304892,
      0.06279696541815374,
      0.05275011001829857,
      0.048813358274424554,
      0.046792919696282166,
      0.04545832918055596,
      0.04446598743945643,
      0.04360200712135666,
      0.04284759258155126,
      0.04224592961187155
    ],
    "loss_vector": [
      0.0705630973739139,
      0.055855764802229604,
      0.05023781506944511,
      0.047913266503709855,
      0.0464764845447015,
      0.04576274285377082,
      0.04501645443803173,
      0.0446539954361269,
      0.04435635812706867,
      0.04385987372469094
    ],
    "model": "Model(\n  (embedding): Embedding(400000, 100)\n  (conv1): Conv2d(1, 150, kernel_size=(3, 100), stride=(1, 1))\n  (bn1): BatchNorm2d(150, eps=1e-05, momentum=0.1, affine=True, track_running_stats=True)\n  (conv2): Conv2d(1, 150, kernel_size=(4, 100), stride=(1, 1))\n  (bn2): BatchNorm2d(150, eps=1e-05, momentum=0.1, affine=True, track_running_stats=True)\n  (conv3): Conv2d(1, 150, kernel_size=(5, 100), stride=(1, 1))\n  (bn3): BatchNorm2d(150, eps=1e-05, momentum=0.1, affine=True, track_running_stats=True)\n  (fc1): Linear(in_features=450, out_features=10, bias=True)\n  (fc2): Linear(in_features=10, out_features=126, bias=True)\n  (dropout): Dropout(p=0.0)\n)",
    "train_start": "2018-12-09 18:47:47.581109",
    "train_finish": "2018-12-09 18:54:56.162909",
    "f1_scores": {
      "f1_score_2": 0.6101944986143898,
      "f1_score_3": 0.6582519570656121,
      "f1_score_4": 0.6264860407149674
    },
    "pAtK_scores": {
      "pAtK_1": 0.938228283898305,
      "pAtK_3": 0.6750198622881356,
…
      0.08108898040889789,
      0.03496345947982577,
      0.029622711608826097,
      0.026905117362059045,
      0.025263814252060778,
      0.02420713775481965,
      0.02333682580043401,
      0.022735595091668434,
      0.02227421296474151,
      0.021833884400762688
    ],
    "loss_vector": [
      0.03927022944820129,
      0.03148972252541679,
      0.0282934067802409,
      0.026648977203136782,
      0.02544958277021424,
      0.02474125288426876,
      0.024331062369174875,
      0.023953868044634997,
      0.023732581633632465,
      0.023836166897820213
    ],
    "model": "Model(\n  (embedding): Embedding(400000, 50)\n  (conv1): Conv2d(1, 150, kernel_size=(1, 50), stride=(1, 1))\n  (bn1): BatchNorm2d(150, eps=1e-05, momentum=0.1, affine=True, track_running_stats=True)\n  (conv2): Conv2d(1, 150, kernel_size=(3, 50), stride=(1, 1))\n  (bn2): BatchNorm2d(150, eps=1e-05, momentum=0.1, affine=True, track_running_stats=True)\n  (conv3): Conv2d(1, 150, kernel_size=(5, 50), stride=(1, 1))\n  (bn3): BatchNorm2d(150, eps=1e-05, momentum=0.1, affine=True, track_running_stats=True)\n  (fc1): Linear(in_features=450, out_features=30, bias=True)\n  (fc2): Linear(in_features=30, out_features=126, bias=True)\n  (dropout): Dropout(p=0.0)\n)",
    "train_start": "2018-12-09 18:53:47.928229",
    "train_finish": "2018-12-09 18:58:44.171215",
    "f1_scores": {
      "f1_score_2": 0.6936005337165143,
      "f1_score_3": 0.782212896457106,
      "f1_score_4": 0.7383734398309874
    },
    "pAtK_scores": {
      "pAtK_1": 0.9525291313559322,
      "pAtK_3": 0.8021385063559322,
…
      0.09086824822782114,
      0.03784359602763033,
      0.03235601067571305,
      0.029329606909764334,
      0.027359933449234635,
      0.02599465491805063,
      0.025031935667488334,
      0.024301586492407705,
      0.023756357401157013,
      0.023278819768207122
    ],
    "loss_vector": [
      0.04207133425999496,
      0.03428548457637682,
      0.03086220757183382,
      0.028881773826176838,
      0.027567618794865526,
      0.02676326674172434,
      0.02638164535164833,
      0.026021531262135102,
      0.02590671131166361,
      0.02553916409990545
    ],
    "model": "Model(\n  (embedding): Embedding(400000, 50)\n  (conv1): Conv2d(1, 150, kernel_size=(1, 50), stride=(1, 1))\n  (bn1): BatchNorm2d(150, eps=1e-05, momentum=0.1, affine=True, track_running_stats=True)\n  (conv2): Conv2d(1, 150, kernel_size=(4, 50), stride=(1, 1))\n  (bn2): BatchNorm2d(150, eps=1e-05, momentum=0.1, affine=True, track_running_stats=True)\n  (conv3): Conv2d(1, 150, kernel_size=(7, 50), stride=(1, 1))\n  (bn3): BatchNorm2d(150, eps=1e-05, momentum=0.1, affine=True, track_running_stats=True)\n  (fc1): Linear(in_features=450, out_features=30, bias=True)\n  (fc2): Linear(in_features=30, out_features=126, bias=True)\n  (dropout): Dropout(p=0.0)\n)",
    "train_start": "2018-12-09 19:01:14.399446",
    "train_finish": "2018-12-09 19:06:33.609971",
    "f1_scores": {
      "f1_score_2": 0.6885584522221082,
      "f1_score_3": 0.7760040889893202,
      "f1_score_4": 0.7320632685019598
    },
    "pAtK_scores": {
      "pAtK_1": 0.9513042902542372,
      "pAtK_3": 0.7957715395480226,
…
      0.08148002370032685,
      0.03563105323806094,
      0.030016554197900887,
      0.027194663755016037,
      0.025503900131843348,
      0.024360397851812092,
      0.023555223011823487,
      0.02295872266890315,
      0.022441792625234068,
      0.022002877989179496
    ],
    "loss_vector": [
      0.039880905552940854,
      0.031990641538622015,
      0.028577650439436154,
      0.026878673046574753,
      0.025851106586850296,
      0.025378765822467158,
      0.02486316875507266,
      0.024472094251442762,
      0.02438980814511493,
      0.024334284050737398
    ],
    "model": "Model(\n  (embedding): Embedding(400000, 50)\n  (conv1): Conv2d(1, 150, kernel_size=(3, 50), stride=(1, 1))\n  (bn1): BatchNorm2d(150, eps=1e-05, momentum=0.1, affine=True, track_running_stats=True)\n  (conv2): Conv2d(1, 150, kernel_size=(4, 50), stride=(1, 1))\n  (bn2): BatchNorm2d(150, eps=1e-05, momentum=0.1, affine=True, track_running_stats=True)\n  (conv3): Conv2d(1, 150, kernel_size=(5, 50), stride=(1, 1))\n  (bn3): BatchNorm2d(150, eps=1e-05, momentum=0.1, affine=True, track_running_stats=True)\n  (fc1): Linear(in_features=450, out_features=30, bias=True)\n  (fc2): Linear(in_features=30, out_features=126, bias=True)\n  (dropout): Dropout(p=0.0)\n)",
    "train_start": "2018-12-09 19:01:44.754309",
    "train_finish": "2018-12-09 19:07:20.063277",
    "f1_scores": {
      "f1_score_2": 0.6932413014471929,
      "f1_score_3": 0.7821268124714175,
      "f1_score_4": 0.7379842662688447
    },
    "pAtK_scores": {
      "pAtK_1": 0.9525622351694916,
      "pAtK_3": 0.802050229519774,
…
      0.09832755984487525,
      0.04113309503845743,
      0.033414907806484026,
      0.02986302568207882,
      0.02788881783636969,
      0.02657529015440416,
      0.025648307864619614,
      0.024903293186533608,
      0.02428193272672862,
      0.02374675011781859
    ],
    "loss_vector": [
      0.046957903683690704,
      0.03602415083323495,
      0.0314996345757933,
      0.029317078164826007,
      0.028141874283299607,
      0.027452902868390083,
      0.027170772553753046,
      0.02661159066325527,
      0.026524652206039025,
      0.026547085367521997
    ],
    "model": "Model(\n  (embedding): Embedding(400000, 100)\n  (conv1): Conv2d(1, 150, kernel_size=(1, 100), stride=(1, 1))\n  (bn1): BatchNorm2d(150, eps=1e-05, momentum=0.1, affine=True, track_running_stats=True)\n  (conv2): Conv2d(1, 150, kernel_size=(3, 100), stride=(1, 1))\n  (bn2): BatchNorm2d(150, eps=1e-05, momentum=0.1, affine=True, track_running_stats=True)\n  (conv3): Conv2d(1, 150, kernel_size=(5, 100), stride=(1, 1))\n  (bn3): BatchNorm2d(150, eps=1e-05, momentum=0.1, affine=True, track_running_stats=True)\n  (fc1): Linear(in_features=450, out_features=30, bias=True)\n  (fc2): Linear(in_features=30, out_features=126, bias=True)\n  (dropout): Dropout(p=0.0)\n)",
    "train_start": "2018-12-09 19:03:20.573330",
    "train_finish": "2018-12-09 19:09:38.974966",
    "f1_scores": {
      "f1_score_2": 0.6847865133942318,
      "f1_score_3": 0.7724638850778791,
      "f1_score_4": 0.7273561216074721
    },
    "pAtK_scores": {
      "pAtK_1": 0.9517677436440678,
      "pAtK_3": 0.792141154661017,
…
      0.08256267157491064,
      0.03354080962953803,
      0.02813689297231257,
      0.025372050709640732,
      0.023684904647308914,
      0.02252395167254067,
      0.021596824962370084,
      0.02088928156915833,
      0.0202615117544637,
      0.019784473826440732
    ],
    "loss_vector": [
      0.03782291887170178,
      0.03025648184120655,
      0.027162161482087638,
      0.02545331229092711,
      0.024583105187294847,
      0.023947244446914075,
      0.023623952263240086,
      0.023318442973797603,
      0.02328634868233891,
      0.02311689084616758
    ],
    "model": "Model(\n  (embedding): Embedding(400000, 100)\n  (conv1): Conv2d(1, 150, kernel_size=(1, 100), stride=(1, 1))\n  (bn1): BatchNorm2d(150, eps=1e-05, momentum=0.1, affine=True, track_running_stats=True)\n  (conv2): Conv2d(1, 150, kernel_size=(4, 100), stride=(1, 1))\n  (bn2): BatchNorm2d(150, eps=1e-05, momentum=0.1, affine=True, track_running_stats=True)\n  (conv3): Conv2d(1, 150, kernel_size=(7, 100), stride=(1, 1))\n  (bn3): BatchNorm2d(150, eps=1e-05, momentum=0.1, affine=True, track_running_stats=True)\n  (fc1): Linear(in_features=450, out_features=30, bias=True)\n  (fc2): Linear(in_features=30, out_features=126, bias=True)\n  (dropout): Dropout(p=0.0)\n)",
    "train_start": "2018-12-09 19:11:28.025696",
    "train_finish": "2018-12-09 19:18:28.656374",
    "f1_scores": {
      "f1_score_2": 0.698386020732834,
      "f1_score_3": 0.7889274473408119,
      "f1_score_4": 0.7433215036925158
    },
    "pAtK_scores": {
      "pAtK_1": 0.9550119173728814,
      "pAtK_3": 0.8090240995762712,
…
      0.09126914279849978,
      0.03595461681188284,
      0.030027161230398537,
      0.027191061844635732,
      0.025465006683820565,
      0.024240960096639973,
      0.023322678208209758,
      0.022571780847869743,
      0.021899481842990617,
      0.02140799310744035
    ],
    "loss_vector": [
      0.04093608304353084,
      0.03211208151937541,
      0.028814504554463646,
      0.027070406729639587,
      0.026354246693900078,
      0.02575090271815405,
      0.025346542661220342,
      0.024936774429880966,
      0.02477280192582284,
      0.024893641440292536
    ],
    "model": "Model(\n  (embedding): Embedding(400000, 100)\n  (conv1): Conv2d(1, 150, kernel_size=(3, 100), stride=(1, 1))\n  (bn1): BatchNorm2d(150, eps=1e-05, momentum=0.1, affine=True, track_running_stats=True)\n  (conv2): Conv2d(1, 150, kernel_size=(4, 100), stride=(1, 1))\n  (bn2): BatchNorm2d(150, eps=1e-05, momentum=0.1, affine=True, track_running_stats=True)\n  (conv3): Conv2d(1, 150, kernel_size=(5, 100), stride=(1, 1))\n  (bn3): BatchNorm2d(150, eps=1e-05, momentum=0.1, affine=True, track_running_stats=True)\n  (fc1): Linear(in_features=450, out_features=30, bias=True)\n  (fc2): Linear(in_features=30, out_features=126, bias=True)\n  (dropout): Dropout(p=0.0)\n)",
    "train_start": "2018-12-09 19:12:26.964529",
    "train_finish": "2018-12-09 19:19:46.061114",
    "f1_scores": {
      "f1_score_2": 0.6915221184440111,
      "f1_score_3": 0.7804158932558578,
      "f1_score_4": 0.7345002362839483
    },
    "pAtK_scores": {
      "pAtK_1": 0.9551443326271186,
      "pAtK_3": 0.80029572740113,
…
      0.07560223589812103,
      0.034538124527153075,
      0.028941209553484674,
      0.026258630519008275,
      0.024655118174638876,
      0.023506851075128767,
      0.022713076008706437,
      0.022107364744145912,
      0.021598418138963675,
      0.021213688207277762
    ],
    "loss_vector": [
      0.03923562049108036,
      0.03084058567123898,
      0.02752482793214968,
      0.025941067801441176,
      0.024795882277569528,
      0.024070480680566723,
      0.023790420364525357,
      0.023397877180980423,
      0.023127604781065958,
      0.02301161265853098
    ],
    "model": "Model(\n  (embedding): Embedding(400000, 50)\n  (conv1): Conv2d(1, 150, kernel_size=(1, 50), stride=(1, 1))\n  (bn1): BatchNorm2d(150, eps=1e-05, momentum=0.1, affine=True, track_running_stats=True)\n  (conv2): Conv2d(1, 150, kernel_size=(3, 50), stride=(1, 1))\n  (bn2): BatchNorm2d(150, eps=1e-05, momentum=0.1, affine=True, track_running_stats=True)\n  (conv3): Conv2d(1, 150, kernel_size=(5, 50), stride=(1, 1))\n  (bn3): BatchNorm2d(150, eps=1e-05, momentum=0.1, affine=True, track_running_stats=True)\n  (fc1): Linear(in_features=450, out_features=50, bias=True)\n  (fc2): Linear(in_features=50, out_features=126, bias=True)\n  (dropout): Dropout(p=0.0)\n)",
    "train_start": "2018-12-09 19:15:27.678822",
    "train_finish": "2018-12-09 19:20:27.232771",
    "f1_scores": {
      "f1_score_2": 0.6972441753053474,
      "f1_score_3": 0.787173486132408,
      "f1_score_4": 0.7427562754236896
    },
    "pAtK_scores": {
      "pAtK_1": 0.9541843220338984,
      "pAtK_3": 0.807225459039548,
…
      0.07197408679257761,
      0.03304671600772036,
      0.027994744988614286,
      0.025427003173719546,
      0.0238437264931496,
      0.022703116038633932,
      0.02191031226920109,
      0.02127977183523395,
      0.02073496336601604,
      0.020279965124868803
    ],
    "loss_vector": [
      0.03713817032590761,
      0.02988400979567382,
      0.02672445559400623,
      0.02523452510773125,
      0.02422037603870287,
      0.023859469883017622,
      0.023207422503727978,
      0.023079912572846573,
      0.02277971355844352,
      0.022786204182242944
    ],
    "model": "Model(\n  (embedding): Embedding(400000, 50)\n  (conv1): Conv2d(1, 150, kernel_size=(1, 50), stride=(1, 1))\n  (bn1): BatchNorm2d(150, eps=1e-05, momentum=0.1, affine=True, track_running_stats=True)\n  (conv2): Conv2d(1, 150, kernel_size=(4, 50), stride=(1, 1))\n  (bn2): BatchNorm2d(150, eps=1e-05, momentum=0.1, affine=True, track_running_stats=True)\n  (conv3): Conv2d(1, 150, kernel_size=(7, 50), stride=(1, 1))\n  (bn3): BatchNorm2d(150, eps=1e-05, momentum=0.1, affine=True, track_running_stats=True)\n  (fc1): Linear(in_features=450, out_features=50, bias=True)\n  (fc2): Linear(in_features=50, out_features=126, bias=True)\n  (dropout): Dropout(p=0.0)\n)",
    "train_start": "2018-12-09 19:25:03.838631",
    "train_finish": "2018-12-09 19:30:29.250187",
    "f1_scores": {
      "f1_score_2": 0.6961664784973828,
      "f1_score_3": 0.7867538267021764,
      "f1_score_4": 0.7422837075268021
    },
    "pAtK_scores": {
      "pAtK_1": 0.9507415254237288,
      "pAtK_3": 0.8067951094632768,
…
      0.06831025932358836,
      0.03101564822559452,
      0.026555466131648258,
      0.02409838279620859,
      0.022497988078015126,
      0.021360204514448287,
      0.020565683495755212,
      0.019863245828497793,
      0.01935864007012102,
      0.018870413229152193
    ],
    "loss_vector": [
      0.03451334372541662,
      0.02870242038773278,
      0.025688033677258734,
      0.024368794098243874,
      0.023146737430055263,
      0.022505688212685667,
      0.022195232526983244,
      0.021807104727979434,
      0.021844611929382307,
      0.021651115015906802
    ],
    "model": "Model(\n  (embedding): Embedding(400000, 100)\n  (conv1): Conv2d(1, 150, kernel_size=(1, 100), stride=(1, 1))\n  (bn1): BatchNorm2d(150, eps=1e-05, momentum=0.1, affine=True, track_running_stats=True)\n  (conv2): Conv2d(1, 150, kernel_size=(3, 100), stride=(1, 1))\n  (bn2): BatchNorm2d(150, eps=1e-05, momentum=0.1, affine=True, track_running_stats=True)\n  (conv3): Conv2d(1, 150, kernel_size=(5, 100), stride=(1, 1))\n  (bn3): BatchNorm2d(150, eps=1e-05, momentum=0.1, affine=True, track_running_stats=True)\n  (fc1): Linear(in_features=450, out_features=50, bias=True)\n  (fc2): Linear(in_features=50, out_features=126, bias=True)\n  (dropout): Dropout(p=0.0)\n)",
    "train_start": "2018-12-09 19:25:01.805067",
    "train_finish": "2018-12-09 19:31:18.482625",
    "f1_scores": {
      "f1_score_2": 0.7040054398029354,
      "f1_score_3": 0.7952438597907082,
      "f1_score_4": 0.7492795656081763
    },
    "pAtK_scores": {
      "pAtK_1": 0.9565346927966102,
      "pAtK_3": 0.8155014124293786,
…
      0.07603603706074846,
      0.03507280591133084,
      0.029072227550271112,
      0.026359249316367975,
      0.024687076210127383,
      0.02358791706429713,
      0.022722690965294612,
      0.022110722446549096,
      0.02156698761730538,
      0.021147527832686336
    ],
    "loss_vector": [
      0.040492348499217276,
      0.031243795907850994,
      0.027747630662584708,
      0.0260886944262153,
      0.024938785423666746,
      0.024365462173344725,
      0.023754606686406218,
      0.023694244102906374,
      0.023390190360152115,
      0.023206205091486545
    ],
    "model": "Model(\n  (embedding): Embedding(400000, 50)\n  (conv1): Conv2d(1, 150, kernel_size=(3, 50), stride=(1, 1))\n  (bn1): BatchNorm2d(150, eps=1e-05, momentum=0.1, affine=True, track_running_stats=True)\n  (conv2): Conv2d(1, 150, kernel_size=(4, 50), stride=(1, 1))\n  (bn2): BatchNorm2d(150, eps=1e-05, momentum=0.1, affine=True, track_running_stats=True)\n  (conv3): Conv2d(1, 150, kernel_size=(5, 50), stride=(1, 1))\n  (bn3): BatchNorm2d(150, eps=1e-05, momentum=0.1, affine=True, track_running_stats=True)\n  (fc1): Linear(in_features=450, out_features=50, bias=True)\n  (fc2): Linear(in_features=50, out_features=126, bias=True)\n  (dropout): Dropout(p=0.0)\n)",
    "train_start": "2018-12-09 19:26:36.796753",
    "train_finish": "2018-12-09 19:32:12.040992",
    "f1_scores": {
      "f1_score_2": 0.6963332649081392,
      "f1_score_3": 0.786710784709332,
      "f1_score_4": 0.7424690282706795
    },
    "pAtK_scores": {
      "pAtK_1": 0.9541843220338984,
      "pAtK_3": 0.8067509710451978,
…
      0.06144077066452273,
      0.031540725069152335,
      0.02660057866906984,
      0.02419752350511768,
      0.022722931741339207,
      0.021686029806026245,
      0.020946911926711758,
      0.0203396896115969,
      0.019862698009361354,
      0.019482221323607996
    ],
    "loss_vector": [
      0.035573088232490974,
      0.028659679784865704,
      0.025506252391358553,
      0.024235297625852845,
      0.023098055904699585,
      0.02256821983067666,
      0.02199027788335994,
      0.02180556940325236,
      0.021568496301138804,
      0.021292213571526237
    ],
    "model": "Model(\n  (embedding): Embedding(400000, 50)\n  (conv1): Conv2d(1, 150, kernel_size=(1, 50), stride=(1, 1))\n  (bn1): BatchNorm2d(150, eps=1e-05, momentum=0.1, affine=True, track_running_stats=True)\n  (conv2): Conv2d(1, 150, kernel_size=(3, 50), stride=(1, 1))\n  (bn2): BatchNorm2d(150, eps=1e-05, momentum=0.1, affine=True, track_running_stats=True)\n  (conv3): Conv2d(1, 150, kernel_size=(5, 50), stride=(1, 1))\n  (bn3): BatchNorm2d(150, eps=1e-05, momentum=0.1, affine=True, track_running_stats=True)\n  (fc1): Linear(in_features=450, out_features=100, bias=True)\n  (fc2): Linear(in_features=100, out_features=126, bias=True)\n  (dropout): Dropout(p=0.0)\n)",
    "train_start": "2018-12-09 19:37:10.504975",
    "train_finish": "2018-12-09 19:42:10.177118",
    "f1_scores": {
      "f1_score_2": 0.7017987272913888,
      "f1_score_3": 0.7940494444892799,
      "f1_score_4": 0.7494370882404723
    },
    "pAtK_scores": {
      "pAtK_1": 0.9548132944915254,
      "pAtK_3": 0.8142765713276836,
…
      0.06343309846008638,
      0.029009937356443513,
      0.02465809262101406,
      0.022442207606314934,
      0.02099581906462417,
      0.019979248876618026,
      0.019174092991783,
      0.01848123985142986,
      0.017941857617440327,
      0.017464957542830558
    ],
    "loss_vector": [
      0.032770267766663586,
      0.026484915734095088,
      0.0243130528636403,
      0.02299438028643697,
      0.02208709208515741,
      0.021956037224854452,
      0.0215712502535622,
      0.021494582879467535,
      0.021392187798174762,
      0.02131306046967284
    ],
    "model": "Model(\n  (embedding): Embedding(400000, 100)\n  (conv1): Conv2d(1, 150, kernel_size=(1, 100), stride=(1, 1))\n  (bn1): BatchNorm2d(150, eps=1e-05, momentum=0.1, affine=True, track_running_stats=True)\n  (conv2): Conv2d(1, 150, kernel_size=(4, 100), stride=(1, 1))\n  (bn2): BatchNorm2d(150, eps=1e-05, momentum=0.1, affine=True, track_running_stats=True)\n  (conv3): Conv2d(1, 150, kernel_size=(7, 100), stride=(1, 1))\n  (bn3): BatchNorm2d(150, eps=1e-05, momentum=0.1, affine=True, track_running_stats=True)\n  (fc1): Linear(in_features=450, out_features=50, bias=True)\n  (fc2): Linear(in_features=50, out_features=126, bias=True)\n  (dropout): Dropout(p=0.0)\n)",
    "train_start": "2018-12-09 19:35:24.095205",
    "train_finish": "2018-12-09 19:42:23.655035",
    "f1_scores": {
      "f1_score_2": 0.7048393718567175,
      "f1_score_3": 0.797611169397143,
      "f1_score_4": 0.7520779088407259
    },
    "pAtK_scores": {
      "pAtK_1": 0.9568988347457628,
      "pAtK_3": 0.8179290254237288,
…
      0.06714758134148378,
      0.02989164566660063,
      0.025131055410152595,
      0.022753828998648012,
      0.021225201782454125,
      0.020150193951642265,
      0.019363806190665463,
      0.018648233004903998,
      0.018050540952573916,
      0.017606149879999925
    ],
    "loss_vector": [
      0.03398929927813805,
      0.02701973501529734,
      0.02448650313762285,
      0.023038487155306136,
      0.02269557238382808,
      0.022132589655407403,
      0.021836137588498956,
      0.02162998172817594,
      0.02162746292681007,
      0.021418335137225814
    ],
    "model": "Model(\n  (embedding): Embedding(400000, 100)\n  (conv1): Conv2d(1, 150, kernel_size=(3, 100), stride=(1, 1))\n  (bn1): BatchNorm2d(150, eps=1e-05, momentum=0.1, affine=True, track_running_stats=True)\n  (conv2): Conv2d(1, 150, kernel_size=(4, 100), stride=(1, 1))\n  (bn2): BatchNorm2d(150, eps=1e-05, momentum=0.1, affine=True, track_running_stats=True)\n  (conv3): Conv2d(1, 150, kernel_size=(5, 100), stride=(1, 1))\n  (bn3): BatchNorm2d(150, eps=1e-05, momentum=0.1, affine=True, track_running_stats=True)\n  (fc1): Linear(in_features=450, out_features=50, bias=True)\n  (fc2): Linear(in_features=50, out_features=126, bias=True)\n  (dropout): Dropout(p=0.0)\n)",
    "train_start": "2018-12-09 19:37:18.427689",
    "train_finish": "2018-12-09 19:44:34.134490",
    "f1_scores": {
      "f1_score_2": 0.7053782202607001,
      "f1_score_3": 0.7974067199311329,
      "f1_score_4": 0.7513736900139918
    },
    "pAtK_scores": {
      "pAtK_1": 0.9568657309322034,
      "pAtK_3": 0.8177193679378532,
…
      0.054684136197168866,
      0.026834558225475407,
      0.022734394148557643,
      0.020668261866500528,
      0.01941315371691615,
      0.018490374310956507,
      0.017816437604488977,
      0.0172118262919744,
      0.016776363580952445,
      0.016332720231399138
    ],
    "loss_vector": [
      0.030282872839499327,
      0.02449557759751708,
      0.02213197293044147,
      0.021065687381867634,
      0.020416202181476658,
      0.020067657533464796,
      0.019863404759789927,
      0.01952941859361984,
      0.01967439546360303,
      0.019608312602139126
    ],
    "model": "Model(\n  (embedding): Embedding(400000, 100)\n  (conv1): Conv2d(1, 150, kernel_size=(1, 100), stride=(1, 1))\n  (bn1): BatchNorm2d(150, eps=1e-05, momentum=0.1, affine=True, track_running_stats=True)\n  (conv2): Conv2d(1, 150, kernel_size=(3, 100), stride=(1, 1))\n  (bn2): BatchNorm2d(150, eps=1e-05, momentum=0.1, affine=True, track_running_stats=True)\n  (conv3): Conv2d(1, 150, kernel_size=(5, 100), stride=(1, 1))\n  (bn3): BatchNorm2d(150, eps=1e-05, momentum=0.1, affine=True, track_running_stats=True)\n  (fc1): Linear(in_features=450, out_features=100, bias=True)\n  (fc2): Linear(in_features=100, out_features=126, bias=True)\n  (dropout): Dropout(p=0.0)\n)",
    "train_start": "2018-12-09 19:46:45.010033",
    "train_finish": "2018-12-09 19:52:57.884472",
    "f1_scores": {
      "f1_score_2": 0.708457353997742,
      "f1_score_3": 0.8018077636994594,
      "f1_score_4": 0.7562383595407752
    },
    "pAtK_scores": {
      "pAtK_1": 0.9578919491525424,
      "pAtK_3": 0.8222325211864406,
…
      0.058168591828963785,
      0.029909096032635536,
      0.025205645222478392,
      0.022999932105870355,
      0.021650733221216266,
      0.02065296236079264,
      0.01991654828940103,
      0.019354387504566438,
      0.01888529866036077,
      0.018419318425997498
    ],
    "loss_vector": [
      0.03389440003340527,
      0.02706689870584819,
      0.024450927436099213,
      0.023018884614615116,
      0.022367829646346933,
      0.021708352870102657,
      0.021600484500749636,
      0.021205726963609964,
      0.021135006210435243,
      0.021058730623227054
    ],
    "model": "Model(\n  (embedding): Embedding(400000, 50)\n  (conv1): Conv2d(1, 150, kernel_size=(1, 50), stride=(1, 1))\n  (bn1): BatchNorm2d(150, eps=1e-05, momentum=0.1, affine=True, track_running_stats=True)\n  (conv2): Conv2d(1, 150, kernel_size=(4, 50), stride=(1, 1))\n  (bn2): BatchNorm2d(150, eps=1e-05, momentum=0.1, affine=True, track_running_stats=True)\n  (conv3): Conv2d(1, 150, kernel_size=(7, 50), stride=(1, 1))\n  (bn3): BatchNorm2d(150, eps=1e-05, momentum=0.1, affine=True, track_running_stats=True)\n  (fc1): Linear(in_features=450, out_features=100, bias=True)\n  (fc2): Linear(in_features=100, out_features=126, bias=True)\n  (dropout): Dropout(p=0.0)\n)",
    "train_start": "2018-12-09 19:48:57.352064",
    "train_finish": "2018-12-09 19:54:15.035009",
    "f1_scores": {
      "f1_score_2": 0.7025941701734578,
      "f1_score_3": 0.7945229064105669,
      "f1_score_4": 0.7500208485836862
    },
    "pAtK_scores": {
      "pAtK_1": 0.9537208686440678,
      "pAtK_3": 0.8147620939265536,
…
      0.0591809266375862,
      0.0308662939116896,
      0.026020948016977175,
      0.023663387982001568,
      0.022206863777206563,
      0.021182913089301827,
      0.0204206049456429,
      0.019796803385104127,
      0.0192741324393471,
      0.018889950411623977
    ],
    "loss_vector": [
      0.0348450915288117,
      0.02779212638230647,
      0.02512655366148989,
      0.02356009415777053,
      0.022977839808090258,
      0.022284940453404088,
      0.021789647891359815,
      0.021652951078899835,
      0.021446673041683132,
      0.02121223100476851
    ],
    "model": "Model(\n  (embedding): Embedding(400000, 50)\n  (conv1): Conv2d(1, 150, kernel_size=(3, 50), stride=(1, 1))\n  (bn1): BatchNorm2d(150, eps=1e-05, momentum=0.1, affine=True, track_running_stats=True)\n  (conv2): Conv2d(1, 150, kernel_size=(4, 50), stride=(1, 1))\n  (bn2): BatchNorm2d(150, eps=1e-05, momentum=0.1, affine=True, track_running_stats=True)\n  (conv3): Conv2d(1, 150, kernel_size=(5, 50), stride=(1, 1))\n  (bn3): BatchNorm2d(150, eps=1e-05, momentum=0.1, affine=True, track_running_stats=True)\n  (fc1): Linear(in_features=450, out_features=100, bias=True)\n  (fc2): Linear(in_features=100, out_features=126, bias=True)\n  (dropout): Dropout(p=0.0)\n)",
    "train_start": "2018-12-09 19:51:22.783613",
    "train_finish": "2018-12-09 19:56:58.546443",
    "f1_scores": {
      "f1_score_2": 0.7021194703889972,
      "f1_score_3": 0.7942108519624459,
      "f1_score_4": 0.7497613995422577
    },
    "pAtK_scores": {
      "pAtK_1": 0.9548463983050848,
      "pAtK_3": 0.8144420903954802,
…
      0.19793355548347874,
      0.07133479929569776,
      0.06749643009346848,
      0.0657524660484162,
      0.06460776791485483,
      0.06370123657459778,
      0.0629686209774334,
      0.062279528936466634,
      0.061662889331353006,
      0.06103925862167547
    ],
    "loss_vector": [
      0.07499846727666208,
      0.06855565183243509,
      0.06636283085760424,
      0.06518678392394114,
      0.06428068851010274,
      0.0635253677807622,
      0.06303721161211952,
      0.0624011190513433,
      0.06198844452530651,
      0.061522999367976595
    ],
    "model": "Model(\n  (embedding): Embedding(400000, 50)\n  (conv1): Conv2d(1, 200, kernel_size=(1, 50), stride=(1, 1))\n  (bn1): BatchNorm2d(200, eps=1e-05, momentum=0.1, affine=True, track_running_stats=True)\n  (conv2): Conv2d(1, 200, kernel_size=(3, 50), stride=(1, 1))\n  (bn2): BatchNorm2d(200, eps=1e-05, momentum=0.1, affine=True, track_running_stats=True)\n  (conv3): Conv2d(1, 200, kernel_size=(5, 50), stride=(1, 1))\n  (bn3): BatchNorm2d(200, eps=1e-05, momentum=0.1, affine=True, track_running_stats=True)\n  (fc1): Linear(in_features=600, out_features=10, bias=True)\n  (fc2): Linear(in_features=10, out_features=126, bias=True)\n  (dropout): Dropout(p=0.0)\n)",
    "train_start": "2018-12-09 19:58:49.524720",
    "train_finish": "2018-12-09 20:04:34.864124",
    "f1_scores": {
      "f1_score_2": 0.4548393718567177,
      "f1_score_3": 0.4925187636187555,
      "f1_score_4": 0.49632601625262923
    },
    "pAtK_scores": {
      "pAtK_1": 0.7128575211864406,
      "pAtK_3": 0.5050648834745762,
…
      0.05782096542460416,
      0.02702055357933836,
      0.0230140931748801,
      0.02094996573873557,
      0.019583105192691144,
      0.01860074564793361,
      0.017849115955252803,
      0.017176360434426642,
      0.01664965873516997,
      0.016166020306693195
    ],
    "loss_vector": [
      0.030665237645981676,
      0.024709083392458447,
      0.022750271452685534,
      0.021540785555617285,
      0.021066228306647075,
      0.02052005969177363,
      0.02031813274627015,
      0.020344509869435076,
      0.02003053026431698,
      0.020118759976605238
    ],
    "model": "Model(\n  (embedding): Embedding(400000, 100)\n  (conv1): Conv2d(1, 150, kernel_size=(1, 100), stride=(1, 1))\n  (bn1): BatchNorm2d(150, eps=1e-05, momentum=0.1, affine=True, track_running_stats=True)\n  (conv2): Conv2d(1, 150, kernel_size=(4, 100), stride=(1, 1))\n  (bn2): BatchNorm2d(150, eps=1e-05, momentum=0.1, affine=True, track_running_stats=True)\n  (conv3): Conv2d(1, 150, kernel_size=(7, 100), stride=(1, 1))\n  (bn3): BatchNorm2d(150, eps=1e-05, momentum=0.1, affine=True, track_running_stats=True)\n  (fc1): Linear(in_features=450, out_features=100, bias=True)\n  (fc2): Linear(in_features=100, out_features=126, bias=True)\n  (dropout): Dropout(p=0.0)\n)",
    "train_start": "2018-12-09 19:59:08.253439",
    "train_finish": "2018-12-09 20:06:07.345507",
    "f1_scores": {
      "f1_score_2": 0.706776660166273,
      "f1_score_3": 0.800150646974955,
      "f1_score_4": 0.7551079030031227
    },
    "pAtK_scores": {
      "pAtK_1": 0.9584216101694916,
      "pAtK_3": 0.8205331920903954,
…
      0.05490485983114315,
      0.026809227838405395,
      0.02271248734568509,
      0.020623474344752545,
      0.01931938976826998,
      0.01833704343168118,
      0.017560560208527934,
      0.01693993287631072,
      0.01637028793201727,
      0.01590225768701458
    ],
    "loss_vector": [
      0.03012359707411063,
      0.02480059252830885,
      0.022498219037207508,
      0.021259867822972393,
      0.020764983843191195,
      0.020275441471929268,
      0.020032382633347633,
      0.019939673906665737,
      0.020008582732308718,
      0.02005085814744234
    ],
    "model": "Model(\n  (embedding): Embedding(400000, 100)\n  (conv1): Conv2d(1, 150, kernel_size=(3, 100), stride=(1, 1))\n  (bn1): BatchNorm2d(150, eps=1e-05, momentum=0.1, affine=True, track_running_stats=True)\n  (conv2): Conv2d(1, 150, kernel_size=(4, 100), stride=(1, 1))\n  (bn2): BatchNorm2d(150, eps=1e-05, momentum=0.1, affine=True, track_running_stats=True)\n  (conv3): Conv2d(1, 150, kernel_size=(5, 100), stride=(1, 1))\n  (bn3): BatchNorm2d(150, eps=1e-05, momentum=0.1, affine=True, track_running_stats=True)\n  (fc1): Linear(in_features=450, out_features=100, bias=True)\n  (fc2): Linear(in_features=100, out_features=126, bias=True)\n  (dropout): Dropout(p=0.0)\n)",
    "train_start": "2018-12-09 20:02:05.750693",
    "train_finish": "2018-12-09 20:09:18.205692",
    "f1_scores": {
      "f1_score_2": 0.7076362516678641,
      "f1_score_3": 0.8021090576493691,
      "f1_score_4": 0.7554600124164897
    },
    "pAtK_scores": {
      "pAtK_1": 0.958057468220339,
      "pAtK_3": 0.8225414901129944,
…
      0.16499246448363253,
      0.05217225557684446,
      0.04535721709679607,
      0.04201221166344702,
      0.039874409412014415,
      0.03802360831079492,
      0.036731508887413555,
      0.035603341273610006,
      0.034798323577959124,
      0.03405636785449407
    ],
    "loss_vector": [
      0.05721614320399398,
      0.047668224674160195,
      0.043450778886928394,
      0.04124580096390288,
      0.03965466160137775,
      0.03861374992056418,
      0.03756962738678617,
      0.036816931092890644,
      0.03665927721787307,
      0.0363025000097893
    ],
    "model": "Model(\n  (embedding): Embedding(400000, 100)\n  (conv1): Conv2d(1, 200, kernel_size=(1, 100), stride=(1, 1))\n  (bn1): BatchNorm2d(200, eps=1e-05, momentum=0.1, affine=True, track_running_stats=True)\n  (conv2): Conv2d(1, 200, kernel_size=(3, 100), stride=(1, 1))\n  (bn2): BatchNorm2d(200, eps=1e-05, momentum=0.1, affine=True, track_running_stats=True)\n  (conv3): Conv2d(1, 200, kernel_size=(5, 100), stride=(1, 1))\n  (bn3): BatchNorm2d(200, eps=1e-05, momentum=0.1, affine=True, track_running_stats=True)\n  (fc1): Linear(in_features=600, out_features=10, bias=True)\n  (fc2): Linear(in_features=10, out_features=126, bias=True)\n  (dropout): Dropout(p=0.0)\n)",
    "train_start": "2018-12-09 20:09:48.152014",
    "train_finish": "2018-12-09 20:16:33.030775",
    "f1_scores": {
      "f1_score_2": 0.6452709637688596,
      "f1_score_3": 0.7131304979420547,
      "f1_score_4": 0.6713892569564776
    },
    "pAtK_scores": {
      "pAtK_1": 0.9449483580508474,
      "pAtK_3": 0.731296345338983,
…
      0.13982537329423134,
      0.04896077284663633,
      0.0411156786771834,
      0.03702457310663681,
      0.03458669948863463,
      0.032797487859085796,
      0.03151108002541074,
      0.030534467205716266,
      0.02979677984847968,
      0.029182740697456945
    ],
    "loss_vector": [
      0.05539147972555484,
      0.04390068547958034,
      0.03884530547311751,
      0.035896955657813506,
      0.03420497808542292,
      0.033095876702060135,
      0.03222408975963875,
      0.031786312270215,
      0.031345620498818866,
      0.03107471451542135
    ],
    "model": "Model(\n  (embedding): Embedding(400000, 50)\n  (conv1): Conv2d(1, 200, kernel_size=(1, 50), stride=(1, 1))\n  (bn1): BatchNorm2d(200, eps=1e-05, momentum=0.1, affine=True, track_running_stats=True)\n  (conv2): Conv2d(1, 200, kernel_size=(4, 50), stride=(1, 1))\n  (bn2): BatchNorm2d(200, eps=1e-05, momentum=0.1, affine=True, track_running_stats=True)\n  (conv3): Conv2d(1, 200, kernel_size=(7, 50), stride=(1, 1))\n  (bn3): BatchNorm2d(200, eps=1e-05, momentum=0.1, affine=True, track_running_stats=True)\n  (fc1): Linear(in_features=600, out_features=10, bias=True)\n  (fc2): Linear(in_features=10, out_features=126, bias=True)\n  (dropout): Dropout(p=0.0)\n)",
    "train_start": "2018-12-09 20:12:40.915887",
    "train_finish": "2018-12-09 20:18:44.224098",
    "f1_scores": {
      "f1_score_2": 0.6658370111875193,
      "f1_score_3": 0.7467140128587955,
      "f1_score_4": 0.702347087221208
    },
    "pAtK_scores": {
      "pAtK_1": 0.946239406779661,
      "pAtK_3": 0.7657353460451978,
…
      0.23893999533137514,
      0.08441183383822215,
      0.08335972226717893,
      0.08274061972208221,
      0.08179790791003935,
      0.08035529235225927,
      0.07867000671898844,
      0.07713575591907555,
      0.07585697393489743,
      0.07482137545179823
    ],
    "loss_vector": [
      0.08545370753538811,
      0.08347223762233379,
      0.08288538102376258,
      0.08220048172999236,
      0.08096072747040603,
      0.07938269765700325,
      0.07777049935470193,
      0.07645883234375614,
      0.07550224245099699,
      0.07455821209034677
    ],
    "model": "Model(\n  (embedding): Embedding(400000, 50)\n  (conv1): Conv2d(1, 200, kernel_size=(3, 50), stride=(1, 1))\n  (bn1): BatchNorm2d(200, eps=1e-05, momentum=0.1, affine=True, track_running_stats=True)\n  (conv2): Conv2d(1, 200, kernel_size=(4, 50), stride=(1, 1))\n  (bn2): BatchNorm2d(200, eps=1e-05, momentum=0.1, affine=True, track_running_stats=True)\n  (conv3): Conv2d(1, 200, kernel_size=(5, 50), stride=(1, 1))\n  (bn3): BatchNorm2d(200, eps=1e-05, momentum=0.1, affine=True, track_running_stats=True)\n  (fc1): Linear(in_features=600, out_features=10, bias=True)\n  (fc2): Linear(in_features=10, out_features=126, bias=True)\n  (dropout): Dropout(p=0.0)\n)",
    "train_start": "2018-12-09 20:16:06.535595",
    "train_finish": "2018-12-09 20:22:26.400215",
    "f1_scores": {
      "f1_score_2": 0.38698296212665506,
      "f1_score_3": 0.42976353805181183,
      "f1_score_4": 0.4294159616756702
    },
    "pAtK_scores": {
      "pAtK_1": 0.5445577330508474,
      "pAtK_3": 0.4407110699152542,
…
      0.08741612815823004,
      0.03657339998225786,
      0.030784571034377848,
      0.02785140963048591,
      0.026106039546359424,
      0.024825701984864938,
      0.02393566793011081,
      0.023189865989324265,
      0.022655947225793942,
      0.022107254473432418
    ],
    "loss_vector": [
      0.04118101949156341,
      0.032980558793928666,
      0.02945770506384009,
      0.027470525354146957,
      0.026412002963282295,
      0.025576641498985937,
      0.025032968497124768,
      0.024895239400409035,
      0.024524884961419188,
      0.024356913295085148
    ],
    "model": "Model(\n  (embedding): Embedding(400000, 50)\n  (conv1): Conv2d(1, 200, kernel_size=(1, 50), stride=(1, 1))\n  (bn1): BatchNorm2d(200, eps=1e-05, momentum=0.1, affine=True, track_running_stats=True)\n  (conv2): Conv2d(1, 200, kernel_size=(3, 50), stride=(1, 1))\n  (bn2): BatchNorm2d(200, eps=1e-05, momentum=0.1, affine=True, track_running_stats=True)\n  (conv3): Conv2d(1, 200, kernel_size=(5, 50), stride=(1, 1))\n  (bn3): BatchNorm2d(200, eps=1e-05, momentum=0.1, affine=True, track_running_stats=True)\n  (fc1): Linear(in_features=600, out_features=30, bias=True)\n  (fc2): Linear(in_features=30, out_features=126, bias=True)\n  (dropout): Dropout(p=0.0)\n)",
    "train_start": "2018-12-09 20:22:47.700583",
    "train_finish": "2018-12-09 20:28:31.473452",
    "f1_scores": {
      "f1_score_2": 0.6920737965718978,
      "f1_score_3": 0.7806849057111345,
      "f1_score_4": 0.7357511513051213
    },
    "pAtK_scores": {
      "pAtK_1": 0.9526284427966102,
      "pAtK_3": 0.8005715925141242,
…
      0.1464956631032181,
      0.04858102198456903,
      0.041919228042947725,
      0.03836960504556064,
      0.03592166080505391,
      0.03395970222987305,
      0.032447798654748096,
      0.03121135864880438,
      0.03015357197617557,
      0.029283921593054422
    ],
    "loss_vector": [
      0.053603089083049255,
      0.044441198204028406,
      0.040172554741976625,
      0.03781414120379141,
      0.03613559683879553,
      0.0348158728773311,
      0.03403308204675125,
      0.03310150454231238,
      0.03267022894726972,
      0.03235524027781971
    ],
    "model": "Model(\n  (embedding): Embedding(400000, 100)\n  (conv1): Conv2d(1, 200, kernel_size=(1, 100), stride=(1, 1))\n  (bn1): BatchNorm2d(200, eps=1e-05, momentum=0.1, affine=True, track_running_stats=True)\n  (conv2): Conv2d(1, 200, kernel_size=(4, 100), stride=(1, 1))\n  (bn2): BatchNorm2d(200, eps=1e-05, momentum=0.1, affine=True, track_running_stats=True)\n  (conv3): Conv2d(1, 200, kernel_size=(7, 100), stride=(1, 1))\n  (bn3): BatchNorm2d(200, eps=1e-05, momentum=0.1, affine=True, track_running_stats=True)\n  (fc1): Linear(in_features=600, out_features=10, bias=True)\n  (fc2): Linear(in_features=10, out_features=126, bias=True)\n  (dropout): Dropout(p=0.0)\n)",
    "train_start": "2018-12-09 20:24:14.446318",
    "train_finish": "2018-12-09 20:31:53.847599",
    "f1_scores": {
      "f1_score_2": 0.6611413322385302,
      "f1_score_3": 0.7406988943588088,
      "f1_score_4": 0.6947396706850381
    },
    "pAtK_scores": {
      "pAtK_1": 0.9467028601694916,
      "pAtK_3": 0.759567002118644,
…
      0.19179062747468983,
      0.07205508119184559,
      0.06728140644347419,
      0.06483853312891394,
      0.06332498973330918,
      0.06227135695729129,
      0.061443627587531954,
      0.06069138137167726,
      0.060046779871891755,
      0.05949843669243058
    ],
    "loss_vector": [
      0.07568534110057151,
      0.06896923185657647,
      0.06588764722316952,
      0.06421863496050996,
      0.06318147297380335,
      0.06232399499769938,
      0.06180074842552007,
      0.061327832356347874,
      0.06097298866863978,
      0.06072795548934048
    ],
    "model": "Model(\n  (embedding): Embedding(400000, 100)\n  (conv1): Conv2d(1, 200, kernel_size=(3, 100), stride=(1, 1))\n  (bn1): BatchNorm2d(200, eps=1e-05, momentum=0.1, affine=True, track_running_stats=True)\n  (conv2): Conv2d(1, 200, kernel_size=(4, 100), stride=(1, 1))\n  (bn2): BatchNorm2d(200, eps=1e-05, momentum=0.1, affine=True, track_running_stats=True)\n  (conv3): Conv2d(1, 200, kernel_size=(5, 100), stride=(1, 1))\n  (bn3): BatchNorm2d(200, eps=1e-05, momentum=0.1, affine=True, track_running_stats=True)\n  (fc1): Linear(in_features=600, out_features=10, bias=True)\n  (fc2): Linear(in_features=10, out_features=126, bias=True)\n  (dropout): Dropout(p=0.0)\n)",
    "train_start": "2018-12-09 20:28:08.666910",
    "train_finish": "2018-12-09 20:35:55.877723",
    "f1_scores": {
      "f1_score_2": 0.45879092681925476,
      "f1_score_3": 0.5011486831840315,
      "f1_score_4": 0.48900584686946935
    },
    "pAtK_scores": {
      "pAtK_1": 0.8245166843220338,
      "pAtK_3": 0.513914636299435,
…
      0.08491286540676113,
      0.032760751014840446,
      0.02767049788764238,
      0.024997152313872804,
      0.023359749420233198,
      0.022150326410637182,
      0.021269018749443133,
      0.02054688145019524,
      0.019941950018961246,
      0.01945799676457551
    ],
    "loss_vector": [
      0.03697466670330298,
      0.02989576220259828,
      0.026694725851638842,
      0.025189896066815168,
      0.024043710965473773,
      0.023498149557133852,
      0.023171014389244175,
      0.022940438935312175,
      0.022886578940739064,
      0.022715913415965388
    ],
    "model": "Model(\n  (embedding): Embedding(400000, 100)\n  (conv1): Conv2d(1, 200, kernel_size=(1, 100), stride=(1, 1))\n  (bn1): BatchNorm2d(200, eps=1e-05, momentum=0.1, affine=True, track_running_stats=True)\n  (conv2): Conv2d(1, 200, kernel_size=(3, 100), stride=(1, 1))\n  (bn2): BatchNorm2d(200, eps=1e-05, momentum=0.1, affine=True, track_running_stats=True)\n  (conv3): Conv2d(1, 200, kernel_size=(5, 100), stride=(1, 1))\n  (bn3): BatchNorm2d(200, eps=1e-05, momentum=0.1, affine=True, track_running_stats=True)\n  (fc1): Linear(in_features=600, out_features=30, bias=True)\n  (fc2): Linear(in_features=30, out_features=126, bias=True)\n  (dropout): Dropout(p=0.0)\n)",
    "train_start": "2018-12-09 20:33:43.631844",
    "train_finish": "2018-12-09 20:40:27.516620",
    "f1_scores": {
      "f1_score_2": 0.7005927332443806,
      "f1_score_3": 0.7920157103273883,
      "f1_score_4": 0.7454897563958822
    },
    "pAtK_scores": {
      "pAtK_1": 0.9561374470338984,
      "pAtK_3": 0.8121910310734464,
…
      0.08567630879906142,
      0.03720708370590459,
      0.031070438939971988,
      0.028136760265030942,
      0.026299023894730964,
      0.025075626734509866,
      0.024147838760570285,
      0.023397186389316645,
      0.02280304608495457,
      0.022299924808814132
    ],
    "loss_vector": [
      0.04240481201875008,
      0.033168343890268924,
      0.029690916539501337,
      0.027730186517208308,
      0.026828935653981516,
      0.02612226109130908,
      0.025646860853342685,
      0.025457458570599556,
      0.025100235590490245,
      0.0250034277974549
    ],
    "model": "Model(\n  (embedding): Embedding(400000, 50)\n  (conv1): Conv2d(1, 200, kernel_size=(1, 50), stride=(1, 1))\n  (bn1): BatchNorm2d(200, eps=1e-05, momentum=0.1, affine=True, track_running_stats=True)\n  (conv2): Conv2d(1, 200, kernel_size=(4, 50), stride=(1, 1))\n  (bn2): BatchNorm2d(200, eps=1e-05, momentum=0.1, affine=True, track_running_stats=True)\n  (conv3): Conv2d(1, 200, kernel_size=(7, 50), stride=(1, 1))\n  (bn3): BatchNorm2d(200, eps=1e-05, momentum=0.1, affine=True, track_running_stats=True)\n  (fc1): Linear(in_features=600, out_features=30, bias=True)\n  (fc2): Linear(in_features=30, out_features=126, bias=True)\n  (dropout): Dropout(p=0.0)\n)",
    "train_start": "2018-12-09 20:38:58.341037",
    "train_finish": "2018-12-09 20:45:00.077703",
    "f1_scores": {
      "f1_score_2": 0.6902006568818639,
      "f1_score_3": 0.7787480160331423,
      "f1_score_4": 0.733944274052316
    },
    "pAtK_scores": {
      "pAtK_1": 0.9518008474576272,
      "pAtK_3": 0.798585363700565,
…
      0.07529601726885991,
      0.03386893904497547,
      0.028367685058650755,
      0.025664174657110017,
      0.024010597160916625,
      0.022843866911230776,
      0.021937656366536693,
      0.021237657237550566,
      0.020681125848806787,
      0.020213279600981515
    ],
    "loss_vector": [
      0.03847911227810181,
      0.03033333975758593,
      0.027048346286608002,
      0.02561229571573815,
      0.024683261353333118,
      0.024211643232127367,
      0.023484575135980623,
      0.023188945726823,
      0.02319475825307733,
      0.022947966768327405
    ],
    "model": "Model(\n  (embedding): Embedding(400000, 50)\n  (conv1): Conv2d(1, 200, kernel_size=(3, 50), stride=(1, 1))\n  (bn1): BatchNorm2d(200, eps=1e-05, momentum=0.1, affine=True, track_running_stats=True)\n  (conv2): Conv2d(1, 200, kernel_size=(4, 50), stride=(1, 1))\n  (bn2): BatchNorm2d(200, eps=1e-05, momentum=0.1, affine=True, track_running_stats=True)\n  (conv3): Conv2d(1, 200, kernel_size=(5, 50), stride=(1, 1))\n  (bn3): BatchNorm2d(200, eps=1e-05, momentum=0.1, affine=True, track_running_stats=True)\n  (fc1): Linear(in_features=600, out_features=30, bias=True)\n  (fc2): Linear(in_features=30, out_features=126, bias=True)\n  (dropout): Dropout(p=0.0)\n)",
    "train_start": "2018-12-09 20:43:02.359347",
    "train_finish": "2018-12-09 20:49:25.166782",
    "f1_scores": {
      "f1_score_2": 0.6968721133121215,
      "f1_score_3": 0.7879590025018158,
      "f1_score_4": 0.7432010452089954
    },
    "pAtK_scores": {
      "pAtK_1": 0.9541181144067796,
      "pAtK_3": 0.8080309851694916,
…
      0.06924953685624549,
      0.034055819911652546,
      0.02811771148084124,
      0.025312000267080383,
      0.02371465768205599,
      0.022574585740519883,
      0.02176540773326577,
      0.021083012304535628,
      0.02058076455948814,
      0.020182843060291018
    ],
    "loss_vector": [
      0.03923434921998089,
      0.030279516952775292,
      0.02658486918751466,
      0.025135064308168524,
      0.024149979227932834,
      0.023321583930213573,
      0.022950611314025975,
      0.022612159377184964,
      0.022807390255443122,
      0.022349428606487937
    ],
    "model": "Model(\n  (embedding): Embedding(400000, 50)\n  (conv1): Conv2d(1, 200, kernel_size=(1, 50), stride=(1, 1))\n  (bn1): BatchNorm2d(200, eps=1e-05, momentum=0.1, affine=True, track_running_stats=True)\n  (conv2): Conv2d(1, 200, kernel_size=(3, 50), stride=(1, 1))\n  (bn2): BatchNorm2d(200, eps=1e-05, momentum=0.1, affine=True, track_running_stats=True)\n  (conv3): Conv2d(1, 200, kernel_size=(5, 50), stride=(1, 1))\n  (bn3): BatchNorm2d(200, eps=1e-05, momentum=0.1, affine=True, track_running_stats=True)\n  (fc1): Linear(in_features=600, out_features=50, bias=True)\n  (fc2): Linear(in_features=50, out_features=126, bias=True)\n  (dropout): Dropout(p=0.0)\n)",
    "train_start": "2018-12-09 20:46:39.909961",
    "train_finish": "2018-12-09 20:52:26.719668",
    "f1_scores": {
      "f1_score_2": 0.6985912963153033,
      "f1_score_3": 0.7898958921798079,
      "f1_score_4": 0.7451932432056783
    },
    "pAtK_scores": {
      "pAtK_1": 0.9555415783898306,
      "pAtK_3": 0.8100172139830508,
…
      0.09377391428547069,
      0.03705558251497641,
      0.03076175663556614,
      0.02763174843233948,
      0.02559346015400746,
      0.02418712889899339,
      0.023181402769498174,
      0.02229959256876352,
      0.021587064125675858,
      0.020993951050674215
    ],
    "loss_vector": [
      0.04229452751450619,
      0.03300481532716145,
      0.029459653927360552,
      0.027567578700639434,
      0.02637593779649775,
      0.025762075368883246,
      0.025221655713552137,
      0.02496225986692865,
      0.024894118687864078,
      0.02513460915977672
    ],
    "model": "Model(\n  (embedding): Embedding(400000, 100)\n  (conv1): Conv2d(1, 200, kernel_size=(1, 100), stride=(1, 1))\n  (bn1): BatchNorm2d(200, eps=1e-05, momentum=0.1, affine=True, track_running_stats=True)\n  (conv2): Conv2d(1, 200, kernel_size=(4, 100), stride=(1, 1))\n  (bn2): BatchNorm2d(200, eps=1e-05, momentum=0.1, affine=True, track_running_stats=True)\n  (conv3): Conv2d(1, 200, kernel_size=(7, 100), stride=(1, 1))\n  (bn3): BatchNorm2d(200, eps=1e-05, momentum=0.1, affine=True, track_running_stats=True)\n  (fc1): Linear(in_features=600, out_features=30, bias=True)\n  (fc2): Linear(in_features=30, out_features=126, bias=True)\n  (dropout): Dropout(p=0.0)\n)",
    "train_start": "2018-12-09 20:50:30.564348",
    "train_finish": "2018-12-09 20:58:08.295680",
    "f1_scores": {
      "f1_score_2": 0.6902519757774813,
      "f1_score_3": 0.7803943722594356,
      "f1_score_4": 0.7342593193169077
    },
    "pAtK_scores": {
      "pAtK_1": 0.954250529661017,
      "pAtK_3": 0.8002736581920904,
…
      0.08830649499026828,
      0.035170507311566505,
      0.029554341903815232,
      0.02662783628594717,
      0.024738243758056378,
      0.02343212233138831,
      0.022473642164293456,
      0.02164881231804048,
      0.020996990643682018,
      0.020401462286965218
    ],
    "loss_vector": [
      0.039449979440640597,
      0.03165847953345816,
      0.028433198993236333,
      0.026674246604917413,
      0.025617587901020453,
      0.025031090666682035,
      0.02490506103357016,
      0.02461382017423541,
      0.024452972588902812,
      0.02430056906857733
    ],
    "model": "Model(\n  (embedding): Embedding(400000, 100)\n  (conv1): Conv2d(1, 200, kernel_size=(3, 100), stride=(1, 1))\n  (bn1): BatchNorm2d(200, eps=1e-05, momentum=0.1, affine=True, track_running_stats=True)\n  (conv2): Conv2d(1, 200, kernel_size=(4, 100), stride=(1, 1))\n  (bn2): BatchNorm2d(200, eps=1e-05, momentum=0.1, affine=True, track_running_stats=True)\n  (conv3): Conv2d(1, 200, kernel_size=(5, 100), stride=(1, 1))\n  (bn3): BatchNorm2d(200, eps=1e-05, momentum=0.1, affine=True, track_running_stats=True)\n  (fc1): Linear(in_features=600, out_features=30, bias=True)\n  (fc2): Linear(in_features=30, out_features=126, bias=True)\n  (dropout): Dropout(p=0.0)\n)",
    "train_start": "2018-12-09 20:55:10.359206",
    "train_finish": "2018-12-09 21:02:51.501384",
    "f1_scores": {
      "f1_score_2": 0.695948373191009,
      "f1_score_3": 0.785118230974094,
      "f1_score_4": 0.7389016039510383
    },
    "pAtK_scores": {
      "pAtK_1": 0.956104343220339,
      "pAtK_3": 0.8051178495762712,
…
      0.06882765181574695,
      0.030576436563025614,
      0.02553761028375413,
      0.023097310547471273,
      0.02152279289032861,
      0.020438262220804335,
      0.019592968743485338,
      0.01891204817273585,
      0.018359086880958737,
      0.01784543495137506
    ],
    "loss_vector": [
      0.034720189143287936,
      0.027486290687979278,
      0.02471340583416365,
      0.023389132724980177,
      0.022519637720059542,
      0.022185163130447015,
      0.02171095245975559,
      0.02155931012989101,
      0.02157978650371907,
      0.02158457454357107
    ],
    "model": "Model(\n  (embedding): Embedding(400000, 100)\n  (conv1): Conv2d(1, 200, kernel_size=(1, 100), stride=(1, 1))\n  (bn1): BatchNorm2d(200, eps=1e-05, momentum=0.1, affine=True, track_running_stats=True)\n  (conv2): Conv2d(1, 200, kernel_size=(3, 100), stride=(1, 1))\n  (bn2): BatchNorm2d(200, eps=1e-05, momentum=0.1, affine=True, track_running_stats=True)\n  (conv3): Conv2d(1, 200, kernel_size=(5, 100), stride=(1, 1))\n  (bn3): BatchNorm2d(200, eps=1e-05, momentum=0.1, affine=True, track_running_stats=True)\n  (fc1): Linear(in_features=600, out_features=50, bias=True)\n  (fc2): Linear(in_features=50, out_features=126, bias=True)\n  (dropout): Dropout(p=0.0)\n)",
    "train_start": "2018-12-09 20:57:39.490803",
    "train_finish": "2018-12-09 21:04:22.555931",
    "f1_scores": {
      "f1_score_2": 0.7041337370419788,
      "f1_score_3": 0.7961262206440157,
      "f1_score_4": 0.75003011462088
    },
    "pAtK_scores": {
      "pAtK_1": 0.9581236758474576,
      "pAtK_3": 0.81640625,
…
      0.07395505003871457,
      0.03332282744517702,
      0.02809555491740043,
      0.025453891926772002,
      0.023797889061597313,
      0.02262755215125586,
      0.02175914163593436,
      0.021066109630397647,
      0.020524295976480905,
      0.020034238374465104
    ],
    "loss_vector": [
      0.03766432477129718,
      0.029985829998376005,
      0.02727094119004274,
      0.025593322654396802,
      0.0243998537061073,
      0.023878972472275717,
      0.023618195490059207,
      0.023420163225066865,
      0.023042414684669447,
      0.022969574367595932
    ],
    "model": "Model(\n  (embedding): Embedding(400000, 50)\n  (conv1): Conv2d(1, 200, kernel_size=(1, 50), stride=(1, 1))\n  (bn1): BatchNorm2d(200, eps=1e-05, momentum=0.1, affine=True, track_running_stats=True)\n  (conv2): Conv2d(1, 200, kernel_size=(4, 50), stride=(1, 1))\n  (bn2): BatchNorm2d(200, eps=1e-05, momentum=0.1, affine=True, track_running_stats=True)\n  (conv3): Conv2d(1, 200, kernel_size=(7, 50), stride=(1, 1))\n  (bn3): BatchNorm2d(200, eps=1e-05, momentum=0.1, affine=True, track_running_stats=True)\n  (fc1): Linear(in_features=600, out_features=50, bias=True)\n  (fc2): Linear(in_features=50, out_features=126, bias=True)\n  (dropout): Dropout(p=0.0)\n)",
    "train_start": "2018-12-09 21:05:13.888363",
    "train_finish": "2018-12-09 21:11:16.361346",
    "f1_scores": {
      "f1_score_2": 0.6985014882479729,
      "f1_score_3": 0.7879590025018158,
      "f1_score_4": 0.7422281113036386
    },
    "pAtK_scores": {
      "pAtK_1": 0.9545815677966102,
      "pAtK_3": 0.8080309851694916,
…
      0.08042254752039457,
      0.036317851295450836,
      0.030142333821536693,
      0.027229101699290964,
      0.025527048368268492,
      0.024424445757066277,
      0.02352075866888325,
      0.022855302566340798,
      0.02232914168097828,
      0.02186430647502701
    ],
    "loss_vector": [
      0.04117391454213756,
      0.032236139368960415,
      0.028675609915438344,
      0.027003749668345612,
      0.025970029565742462,
      0.025418367836687526,
      0.02504153540200096,
      0.024743610740465632,
      0.024644742893465493,
      0.024426606688964164
    ],
    "model": "Model(\n  (embedding): Embedding(400000, 50)\n  (conv1): Conv2d(1, 200, kernel_size=(3, 50), stride=(1, 1))\n  (bn1): BatchNorm2d(200, eps=1e-05, momentum=0.1, affine=True, track_running_stats=True)\n  (conv2): Conv2d(1, 200, kernel_size=(4, 50), stride=(1, 1))\n  (bn2): BatchNorm2d(200, eps=1e-05, momentum=0.1, affine=True, track_running_stats=True)\n  (conv3): Conv2d(1, 200, kernel_size=(5, 50), stride=(1, 1))\n  (bn3): BatchNorm2d(200, eps=1e-05, momentum=0.1, affine=True, track_running_stats=True)\n  (fc1): Linear(in_features=600, out_features=50, bias=True)\n  (fc2): Linear(in_features=50, out_features=126, bias=True)\n  (dropout): Dropout(p=0.0)\n)",
    "train_start": "2018-12-09 21:09:56.583803",
    "train_finish": "2018-12-09 21:16:18.086464",
    "f1_scores": {
      "f1_score_2": 0.6936261931643231,
      "f1_score_3": 0.7824819089123826,
      "f1_score_4": 0.7372707814049165
    },
    "pAtK_scores": {
      "pAtK_1": 0.9528932733050848,
      "pAtK_3": 0.8024143714689266,
…
      0.05555825447221861,
      0.029053898521149406,
      0.024639586050353195,
      0.022556289846689018,
      0.021238280940921075,
      0.020327621908324718,
      0.019586377414880035,
      0.019035568547415664,
      0.01857993176005484,
      0.01817832358421818
    ],
    "loss_vector": [
      0.0328226283003213,
      0.026119139108617427,
      0.02405742884187375,
      0.022556787893428642,
      0.021657520100095515,
      0.021345294980426966,
      0.021119741975503453,
      0.02085710419499773,
      0.020698665862240024,
      0.020502344294751094
    ],
    "model": "Model(\n  (embedding): Embedding(400000, 50)\n  (conv1): Conv2d(1, 200, kernel_size=(1, 50), stride=(1, 1))\n  (bn1): BatchNorm2d(200, eps=1e-05, momentum=0.1, affine=True, track_running_stats=True)\n  (conv2): Conv2d(1, 200, kernel_size=(3, 50), stride=(1, 1))\n  (bn2): BatchNorm2d(200, eps=1e-05, momentum=0.1, affine=True, track_running_stats=True)\n  (conv3): Conv2d(1, 200, kernel_size=(5, 50), stride=(1, 1))\n  (bn3): BatchNorm2d(200, eps=1e-05, momentum=0.1, affine=True, track_running_stats=True)\n  (fc1): Linear(in_features=600, out_features=100, bias=True)\n  (fc2): Linear(in_features=100, out_features=126, bias=True)\n  (dropout): Dropout(p=0.0)\n)",
    "train_start": "2018-12-09 21:10:37.751082",
    "train_finish": "2018-12-09 21:16:24.235287",
    "f1_scores": {
      "f1_score_2": 0.7042363748332136,
      "f1_score_3": 0.7959648131708497,
      "f1_score_4": 0.7507065353360329
    },
    "pAtK_scores": {
      "pAtK_1": 0.9559388241525424,
      "pAtK_3": 0.8162407309322034,
…
      0.06987303720903804,
      0.03050149207408107,
      0.025372189312353306,
      0.022813952593327247,
      0.021225419224185103,
      0.02006583027824392,
      0.01917650521268089,
      0.01849376362707798,
      0.01784291906031361,
      0.017336018567293374
    ],
    "loss_vector": [
      0.03494435997079995,
      0.027350014833323028,
      0.024759848933603803,
      0.023349791512650958,
      0.022659901813682864,
      0.02203873027179201,
      0.021897143826393756,
      0.02163138275303073,
      0.0215740939128702,
      0.021558729900141894
    ],
    "model": "Model(\n  (embedding): Embedding(400000, 100)\n  (conv1): Conv2d(1, 200, kernel_size=(1, 100), stride=(1, 1))\n  (bn1): BatchNorm2d(200, eps=1e-05, momentum=0.1, affine=True, track_running_stats=True)\n  (conv2): Conv2d(1, 200, kernel_size=(4, 100), stride=(1, 1))\n  (bn2): BatchNorm2d(200, eps=1e-05, momentum=0.1, affine=True, track_running_stats=True)\n  (conv3): Conv2d(1, 200, kernel_size=(7, 100), stride=(1, 1))\n  (bn3): BatchNorm2d(200, eps=1e-05, momentum=0.1, affine=True, track_running_stats=True)\n  (fc1): Linear(in_features=600, out_features=50, bias=True)\n  (fc2): Linear(in_features=50, out_features=126, bias=True)\n  (dropout): Dropout(p=0.0)\n)",
    "train_start": "2018-12-09 21:16:46.649207",
    "train_finish": "2018-12-09 21:24:25.948282",
    "f1_scores": {
      "f1_score_2": 0.7056861336344041,
      "f1_score_3": 0.797611169397143,
      "f1_score_4": 0.750697269298839
    },
    "pAtK_scores": {
      "pAtK_1": 0.9579250529661016,
      "pAtK_3": 0.8179290254237288,
…
      0.05410182927743986,
      0.025946475978961932,
      0.022133139660140144,
      0.020252109814498865,
      0.01899729273944697,
      0.018093998786026657,
      0.017306399316062173,
      0.016702484017842408,
      0.016161752131324,
      0.015717886367095264
    ],
    "loss_vector": [
      0.02944943750813856,
      0.023620722278700036,
      0.02200230873994908,
      0.02081177101107472,
      0.020191313193763716,
      0.020060128216647495,
      0.01970460018048347,
      0.019907892681658268,
      0.01950099281335281,
      0.02012931737038544
    ],
    "model": "Model(\n  (embedding): Embedding(400000, 100)\n  (conv1): Conv2d(1, 200, kernel_size=(1, 100), stride=(1, 1))\n  (bn1): BatchNorm2d(200, eps=1e-05, momentum=0.1, affine=True, track_running_stats=True)\n  (conv2): Conv2d(1, 200, kernel_size=(3, 100), stride=(1, 1))\n  (bn2): BatchNorm2d(200, eps=1e-05, momentum=0.1, affine=True, track_running_stats=True)\n  (conv3): Conv2d(1, 200, kernel_size=(5, 100), stride=(1, 1))\n  (bn3): BatchNorm2d(200, eps=1e-05, momentum=0.1, affine=True, track_running_stats=True)\n  (fc1): Linear(in_features=600, out_features=100, bias=True)\n  (fc2): Linear(in_features=100, out_features=126, bias=True)\n  (dropout): Dropout(p=0.0)\n)",
    "train_start": "2018-12-09 21:21:35.332295",
    "train_finish": "2018-12-09 21:28:18.404508",
    "f1_scores": {
      "f1_score_2": 0.7065970440316125,
      "f1_score_3": 0.801592553735238,
      "f1_score_4": 0.755802855792663
    },
    "pAtK_scores": {
      "pAtK_1": 0.9575940148305084,
      "pAtK_3": 0.8220118290960452,
…
      0.06671423154337017,
      0.028208463104614948,
      0.0237659783061926,
      0.02151482818432619,
      0.020045445998688804,
      0.018996218804347785,
      0.01818030800111945,
      0.017449089571607408,
      0.016847607229025133,
      0.01636168705670612
    ],
    "loss_vector": [
      0.032103563422116184,
      0.02564640504197549,
      0.023257124569203893,
      0.02251745157448922,
      0.02204403186501083,
      0.021429374656182224,
      0.020961955473837206,
      0.020691805566518992,
      0.021128069388411812,
      0.02077598936098107
    ],
    "model": "Model(\n  (embedding): Embedding(400000, 100)\n  (conv1): Conv2d(1, 200, kernel_size=(3, 100), stride=(1, 1))\n  (bn1): BatchNorm2d(200, eps=1e-05, momentum=0.1, affine=True, track_running_stats=True)\n  (conv2): Conv2d(1, 200, kernel_size=(4, 100), stride=(1, 1))\n  (bn2): BatchNorm2d(200, eps=1e-05, momentum=0.1, affine=True, track_running_stats=True)\n  (conv3): Conv2d(1, 200, kernel_size=(5, 100), stride=(1, 1))\n  (bn3): BatchNorm2d(200, eps=1e-05, momentum=0.1, affine=True, track_running_stats=True)\n  (fc1): Linear(in_features=600, out_features=50, bias=True)\n  (fc2): Linear(in_features=50, out_features=126, bias=True)\n  (dropout): Dropout(p=0.0)\n)",
    "train_start": "2018-12-09 21:21:56.965723",
    "train_finish": "2018-12-09 21:29:38.231718",
    "f1_scores": {
      "f1_score_2": 0.7064559170686646,
      "f1_score_3": 0.7999999999999999,
      "f1_score_4": 0.7536809332752662
    },
    "pAtK_scores": {
      "pAtK_1": 0.957858845338983,
      "pAtK_3": 0.8203787076271186,
…
      0.061155290733422005,
      0.02975402470586196,
      0.025281518577567993,
      0.023077460193204245,
      0.021643056546601216,
      0.020646338794641974,
      0.019894716653273047,
      0.019213863862307293,
      0.018727281754677392,
      0.018314810321300487
    ],
    "loss_vector": [
      0.03358388461677705,
      0.02705950280493599,
      0.024448039894134313,
      0.02339418431333566,
      0.022562023852083644,
      0.02215087069672043,
      0.021717606207071725,
      0.02147883418316053,
      0.021291696545431168,
      0.02104930988497148
    ],
    "model": "Model(\n  (embedding): Embedding(400000, 50)\n  (conv1): Conv2d(1, 200, kernel_size=(1, 50), stride=(1, 1))\n  (bn1): BatchNorm2d(200, eps=1e-05, momentum=0.1, affine=True, track_running_stats=True)\n  (conv2): Conv2d(1, 200, kernel_size=(4, 50), stride=(1, 1))\n  (bn2): BatchNorm2d(200, eps=1e-05, momentum=0.1, affine=True, track_running_stats=True)\n  (conv3): Conv2d(1, 200, kernel_size=(7, 50), stride=(1, 1))\n  (bn3): BatchNorm2d(200, eps=1e-05, momentum=0.1, affine=True, track_running_stats=True)\n  (fc1): Linear(in_features=600, out_features=100, bias=True)\n  (fc2): Linear(in_features=100, out_features=126, bias=True)\n  (dropout): Dropout(p=0.0)\n)",
    "train_start": "2018-12-09 21:31:29.073395",
    "train_finish": "2018-12-09 21:37:30.750639",
    "f1_scores": {
      "f1_score_2": 0.7032869752642923,
      "f1_score_3": 0.7957496032066285,
      "f1_score_4": 0.7500115825464923
    },
    "pAtK_scores": {
      "pAtK_1": 0.956005031779661,
      "pAtK_3": 0.816020038841808,
…
      0.18379205577004792,
      0.07306051758989211,
      0.06708461415213471,
      0.06418809337820681,
      0.06266008869548677,
      0.061583119280198044,
      0.060793545881756346,
      0.06002494103966221,
      0.05928976740511364,
      0.05858068166749527
    ],
    "loss_vector": [
      0.07737634242591211,
      0.0692820206158242,
      0.06507075925247144,
      0.06323683653342521,
      0.06219099695652218,
      0.0613604458206791,
      0.060872982808593976,
      0.06011305452655938,
      0.059666894565699465,
      0.058977831723326345
    ],
    "model": "Model(\n  (embedding): Embedding(400000, 50)\n  (conv1): Conv2d(1, 300, kernel_size=(1, 50), stride=(1, 1))\n  (bn1): BatchNorm2d(300, eps=1e-05, momentum=0.1, affine=True, track_running_stats=True)\n  (conv2): Conv2d(1, 300, kernel_size=(3, 50), stride=(1, 1))\n  (bn2): BatchNorm2d(300, eps=1e-05, momentum=0.1, affine=True, track_running_stats=True)\n  (conv3): Conv2d(1, 300, kernel_size=(5, 50), stride=(1, 1))\n  (bn3): BatchNorm2d(300, eps=1e-05, momentum=0.1, affine=True, track_running_stats=True)\n  (fc1): Linear(in_features=900, out_features=10, bias=True)\n  (fc2): Linear(in_features=10, o…
g_stats=True)\n  (fc1): Linear(in_features=900, out_features=30, bias=True)\n  (fc2): Linear(in_features=30, out_features=126, bias=True)\n  (dropout): Dropout(p=0.5)\n)",
    "train_start": "2018-12-10 12:57:34.627097",
    "train_finish": "2018-12-10 13:05:38.598144",
    "f1_scores": {
      "f1_score_2": 0.46610386944472953,
      "f1_score_3": 0.46054932343367494,
      "f1_score_4": 0.4519324320567823
    },
    "pAtK_scores": {
      "pAtK_1": 0.7551972987288136,
      "pAtK_3": 0.4722810734463277,
…
      0.3288658539812298,
      0.19544499411302454,
      0.16734388648785042,
      0.14464090894589615,
      0.12714342689548092,
      0.11418406535258104,
      0.10462497005087149,
      0.09772065218248223,
      0.09261210897559233,
      0.08877423421198774
    ],
    "loss_vector": [
      0.08769011358588429,
      0.08511026771896976,
      0.08399445386761326,
      0.08251629252049883,
      0.0795688481401589,
      0.07824202980530465,
      0.07711654737339181,
      0.0763006086571742,
      0.07618601418147652,
      0.07561252543986854
    ],
    "model": "Model(\n  (embedding): Embedding(400000, 100)\n  (conv1): Conv2d(1, 200, kernel_size=(3, 100), stride=(1, 1))\n  (bn1): BatchNorm2d(200, eps=1e-05, momentum=0.1, affine=True, track_running_stats=True)\n  (conv2): Conv2d(1, 200, kernel_size=(4, 100), stride=(1, 1))\n  (bn2): BatchNorm2d(200, eps=1e-05, momentum=0.1, affine=True, track_running_stats=True)\n  (conv3): Conv2d(1, 200, kernel_size=(5, 100), stride=(1, 1))\n  (bn3): BatchNorm2d(200, eps=1e-05, momentum=0.1, affine=True, track_running_stats=True)\n  (fc1): Linear(in_features=600, out_features=10, bias=True)\n  (fc2): Linear(in_features=10, out_features=126, bias=True)\n  (dropout): Dropout(p=0.5)\n)",
    "train_start": "2018-12-10 12:59:54.714719",
    "train_finish": "2018-12-10 13:07:42.347112",
    "f1_scores": {
      "f1_score_2": 0.4004926613979268,
      "f1_score_3": 0.41175046404648535,
      "f1_score_4": 0.4188156151258791
    },
    "pAtK_scores": {
      "pAtK_1": 0.5264499470338984,
      "pAtK_3": 0.4222391419491525,
…
      0.15254214350876366,
      0.08338487009735215,
      0.07833777833199818,
      0.07461483045649031,
      0.07175641314637277,
      0.06933348497245072,
      0.06680844222995995,
      0.06459199010873429,
      0.0628848115593704,
      0.061192865630141695
    ],
    "loss_vector": [
      0.06434345030683582,
      0.05678150613429183,
      0.054597847668801325,
      0.0523060101194907,
      0.0511980503166126,
      0.04951648988713652,
      0.04860887739617946,
      0.047796260060395224,
      0.046935977130118066,
      0.04634586058683315
    ],
    "model": "Model(\n  (embedding): Embedding(400000, 100)\n  (conv1): Conv2d(1, 200, kernel_size=(1, 100), stride=(1, 1))\n  (bn1): BatchNorm2d(200, eps=1e-05, momentum=0.1, affine=True, track_running_stats=True)\n  (conv2): Conv2d(1, 200, kernel_size=(4, 100), stride=(1, 1))\n  (bn2): BatchNorm2d(200, eps=1e-05, momentum=0.1, affine=True, track_running_stats=True)\n  (conv3): Conv2d(1, 200, kernel_size=(7, 100), stride=(1, 1))\n  (bn3): BatchNorm2d(200, eps=1e-05, momentum=0.1, affine=True, track_running_stats=True)\n  (fc1): Linear(in_features=600, out_features=30, bias=True)\n  (fc2): Linear(in_features=30, out_features=126, bias=True)\n  (dropout): Dropout(p=0.5)\n)",
    "train_start": "2018-12-10 13:02:03.208727",
    "train_finish": "2018-12-10 13:09:41.740170",
    "f1_scores": {
      "f1_score_2": 0.5998794005952992,
      "f1_score_3": 0.6326527318214834,
      "f1_score_4": 0.6187488996580833
    },
    "pAtK_scores": {
      "pAtK_1": 0.9296543961864406,
      "pAtK_3": 0.6487685381355932,
…
      0.14353485346066658,
      0.07648629501490257,
      0.07120788972506713,
      0.06838902307981784,
      0.0658479554603403,
      0.06383987734592617,
      0.061960312161432045,
      0.06041785285046476,
      0.059180949498286055,
      0.05770903032633566
    ],
    "loss_vector": [
      0.059880060475256486,
      0.05254659195572643,
      0.04945922384070138,
      0.047623077691611594,
      0.04695275691101106,
      0.0460430999933663,
      0.04530282280707763,
      0.044304755090151804,
      0.04414728656411171,
      0.04356327002583924
    ],
    "model": "Model(\n  (embedding): Embedding(400000, 50)\n  (conv1): Conv2d(1, 200, kernel_size=(3, 50), stride=(1, 1))\n  (bn1): BatchNorm2d(200, eps=1e-05, momentum=0.1, affine=True, track_running_stats=True)\n  (conv2): Conv2d(1, 200, kernel_size=(4, 50), stride=(1, 1))\n  (bn2): BatchNorm2d(200, eps=1e-05, momentum=0.1, affine=True, track_running_stats=True)\n  (conv3): Conv2d(1, 200, kernel_size=(5, 50), stride=(1, 1))\n  (bn3): BatchNorm2d(200, eps=1e-05, momentum=0.1, affine=True, track_running_stats=True)\n  (fc1): Linear(in_features=600, out_features=30, bias=True)\n  (fc2): Linear(in_features=30, out_features=126, bias=True)\n  (dropout): Dropout(p=0.5)\n)",
    "train_start": "2018-12-10 13:14:49.601066",
    "train_finish": "2018-12-10 13:21:07.959848",
    "f1_scores": {
      "f1_score_2": 0.6125423380888844,
      "f1_score_3": 0.665762784816937,
      "f1_score_4": 0.639755005976594
    },
    "pAtK_scores": {
      "pAtK_1": 0.9303826800847458,
      "pAtK_3": 0.6827220162429378,
…
      0.11511431490221331,
      0.06176367162442298,
      0.05706539482896197,
      0.05490175362471385,
      0.053223709637684434,
      0.05196347426927067,
      0.05077270800830969,
      0.04974388807616152,
      0.048819168179209366,
      0.04790436883635494
    ],
    "loss_vector": [
      0.050507839958546526,
      0.04376047091968989,
      0.041634729795031626,
      0.039776568885071806,
      0.039527634127160254,
      0.03821516450557668,
      0.037502977586651255,
      0.03696665050998583,
      0.036703785502557026,
      0.03634392965774415
    ],
    "model": "Model(\n  (embedding): Embedding(400000, 50)\n  (conv1): Conv2d(1, 200, kernel_size=(1, 50), stride=(1, 1))\n  (bn1): BatchNorm2d(200, eps=1e-05, momentum=0.1, affine=True, track_running_stats=True)\n  (conv2): Conv2d(1, 200, kernel_size=(4, 50), stride=(1, 1))\n  (bn2): BatchNorm2d(200, eps=1e-05, momentum=0.1, affine=True, track_running_stats=True)\n  (conv3): Conv2d(1, 200, kernel_size=(7, 50), stride=(1, 1))\n  (bn3): BatchNorm2d(200, eps=1e-05, momentum=0.1, affine=True, track_running_stats=True)\n  (fc1): Linear(in_features=600, out_features=50, bias=True)\n  (fc2): Linear(in_features=50, out_features=126, bias=True)\n  (dropout): Dropout(p=0.5)\n)",
    "train_start": "2018-12-10 13:16:46.915670",
    "train_finish": "2018-12-10 13:22:51.404640",
    "f1_scores": {
      "f1_score_2": 0.6420891922405831,
      "f1_score_3": 0.7039517929680144,
      "f1_score_4": 0.6746509020487208
    },
    "pAtK_scores": {
      "pAtK_1": 0.9423662605932204,
      "pAtK_3": 0.7218838276836158,
…
      0.16058378491331549,
      0.08883152200895197,
      0.08346870820085736,
      0.0794713371477498,
      0.07601428819392618,
      0.07308257953661443,
      0.07031549371255869,
      0.06779453696319003,
      0.06569229497572503,
      0.06380312471337744
    ],
    "loss_vector": [
      0.06810706411882983,
      0.06023681921474004,
      0.05782019555316133,
      0.05530561159475375,
      0.05374971865597418,
      0.05166873897788888,
      0.05068985183360213,
      0.04963802186361814,
      0.04898918331679651,
      0.04841008832899191
    ],
    "model": "Model(\n  (embedding): Embedding(400000, 100)\n  (conv1): Conv2d(1, 300, kernel_size=(1, 100), stride=(1, 1))\n  (bn1): BatchNorm2d(300, eps=1e-05, momentum=0.1, affine=True, track_running_stats=True)\n  (conv2): Conv2d(1, 300, kernel_size=(3, 100), stride=(1, 1))\n  (bn2): BatchNorm2d(300, eps=1e-05, momentum=0.1, affine=True, track_running_stats=True)\n  (conv3): Conv2d(1, 300, kernel_size=(5, 100), stride=(1, 1))\n  (bn3): BatchNorm2d(300, eps=1e-05, momentum=0.1, affine=True, track_running_stats=True)\n  (fc1): Linear(in_features=900, out_features=30, bias=True)\n  (fc2): Linear(in_features=30, out_features=126, bias=True)\n  (dropout): Dropout(p=0.5)\n)",
    "train_start": "2018-12-10 13:12:50.532155",
    "train_finish": "2018-12-10 13:22:55.470981",
    "f1_scores": {
      "f1_score_2": 0.589731088986965,
      "f1_score_3": 0.6211282382374304,
      "f1_score_4": 0.5976686650420214
    },
    "pAtK_scores": {
      "pAtK_1": 0.9302502648305084,
      "pAtK_3": 0.6369504766949152,
…
      0.15306039418905013,
      0.07915607631998225,
      0.07359482832889176,
      0.0705157860873207,
      0.06788719892925962,
      0.065605216647235,
      0.0637036788876414,
      0.06193690643110357,
      0.060449081534905046,
      0.05907230643269233
    ],
    "loss_vector": [
      0.0602045677349729,
      0.05397919098199424,
      0.05094576519677194,
      0.049191891199956504,
      0.04760914794721846,
      0.046778889404515085,
      0.046432551817368654,
      0.045377928763628006,
      0.044985103847111685,
      0.04415725689318221
    ],
    "model": "Model(\n  (embedding): Embedding(400000, 100)\n  (conv1): Conv2d(1, 200, kernel_size=(3, 100), stride=(1, 1))\n  (bn1): BatchNorm2d(200, eps=1e-05, momentum=0.1, affine=True, track_running_stats=True)\n  (conv2): Conv2d(1, 200, kernel_size=(4, 100), stride=(1, 1))\n  (bn2): BatchNorm2d(200, eps=1e-05, momentum=0.1, affine=True, track_running_stats=True)\n  (conv3): Conv2d(1, 200, kernel_size=(5, 100), stride=(1, 1))\n  (bn3): BatchNorm2d(200, eps=1e-05, momentum=0.1, affine=True, track_running_stats=True)\n  (fc1): Linear(in_features=600, out_features=30, bias=True)\n  (fc2): Linear(in_features=30, out_features=126, bias=True)\n  (dropout): Dropout(p=0.5)\n)",
    "train_start": "2018-12-10 13:26:53.182918",
    "train_finish": "2018-12-10 13:34:38.985736",
    "f1_scores": {
      "f1_score_2": 0.6086677614697732,
      "f1_score_3": 0.6570252602695504,
      "f1_score_4": 0.6313877743905263
    },
    "pAtK_scores": {
      "pAtK_1": 0.9416379766949152,
      "pAtK_3": 0.6737619173728814,
…
      0.12095001573184862,
      0.06541555438480522,
      0.06109650160205432,
      0.05865567750111929,
      0.05682623966736631,
      0.055182884191030346,
      0.05391005924293167,
      0.05275692895365847,
      0.051660417315799324,
      0.050702469900561466
    ],
    "loss_vector": [
      0.05148707172375614,
      0.044969862800533486,
      0.0425480170396425,
      0.04135885102263952,
      0.04033259289749598,
      0.040106326278488515,
      0.038618275832574246,
      0.038541619871127406,
      0.0381755472429223,
      0.03811516956883972
    ],
    "model": "Model(\n  (embedding): Embedding(400000, 100)\n  (conv1): Conv2d(1, 200, kernel_size=(1, 100), stride=(1, 1))\n  (bn1): BatchNorm2d(200, eps=1e-05, momentum=0.1, affine=True, track_running_stats=True)\n  (conv2): Conv2d(1, 200, kernel_size=(4, 100), stride=(1, 1))\n  (bn2): BatchNorm2d(200, eps=1e-05, momentum=0.1, affine=True, track_running_stats=True)\n  (conv3): Conv2d(1, 200, kernel_size=(7, 100), stride=(1, 1))\n  (bn3): BatchNorm2d(200, eps=1e-05, momentum=0.1, affine=True, track_running_stats=True)\n  (fc1): Linear(in_features=600, out_features=50, bias=True)\n  (fc2): Linear(in_features=50, out_features=126, bias=True)\n  (dropout): Dropout(p=0.5)\n)",
    "train_start": "2018-12-10 13:28:22.050586",
    "train_finish": "2018-12-10 13:36:00.472242",
    "f1_scores": {
      "f1_score_2": 0.634917376578056,
      "f1_score_3": 0.6949237349689291,
      "f1_score_4": 0.6686743080586726
    },
    "pAtK_scores": {
      "pAtK_1": 0.937698622881356,
      "pAtK_3": 0.7126257944915254,
…
      0.11795609356725917,
      0.0637115505462127,
      0.058857377349934493,
      0.05636249393564022,
      0.054634507448612174,
      0.05325660829837001,
      0.05213284511578603,
      0.0509314252809397,
      0.04997097270340576,
      0.04920588494534737
    ],
    "loss_vector": [
      0.05219273168151661,
      0.04480344006570719,
      0.042024764721676454,
      0.04061755613755372,
      0.039453695954407675,
      0.03882832698902841,
      0.03830510374726886,
      0.03789834880222708,
      0.037683395447872456,
      0.037243021020697334
    ],
    "model": "Model(\n  (embedding): Embedding(400000, 50)\n  (conv1): Conv2d(1, 300, kernel_size=(1, 50), stride=(1, 1))\n  (bn1): BatchNorm2d(300, eps=1e-05, momentum=0.1, affine=True, track_running_stats=True)\n  (conv2): Conv2d(1, 300, kernel_size=(3, 50), stride=(1, 1))\n  (bn2): BatchNorm2d(300, eps=1e-05, momentum=0.1, affine=True, track_running_stats=True)\n  (conv3): Conv2d(1, 300, kernel_size=(5, 50), stride=(1, 1))\n  (bn3): BatchNorm2d(300, eps=1e-05, momentum=0.1, affine=True, track_running_stats=True)\n  (fc1): Linear(in_features=900, out_features=50, bias=True)\n  (fc2): Linear(in_features=50, out_features=126, bias=True)\n  (dropout): Dropout(p=0.5)\n)",
    "train_start": "2018-12-10 13:32:10.533995",
    "train_finish": "2018-12-10 13:40:12.400511",
    "f1_scores": {
      "f1_score_2": 0.6408318792979575,
      "f1_score_3": 0.7017458908347456,
      "f1_score_4": 0.6707684324644879
    },
    "pAtK_scores": {
      "pAtK_1": 0.9378310381355932,
      "pAtK_3": 0.7196217337570622,
…
      0.12619922591454616,
      0.0709826513220056,
      0.06587015840965385,
      0.06285809213030497,
      0.06086913155536724,
      0.0589892771837268,
      0.05732048066788878,
      0.055964149400393924,
      0.05474111133836478,
      0.05376830991831179
    ],
    "loss_vector": [
      0.058331116149991244,
      0.04992170057306856,
      0.04665508859996068,
      0.04451707422228183,
      0.04338479970218772,
      0.04261897535899938,
      0.042073446120751104,
      0.041215417496228625,
      0.04065959534402621,
      0.040484306102587006
    ],
    "model": "Model(\n  (embedding): Embedding(400000, 50)\n  (conv1): Conv2d(1, 200, kernel_size=(3, 50), stride=(1, 1))\n  (bn1): BatchNorm2d(200, eps=1e-05, momentum=0.1, affine=True, track_running_stats=True)\n  (conv2): Conv2d(1, 200, kernel_size=(4, 50), stride=(1, 1))\n  (bn2): BatchNorm2d(200, eps=1e-05, momentum=0.1, affine=True, track_running_stats=True)\n  (conv3): Conv2d(1, 200, kernel_size=(5, 50), stride=(1, 1))\n  (bn3): BatchNorm2d(200, eps=1e-05, momentum=0.1, affine=True, track_running_stats=True)\n  (fc1): Linear(in_features=600, out_features=50, bias=True)\n  (fc2): Linear(in_features=50, out_features=126, bias=True)\n  (dropout): Dropout(p=0.5)\n)",
    "train_start": "2018-12-10 13:41:47.322064",
    "train_finish": "2018-12-10 13:48:05.530523",
    "f1_scores": {
      "f1_score_2": 0.627553115056964,
      "f1_score_3": 0.6842170392489172,
      "f1_score_4": 0.6560354333262294
    },
    "pAtK_scores": {
      "pAtK_1": 0.9390227754237288,
      "pAtK_3": 0.7016463629943502,
…
      0.07897605103718036,
      0.04334159248439592,
      0.03852898091699864,
      0.03624548217674021,
      0.03461054975849062,
      0.03356377944788512,
      0.03275139159408082,
      0.03210596931458538,
      0.031521428454193715,
      0.031058543596763084
    ],
    "loss_vector": [
      0.03920469123680713,
      0.031885547374012106,
      0.02937745302915573,
      0.02778635720201468,
      0.027286033603852077,
      0.026068736814846425,
      0.026031986605060304,
      0.02555313974745193,
      0.025138099504224326,
      0.025026990227022414
    ],
    "model": "Model(\n  (embedding): Embedding(400000, 50)\n  (conv1): Conv2d(1, 200, kernel_size=(1, 50), stride=(1, 1))\n  (bn1): BatchNorm2d(200, eps=1e-05, momentum=0.1, affine=True, track_running_stats=True)\n  (conv2): Conv2d(1, 200, kernel_size=(4, 50), stride=(1, 1))\n  (bn2): BatchNorm2d(200, eps=1e-05, momentum=0.1, affine=True, track_running_stats=True)\n  (conv3): Conv2d(1, 200, kernel_size=(7, 50), stride=(1, 1))\n  (bn3): BatchNorm2d(200, eps=1e-05, momentum=0.1, affine=True, track_running_stats=True)\n  (fc1): Linear(in_features=600, out_features=100, bias=True)\n  (fc2): Linear(in_features=100, out_features=126, bias=True)\n  (dropout): Dropout(p=0.5)\n)",
    "train_start": "2018-12-10 13:43:06.840391",
    "train_finish": "2018-12-10 13:49:13.322930",
    "f1_scores": {
      "f1_score_2": 0.6867238017037874,
      "f1_score_3": 0.7752078121217012,
      "f1_score_4": 0.7324246439525207
    },
    "pAtK_scores": {
      "pAtK_1": 0.9509401483050848,
      "pAtK_3": 0.7949549788135594,
…
      0.12226284180804946,
      0.06621897954359453,
      0.06146802357353793,
      0.05883342357780042,
      0.057019275431105944,
      0.05520481589396945,
      0.05383953165821378,
      0.05257612383399562,
      0.051540173088294054,
      0.05067125084391129
    ],
    "loss_vector": [
      0.05105943220146632,
      0.044715262065499514,
      0.04248645428126141,
      0.04213056940648515,
      0.04038559045579474,
      0.03961922941824137,
      0.038616921184426646,
      0.038095950227925335,
      0.03789073746588271,
      0.03766474424529884
    ],
    "model": "Model(\n  (embedding): Embedding(400000, 100)\n  (conv1): Conv2d(1, 300, kernel_size=(1, 100), stride=(1, 1))\n  (bn1): BatchNorm2d(300, eps=1e-05, momentum=0.1, affine=True, track_running_stats=True)\n  (conv2): Conv2d(1, 300, kernel_size=(3, 100), stride=(1, 1))\n  (bn2): BatchNorm2d(300, eps=1e-05, momentum=0.1, affine=True, track_running_stats=True)\n  (conv3): Conv2d(1, 300, kernel_size=(5, 100), stride=(1, 1))\n  (bn3): BatchNorm2d(300, eps=1e-05, momentum=0.1, affine=True, track_running_stats=True)\n  (fc1): Linear(in_features=900, out_features=50, bias=True)\n  (fc2): Linear(in_features=50, out_features=126, bias=True)\n  (dropout): Dropout(p=0.5)\n)",
    "train_start": "2018-12-10 13:47:27.716034",
    "train_finish": "2018-12-10 13:57:34.298245",
    "f1_scores": {
      "f1_score_2": 0.6351739710561429,
      "f1_score_3": 0.6971403976004088,
      "f1_score_4": 0.6721027418204057
    },
    "pAtK_scores": {
      "pAtK_1": 0.9471994173728814,
      "pAtK_3": 0.7148989230225988,
…
      0.1237959726740106,
      0.06537313125956895,
      0.06106795878123061,
      0.05860455130603327,
      0.05667958199355815,
      0.0551829525539952,
      0.05376253335734925,
      0.05270431219004589,
      0.051626082354241126,
      0.05081927053192083
    ],
    "loss_vector": [
      0.05130887056811381,
      0.0445266329383446,
      0.0425785775533167,
      0.04160069901559312,
      0.040039661450911375,
      0.03956459348989745,
      0.03928497629398006,
      0.03905047810936378,
      0.038555881545200184,
      0.03806934827717684
    ],
    "model": "Model(\n  (embedding): Embedding(400000, 100)\n  (conv1): Conv2d(1, 200, kernel_size=(3, 100), stride=(1, 1))\n  (bn1): BatchNorm2d(200, eps=1e-05, momentum=0.1, affine=True, track_running_stats=True)\n  (conv2): Conv2d(1, 200, kernel_size=(4, 100), stride=(1, 1))\n  (bn2): BatchNorm2d(200, eps=1e-05, momentum=0.1, affine=True, track_running_stats=True)\n  (conv3): Conv2d(1, 200, kernel_size=(5, 100), stride=(1, 1))\n  (bn3): BatchNorm2d(200, eps=1e-05, momentum=0.1, affine=True, track_running_stats=True)\n  (fc1): Linear(in_features=600, out_features=50, bias=True)\n  (fc2): Linear(in_features=50, out_features=126, bias=True)\n  (dropout): Dropout(p=0.5)\n)",
    "train_start": "2018-12-10 13:53:47.211024",
    "train_finish": "2018-12-10 14:01:29.232776",
    "f1_scores": {
      "f1_score_2": 0.6334676177768654,
      "f1_score_3": 0.6949882979581955,
      "f1_score_4": 0.66417101398245
    },
    "pAtK_scores": {
      "pAtK_1": 0.9438228283898306,
      "pAtK_3": 0.712692002118644,
…
      0.08312915776638877,
      0.04456107242764513,
      0.040043218064862364,
      0.03780815336832059,
      0.036333787338048276,
      0.03524054926546181,
      0.03449961669969265,
      0.03371081709423486,
      0.03310125786987835,
      0.032510518098154605
    ],
    "loss_vector": [
      0.03905340713464608,
      0.03228897528754453,
      0.029423395140191256,
      0.02830874667329303,
      0.02731317872086824,
      0.026206899686890134,
      0.02614968554195711,
      0.0261605565388829,
      0.025689284396121056,
      0.025833748596704613
    ],
    "model": "Model(\n  (embedding): Embedding(400000, 100)\n  (conv1): Conv2d(1, 200, kernel_size=(1, 100), stride=(1, 1))\n  (bn1): BatchNorm2d(200, eps=1e-05, momentum=0.1, affine=True, track_running_stats=True)\n  (conv2): Conv2d(1, 200, kernel_size=(4, 100), stride=(1, 1))\n  (bn2): BatchNorm2d(200, eps=1e-05, momentum=0.1, affine=True, track_running_stats=True)\n  (conv3): Conv2d(1, 200, kernel_size=(7, 100), stride=(1, 1))\n  (bn3): BatchNorm2d(200, eps=1e-05, momentum=0.1, affine=True, track_running_stats=True)\n  (fc1): Linear(in_features=600, out_features=100, bias=True)\n  (fc2): Linear(in_features=100, out_features=126, bias=True)\n  (dropout): Dropout(p=0.5)\n)",
    "train_start": "2018-12-10 13:54:45.136449",
    "train_finish": "2018-12-10 14:02:22.132753",
    "f1_scores": {
      "f1_score_2": 0.6882248794005954,
      "f1_score_3": 0.7771554622979044,
      "f1_score_4": 0.7337682193456325
    },
    "pAtK_scores": {
      "pAtK_1": 0.9538863877118644,
      "pAtK_3": 0.7969522422316384,
…
      0.08078436133587835,
      0.045229632690181314,
      0.04062350702947412,
      0.038426004583457844,
      0.03686622156986023,
      0.035876809377258595,
      0.034982100514380485,
      0.03430843757963836,
      0.03365135542426322,
      0.03319752206089261
    ],
    "loss_vector": [
      0.039327573662592194,
      0.032934389313903904,
      0.030350252764962487,
      0.028717109901925265,
      0.027863534135838686,
      0.027941448898133586,
      0.02748198226346808,
      0.026916100596219808,
      0.026495925703291165,
      0.026334631840808916
    ],
    "model": "Model(\n  (embedding): Embedding(400000, 50)\n  (conv1): Conv2d(1, 200, kernel_size=(3, 50), stride=(1, 1))\n  (bn1): BatchNorm2d(200, eps=1e-05, momentum=0.1, affine=True, track_running_stats=True)\n  (conv2): Conv2d(1, 200, kernel_size=(4, 50), stride=(1, 1))\n  (bn2): BatchNorm2d(200, eps=1e-05, momentum=0.1, affine=True, track_running_stats=True)\n  (conv3): Conv2d(1, 200, kernel_size=(5, 50), stride=(1, 1))\n  (bn3): BatchNorm2d(200, eps=1e-05, momentum=0.1, affine=True, track_running_stats=True)\n  (fc1): Linear(in_features=600, out_features=100, bias=True)\n  (fc2): Linear(in_features=100, out_features=126, bias=True)\n  (dropout): Dropout(p=0.5)\n)",
    "train_start": "2018-12-10 14:08:35.088151",
    "train_finish": "2018-12-10 14:14:52.074370",
    "f1_scores": {
      "f1_score_2": 0.6841450271990146,
      "f1_score_3": 0.7713770747585614,
      "f1_score_4": 0.7295985026083895
    },
    "pAtK_scores": {
      "pAtK_1": 0.9517346398305084,
      "pAtK_3": 0.7910266596045198,
…
      0.0835334269481886,
      0.046308475686148855,
      0.041748320305652814,
      0.039555208867087084,
      0.0381316344591257,
      0.037008732472470406,
      0.036117865228619025,
      0.035462173677457805,
      0.03485229015138276,
      0.034264241583800856
    ],
    "loss_vector": [
      0.0403563142201658,
      0.03368828445672989,
      0.031277190799177707,
      0.02977106745465327,
      0.02919878526511839,
      0.028611971191683058,
      0.027595606837737357,
      0.027267968913508675,
      0.02667701995726359,
      0.026636419691524263
    ],
    "model": "Model(\n  (embedding): Embedding(400000, 50)\n  (conv1): Conv2d(1, 300, kernel_size=(1, 50), stride=(1, 1))\n  (bn1): BatchNorm2d(300, eps=1e-05, momentum=0.1, affine=True, track_running_stats=True)\n  (conv2): Conv2d(1, 300, kernel_size=(3, 50), stride=(1, 1))\n  (bn2): BatchNorm2d(300, eps=1e-05, momentum=0.1, affine=True, track_running_stats=True)\n  (conv3): Conv2d(1, 300, kernel_size=(5, 50), stride=(1, 1))\n  (bn3): BatchNorm2d(300, eps=1e-05, momentum=0.1, affine=True, track_running_stats=True)\n  (fc1): Linear(in_features=900, out_features=100, bias=True)\n  (fc2): Linear(in_features=100, out_features=126, bias=True)\n  (dropout): Dropout(p=0.5)\n)",
    "train_start": "2018-12-10 14:06:48.476252",
    "train_finish": "2018-12-10 14:14:53.993607",
    "f1_scores": {
      "f1_score_2": 0.6814251257312943,
      "f1_score_3": 0.7687945551879052,
      "f1_score_4": 0.7273283234958906
    },
    "pAtK_scores": {
      "pAtK_1": 0.9513373940677966,
      "pAtK_3": 0.788378354519774,
…
      0.4120334328012629,
      0.26945355851238545,
      0.21536990134946762,
      0.17770203424925143,
      0.15009081363677979,
      0.13099769313432685,
      0.11736921271913645,
      0.10758272548554292,
      0.10050361037989496,
      0.09535634828699607
    ],
    "loss_vector": [
      0.1173930968773567,
      0.10754806144257724,
      0.10049853410761235,
      0.09467214042857541,
      0.09045648233870328,
      0.08612717675455546,
      0.08365693284293353,
      0.08247469845464674,
      0.08077933235188663,
      0.0792333008879322
    ],
    "model": "Model(\n  (embedding): Embedding(400000, 50)\n  (conv1): Conv2d(1, 300, kernel_size=(1, 50), stride=(1, 1))\n  (bn1): BatchNorm2d(300, eps=1e-05, momentum=0.1, affine=True, track_running_stats=True)\n  (conv2): Conv2d(1, 300, kernel_size=(4, 50), stride=(1, 1))\n  (bn2): BatchNorm2d(300, eps=1e-05, momentum=0.1, affine=True, track_running_stats=True)\n  (conv3): Conv2d(1, 300, kernel_size=(7, 50), stride=(1, 1))\n  (bn3): BatchNorm2d(300, eps=1e-05, momentum=0.1, affine=True, track_running_stats=True)\n  (fc1): Linear(in_features=900, out_features=10, bias=True)\n  (fc2): Linear(in_features=10, out_features=126, bias=True)\n  (dropout): Dropout(p=0.5)\n)",
    "train_start": "2018-12-10 14:09:25.979568",
    "train_finish": "2018-12-10 14:17:56.895106",
    "f1_scores": {
      "f1_score_2": 0.3883044236888022,
      "f1_score_3": 0.4051757996395233,
      "f1_score_4": 0.39778171069578677
    },
    "pAtK_scores": {
      "pAtK_1": 0.4564684851694915,
      "pAtK_3": 0.4154969985875706,
…
      0.07526521167701969,
      0.040278457642393274,
      0.03567055169231412,
      0.03350654380145064,
      0.03207281622788259,
      0.03105322739897575,
      0.030271329749128172,
      0.029565639012763576,
      0.029024611409237535,
      0.028450751086905514
    ],
    "loss_vector": [
      0.03543154219702139,
      0.029076117232947025,
      0.026622013078402666,
      0.02567752425448369,
      0.02497985154011492,
      0.02391652235666574,
      0.023768333623469886,
      0.023854740342851413,
      0.023258957822444075,
      0.023251565899384225
    ],
    "model": "Model(\n  (embedding): Embedding(400000, 100)\n  (conv1): Conv2d(1, 200, kernel_size=(3, 100), stride=(1, 1))\n  (bn1): BatchNorm2d(200, eps=1e-05, momentum=0.1, affine=True, track_running_stats=True)\n  (conv2): Conv2d(1, 200, kernel_size=(4, 100), stride=(1, 1))\n  (bn2): BatchNorm2d(200, eps=1e-05, momentum=0.1, affine=True, track_running_stats=True)\n  (conv3): Conv2d(1, 200, kernel_size=(5, 100), stride=(1, 1))\n  (bn3): BatchNorm2d(200, eps=1e-05, momentum=0.1, affine=True, track_running_stats=True)\n  (fc1): Linear(in_features=600, out_features=100, bias=True)\n  (fc2): Linear(in_features=100, out_features=126, bias=True)\n  (dropout): Dropout(p=0.5)\n)",
    "train_start": "2018-12-10 14:20:31.421076",
    "train_finish": "2018-12-10 14:28:17.789110",
    "f1_scores": {
      "f1_score_2": 0.6960125218105306,
      "f1_score_3": 0.7875931455626395,
      "f1_score_4": 0.7436180168827199
    },
    "pAtK_scores": {
      "pAtK_1": 0.9555746822033898,
      "pAtK_3": 0.8076558086158192,
…
      0.08083368448339105,
      0.043549360562490556,
      0.03903615658491341,
      0.036806111148005416,
      0.03540233332854634,
      0.03423595428113354,
      0.03342233458268801,
      0.032687810527079475,
      0.03206748387421105,
      0.031478171203235976
    ],
    "loss_vector": [
      0.03765563837299913,
      0.031168928054177154,
      0.028282202906527762,
      0.027006637715434625,
      0.026586984899842132,
      0.025565549825965348,
      0.02557920383573589,
      0.025187839706570417,
      0.02509324956622164,
      0.024920352624129442
    ],
    "model": "Model(\n  (embedding): Embedding(400000, 100)\n  (conv1): Conv2d(1, 300, kernel_size=(1, 100), stride=(1, 1))\n  (bn1): BatchNorm2d(300, eps=1e-05, momentum=0.1, affine=True, track_running_stats=True)\n  (conv2): Conv2d(1, 300, kernel_size=(3, 100), stride=(1, 1))\n  (bn2): BatchNorm2d(300, eps=1e-05, momentum=0.1, affine=True, track_running_stats=True)\n  (conv3): Conv2d(1, 300, kernel_size=(5, 100), stride=(1, 1))\n  (bn3): BatchNorm2d(300, eps=1e-05, momentum=0.1, affine=True, track_running_stats=True)\n  (fc1): Linear(in_features=900, out_features=100, bias=True)\n  (fc2): Linear(in_features=100, out_features=126, bias=True)\n  (dropout): Dropout(p=0.5)\n)",
    "train_start": "2018-12-10 14:22:05.696765",
    "train_finish": "2018-12-10 14:32:10.588896",
    "f1_scores": {
      "f1_score_2": 0.6902519757774813,
      "f1_score_3": 0.7797917843596159,
      "f1_score_4": 0.7361866550532333
    },
    "pAtK_scores": {
      "pAtK_1": 0.9537208686440678,
      "pAtK_3": 0.799655720338983,
…
      0.325603423099364,
      0.19354823760447964,
      0.16609011808201757,
      0.14391425227926624,
      0.1267668630581427,
      0.11389391572414359,
      0.10467314851634643,
      0.09760200254887738,
      0.09231552330377658,
      0.08858257093850304
    ],
    "loss_vector": [
      0.08667254889920606,
      0.0853516810526282,
      0.08346748377306987,
      0.08252966138771024,
      0.0798433267716634,
      0.07870477816816103,
      0.07763707827208406,
      0.07653975512011577,
      0.07590606240397793,
      0.07515592645790617
    ],
    "model": "Model(\n  (embedding): Embedding(400000, 100)\n  (conv1): Conv2d(1, 300, kernel_size=(1, 100), stride=(1, 1))\n  (bn1): BatchNorm2d(300, eps=1e-05, momentum=0.1, affine=True, track_running_stats=True)\n  (conv2): Conv2d(1, 300, kernel_size=(4, 100), stride=(1, 1))\n  (bn2): BatchNorm2d(300, eps=1e-05, momentum=0.1, affine=True, track_running_stats=True)\n  (conv3): Conv2d(1, 300, kernel_size=(7, 100), stride=(1, 1))\n  (bn3): BatchNorm2d(300, eps=1e-05, momentum=0.1, affine=True, track_running_stats=True)\n  (fc1): Linear(in_features=900, out_features=10, bias=True)\n  (fc2): Linear(in_features=10, out_features=126, bias=True)\n  (dropout): Dropout(p=0.5)\n)",
    "train_start": "2018-12-10 14:25:34.497913",
    "train_finish": "2018-12-10 14:36:44.659063",
    "f1_scores": {
      "f1_score_2": 0.3878553833521503,
      "f1_score_3": 0.4129664003443359,
      "f1_score_4": 0.42163249043281653
    },
    "pAtK_scores": {
      "pAtK_1": 0.5025489936440678,
      "pAtK_3": 0.423486052259887,
…
      0.5912892234280168,
      0.42444915919647724,
      0.31661016772548883,
      0.24615817439284676,
      0.19914646087606672,
      0.16704719212521185,
      0.14466749711326224,
      0.12878973533238586,
      0.11736741953262568,
      0.10906134241842003
    ],
    "loss_vector": [
      0.49563793661230704,
      0.3626508869357028,
      0.2764286388785152,
      0.219495373509698,
      0.18102460720781552,
      0.15444420606403028,
      0.1357246705536115,
      0.1223322233911288,
      0.11263435498132544,
      0.10554284930734312
    ],
    "model": "Model(\n  (embedding): Embedding(400000, 50)\n  (conv1): Conv2d(1, 300, kernel_size=(3, 50), stride=(1, 1))\n  (bn1): BatchNorm2d(300, eps=1e-05, momentum=0.1, affine=True, track_running_stats=True)\n  (conv2): Conv2d(1, 300, kernel_size=(4, 50), stride=(1, 1))\n  (bn2): BatchNorm2d(300, eps=1e-05, momentum=0.1, affine=True, track_running_stats=True)\n  (conv3): Conv2d(1, 300, kernel_size=(5, 50), stride=(1, 1))\n  (bn3): BatchNorm2d(300, eps=1e-05, momentum=0.1, affine=True, track_running_stats=True)\n  (fc1): Linear(in_features=900, out_features=10, bias=True)\n  (fc2): Linear(in_features=10, out_features=126, bias=True)\n  (dropout): Dropout(p=0.5)\n)",
    "train_start": "2018-12-10 14:35:21.328099",
    "train_finish": "2018-12-10 14:44:00.991006",
    "f1_scores": {
      "f1_score_2": 0.2810479318485066,
      "f1_score_3": 0.32513921394560563,
      "f1_score_4": 0.3355510049017336
    },
    "pAtK_scores": {
      "pAtK_1": 0.4564684851694915,
      "pAtK_3": 0.3334216101694915,
…
      0.18885151535781555,
      0.11297209140980718,
      0.10633196577118742,
      0.0993493116784141,
      0.09368567632429967,
      0.08857037286774257,
      0.08437277288997874,
      0.08085471234749118,
      0.07782187237911478,
      0.07487557675738941
    ],
    "loss_vector": [
      0.08554201004868847,
      0.08233845600132216,
      0.07533855370040667,
      0.07128703954108691,
      0.06819908055713621,
      0.06639572365556733,
      0.0646466706895222,
      0.06245123588685262,
      0.059929244725380915,
      0.05835337185506093
    ],
    "model": "Model(\n  (embedding): Embedding(400000, 50)\n  (conv1): Conv2d(1, 300, kernel_size=(1, 50), stride=(1, 1))\n  (bn1): BatchNorm2d(300, eps=1e-05, momentum=0.1, affine=True, track_running_stats=True)\n  (conv2): Conv2d(1, 300, kernel_size=(4, 50), stride=(1, 1))\n  (bn2): BatchNorm2d(300, eps=1e-05, momentum=0.1, affine=True, track_running_stats=True)\n  (conv3): Conv2d(1, 300, kernel_size=(7, 50), stride=(1, 1))\n  (bn3): BatchNorm2d(300, eps=1e-05, momentum=0.1, affine=True, track_running_stats=True)\n  (fc1): Linear(in_features=900, out_features=30, bias=True)\n  (fc2): Linear(in_features=30, out_features=126, bias=True)\n  (dropout): Dropout(p=0.5)\n)",
    "train_start": "2018-12-10 14:46:58.764817",
    "train_finish": "2018-12-10 14:55:23.828565",
    "f1_scores": {
      "f1_score_2": 0.5016806938314688,
      "f1_score_3": 0.5261237995319182,
      "f1_score_4": 0.5190926696379758
    },
    "pAtK_scores": {
      "pAtK_1": 0.8719875529661016,
      "pAtK_3": 0.5395259533898306,
…
      0.4166743940262007,
      0.26950064572935084,
      0.215422395708665,
      0.1777058678627919,
      0.1503711749129775,
      0.13109006293019035,
      0.11715156555288883,
      0.10733766045131539,
      0.1004834653247692,
      0.09527300619140296
    ],
    "loss_vector": [
      0.11856388389053991,
      0.1068715027580827,
      0.09928743730662233,
      0.09354919498249636,
      0.08973991630946175,
      0.08473020413164366,
      0.08403604161941398,
      0.08095893566891299,
      0.07919625041343398,
      0.07902468690427683
    ],
    "model": "Model(\n  (embedding): Embedding(400000, 100)\n  (conv1): Conv2d(1, 300, kernel_size=(3, 100), stride=(1, 1))\n  (bn1): BatchNorm2d(300, eps=1e-05, momentum=0.1, affine=True, track_running_stats=True)\n  (conv2): Conv2d(1, 300, kernel_size=(4, 100), stride=(1, 1))\n  (bn2): BatchNorm2d(300, eps=1e-05, momentum=0.1, affine=True, track_running_stats=True)\n  (conv3): Conv2d(1, 300, kernel_size=(5, 100), stride=(1, 1))\n  (bn3): BatchNorm2d(300, eps=1e-05, momentum=0.1, affine=True, track_running_stats=True)\n  (fc1): Linear(in_features=900, out_features=10, bias=True)\n  (fc2): Linear(in_features=10, out_features=126, bias=True)\n  (dropout): Dropout(p=0.5)\n)",
    "train_start": "2018-12-10 14:51:29.832634",
    "train_finish": "2018-12-10 15:02:42.081777",
    "f1_scores": {
      "f1_score_2": 0.37891306579082423,
      "f1_score_3": 0.4092109864686735,
      "f1_score_4": 0.40079317278379556
    },
    "pAtK_scores": {
      "pAtK_1": 0.4564684851694915,
      "pAtK_3": 0.4196349752824859,
…
      0.2079104098864253,
      0.12530207769694318,
      0.11681437492370605,
      0.10759430298090433,
      0.09972283464681492,
      0.09316875423663482,
      0.08803057332701655,
      0.08389650881855945,
      0.08050454468722587,
      0.07798690819649814
    ],
    "loss_vector": [
      0.08454704259411763,
      0.08137726670099517,
      0.07694131931511022,
      0.07315293825783972,
      0.07060150315953513,
      0.06876386531581313,
      0.06745669567736529,
      0.06611460851410687,
      0.06494913067100412,
      0.06345863798159664
    ],
    "model": "Model(\n  (embedding): Embedding(400000, 100)\n  (conv1): Conv2d(1, 300, kernel_size=(1, 100), stride=(1, 1))\n  (bn1): BatchNorm2d(300, eps=1e-05, momentum=0.1, affine=True, track_running_stats=True)\n  (conv2): Conv2d(1, 300, kernel_size=(4, 100), stride=(1, 1))\n  (bn2): BatchNorm2d(300, eps=1e-05, momentum=0.1, affine=True, track_running_stats=True)\n  (conv3): Conv2d(1, 300, kernel_size=(7, 100), stride=(1, 1))\n  (bn3): BatchNorm2d(300, eps=1e-05, momentum=0.1, affine=True, track_running_stats=True)\n  (fc1): Linear(in_features=900, out_features=30, bias=True)\n  (fc2): Linear(in_features=30, out_features=126, bias=True)\n  (dropout): Dropout(p=0.5)\n)",
    "train_start": "2018-12-10 15:02:58.170117",
    "train_finish": "2018-12-10 15:14:08.159964",
    "f1_scores": {
      "f1_score_2": 0.4723647747100483,
      "f1_score_3": 0.5037096817582655,
      "f1_score_4": 0.4810463209199322
    },
    "pAtK_scores": {
      "pAtK_1": 0.7795948093220338,
      "pAtK_3": 0.5165408721751412,
…
      0.2348929660313496,
      0.14914269041291225,
      0.13482741740102785,
      0.12181838778549173,
      0.11097420879288009,
      0.10197202529072535,
      0.0955302295976617,
      0.09054386935265739,
      0.08682192040632074,
      0.0839719346793372
    ],
    "loss_vector": [
      0.08440498527833971,
      0.08361969888210297,
      0.08272015252860926,
      0.08135822263814635,
      0.07965155615139816,
      0.07773425985695952,
      0.07653007429029982,
      0.07590074180546454,
      0.07490470386662726,
      0.07418697441028337
    ],
    "model": "Model(\n  (embedding): Embedding(400000, 50)\n  (conv1): Conv2d(1, 300, kernel_size=(3, 50), stride=(1, 1))\n  (bn1): BatchNorm2d(300, eps=1e-05, momentum=0.1, affine=True, track_running_stats=True)\n  (conv2): Conv2d(1, 300, kernel_size=(4, 50), stride=(1, 1))\n  (bn2): BatchNorm2d(300, eps=1e-05, momentum=0.1, affine=True, track_running_stats=True)\n  (conv3): Conv2d(1, 300, kernel_size=(5, 50), stride=(1, 1))\n  (bn3): BatchNorm2d(300, eps=1e-05, momentum=0.1, affine=True, track_running_stats=True)\n  (fc1): Linear(in_features=900, out_features=30, bias=True)\n  (fc2): Linear(in_features=30, out_features=126, bias=True)\n  (dropout): Dropout(p=0.5)\n)",
    "train_start": "2018-12-10 15:12:57.749955",
    "train_finish": "2018-12-10 15:21:25.352460",
    "f1_scores": {
      "f1_score_2": 0.4031612439700298,
      "f1_score_3": 0.4188846743604228,
      "f1_score_4": 0.41811139629914473
    },
    "pAtK_scores": {
      "pAtK_1": 0.556541313559322,
      "pAtK_3": 0.4295550847457627,
…
      0.11219080695900112,
      0.06022914481372263,
      0.055395475007325015,
      0.05303120770026882,
      0.05124396169151708,
      0.049871491328362494,
      0.04870963421786306,
      0.04780621527635848,
      0.04690002758882982,
      0.04606106875913193
    ],
    "loss_vector": [
      0.04862030576598846,
      0.0423827355064578,
      0.039848026393328684,
      0.038357947905689985,
      0.037191581928123864,
      0.03685115340907695,
      0.036080941179041134,
      0.03572916413136458,
      0.034927762665991055,
      0.034748669271751985
    ],
    "model": "Model(\n  (embedding): Embedding(400000, 50)\n  (conv1): Conv2d(1, 300, kernel_size=(1, 50), stride=(1, 1))\n  (bn1): BatchNorm2d(300, eps=1e-05, momentum=0.1, affine=True, track_running_stats=True)\n  (conv2): Conv2d(1, 300, kernel_size=(4, 50), stride=(1, 1))\n  (bn2): BatchNorm2d(300, eps=1e-05, momentum=0.1, affine=True, track_running_stats=True)\n  (conv3): Conv2d(1, 300, kernel_size=(7, 50), stride=(1, 1))\n  (bn3): BatchNorm2d(300, eps=1e-05, momentum=0.1, affine=True, track_running_stats=True)\n  (fc1): Linear(in_features=900, out_features=50, bias=True)\n  (fc2): Linear(in_features=50, out_features=126, bias=True)\n  (dropout): Dropout(p=0.5)\n)",
    "train_start": "2018-12-10 15:24:26.683501",
    "train_finish": "2018-12-10 15:32:52.452140",
    "f1_scores": {
      "f1_score_2": 0.6487093297752232,
      "f1_score_3": 0.717951201140613,
      "f1_score_4": 0.6834536373829005
    },
    "pAtK_scores": {
      "pAtK_1": 0.944584216101695,
      "pAtK_3": 0.7362398481638418,
…
      0.14631220448118912,
      0.07890376119222316,
      0.07304938021601944,
      0.06987135683449668,
      0.06736676725762167,
      0.06496286034527494,
      0.06305430292998365,
      0.06122722457634883,
      0.0595906159683242,
      0.05815836636657054
    ],
    "loss_vector": [
      0.060657434733742376,
      0.05299226207248235,
      0.0501165411482423,
      0.04945103167477301,
      0.04788492575792943,
      0.04693433673957647,
      0.04573274454322912,
      0.04459991590198824,
      0.044511403383339865,
      0.043623123002254356
    ],
    "model": "Model(\n  (embedding): Embedding(400000, 100)\n  (conv1): Conv2d(1, 300, kernel_size=(3, 100), stride=(1, 1))\n  (bn1): BatchNorm2d(300, eps=1e-05, momentum=0.1, affine=True, track_running_stats=True)\n  (conv2): Conv2d(1, 300, kernel_size=(4, 100), stride=(1, 1))\n  (bn2): BatchNorm2d(300, eps=1e-05, momentum=0.1, affine=True, track_running_stats=True)\n  (conv3): Conv2d(1, 300, kernel_size=(5, 100), stride=(1, 1))\n  (bn3): BatchNorm2d(300, eps=1e-05, momentum=0.1, affine=True, track_running_stats=True)\n  (fc1): Linear(in_features=900, out_features=30, bias=True)\n  (fc2): Linear(in_features=30, out_features=126, bias=True)\n  (dropout): Dropout(p=0.5)\n)",
    "train_start": "2018-12-10 15:29:00.983407",
    "train_finish": "2018-12-10 15:40:12.531055",
    "f1_scores": {
      "f1_score_2": 0.6158524068562045,
      "f1_score_3": 0.6628036478088936,
      "f1_score_4": 0.6424421567628172
    },
    "pAtK_scores": {
      "pAtK_1": 0.9380958686440678,
      "pAtK_3": 0.6796875,
…
      0.11721874689382891,
      0.0612899691601632,
      0.056767909460660404,
      0.05447068813290497,
      0.05300733964515592,
      0.05145560592356398,
      0.05017907455902851,
      0.049190645355314186,
      0.04829606727698722,
      0.047317943972247374
    ],
    "loss_vector": [
      0.048794722721233204,
      0.042759926452980206,
      0.040388901544324424,
      0.03852521372422323,
      0.03877111619054261,
      0.03777768753342709,
      0.036470533459115835,
      0.036333564353191246,
      0.036228090556243715,
      0.03572493311712297
    ],
    "model": "Model(\n  (embedding): Embedding(400000, 100)\n  (conv1): Conv2d(1, 300, kernel_size=(1, 100), stride=(1, 1))\n  (bn1): BatchNorm2d(300, eps=1e-05, momentum=0.1, affine=True, track_running_stats=True)\n  (conv2): Conv2d(1, 300, kernel_size=(4, 100), stride=(1, 1))\n  (bn2): BatchNorm2d(300, eps=1e-05, momentum=0.1, affine=True, track_running_stats=True)\n  (conv3): Conv2d(1, 300, kernel_size=(7, 100), stride=(1, 1))\n  (bn3): BatchNorm2d(300, eps=1e-05, momentum=0.1, affine=True, track_running_stats=True)\n  (fc1): Linear(in_features=900, out_features=50, bias=True)\n  (fc2): Linear(in_features=50, out_features=126, bias=True)\n  (dropout): Dropout(p=0.5)\n)",
    "train_start": "2018-12-10 15:40:26.659298",
    "train_finish": "2018-12-10 15:51:37.067171",
    "f1_scores": {
      "f1_score_2": 0.65354613568716,
      "f1_score_3": 0.7165630968713852,
      "f1_score_4": 0.6846304241065223
    },
    "pAtK_scores": {
      "pAtK_1": 0.9486890889830508,
      "pAtK_3": 0.734816384180791,
…
      0.11719831203656586,
      0.06259213478447591,
      0.057216175430696424,
      0.054725046529376306,
      0.05281223224536065,
      0.051608928367919665,
      0.05033412545325634,
      0.0492885072752692,
      0.04834255669442707,
      0.04735246061769789
    ],
    "loss_vector": [
      0.05186579654277381,
      0.044390346349801046,
      0.041061383372141144,
      0.039741025637772126,
      0.03849947755619631,
      0.03783882248325873,
      0.037108360489798806,
      0.03675496976001788,
      0.03602195423790964,
      0.03569206181850474
    ],
    "model": "Model(\n  (embedding): Embedding(400000, 50)\n  (conv1): Conv2d(1, 300, kernel_size=(3, 50), stride=(1, 1))\n  (bn1): BatchNorm2d(300, eps=1e-05, momentum=0.1, affine=True, track_running_stats=True)\n  (conv2): Conv2d(1, 300, kernel_size=(4, 50), stride=(1, 1))\n  (bn2): BatchNorm2d(300, eps=1e-05, momentum=0.1, affine=True, track_running_stats=True)\n  (conv3): Conv2d(1, 300, kernel_size=(5, 50), stride=(1, 1))\n  (bn3): BatchNorm2d(300, eps=1e-05, momentum=0.1, affine=True, track_running_stats=True)\n  (fc1): Linear(in_features=900, out_features=50, bias=True)\n  (fc2): Linear(in_features=50, out_features=126, bias=True)\n  (dropout): Dropout(p=0.5)\n)",
    "train_start": "2018-12-10 15:50:29.265918",
    "train_finish": "2018-12-10 15:58:54.115497",
    "f1_scores": {
      "f1_score_2": 0.6484142461254234,
      "f1_score_3": 0.711086003281952,
      "f1_score_4": 0.6823139148080541
    },
    "pAtK_scores": {
      "pAtK_1": 0.9458090572033898,
      "pAtK_3": 0.729199770480226,
…
      0.07602599000229555,
      0.041868809900428586,
      0.037162724479439135,
      0.03488512904837417,
      0.03340966707940233,
      0.032277438542195926,
      0.03145548487806682,
      0.03079544056199873,
      0.030180197788766485,
      0.02961467818641572
    ],
    "loss_vector": [
      0.037008226138807956,
      0.03066890014303943,
      0.028207194975624652,
      0.026855942651124325,
      0.025839042139507957,
      0.02509847725346937,
      0.02481193651082152,
      0.024851667015986928,
      0.025310655392832674,
      0.02443696239615901
    ],
    "model": "Model(\n  (embedding): Embedding(400000, 50)\n  (conv1): Conv2d(1, 300, kernel_size=(1, 50), stride=(1, 1))\n  (bn1): BatchNorm2d(300, eps=1e-05, momentum=0.1, affine=True, track_running_stats=True)\n  (conv2): Conv2d(1, 300, kernel_size=(4, 50), stride=(1, 1))\n  (bn2): BatchNorm2d(300, eps=1e-05, momentum=0.1, affine=True, track_running_stats=True)\n  (conv3): Conv2d(1, 300, kernel_size=(7, 50), stride=(1, 1))\n  (bn3): BatchNorm2d(300, eps=1e-05, momentum=0.1, affine=True, track_running_stats=True)\n  (fc1): Linear(in_features=900, out_features=100, bias=True)\n  (fc2): Linear(in_features=100, out_features=126, bias=True)\n  (dropout): Dropout(p=0.5)\n)",
    "train_start": "2018-12-10 16:01:56.724578",
    "train_finish": "2018-12-10 16:10:26.356775",
    "f1_scores": {
      "f1_score_2": 0.6896104895822641,
      "f1_score_3": 0.7804589352487019,
      "f1_score_4": 0.7370483965122636
    },
    "pAtK_scores": {
      "pAtK_1": 0.9515029131355932,
      "pAtK_3": 0.800339865819209,
…
      0.11856997662013577,
      0.06317426525833937,
      0.05875704587354153,
      0.05645717751849761,
      0.054550997806850826,
      0.053133497710924675,
      0.05192107763812936,
      0.050724094263516525,
      0.049777548477421225,
      0.04883718693476927
    ],
    "loss_vector": [
      0.050005320143901695,
      0.04429065322471877,
      0.04088020987682423,
      0.040013574253199465,
      0.039020012622162446,
      0.03801412656271862,
      0.03784890858046079,
      0.03773073151202525,
      0.037177687700269586,
      0.03695168093604557
    ],
    "model": "Model(\n  (embedding): Embedding(400000, 100)\n  (conv1): Conv2d(1, 300, kernel_size=(3, 100), stride=(1, 1))\n  (bn1): BatchNorm2d(300, eps=1e-05, momentum=0.1, affine=True, track_running_stats=True)\n  (conv2): Conv2d(1, 300, kernel_size=(4, 100), stride=(1, 1))\n  (bn2): BatchNorm2d(300, eps=1e-05, momentum=0.1, affine=True, track_running_stats=True)\n  (conv3): Conv2d(1, 300, kernel_size=(5, 100), stride=(1, 1))\n  (bn3): BatchNorm2d(300, eps=1e-05, momentum=0.1, affine=True, track_running_stats=True)\n  (fc1): Linear(in_features=900, out_features=50, bias=True)\n  (fc2): Linear(in_features=50, out_features=126, bias=True)\n  (dropout): Dropout(p=0.5)\n)",
    "train_start": "2018-12-10 16:06:29.388587",
    "train_finish": "2018-12-10 16:17:41.782748",
    "f1_scores": {
      "f1_score_2": 0.6436672482808169,
      "f1_score_3": 0.7056949936782073,
      "f1_score_4": 0.6791078659389739
    },
    "pAtK_scores": {
      "pAtK_1": 0.9448159427966102,
      "pAtK_3": 0.7236714336158192,
…
      0.08665697765757509,
      0.047259095667435504,
      0.04275611705328753,
      0.040322481582128575,
      0.038942727308006395,
      0.037868747081204655,
      0.03676729322723917,
      0.03616575705880685,
      0.03538608897399631,
      0.034713380932949296
    ],
    "loss_vector": [
      0.03972002181966426,
      0.03348828694325382,
      0.03107281622745223,
      0.029129257299384828,
      0.028802165572168463,
      0.02806895930256884,
      0.027371109352778582,
      0.02734856399060306,
      0.027022490246316134,
      0.02670957372223927
    ],
    "model": "Model(\n  (embedding): Embedding(400000, 100)\n  (conv1): Conv2d(1, 300, kernel_size=(1, 100), stride=(1, 1))\n  (bn1): BatchNorm2d(300, eps=1e-05, momentum=0.1, affine=True, track_running_stats=True)\n  (conv2): Conv2d(1, 300, kernel_size=(4, 100), stride=(1, 1))\n  (bn2): BatchNorm2d(300, eps=1e-05, momentum=0.1, affine=True, track_running_stats=True)\n  (conv3): Conv2d(1, 300, kernel_size=(7, 100), stride=(1, 1))\n  (bn3): BatchNorm2d(300, eps=1e-05, momentum=0.1, affine=True, track_running_stats=True)\n  (fc1): Linear(in_features=900, out_features=100, bias=True)\n  (fc2): Linear(in_features=100, out_features=126, bias=True)\n  (dropout): Dropout(p=0.5)\n)",
    "train_start": "2018-12-10 16:18:00.336153",
    "train_finish": "2018-12-10 16:29:07.752601",
    "f1_scores": {
      "f1_score_2": 0.6846325567073797,
      "f1_score_3": 0.7737121028703629,
      "f1_score_4": 0.7307845553692053
    },
    "pAtK_scores": {
      "pAtK_1": 0.9539856991525424,
      "pAtK_3": 0.7934211687853108,
…
