…
478702658, "f1_score_3": 0.7958249266941059, "f1_score_4": 0.7506787372244513}, "pAtK_scores": {"pAtK_1": 0.9507084216101694, "pAtK_3": 0.8160972810734464, "pAtK_5": 0.5654462394067796}, "train_vector": [0.040515797062506596, 0.02232819958015626, 0.019163067209617406, 0.017118204773829603, 0.015454191276255776, 0.014025691771204716, 0.012747345830665537], "loss_vector": [0.024875504359350365, 0.02128989255781901, 0.02070265066794167, 0.020068538911893207, 0.021278585094200858, 0.02120032768412414, 0.021651731377814787], "train_finish": "2018-12-14 16:30:37.738096", "model": "CNN(\n  (embedding): Embedding(400000, 100)\n  (convs): ModuleList(\n    (0): Conv2d(1, 542, kernel_size=(1, 100), stride=(2, 2))\n    (1): Conv2d(1, 542, kernel_size=(4, 100), stride=(2, 2))\n    (2): Conv2d(1, 542, kernel_size=(7, 100), stride=(2, 2))\n  )\n  (fc1): Linear(in_features=1626, out_features=142, bias=True)\n  (fc2): Linear(in_features=142, out_features=126, bias=True)\n)"}, "{\"compact_dim\": 224.0, \"cpu_mode\": false, \"dropout_pctg\": 0.37050174741489555, \"filter_sizes\": [1, 4, 7], \"glove_dim\": 50, \"gpu_no\": 2, \"num_filters\": 605.0, \"stride\": 1, \"txt_length\": 1206.0}": {"glove_dim": 50, "num_filters": 605, "filter_sizes": [1, 4, 7], "compact_dim": 224, "dropout": 0.37, "stride": 1, "txt_length": 1206,
…
77, "f1_score_4": 0.750697269298839}, "pAtK_scores": {"pAtK_1": 0.953323622881356, "pAtK_3": 0.8167372881355932, "pAtK_5": 0.5654329978813559}, "train_vector": [0.03892756057496711, 0.02238045494996393, 0.01963162914261335, 0.017841052858643163, 0.016473276355079388, 0.015344903185836391, 0.014391661618979368, 0.013557266982084943], "loss_vector": [0.02561622138245631, 0.02169968187019734, 0.020327212904595722, 0.020760831320500474, 0.019626569800015727, 0.020338958058253687, 0.020417821356805706, 0.021248723411837877], "train_finish": "2018-12-14 16:55:04.843804", "model": "CNN(\n  (embedding): Embedding(400000, 50)\n  (convs): ModuleList(\n    (0): Conv2d(1, 605, kernel_size=(1, 50), stride=(1, 1))\n    (1): Conv2d(1, 605, kernel_size=(4, 50), stride=(1, 1))\n    (2): Conv2d(1, 605, kernel_size=(7, 50), stride=(1, 1))\n  )\n  (fc1): Linear(in_features=1815, out_features=224, bias=True)\n  (fc2): Linear(in_features=224, out_features=126, bias=True)\n)"}, "{\"compact_dim\": 272.0, \"cpu_mode\": false, \"dropout_pctg\": 0.4175390815111276, \"filter_sizes\": [1, 4, 7], \"glove_dim\": 50, \"gpu_no\": 2, \"num_filters\": 351.0, \"stride\": 1, \"txt_length\": 699.0}": {"glove_dim": 50, "num_filters": 351, "filter_sizes": [1, 4, 7], "compact_dim": 272, "dropout": 0.42, "stride": 1, "txt_length": 699, "g
…
945, "f1_score_4": 0.7532824936759296}, "pAtK_scores": {"pAtK_1": 0.9563691737288136, "pAtK_3": 0.8189773128531074, "pAtK_5": 0.5678628177966102}, "train_vector": [0.039234009924816564, 0.02239148862716482, 0.019681652999028874, 0.0181620562443796, 0.017043448079808614, 0.01611107611936823, 0.015351306516288354, 0.014689818650229607], "loss_vector": [0.02500735510582641, 0.022021708915294227, 0.020167770053623087, 0.020750241354107857, 0.01951773093729201, 0.02013008604299719, 0.01971382990290048, 0.020211950646934367], "train_finish": "2018-12-14 17:04:03.261521", "model": "CNN(\n  (embedding): Embedding(400000, 50)\n  (convs): ModuleList(\n    (0): Conv2d(1, 351, kernel_size=(1, 50), stride=(1, 1))\n    (1): Conv2d(1, 351, kernel_size=(4, 50), stride=(1, 1))\n    (2): Conv2d(1, 351, kernel_size=(7, 50), stride=(1, 1))\n  )\n  (fc1): Linear(in_features=1053, out_features=272, bias=True)\n  (fc2): Linear(in_features=272, out_features=126, bias=True)\n)"}, "{\"compact_dim\": 81.0, \"cpu_mode\": false, \"dropout_pctg\": 0.07527761821024347, \"filter_sizes\": [3, 4, 5], \"glove_dim\": 100, \"gpu_no\": 2, \"num_filters\": 724.0, \"stride\": 2, \"txt_length\": 1572.0}": {"glove_dim": 100, "num_filters": 724, "filter_sizes": [3, 4, 5], "compact_dim": 81, "dropout": 0.08, "stride": 2, "txt_length": 1572,
…
92291901878, "f1_score_3": 0.7968471740241573, "f1_score_4": 0.7508362598567472}, "pAtK_scores": {"pAtK_1": 0.9530587923728814, "pAtK_3": 0.8171455685028248, "pAtK_5": 0.5656183792372881}, "train_vector": [0.04258504086677727, 0.022950024960785256, 0.01963968291892838, 0.017403433595976636, 0.015609554900474974, 0.01398604800500527, 0.012603772638906394], "loss_vector": [0.02562986530552981, 0.022301296829798464, 0.021611859548394962, 0.02076481846240112, 0.021723817994470818, 0.022169145376626717, 0.02311482369678758], "train_finish": "2018-12-14 17:24:21.565200", "model": "CNN(\n  (embedding): Embedding(400000, 100)\n  (convs): ModuleList(\n    (0): Conv2d(1, 724, kernel_size=(3, 100), stride=(2, 2))\n    (1): Conv2d(1, 724, kernel_size=(4, 100), stride=(2, 2))\n    (2): Conv2d(1, 724, kernel_size=(5, 100), stride=(2, 2))\n  )\n  (fc1): Linear(in_features=2172, out_features=81, bias=True)\n  (fc2): Linear(in_features=81, out_features=126, bias=True)\n)"}, "{\"compact_dim\": 114.0, \"cpu_mode\": false, \"dropout_pctg\": 0.396492396436238, \"filter_sizes\": [3, 4, 5], \"glove_dim\": 50, \"gpu_no\": 2, \"num_filters\": 734.0, \"stride\": 2, \"txt_length\": 2294.0}": {"glove_dim": 50, "num_filters": 734, "filter_sizes": [3, 4, 5], "compact_dim": 114, "dropout": 0.4, "stride": 2, "txt_length": 2294, "gl
…
pAtK_3": 0.811771716101695, "pAtK_5": 0.5620233050847457}, "train_vector": [0.04406091435308757, 0.025075852365517525, 0.021829499453094134, 0.019940665029731547, 0.01842095456536739, 0.017160647303975794, 0.016120056796684663, 0.015270527605094595, 0.01441207656414165, 0.013761533205123508], "loss_vector": [0.02724590667097245, 0.024017844017658194, 0.02269010361820712, 0.0223070995692732, 0.022061302342404752, 0.022126253938965373, 0.021888601435821945, 0.022192897496082015, 0.02269356386830746, 0.023041735174355364], "train_finish": "2018-12-14 17:56:21.622506", "model": "CNN(\n  (embedding): Embedding(400000, 50)\n  (convs): ModuleList(\n    (0): Conv2d(1, 734, kernel_size=(3, 50), stride=(2, 2))\n    (1): Conv2d(1, 734, kernel_size=(4, 50), stride=(2, 2))\n    (2): Conv2d(1, 734, kernel_size=(5, 50), stride=(2, 2))\n  )\n  (fc1): Linear(in_features=2202, out_features=114, bias=True)\n  (fc2): Linear(in_features=114, out_features=126, bias=True)\n)"}, "{\"compact_dim\": 123.0, \"cpu_mode\": false, \"dropout_pctg\": 0.3635430930874381, \"filter_sizes\": [1, 3, 5], \"glove_dim\": 100, \"gpu_no\": 2, \"num_filters\": 316.0, \"stride\": 2, \"txt_length\": 2975.0}": {"glove_dim": 100, "num_filters": 316, "filter_sizes": [1, 3, 5], "compact_dim": 123, "dropout": 0.36, "stride": 2, "txt_length": 2975
…
_scores": {"pAtK_1": 0.9553429555084746, "pAtK_3": 0.8161965925141242, "pAtK_5": 0.5650953389830509}, "train_vector": [0.04377260524779558, 0.023768837565460738, 0.020726463168972583, 0.01897499988834591, 0.017711668312408214, 0.01672341641165896, 0.015868414970083018, 0.015108898236103483, 0.014462733233040039], "loss_vector": [0.02628448083049665, 0.022814507990822953, 0.02107665266336526, 0.021061433124024483, 0.02049389887222294, 0.02020642777778587, 0.020521999415704758, 0.021151403596593163, 0.021469275538130838], "train_finish": "2018-12-14 18:16:27.620201", "model": "CNN(\n  (embedding): Embedding(400000, 100)\n  (convs): ModuleList(\n    (0): Conv2d(1, 316, kernel_size=(1, 100), stride=(2, 2))\n    (1): Conv2d(1, 316, kernel_size=(3, 100), stride=(2, 2))\n    (2): Conv2d(1, 316, kernel_size=(5, 100), stride=(2, 2))\n  )\n  (fc1): Linear(in_features=948, out_features=123, bias=True)\n  (fc2): Linear(in_features=123, out_features=126, bias=True)\n)"}, "{\"compact_dim\": 154.0, \"cpu_mode\": false, \"dropout_pctg\": 0.2080318727888398, \"filter_sizes\": [1, 4, 7], \"glove_dim\": 50, \"gpu_no\": 2, \"num_filters\": 764.0, \"stride\": 1, \"txt_length\": 1186.0}": {"glove_dim": 50, "num_filters": 764, "filter_sizes": [1, 4, 7], "compact_dim": 154, "dropout": 0.21, "stride": 1, "txt_length": 1186, 
…
.7051857744021349, "f1_score_3": 0.798407446264762, "f1_score_4": 0.7524392842912871}, "pAtK_scores": {"pAtK_1": 0.9524298199152542, "pAtK_3": 0.818745586158192, "pAtK_5": 0.5667571504237288}, "train_vector": [0.0390568675749018, 0.02248646537517065, 0.019563478485732366, 0.017774397334122793, 0.016299379575976384, 0.0150487989256162, 0.01407472017632914], "loss_vector": [0.025167283838835812, 0.021525946808821063, 0.02077368615289866, 0.01992311432042112, 0.02025258944417208, 0.020270809436501083, 0.02108536946382058], "train_finish": "2018-12-14 18:42:09.474458", "model": "CNN(\n  (embedding): Embedding(400000, 50)\n  (convs): ModuleList(\n    (0): Conv2d(1, 764, kernel_size=(1, 50), stride=(1, 1))\n    (1): Conv2d(1, 764, kernel_size=(4, 50), stride=(1, 1))\n    (2): Conv2d(1, 764, kernel_size=(7, 50), stride=(1, 1))\n  )\n  (fc1): Linear(in_features=2292, out_features=154, bias=True)\n  (fc2): Linear(in_features=154, out_features=126, bias=True)\n)"}, "{\"compact_dim\": 298.0, \"cpu_mode\": false, \"dropout_pctg\": 0.3848606367476735, \"filter_sizes\": [1, 4, 7], \"glove_dim\": 50, \"gpu_no\": 2, \"num_filters\": 793.0, \"stride\": 1, \"txt_length\": 843.0}": {"glove_dim": 50, "num_filters": 793, "filter_sizes": [1, 4, 7], "compact_dim": 298, "dropout": 0.38, "stride": 1, "txt_length": 843, "g
…
3005234527352, "f1_score_3": 0.797901702848842, "f1_score_4": 0.7526709352211339}, "pAtK_scores": {"pAtK_1": 0.9549126059322034, "pAtK_3": 0.8182269597457628, "pAtK_5": 0.5676178495762711}, "train_vector": [0.035949957772622866, 0.02119942882011664, 0.018481164264971605, 0.01670124353151733, 0.015178666925464228, 0.013905964112280386, 0.012812622092077527], "loss_vector": [0.02341191420899862, 0.020604104411362085, 0.02013677259970267, 0.01966863295252798, 0.020666901992981213, 0.0198942825624372, 0.020866649485808814], "train_finish": "2018-12-14 19:02:20.012200", "model": "CNN(\n  (embedding): Embedding(400000, 50)\n  (convs): ModuleList(\n    (0): Conv2d(1, 793, kernel_size=(1, 50), stride=(1, 1))\n    (1): Conv2d(1, 793, kernel_size=(4, 50), stride=(1, 1))\n    (2): Conv2d(1, 793, kernel_size=(7, 50), stride=(1, 1))\n  )\n  (fc1): Linear(in_features=2379, out_features=298, bias=True)\n  (fc2): Linear(in_features=298, out_features=126, bias=True)\n)"}, "{\"compact_dim\": 214.0, \"cpu_mode\": false, \"dropout_pctg\": 0.2318968784683501, \"filter_sizes\": [1, 3, 5], \"glove_dim\": 100, \"gpu_no\": 2, \"num_filters\": 561.0, \"stride\": 2, \"txt_length\": 2516.0}": {"glove_dim": 100, "num_filters": 561, "filter_sizes": [1, 3, 5], "compact_dim": 214, "dropout": 0.23, "stride": 2, "txt_length": 2516
…
983617", "f1_scores": {"f1_score_2": 0.7072128707790208, "f1_score_3": 0.7993113281144918, "f1_score_4": 0.7538755200563375}, "pAtK_scores": {"pAtK_1": 0.9575278072033898, "pAtK_3": 0.8196724929378532, "pAtK_5": 0.5681475105932203}, "train_vector": [0.03807130142643454, 0.021475960431616946, 0.018643324804161827, 0.01689549231198413, 0.015424579692972678, 0.014096965676657785], "loss_vector": [0.0237470249156073, 0.02075989680143736, 0.01964297045369522, 0.020331663513650833, 0.019711935379684478, 0.020761418890334286], "train_finish": "2018-12-14 19:21:48.619142", "model": "CNN(\n  (embedding): Embedding(400000, 100)\n  (convs): ModuleList(\n    (0): Conv2d(1, 561, kernel_size=(1, 100), stride=(2, 2))\n    (1): Conv2d(1, 561, kernel_size=(3, 100), stride=(2, 2))\n    (2): Conv2d(1, 561, kernel_size=(5, 100), stride=(2, 2))\n  )\n  (fc1): Linear(in_features=1683, out_features=214, bias=True)\n  (fc2): Linear(in_features=214, out_features=126, bias=True)\n)"}, "{\"compact_dim\": 189.0, \"cpu_mode\": false, \"dropout_pctg\": 0.28023795534693996, \"filter_sizes\": [3, 4, 5], \"glove_dim\": 50, \"gpu_no\": 2, \"num_filters\": 380.0, \"stride\": 1, \"txt_length\": 1304.0}": {"glove_dim": 50, "num_filters": 380, "filter_sizes": [3, 4, 5], "compact_dim": 189, "dropout": 0.28, "stride": 1, "txt_length": 1304,
…
5661811440677966}, "train_vector": [0.042815882238988856, 0.024061910369816947, 0.021060467319495877, 0.0194418375739082, 0.01819867620587462, 0.017326950456105893, 0.016611398540550323, 0.015902436974562662, 0.015309344928542, 0.014792120748639559, 0.014357085178024798], "loss_vector": [0.026346978873519573, 0.022324649664431304, 0.02104737476240528, 0.020618940458901353, 0.020409146355370344, 0.0209660674682108, 0.02057042883677503, 0.02039368836588021, 0.02141768288782845, 0.021040603581626537, 0.021345182527172362], "train_finish": "2018-12-14 19:44:02.395577", "model": "CNN(\n  (embedding): Embedding(400000, 50)\n  (convs): ModuleList(\n    (0): Conv2d(1, 380, kernel_size=(3, 50), stride=(1, 1))\n    (1): Conv2d(1, 380, kernel_size=(4, 50), stride=(1, 1))\n    (2): Conv2d(1, 380, kernel_size=(5, 50), stride=(1, 1))\n  )\n  (fc1): Linear(in_features=1140, out_features=189, bias=True)\n  (fc2): Linear(in_features=189, out_features=126, bias=True)\n)"}, "{\"compact_dim\": 146.0, \"cpu_mode\": false, \"dropout_pctg\": 0.4749165053849892, \"filter_sizes\": [1, 3, 5], \"glove_dim\": 50, \"gpu_no\": 2, \"num_filters\": 383.0, \"stride\": 2, \"txt_length\": 938.0}": {"glove_dim": 50, "num_filters": 383, "filter_sizes": [1, 3, 5], "compact_dim": 146, "dropout": 0.47, "stride": 2, "txt_length": 938, "g
…
tK_scores": {"pAtK_1": 0.9527939618644068, "pAtK_3": 0.8110655014124294, "pAtK_5": 0.5636983580508474}, "train_vector": [0.04397514862745322, 0.024959533245601396, 0.021971368794621055, 0.02033894234628503, 0.019132763061644173, 0.01826277795818544, 0.01754373078900734, 0.016924724402524658, 0.016408561712106164], "loss_vector": [0.027137704083096174, 0.023832778051748115, 0.02208884333465564, 0.021129440721440112, 0.020960569776342076, 0.02080171728127841, 0.021092983049545752, 0.02114455448463559, 0.0214464419474036], "train_finish": "2018-12-14 19:50:25.804380", "model": "CNN(\n  (embedding): Embedding(400000, 50)\n  (convs): ModuleList(\n    (0): Conv2d(1, 383, kernel_size=(1, 50), stride=(2, 2))\n    (1): Conv2d(1, 383, kernel_size=(3, 50), stride=(2, 2))\n    (2): Conv2d(1, 383, kernel_size=(5, 50), stride=(2, 2))\n  )\n  (fc1): Linear(in_features=1149, out_features=146, bias=True)\n  (fc2): Linear(in_features=146, out_features=126, bias=True)\n)"}, "{\"compact_dim\": 269.0, \"cpu_mode\": false, \"dropout_pctg\": 0.2804267690871696, \"filter_sizes\": [1, 4, 7], \"glove_dim\": 100, \"gpu_no\": 2, \"num_filters\": 466.0, \"stride\": 1, \"txt_length\": 1146.0}": {"glove_dim": 100, "num_filters": 466, "filter_sizes": [1, 4, 7], "compact_dim": 269, "dropout": 0.28, "stride": 1, "txt_length": 1146
…
, "f1_score_4": 0.7561920293548057}, "pAtK_scores": {"pAtK_1": 0.9571967690677966, "pAtK_3": 0.8231704625706214, "pAtK_5": 0.5697100105932204}, "train_vector": [0.03610494394611702, 0.020051895497646004, 0.017364361000015795, 0.015559983774630859, 0.014054312370717525, 0.012762944482662759, 0.011657120900288705, 0.010661225930736373], "loss_vector": [0.022339914609693874, 0.01982596673671219, 0.01908756629958496, 0.01898232137910643, 0.018649370583184693, 0.019832270488269247, 0.02086915373328631, 0.020743774471141525], "train_finish": "2018-12-14 20:14:01.302668", "model": "CNN(\n  (embedding): Embedding(400000, 100)\n  (convs): ModuleList(\n    (0): Conv2d(1, 466, kernel_size=(1, 100), stride=(1, 1))\n    (1): Conv2d(1, 466, kernel_size=(4, 100), stride=(1, 1))\n    (2): Conv2d(1, 466, kernel_size=(7, 100), stride=(1, 1))\n  )\n  (fc1): Linear(in_features=1398, out_features=269, bias=True)\n  (fc2): Linear(in_features=269, out_features=126, bias=True)\n)"}, "{\"compact_dim\": 58.0, \"cpu_mode\": false, \"dropout_pctg\": 0.01676388826615048, \"filter_sizes\": [1, 4, 7], \"glove_dim\": 100, \"gpu_no\": 2, \"num_filters\": 727.0, \"stride\": 2, \"txt_length\": 2170.0}": {"glove_dim": 100, "num_filters": 727, "filter_sizes": [1, 4, 7], "compact_dim": 58, "dropout": 0.02, "stride": 2, "txt_length": 2170,
…
579595607103, "f1_score_3": 0.7930379576574396, "f1_score_4": 0.7463700299293001}, "pAtK_scores": {"pAtK_1": 0.9546477754237288, "pAtK_3": 0.8132393185028248, "pAtK_5": 0.561573093220339}, "train_vector": [0.051388304659379276, 0.025326961237916005, 0.02152553906105812, 0.019111456167468874, 0.01728794527234796, 0.01563233147822391, 0.014328093244119829], "loss_vector": [0.02854339869977054, 0.02398102672107644, 0.022660353891867196, 0.022591672616742425, 0.022789875092774123, 0.02328652841181068, 0.023283404937424396], "train_finish": "2018-12-14 20:42:33.967337", "model": "CNN(\n  (embedding): Embedding(400000, 100)\n  (convs): ModuleList(\n    (0): Conv2d(1, 727, kernel_size=(1, 100), stride=(2, 2))\n    (1): Conv2d(1, 727, kernel_size=(4, 100), stride=(2, 2))\n    (2): Conv2d(1, 727, kernel_size=(7, 100), stride=(2, 2))\n  )\n  (fc1): Linear(in_features=2181, out_features=58, bias=True)\n  (fc2): Linear(in_features=58, out_features=126, bias=True)\n)"}, "{\"compact_dim\": 225.0, \"cpu_mode\": false, \"dropout_pctg\": 0.20348061914626983, \"filter_sizes\": [1, 4, 7], \"glove_dim\": 100, \"gpu_no\": 2, \"num_filters\": 463.0, \"stride\": 2, \"txt_length\": 2734.0}": {"glove_dim": 100, "num_filters": 463, "filter_sizes": [1, 4, 7], "compact_dim": 225, "dropout": 0.2, "stride": 2, "txt_length": 2734,
…
7", "f1_scores": {"f1_score_2": 0.7043518423483527, "f1_score_3": 0.7975143249132436, "f1_score_4": 0.7519574503572057}, "pAtK_scores": {"pAtK_1": 0.9551443326271186, "pAtK_3": 0.8178297139830508, "pAtK_5": 0.5667902542372881}, "train_vector": [0.038449869545943594, 0.021403153020485642, 0.018458146615169476, 0.016530071296844015, 0.015008657606074718, 0.013583709841922802], "loss_vector": [0.02382833736364619, 0.020556379275364897, 0.019708723895314893, 0.019721700817788557, 0.019735506909378503, 0.020407139260511277], "train_finish": "2018-12-14 21:02:51.382441", "model": "CNN(\n  (embedding): Embedding(400000, 100)\n  (convs): ModuleList(\n    (0): Conv2d(1, 463, kernel_size=(1, 100), stride=(2, 2))\n    (1): Conv2d(1, 463, kernel_size=(4, 100), stride=(2, 2))\n    (2): Conv2d(1, 463, kernel_size=(7, 100), stride=(2, 2))\n  )\n  (fc1): Linear(in_features=1389, out_features=225, bias=True)\n  (fc2): Linear(in_features=225, out_features=126, bias=True)\n)"}, "{\"compact_dim\": 275.0, \"cpu_mode\": false, \"dropout_pctg\": 0.44086714834961727, \"filter_sizes\": [1, 4, 7], \"glove_dim\": 50, \"gpu_no\": 2, \"num_filters\": 713.0, \"stride\": 2, \"txt_length\": 2764.0}": {"glove_dim": 50, "num_filters": 713, "filter_sizes": [1, 4, 7], "compact_dim": 275, "dropout": 0.44, "stride": 2, "txt_length": 2764,
…
527, "f1_score_4": 0.7469259921609325}, "pAtK_scores": {"pAtK_1": 0.9548132944915254, "pAtK_3": 0.8127537959039548, "pAtK_5": 0.5632084216101695}, "train_vector": [0.03868931503100515, 0.02282932712263525, 0.01995625715275106, 0.018085280608251493, 0.016565806729863953, 0.015247234876711183, 0.014144911688789584, 0.013116911836534004], "loss_vector": [0.02516669655313431, 0.022158317157398848, 0.021444069079549637, 0.02094121680642336, 0.02047487553524769, 0.02096026190319809, 0.021505990697039387, 0.02242715134269605], "train_finish": "2018-12-14 21:33:18.167444", "model": "CNN(\n  (embedding): Embedding(400000, 50)\n  (convs): ModuleList(\n    (0): Conv2d(1, 713, kernel_size=(1, 50), stride=(2, 2))\n    (1): Conv2d(1, 713, kernel_size=(4, 50), stride=(2, 2))\n    (2): Conv2d(1, 713, kernel_size=(7, 50), stride=(2, 2))\n  )\n  (fc1): Linear(in_features=2139, out_features=275, bias=True)\n  (fc2): Linear(in_features=275, out_features=126, bias=True)\n)"}, "{\"compact_dim\": 143.0, \"cpu_mode\": false, \"dropout_pctg\": 0.20311750126313804, \"filter_sizes\": [1, 4, 7], \"glove_dim\": 100, \"gpu_no\": 2, \"num_filters\": 607.0, \"stride\": 2, \"txt_length\": 2072.0}": {"glove_dim": 100, "num_filters": 607, "filter_sizes": [1, 4, 7], "compact_dim": 143, "dropout": 0.2, "stride": 2, "txt_length": 2072
…
85", "f1_scores": {"f1_score_2": 0.7072641896746382, "f1_score_3": 0.7990853576520593, "f1_score_4": 0.7530693748204705}, "pAtK_scores": {"pAtK_1": 0.9576602224576272, "pAtK_3": 0.8194407662429378, "pAtK_5": 0.5669226694915255}, "train_vector": [0.039840389645713216, 0.02208674595332519, 0.018949981623345127, 0.016850592899869638, 0.015136238204340046, 0.013602968920340347], "loss_vector": [0.024560075853083094, 0.021510942049829635, 0.020226659687330662, 0.021157143258694874, 0.020856365001113233, 0.02125521127323983], "train_finish": "2018-12-14 21:53:27.425986", "model": "CNN(\n  (embedding): Embedding(400000, 100)\n  (convs): ModuleList(\n    (0): Conv2d(1, 607, kernel_size=(1, 100), stride=(2, 2))\n    (1): Conv2d(1, 607, kernel_size=(4, 100), stride=(2, 2))\n    (2): Conv2d(1, 607, kernel_size=(7, 100), stride=(2, 2))\n  )\n  (fc1): Linear(in_features=1821, out_features=143, bias=True)\n  (fc2): Linear(in_features=143, out_features=126, bias=True)\n)"}, "{\"compact_dim\": 172.0, \"cpu_mode\": false, \"dropout_pctg\": 0.11891101428627675, \"filter_sizes\": [1, 3, 5], \"glove_dim\": 50, \"gpu_no\": 2, \"num_filters\": 731.0, \"stride\": 2, \"txt_length\": 835.0}": {"glove_dim": 50, "num_filters": 731, "filter_sizes": [1, 3, 5], "compact_dim": 172, "dropout": 0.12, "stride": 2, "txt_length": 835, "
…
2, "f1_score_4": 0.748204705293687}, "pAtK_scores": {"pAtK_1": 0.9532574152542372, "pAtK_3": 0.8140227754237288, "pAtK_5": 0.5637579449152542}, "train_vector": [0.03940317562765369, 0.023122193726518348, 0.02034005970452016, 0.018575936570000152, 0.017245790056099646, 0.016169403210473186, 0.01518760868781149, 0.014367651119227371], "loss_vector": [0.025275008263603106, 0.022238293370642398, 0.020896726611496535, 0.02111599226561138, 0.020529008415227725, 0.020879853769379147, 0.021330492460500387, 0.02175099772038096], "train_finish": "2018-12-14 22:02:16.690845", "model": "CNN(\n  (embedding): Embedding(400000, 50)\n  (convs): ModuleList(\n    (0): Conv2d(1, 731, kernel_size=(1, 50), stride=(2, 2))\n    (1): Conv2d(1, 731, kernel_size=(3, 50), stride=(2, 2))\n    (2): Conv2d(1, 731, kernel_size=(5, 50), stride=(2, 2))\n  )\n  (fc1): Linear(in_features=2193, out_features=172, bias=True)\n  (fc2): Linear(in_features=172, out_features=126, bias=True)\n)"}, "{\"compact_dim\": 194.0, \"cpu_mode\": false, \"dropout_pctg\": 0.44981954983835176, \"filter_sizes\": [1, 4, 7], \"glove_dim\": 50, \"gpu_no\": 2, \"num_filters\": 662.0, \"stride\": 2, \"txt_length\": 612.0}": {"glove_dim": 50, "num_filters": 662, "filter_sizes": [1, 4, 7], "compact_dim": 194, "dropout": 0.45, "stride": 2, "txt_length": 612, "
…
235656368675, "f1_score_3": 0.7953299437763969, "f1_score_4": 0.7495760787983803}, "pAtK_scores": {"pAtK_1": 0.954349841101695, "pAtK_3": 0.8155896892655368, "pAtK_5": 0.5643140889830508}, "train_vector": [0.039140490786768, 0.02279904916833033, 0.019907043923392355, 0.017982593338151925, 0.01649773984695069, 0.015206275293091046, 0.014100851704926712], "loss_vector": [0.025271144190455896, 0.022192663165851164, 0.021279690653022567, 0.02039201333487438, 0.020916382663772774, 0.021490195016297748, 0.021945170450450507], "train_finish": "2018-12-14 22:08:24.168923", "model": "CNN(\n  (embedding): Embedding(400000, 50)\n  (convs): ModuleList(\n    (0): Conv2d(1, 662, kernel_size=(1, 50), stride=(2, 2))\n    (1): Conv2d(1, 662, kernel_size=(4, 50), stride=(2, 2))\n    (2): Conv2d(1, 662, kernel_size=(7, 50), stride=(2, 2))\n  )\n  (fc1): Linear(in_features=1986, out_features=194, bias=True)\n  (fc2): Linear(in_features=194, out_features=126, bias=True)\n)"}, "{\"compact_dim\": 253.0, \"cpu_mode\": false, \"dropout_pctg\": 0.28301308196349056, \"filter_sizes\": [3, 4, 5], \"glove_dim\": 100, \"gpu_no\": 2, \"num_filters\": 658.0, \"stride\": 1, \"txt_length\": 2923.0}": {"glove_dim": 100, "num_filters": 658, "filter_sizes": [3, 4, 5], "compact_dim": 253, "dropout": 0.28, "stride": 1, "txt_length": 2923, "glove_dim ": 100, "batch_size": 256, "num_workers": 15, "epochs": 20, "train_start": "2018-12-14 22:08:24.945324", "train_error_message": "CUDA error: out of memory", "train_finish": "2018-12-14 22:16:49.077509", "model": "CNN(\n  (embedding): Embedding(400000, 100)\n  (convs): ModuleList(\n    (0): Conv2d(1, 658, kernel_size=(3, 100), stride=(1, 1))\n    (1): Conv2d(1, 658, kernel_size=(4, 100), stride=(1, 1))\n    (2): Conv2d(1, 658, kernel_size=(5, 100), stride=(1, 1))\n  )\n  (fc1): Linear(in_features=1974, out_features=253, bias=True)\n  (fc2): Linear(in_features=253, out_features=126, bias=True)\n)"}, "{\"compact_dim\": 157.0, \"cpu_mode\": false, \"dropout_pctg\": 0.4453493528767194, \"filter_sizes\": [1, 3, 5], \"glove_dim\": 50, \"gpu_no\": 2, \"num_filters\": 551.0, \"stride\": 2, \"txt_length\": 1285.0}": {"glove_dim": 50, "num_filters": 551, "filter_sizes": [1, 3, 5], "compact_dim": 157, "dropout": 0.45, "stride": 2, "txt_length": 1285, 
…
cores": {"pAtK_1": 0.9519663665254238, "pAtK_3": 0.8120034427966102, "pAtK_5": 0.5633938029661016}, "train_vector": [0.042867808547966624, 0.024738370780205705, 0.02171667096553197, 0.01996982146931045, 0.01871460225818364, 0.017822097933036497, 0.01687643564778046, 0.016199668010509444, 0.015586286955521896], "loss_vector": [0.027296507352236973, 0.023305983622005935, 0.021975703056017728, 0.021444040555822646, 0.021424688296234708, 0.02087190961149537, 0.021862579375442306, 0.022127084655024238, 0.021942324060315297], "train_finish": "2018-12-14 22:28:53.930378", "model": "CNN(\n  (embedding): Embedding(400000, 50)\n  (convs): ModuleList(\n    (0): Conv2d(1, 551, kernel_size=(1, 50), stride=(2, 2))\n    (1): Conv2d(1, 551, kernel_size=(3, 50), stride=(2, 2))\n    (2): Conv2d(1, 551, kernel_size=(5, 50), stride=(2, 2))\n  )\n  (fc1): Linear(in_features=1653, out_features=157, bias=True)\n  (fc2): Linear(in_features=157, out_features=126, bias=True)\n)"}, "{\"compact_dim\": 291.0, \"cpu_mode\": false, \"dropout_pctg\": 0.32724684479088156, \"filter_sizes\": [1, 4, 7], \"glove_dim\": 100, \"gpu_no\": 2, \"num_filters\": 471.0, \"stride\": 1, \"txt_length\": 566.0}": {"glove_dim": 100, "num_filters": 471, "filter_sizes": [1, 4, 7], "compact_dim": 291, "dropout": 0.33, "stride": 1, "txt_length": 566,
…
563276198, "f1_score_3": 0.8039060608506173, "f1_score_4": 0.757785787752152}, "pAtK_scores": {"pAtK_1": 0.9555415783898306, "pAtK_3": 0.8243842690677966, "pAtK_5": 0.5705243644067797}, "train_vector": [0.03491843619032196, 0.01948953947260891, 0.016835806585593853, 0.015036595547023942, 0.013555034479935718, 0.012225108966054625, 0.011115806255899582], "loss_vector": [0.021656750140995797, 0.019019033065286732, 0.018363163909101386, 0.018153679257227204, 0.01889237991960372, 0.019173159745474486, 0.020461123381441428], "train_finish": "2018-12-14 22:39:32.782455", "model": "CNN(\n  (embedding): Embedding(400000, 100)\n  (convs): ModuleList(\n    (0): Conv2d(1, 471, kernel_size=(1, 100), stride=(1, 1))\n    (1): Conv2d(1, 471, kernel_size=(4, 100), stride=(1, 1))\n    (2): Conv2d(1, 471, kernel_size=(7, 100), stride=(1, 1))\n  )\n  (fc1): Linear(in_features=1413, out_features=291, bias=True)\n  (fc2): Linear(in_features=291, out_features=126, bias=True)\n)"}, "{\"compact_dim\": 296.0, \"cpu_mode\": false, \"dropout_pctg\": 0.33060515094408927, \"filter_sizes\": [1, 4, 7], \"glove_dim\": 100, \"gpu_no\": 2, \"num_filters\": 459.0, \"stride\": 1, \"txt_length\": 1701.0}": {"glove_dim": 100, "num_filters": 459, "filter_sizes": [1, 4, 7], "compact_dim": 296, "dropout": 0.33, "stride": 1, "txt_length": 170
…
03263881762, "f1_score_3": 0.8033249939472197, "f1_score_4": 0.7562754236895506}, "pAtK_scores": {"pAtK_1": 0.958057468220339, "pAtK_3": 0.8237884004237288, "pAtK_5": 0.5696835275423728}, "train_vector": [0.03696372334013005, 0.020462896225115098, 0.017760005065609315, 0.015946583495434707, 0.014424672427161313, 0.013162318476611852, 0.011994689372076567], "loss_vector": [0.022587450000189118, 0.02009977963042714, 0.019361444559516543, 0.018829923557212292, 0.0190030405124239, 0.01961510478503118, 0.020189850393808998], "train_finish": "2018-12-14 23:08:28.324527", "model": "CNN(\n  (embedding): Embedding(400000, 100)\n  (convs): ModuleList(\n    (0): Conv2d(1, 459, kernel_size=(1, 100), stride=(1, 1))\n    (1): Conv2d(1, 459, kernel_size=(4, 100), stride=(1, 1))\n    (2): Conv2d(1, 459, kernel_size=(7, 100), stride=(1, 1))\n  )\n  (fc1): Linear(in_features=1377, out_features=296, bias=True)\n  (fc2): Linear(in_features=296, out_features=126, bias=True)\n)"}, "{\"compact_dim\": 254.0, \"cpu_mode\": false, \"dropout_pctg\": 0.1548111380339741, \"filter_sizes\": [1, 4, 7], \"glove_dim\": 100, \"gpu_no\": 2, \"num_filters\": 451.0, \"stride\": 1, \"txt_length\": 526.0}": {"glove_dim": 100, "num_filters": 451, "filter_sizes": [1, 4, 7], "compact_dim": 254, "dropout": 0.15, "stride": 1, "txt_length": 526, 
…
881658626707, "f1_score_3": 0.8055416565786996, "f1_score_4": 0.7587772537318964}, "pAtK_scores": {"pAtK_1": 0.9596464512711864, "pAtK_3": 0.8260615289548022, "pAtK_5": 0.5713254766949153}, "train_vector": [0.03566942969602188, 0.01967480961600958, 0.017012436668330227, 0.015256295032778037, 0.013798228181382566, 0.012519219576556101, 0.011436620802729898], "loss_vector": [0.021788159511604552, 0.01927022479663966, 0.01850888837065737, 0.01826958967593767, 0.019056019452163727, 0.01930900921224285, 0.02025357604626629], "train_finish": "2018-12-14 23:18:08.354379", "model": "CNN(\n  (embedding): Embedding(400000, 100)\n  (convs): ModuleList(\n    (0): Conv2d(1, 451, kernel_size=(1, 100), stride=(1, 1))\n    (1): Conv2d(1, 451, kernel_size=(4, 100), stride=(1, 1))\n    (2): Conv2d(1, 451, kernel_size=(7, 100), stride=(1, 1))\n  )\n  (fc1): Linear(in_features=1353, out_features=254, bias=True)\n  (fc2): Linear(in_features=254, out_features=126, bias=True)\n)"}, "{\"compact_dim\": 240.0, \"cpu_mode\": false, \"dropout_pctg\": 0.130040455582532, \"filter_sizes\": [1, 4, 7], \"glove_dim\": 100, \"gpu_no\": 2, \"num_filters\": 429.0, \"stride\": 1, \"txt_length\": 1459.0}": {"glove_dim": 100, "num_filters": 429, "filter_sizes": [1, 4, 7], "compact_dim": 240, "dropout": 0.13, "stride": 1, "txt_length": 1459,
…
157388", "f1_scores": {"f1_score_2": 0.7098686236272195, "f1_score_3": 0.8030344604955209, "f1_score_4": 0.7574614764503664}, "pAtK_scores": {"pAtK_1": 0.9594809322033898, "pAtK_3": 0.823490466101695, "pAtK_5": 0.5707693326271186}, "train_vector": [0.037450562635935006, 0.020755436268778238, 0.017955501592122513, 0.01612683866911725, 0.014661426588793972, 0.013424164230318517], "loss_vector": [0.02281170638309697, 0.019995427990363815, 0.01947428368947516, 0.019537302941652172, 0.019548253535087837, 0.0195599382080264], "train_finish": "2018-12-14 23:39:08.150533", "model": "CNN(\n  (embedding): Embedding(400000, 100)\n  (convs): ModuleList(\n    (0): Conv2d(1, 429, kernel_size=(1, 100), stride=(1, 1))\n    (1): Conv2d(1, 429, kernel_size=(4, 100), stride=(1, 1))\n    (2): Conv2d(1, 429, kernel_size=(7, 100), stride=(1, 1))\n  )\n  (fc1): Linear(in_features=1287, out_features=240, bias=True)\n  (fc2): Linear(in_features=240, out_features=126, bias=True)\n)"}, "{\"compact_dim\": 298.0, \"cpu_mode\": false, \"dropout_pctg\": 0.1503441561232945, \"filter_sizes\": [1, 4, 7], \"glove_dim\": 100, \"gpu_no\": 2, \"num_filters\": 503.0, \"stride\": 1, \"txt_length\": 985.0}": {"glove_dim": 100, "num_filters": 503, "filter_sizes": [1, 4, 7], "compact_dim": 298, "dropout": 0.15, "stride": 1, "txt_length": 985, 
…
89004", "f1_scores": {"f1_score_2": 0.7098557939033152, "f1_score_3": 0.8044225647647486, "f1_score_4": 0.7583880801697537}, "pAtK_scores": {"pAtK_1": 0.9559388241525424, "pAtK_3": 0.8249139300847458, "pAtK_5": 0.571676377118644}, "train_vector": [0.03449133960300424, 0.01952833478096908, 0.016956458973611723, 0.015099678783230413, 0.013572796469685079, 0.012215030414937683], "loss_vector": [0.021594389420697243, 0.019230019893118386, 0.018367652323538975, 0.01894765344874586, 0.018702640663832426, 0.01969506097483938], "train_finish": "2018-12-14 23:55:27.355357", "model": "CNN(\n  (embedding): Embedding(400000, 100)\n  (convs): ModuleList(\n    (0): Conv2d(1, 503, kernel_size=(1, 100), stride=(1, 1))\n    (1): Conv2d(1, 503, kernel_size=(4, 100), stride=(1, 1))\n    (2): Conv2d(1, 503, kernel_size=(7, 100), stride=(1, 1))\n  )\n  (fc1): Linear(in_features=1509, out_features=298, bias=True)\n  (fc2): Linear(in_features=298, out_features=126, bias=True)\n)"}, "{\"compact_dim\": 250.0, \"cpu_mode\": false, \"dropout_pctg\": 0.025205400233808767, \"filter_sizes\": [1, 4, 7], \"glove_dim\": 100, \"gpu_no\": 2, \"num_filters\": 304.0, \"stride\": 1, \"txt_length\": 505.0}": {"glove_dim": 100, "num_filters": 304, "filter_sizes": [1, 4, 7], "compact_dim": 250, "dropout": 0.03, "stride": 1, "txt_length": 505
…
52506, "f1_score_4": 0.75735028400404}, "pAtK_scores": {"pAtK_1": 0.9567995233050848, "pAtK_3": 0.824417372881356, "pAtK_5": 0.5705243644067797}, "train_vector": [0.03779324914100783, 0.020395712169731985, 0.017740094797434797, 0.01611109275416784, 0.014796115307798308, 0.013694703310332217, 0.012720554411425423, 0.01189241184547289], "loss_vector": [0.02272175584714544, 0.019852206931780962, 0.01881641202401054, 0.018719687142362027, 0.01870544659668359, 0.019062966881793434, 0.019741275576653623, 0.02046239127452343], "train_finish": "2018-12-15 00:03:29.685202", "model": "CNN(\n  (embedding): Embedding(400000, 100)\n  (convs): ModuleList(\n    (0): Conv2d(1, 304, kernel_size=(1, 100), stride=(1, 1))\n    (1): Conv2d(1, 304, kernel_size=(4, 100), stride=(1, 1))\n    (2): Conv2d(1, 304, kernel_size=(7, 100), stride=(1, 1))\n  )\n  (fc1): Linear(in_features=912, out_features=250, bias=True)\n  (fc2): Linear(in_features=250, out_features=126, bias=True)\n)"}, "{\"compact_dim\": 287.0, \"cpu_mode\": false, \"dropout_pctg\": 0.33099247794628717, \"filter_sizes\": [3, 4, 5], \"glove_dim\": 100, \"gpu_no\": 2, \"num_filters\": 416.0, \"stride\": 1, \"txt_length\": 503.0}": {"glove_dim": 100, "num_filters": 416, "filter_sizes": [3, 4, 5], "compact_dim": 287, "dropout": 0.33, "stride": 1, "txt_length": 503,
…
2363748332, "f1_score_3": 0.8057568665429209, "f1_score_4": 0.7593517480379167}, "pAtK_scores": {"pAtK_1": 0.9589512711864406, "pAtK_3": 0.8262822210451978, "pAtK_5": 0.5723715572033898}, "train_vector": [0.03516757666386056, 0.019614031927154683, 0.01710553323687452, 0.015367379743407924, 0.013974815801464629, 0.012739404336155252, 0.01164898838171032], "loss_vector": [0.02174002655103045, 0.019504913610358863, 0.018498197876674644, 0.018322189125406035, 0.018414871048939935, 0.019029129343896597, 0.01954069698103151], "train_finish": "2018-12-15 00:11:52.394373", "model": "CNN(\n  (embedding): Embedding(400000, 100)\n  (convs): ModuleList(\n    (0): Conv2d(1, 416, kernel_size=(3, 100), stride=(1, 1))\n    (1): Conv2d(1, 416, kernel_size=(4, 100), stride=(1, 1))\n    (2): Conv2d(1, 416, kernel_size=(5, 100), stride=(1, 1))\n  )\n  (fc1): Linear(in_features=1248, out_features=287, bias=True)\n  (fc2): Linear(in_features=287, out_features=126, bias=True)\n)"}, "{\"compact_dim\": 209.0, \"cpu_mode\": false, \"dropout_pctg\": 0.16859685792959409, \"filter_sizes\": [1, 4, 7], \"glove_dim\": 100, \"gpu_no\": 2, \"num_filters\": 503.0, \"stride\": 1, \"txt_length\": 673.0}": {"glove_dim": 100, "num_filters": 503, "filter_sizes": [1, 4, 7], "compact_dim": 209, "dropout": 0.17, "stride": 1, "txt_length": 673,
…
5072", "f1_scores": {"f1_score_2": 0.7114081904957406, "f1_score_3": 0.8055201355822774, "f1_score_4": 0.7591293631452637}, "pAtK_scores": {"pAtK_1": 0.9599443855932204, "pAtK_3": 0.8260394597457628, "pAtK_5": 0.5719478283898305}, "train_vector": [0.03671635785608409, 0.020252733015980167, 0.017444172563946734, 0.015561666483663913, 0.013978050670902858, 0.012663156838568045], "loss_vector": [0.02279662781284522, 0.019862013371756016, 0.01873689739949117, 0.018825273053183898, 0.01887600365394758, 0.019203401210133808], "train_finish": "2018-12-15 00:23:21.156856", "model": "CNN(\n  (embedding): Embedding(400000, 100)\n  (convs): ModuleList(\n    (0): Conv2d(1, 503, kernel_size=(1, 100), stride=(1, 1))\n    (1): Conv2d(1, 503, kernel_size=(4, 100), stride=(1, 1))\n    (2): Conv2d(1, 503, kernel_size=(7, 100), stride=(1, 1))\n  )\n  (fc1): Linear(in_features=1509, out_features=209, bias=True)\n  (fc2): Linear(in_features=209, out_features=126, bias=True)\n)"}, "{\"compact_dim\": 254.0, \"cpu_mode\": false, \"dropout_pctg\": 0.08841298655018652, \"filter_sizes\": [1, 4, 7], \"glove_dim\": 100, \"gpu_no\": 2, \"num_filters\": 519.0, \"stride\": 1, \"txt_length\": 1878.0}": {"glove_dim": 100, "num_filters": 519, "filter_sizes": [1, 4, 7], "compact_dim": 254, "dropout": 0.09, "stride": 1, "txt_length": 187
…
1.996276", "f1_scores": {"f1_score_2": 0.709919942522837, "f1_score_3": 0.8035079224168078, "f1_score_4": 0.7567016614004689}, "pAtK_scores": {"pAtK_1": 0.958156779661017, "pAtK_3": 0.823975988700565, "pAtK_5": 0.5708156779661017}, "train_vector": [0.03628782460031292, 0.020387915397801593, 0.017578081196029115, 0.015747366593249382, 0.014170220325854686, 0.012824539043914096], "loss_vector": [0.022309208849160853, 0.019884844815705793, 0.01936907023665006, 0.01939245883249125, 0.0194775899161853, 0.019620198148728934], "train_finish": "2018-12-15 00:55:21.537968", "model": "CNN(\n  (embedding): Embedding(400000, 100)\n  (convs): ModuleList(\n    (0): Conv2d(1, 519, kernel_size=(1, 100), stride=(1, 1))\n    (1): Conv2d(1, 519, kernel_size=(4, 100), stride=(1, 1))\n    (2): Conv2d(1, 519, kernel_size=(7, 100), stride=(1, 1))\n  )\n  (fc1): Linear(in_features=1557, out_features=254, bias=True)\n  (fc2): Linear(in_features=254, out_features=126, bias=True)\n)"}, "{\"compact_dim\": 237.0, \"cpu_mode\": false, \"dropout_pctg\": 0.32884153032498675, \"filter_sizes\": [1, 4, 7], \"glove_dim\": 100, \"gpu_no\": 2, \"num_filters\": 588.0, \"stride\": 1, \"txt_length\": 504.0}": {"glove_dim": 100, "num_filters": 588, "filter_sizes": [1, 4, 7], "compact_dim": 237, "dropout": 0.33, "stride": 1, "txt_length": 504,
…
41239", "f1_scores": {"f1_score_2": 0.7116519552499231, "f1_score_3": 0.8062733704570522, "f1_score_4": 0.7601856913853652}, "pAtK_scores": {"pAtK_1": 0.9601761122881356, "pAtK_3": 0.8268118820621468, "pAtK_5": 0.5726297669491526}, "train_vector": [0.035761145632749375, 0.01965939102913527, 0.01690613889829936, 0.014941848082860235, 0.013358883625974408, 0.011998705048135268], "loss_vector": [0.02215746115356431, 0.019477500509218138, 0.01855523993213803, 0.019171527831546836, 0.01913576914881498, 0.019684020879725785], "train_finish": "2018-12-15 01:05:24.321274", "model": "CNN(\n  (embedding): Embedding(400000, 100)\n  (convs): ModuleList(\n    (0): Conv2d(1, 588, kernel_size=(1, 100), stride=(1, 1))\n    (1): Conv2d(1, 588, kernel_size=(4, 100), stride=(1, 1))\n    (2): Conv2d(1, 588, kernel_size=(7, 100), stride=(1, 1))\n  )\n  (fc1): Linear(in_features=1764, out_features=237, bias=True)\n  (fc2): Linear(in_features=237, out_features=126, bias=True)\n)"}, "{\"compact_dim\": 279.0, \"cpu_mode\": false, \"dropout_pctg\": 0.044058060446524966, \"filter_sizes\": [1, 4, 7], \"glove_dim\": 100, \"gpu_no\": 2, \"num_filters\": 331.0, \"stride\": 1, \"txt_length\": 1046.0}": {"glove_dim": 100, "num_filters": 331, "filter_sizes": [1, 4, 7], "compact_dim": 279, "dropout": 0.04, "stride": 1, "txt_length": 10
…
9, "f1_score_4": 0.7549503803708268}, "pAtK_scores": {"pAtK_1": 0.9540188029661016, "pAtK_3": 0.8210297492937854, "pAtK_5": 0.5692730402542373}, "train_vector": [0.03738062773111932, 0.02063316291647007, 0.017925866079857782, 0.016249898713315346, 0.014911453045226026, 0.013752500051226064, 0.012747014821480529, 0.011920260877809726], "loss_vector": [0.02271057616414155, 0.0201504346125333, 0.019056045473947868, 0.019202826355220907, 0.018685112628391235, 0.018989052734006258, 0.02000783628515773, 0.020720332821483833], "train_finish": "2018-12-15 01:21:19.943819", "model": "CNN(\n  (embedding): Embedding(400000, 100)\n  (convs): ModuleList(\n    (0): Conv2d(1, 331, kernel_size=(1, 100), stride=(1, 1))\n    (1): Conv2d(1, 331, kernel_size=(4, 100), stride=(1, 1))\n    (2): Conv2d(1, 331, kernel_size=(7, 100), stride=(1, 1))\n  )\n  (fc1): Linear(in_features=993, out_features=279, bias=True)\n  (fc2): Linear(in_features=279, out_features=126, bias=True)\n)"}, "{\"compact_dim\": 265.0, \"cpu_mode\": false, \"dropout_pctg\": 0.24818978114509424, \"filter_sizes\": [3, 4, 5], \"glove_dim\": 100, \"gpu_no\": 2, \"num_filters\": 415.0, \"stride\": 1, \"txt_length\": 729.0}": {"glove_dim": 100, "num_filters": 415, "filter_sizes": [3, 4, 5], "compact_dim": 265, "dropout": 0.25, "stride": 1, "txt_length": 729,
…
976, "f1_score_4": 0.7569425783675096}, "pAtK_scores": {"pAtK_1": 0.9564353813559322, "pAtK_3": 0.8237663312146892, "pAtK_5": 0.5701204978813559}, "train_vector": [0.03642190554562737, 0.020083550454790666, 0.017438334274146372, 0.01573022074053732, 0.014331569907518786, 0.01308622725919398, 0.01201300340770007, 0.011062588233878904], "loss_vector": [0.02294766663778889, 0.019441771257858155, 0.01910021879820753, 0.018794589557574463, 0.01868827581816053, 0.01924085517619121, 0.019827305481342945, 0.021085800697742883], "train_finish": "2018-12-15 01:34:52.874113", "model": "CNN(\n  (embedding): Embedding(400000, 100)\n  (convs): ModuleList(\n    (0): Conv2d(1, 415, kernel_size=(3, 100), stride=(1, 1))\n    (1): Conv2d(1, 415, kernel_size=(4, 100), stride=(1, 1))\n    (2): Conv2d(1, 415, kernel_size=(5, 100), stride=(1, 1))\n  )\n  (fc1): Linear(in_features=1245, out_features=265, bias=True)\n  (fc2): Linear(in_features=265, out_features=126, bias=True)\n)"}, "{\"compact_dim\": 199.0, \"cpu_mode\": false, \"dropout_pctg\": 0.17830306517510386, \"filter_sizes\": [1, 4, 7], \"glove_dim\": 100, \"gpu_no\": 2, \"num_filters\": 371.0, \"stride\": 1, \"txt_length\": 1488.0}": {"glove_dim": 100, "num_filters": 371, "filter_sizes": [1, 4, 7], "compact_dim": 199, "dropout": 0.18, "stride": 1, "txt_length": 148
…
860104690546, "f1_score_3": 0.8028300110295107, "f1_score_4": 0.7570723028882238}, "pAtK_scores": {"pAtK_1": 0.9581236758474576, "pAtK_3": 0.8232808086158192, "pAtK_5": 0.5706302966101695}, "train_vector": [0.0392949576445447, 0.02141196766878837, 0.018536079481449086, 0.01677781513466215, 0.01544524958989878, 0.014195431424994057, 0.013186123473057258], "loss_vector": [0.02360305576032754, 0.020356518066472422, 0.019358776541332067, 0.018885932633874274, 0.019164172585232783, 0.019145191205128774, 0.01967908931359396], "train_finish": "2018-12-15 01:55:33.770426", "model": "CNN(\n  (embedding): Embedding(400000, 100)\n  (convs): ModuleList(\n    (0): Conv2d(1, 371, kernel_size=(1, 100), stride=(1, 1))\n    (1): Conv2d(1, 371, kernel_size=(4, 100), stride=(1, 1))\n    (2): Conv2d(1, 371, kernel_size=(7, 100), stride=(1, 1))\n  )\n  (fc1): Linear(in_features=1113, out_features=199, bias=True)\n  (fc2): Linear(in_features=199, out_features=126, bias=True)\n)"}, "{\"compact_dim\": 176.0, \"cpu_mode\": false, \"dropout_pctg\": 0.07116083631995213, \"filter_sizes\": [1, 3, 5], \"glove_dim\": 100, \"gpu_no\": 2, \"num_filters\": 485.0, \"stride\": 1, \"txt_length\": 1785.0}": {"glove_dim": 100, "num_filters": 485, "filter_sizes": [1, 3, 5], "compact_dim": 176, "dropout": 0.07, "stride": 1, "txt_length": 178
…
03, "f1_score_4": 0.7554970765652652}, "pAtK_scores": {"pAtK_1": 0.9537539724576272, "pAtK_3": 0.8222435557909604, "pAtK_5": 0.5693326271186441}, "train_vector": [0.038298255912394066, 0.02123910181959508, 0.01854272956908654, 0.01689029016056623, 0.015565112728865878, 0.01445709617076834, 0.013464831524445504, 0.01259459150191644], "loss_vector": [0.023838257606504328, 0.020784546108127147, 0.01962096840774609, 0.019332970610930252, 0.019068825745292135, 0.01997112566447359, 0.019420607796854387, 0.020304121211234292], "train_finish": "2018-12-15 02:26:13.610459", "model": "CNN(\n  (embedding): Embedding(400000, 100)\n  (convs): ModuleList(\n    (0): Conv2d(1, 485, kernel_size=(1, 100), stride=(1, 1))\n    (1): Conv2d(1, 485, kernel_size=(3, 100), stride=(1, 1))\n    (2): Conv2d(1, 485, kernel_size=(5, 100), stride=(1, 1))\n  )\n  (fc1): Linear(in_features=1455, out_features=176, bias=True)\n  (fc2): Linear(in_features=176, out_features=126, bias=True)\n)"}, "{\"compact_dim\": 99.0, \"cpu_mode\": false, \"dropout_pctg\": 0.35568278508988466, \"filter_sizes\": [3, 4, 5], \"glove_dim\": 100, \"gpu_no\": 2, \"num_filters\": 433.0, \"stride\": 1, \"txt_length\": 806.0}": {"glove_dim": 100, "num_filters": 433, "filter_sizes": [3, 4, 5], "compact_dim": 99, "dropout": 0.36, "stride": 1, "txt_length": 806, "
…
777686544, "f1_score_3": 0.8035832459042853, "f1_score_4": 0.7578969801984785}, "pAtK_scores": {"pAtK_1": 0.9592161016949152, "pAtK_3": 0.8240532309322034, "pAtK_5": 0.570458156779661}, "train_vector": [0.04094494069330889, 0.021953060316448534, 0.018995964045210458, 0.01713993118817881, 0.01576853067432115, 0.014564690683779273, 0.013486112411393726], "loss_vector": [0.024702630068917396, 0.021036705459957405, 0.019819594761830265, 0.019486005015481832, 0.019542234752453484, 0.020552026336791658, 0.019955287600662244], "train_finish": "2018-12-15 02:39:52.593554", "model": "CNN(\n  (embedding): Embedding(400000, 100)\n  (convs): ModuleList(\n    (0): Conv2d(1, 433, kernel_size=(3, 100), stride=(1, 1))\n    (1): Conv2d(1, 433, kernel_size=(4, 100), stride=(1, 1))\n    (2): Conv2d(1, 433, kernel_size=(5, 100), stride=(1, 1))\n  )\n  (fc1): Linear(in_features=1299, out_features=99, bias=True)\n  (fc2): Linear(in_features=99, out_features=126, bias=True)\n)"}, "{\"compact_dim\": 226.0, \"cpu_mode\": false, \"dropout_pctg\": 0.30810518220740224, \"filter_sizes\": [1, 4, 7], \"glove_dim\": 100, \"gpu_no\": 2, \"num_filters\": 535.0, \"stride\": 1, \"txt_length\": 2395.0}": {"glove_dim": 100, "num_filters": 535, "filter_sizes": [1, 4, 7], "compact_dim": 226, "dropout": 0.31, "stride": 1, "txt_length": 2395, "glove_dim ": 100, "batch_size": 256, "num_workers": 15, "epochs": 20, "train_start": "2018-12-15 02:39:53.568564", "train_error_message": "CUDA error: out of memory", "train_finish": "2018-12-15 02:46:13.436719", "model": "CNN(\n  (embedding): Embedding(400000, 100)\n  (convs): ModuleList(\n    (0): Conv2d(1, 535, kernel_size=(1, 100), stride=(1, 1))\n    (1): Conv2d(1, 535, kernel_size=(4, 100), stride=(1, 1))\n    (2): Conv2d(1, 535, kernel_size=(7, 100), stride=(1, 1))\n  )\n  (fc1): Linear(in_features=1605, out_features=226, bias=True)\n  (fc2): Linear(in_features=226, out_features=126, bias=True)\n)"}, "{\"compact_dim\": 287.0, \"cpu_mode\": false, \"dropout_pctg\": 0.4115907721907548, \"filter_sizes\": [1, 4, 7], \"glove_dim\": 100, \"gpu_no\": 2, \"num_filters\": 637.0, \"stride\": 1, \"txt_length\": 582.0}": {"glove_dim": 100, "num_filters": 637, "filter_sizes": [1, 4, 7], "compact_dim": 287, "dropout": 0.41, "stride": 1, "txt_length": 582, 
…
9672", "f1_scores": {"f1_score_2": 0.711574976906497, "f1_score_3": 0.8065208619159068, "f1_score_4": 0.7592312895543963}, "pAtK_scores": {"pAtK_1": 0.9600768008474576, "pAtK_3": 0.8270656779661016, "pAtK_5": 0.571729343220339}, "train_vector": [0.03388284741453756, 0.019134973323386185, 0.016455599561906235, 0.014545178730959741, 0.012889367239320017, 0.011434683813474917], "loss_vector": [0.021703962757552073, 0.01897880660717265, 0.018135095701821275, 0.018450545707433406, 0.018897472138879663, 0.019858802763461057], "train_finish": "2018-12-15 02:58:24.461965", "model": "CNN(\n  (embedding): Embedding(400000, 100)\n  (convs): ModuleList(\n    (0): Conv2d(1, 637, kernel_size=(1, 100), stride=(1, 1))\n    (1): Conv2d(1, 637, kernel_size=(4, 100), stride=(1, 1))\n    (2): Conv2d(1, 637, kernel_size=(7, 100), stride=(1, 1))\n  )\n  (fc1): Linear(in_features=1911, out_features=287, bias=True)\n  (fc2): Linear(in_features=287, out_features=126, bias=True)\n)"}, "{\"compact_dim\": 286.0, \"cpu_mode\": false, \"dropout_pctg\": 0.40618421801751975, \"filter_sizes\": [1, 3, 5], \"glove_dim\": 100, \"gpu_no\": 2, \"num_filters\": 640.0, \"stride\": 1, \"txt_length\": 1394.0}": {"glove_dim": 100, "num_filters": 640, "filter_sizes": [1, 3, 5], "compact_dim": 286, "dropout": 0.41, "stride": 1, "txt_length": 139
…
5464436005338, "f1_score_3": 0.80110833131574, "f1_score_4": 0.7561364331316427}, "pAtK_scores": {"pAtK_1": 0.9569981461864406, "pAtK_3": 0.8215152718926554, "pAtK_5": 0.5693657309322034}, "train_vector": [0.03561862619978993, 0.020115788970354667, 0.017520603042562446, 0.015721290917498056, 0.01428758407601878, 0.013002083495443075, 0.011882595356953183], "loss_vector": [0.022675968525078843, 0.0199950504732334, 0.018646956153087698, 0.01851718150615945, 0.018746835716321308, 0.018954024168710084, 0.02031980288388618], "train_finish": "2018-12-15 03:26:14.765917", "model": "CNN(\n  (embedding): Embedding(400000, 100)\n  (convs): ModuleList(\n    (0): Conv2d(1, 640, kernel_size=(1, 100), stride=(1, 1))\n    (1): Conv2d(1, 640, kernel_size=(3, 100), stride=(1, 1))\n    (2): Conv2d(1, 640, kernel_size=(5, 100), stride=(1, 1))\n  )\n  (fc1): Linear(in_features=1920, out_features=286, bias=True)\n  (fc2): Linear(in_features=286, out_features=126, bias=True)\n)"}, "{\"compact_dim\": 128.0, \"cpu_mode\": false, \"dropout_pctg\": 0.4988079996323365, \"filter_sizes\": [1, 4, 7], \"glove_dim\": 100, \"gpu_no\": 2, \"num_filters\": 698.0, \"stride\": 1, \"txt_length\": 1127.0}": {"glove_dim": 100, "num_filters": 698, "filter_sizes": [1, 4, 7], "compact_dim": 128, "dropout": 0.5, "stride": 1, "txt_length": 1127,
…
62506414861952, "f1_score_3": 0.7990961181502702, "f1_score_4": 0.7529211182253686}, "pAtK_scores": {"pAtK_1": 0.951900158898305, "pAtK_3": 0.8194518008474576, "pAtK_5": 0.5675979872881356}, "train_vector": [0.03779031428732897, 0.02080907067372349, 0.01776206016317858, 0.015699847414912885, 0.013968911246384231, 0.012492427424805157, 0.011153365997862657], "loss_vector": [0.02316857734695077, 0.019945130936043748, 0.01913415279113135, 0.018876396553685604, 0.0191329733815865, 0.019957539317655867, 0.02205615714034539], "train_finish": "2018-12-15 03:56:15.181435", "model": "CNN(\n  (embedding): Embedding(400000, 100)\n  (convs): ModuleList(\n    (0): Conv2d(1, 698, kernel_size=(1, 100), stride=(1, 1))\n    (1): Conv2d(1, 698, kernel_size=(4, 100), stride=(1, 1))\n    (2): Conv2d(1, 698, kernel_size=(7, 100), stride=(1, 1))\n  )\n  (fc1): Linear(in_features=2094, out_features=128, bias=True)\n  (fc2): Linear(in_features=128, out_features=126, bias=True)\n)"}, "{\"compact_dim\": 295.0, \"cpu_mode\": false, \"dropout_pctg\": 0.49773989347444525, \"filter_sizes\": [3, 4, 5], \"glove_dim\": 100, \"gpu_no\": 2, \"num_filters\": 774.0, \"stride\": 1, \"txt_length\": 904.0}": {"glove_dim": 100, "num_filters": 774, "filter_sizes": [3, 4, 5], "compact_dim": 295, "dropout": 0.5, "stride": 1, "txt_length": 904, 
…
5392", "f1_scores": {"f1_score_2": 0.7117032741455404, "f1_score_3": 0.8062733704570522, "f1_score_4": 0.7588513820294476}, "pAtK_scores": {"pAtK_1": 0.9582891949152542, "pAtK_3": 0.8268118820621468, "pAtK_5": 0.5715638241525424}, "train_vector": [0.03365198049722575, 0.019286147522010206, 0.016490892181968215, 0.014530538750080785, 0.012793151804014503, 0.011221152770048471], "loss_vector": [0.021281067613449136, 0.019509809352141822, 0.01859608712464066, 0.01877472402875201, 0.018960201686595457, 0.01961063161902761], "train_finish": "2018-12-15 04:18:55.057004", "model": "CNN(\n  (embedding): Embedding(400000, 100)\n  (convs): ModuleList(\n    (0): Conv2d(1, 774, kernel_size=(3, 100), stride=(1, 1))\n    (1): Conv2d(1, 774, kernel_size=(4, 100), stride=(1, 1))\n    (2): Conv2d(1, 774, kernel_size=(5, 100), stride=(1, 1))\n  )\n  (fc1): Linear(in_features=2322, out_features=295, bias=True)\n  (fc2): Linear(in_features=295, out_features=126, bias=True)\n)"}, "{\"compact_dim\": 71.0, \"cpu_mode\": false, \"dropout_pctg\": 0.38650973239929576, \"filter_sizes\": [1, 4, 7], \"glove_dim\": 50, \"gpu_no\": 2, \"num_filters\": 572.0, \"stride\": 1, \"txt_length\": 655.0}": {"glove_dim": 50, "num_filters": 572, "filter_sizes": [1, 4, 7], "compact_dim": 71, "dropout": 0.39, "stride": 1, "txt_length": 655, "gl
…
res": {"pAtK_1": 0.9537539724576272, "pAtK_3": 0.8119262005649718, "pAtK_5": 0.5615664724576271}, "train_vector": [0.049634942830853034, 0.026133671650341386, 0.022570117316659418, 0.020587748687968817, 0.019206263268970843, 0.018136895948268148, 0.017234200530418634, 0.016486807766085954, 0.015756708393103145], "loss_vector": [0.028995925165965396, 0.024670392227501184, 0.022915123401493844, 0.022284525075643245, 0.0226385500755603, 0.021625180760303796, 0.022094428349854582, 0.02289931187248331, 0.022662904105638548], "train_finish": "2018-12-15 04:33:13.028645", "model": "CNN(\n  (embedding): Embedding(400000, 50)\n  (convs): ModuleList(\n    (0): Conv2d(1, 572, kernel_size=(1, 50), stride=(1, 1))\n    (1): Conv2d(1, 572, kernel_size=(4, 50), stride=(1, 1))\n    (2): Conv2d(1, 572, kernel_size=(7, 50), stride=(1, 1))\n  )\n  (fc1): Linear(in_features=1716, out_features=71, bias=True)\n  (fc2): Linear(in_features=71, out_features=126, bias=True)\n)"}, "{\"compact_dim\": 210.0, \"cpu_mode\": false, \"dropout_pctg\": 0.4244937023886366, \"filter_sizes\": [1, 3, 5], \"glove_dim\": 100, \"gpu_no\": 2, \"num_filters\": 617.0, \"stride\": 1, \"txt_length\": 2027.0}": {"glove_dim": 100, "num_filters": 617, "filter_sizes": [1, 3, 5], "compact_dim": 210, "dropout": 0.42, "stride": 1, "txt_length": 2027, "glove_dim ": 100, "batch_size": 256, "num_workers": 15, "epochs": 20, "train_start": "2018-12-15 04:33:13.835251", "train_error_message": "CUDA error: out of memory", "train_finish": "2018-12-15 04:38:20.040850", "model": "CNN(\n  (embedding): Embedding(400000, 100)\n  (convs): ModuleList(\n    (0): Conv2d(1, 617, kernel_size=(1, 100), stride=(1, 1))\n    (1): Conv2d(1, 617, kernel_size=(3, 100), stride=(1, 1))\n    (2): Conv2d(1, 617, kernel_size=(5, 100), stride=(1, 1))\n  )\n  (fc1): Linear(in_features=1851, out_features=210, bias=True)\n  (fc2): Linear(in_features=210, out_features=126, bias=True)\n)"}, "{\"compact_dim\": 239.0, \"cpu_mode\": false, \"dropout_pctg\": 0.36048596958528606, \"filter_sizes\": [1, 4, 7], \"glove_dim\": 100, \"gpu_no\": 2, \"num_filters\": 640.0, \"stride\": 1, \"txt_length\": 1692.0}": {"glove_dim": 100, "num_filters": 640, "filter_sizes": [1, 4, 7], "compact_dim": 239, "dropout": 0.36, "stride": 1, "txt_length": 169
…
06584214307708, "f1_score_3": 0.8010330078282625, "f1_score_4": 0.7550430407427655}, "pAtK_scores": {"pAtK_1": 0.9573622881355932, "pAtK_3": 0.821438029661017, "pAtK_5": 0.5685911016949152}, "train_vector": [0.03512601955728411, 0.019880471425042602, 0.0171079897521456, 0.01514959234330782, 0.013444952118922682, 0.012033448639401787, 0.010812351142146414], "loss_vector": [0.022188392680896035, 0.019494619670371385, 0.018833078964913295, 0.01859469369243262, 0.0191232310686955, 0.02035892630090653, 0.021422056457564488], "train_finish": "2018-12-15 05:16:34.392022", "model": "CNN(\n  (embedding): Embedding(400000, 100)\n  (convs): ModuleList(\n    (0): Conv2d(1, 640, kernel_size=(1, 100), stride=(1, 1))\n    (1): Conv2d(1, 640, kernel_size=(4, 100), stride=(1, 1))\n    (2): Conv2d(1, 640, kernel_size=(7, 100), stride=(1, 1))\n  )\n  (fc1): Linear(in_features=1920, out_features=239, bias=True)\n  (fc2): Linear(in_features=239, out_features=126, bias=True)\n)"}, "{\"compact_dim\": 107.0, \"cpu_mode\": false, \"dropout_pctg\": 0.256864915730171, \"filter_sizes\": [3, 4, 5], \"glove_dim\": 50, \"gpu_no\": 2, \"num_filters\": 684.0, \"stride\": 1, \"txt_length\": 1056.0}": {"glove_dim": 50, "num_filters": 684, "filter_sizes": [3, 4, 5], "compact_dim": 107, "dropout": 0.26, "stride": 1, "txt_length": 1056, "
…
0.7053653905367956, "f1_score_3": 0.7991499206413258, "f1_score_4": 0.7540052445770518}, "pAtK_scores": {"pAtK_1": 0.95703125, "pAtK_3": 0.8195069738700564, "pAtK_5": 0.5677568855932204}, "train_vector": [0.04032632643339247, 0.023111649389525406, 0.020132608998892035, 0.01834330036688377, 0.017061726488809204, 0.01593146092776188, 0.014958111330711298], "loss_vector": [0.025532382272057615, 0.022107514379135634, 0.02113606787081492, 0.020034334330298637, 0.020492054561500328, 0.02034051893121105, 0.020486149013484434], "train_finish": "2018-12-15 05:38:07.705370", "model": "CNN(\n  (embedding): Embedding(400000, 50)\n  (convs): ModuleList(\n    (0): Conv2d(1, 684, kernel_size=(3, 50), stride=(1, 1))\n    (1): Conv2d(1, 684, kernel_size=(4, 50), stride=(1, 1))\n    (2): Conv2d(1, 684, kernel_size=(5, 50), stride=(1, 1))\n  )\n  (fc1): Linear(in_features=2052, out_features=107, bias=True)\n  (fc2): Linear(in_features=107, out_features=126, bias=True)\n)"}, "{\"compact_dim\": 263.0, \"cpu_mode\": false, \"dropout_pctg\": 0.47954811311706047, \"filter_sizes\": [1, 4, 7], \"glove_dim\": 100, \"gpu_no\": 2, \"num_filters\": 586.0, \"stride\": 1, \"txt_length\": 1274.0}": {"glove_dim": 100, "num_filters": 586, "filter_sizes": [1, 4, 7], "compact_dim": 263, "dropout": 0.48, "stride": 1, "txt_length": 127
…
793150", "f1_scores": {"f1_score_2": 0.7093554346710459, "f1_score_3": 0.8035509644096522, "f1_score_4": 0.7581193650911315}, "pAtK_scores": {"pAtK_1": 0.9603085275423728, "pAtK_3": 0.824020127118644, "pAtK_5": 0.5717161016949153}, "train_vector": [0.035598273779596054, 0.01993472100300909, 0.017232549259265924, 0.015278390067959986, 0.013679083005526938, 0.012239049494520989], "loss_vector": [0.021987053897168676, 0.01941366281391958, 0.018911996161786175, 0.01936589770208476, 0.01917493427014452, 0.01951300888716922], "train_finish": "2018-12-15 06:02:59.375286", "model": "CNN(\n  (embedding): Embedding(400000, 100)\n  (convs): ModuleList(\n    (0): Conv2d(1, 586, kernel_size=(1, 100), stride=(1, 1))\n    (1): Conv2d(1, 586, kernel_size=(4, 100), stride=(1, 1))\n    (2): Conv2d(1, 586, kernel_size=(7, 100), stride=(1, 1))\n  )\n  (fc1): Linear(in_features=1758, out_features=263, bias=True)\n  (fc2): Linear(in_features=263, out_features=126, bias=True)\n)"}, "{\"compact_dim\": 181.0, \"cpu_mode\": false, \"dropout_pctg\": 0.2984791248440409, \"filter_sizes\": [1, 4, 7], \"glove_dim\": 100, \"gpu_no\": 2, \"num_filters\": 759.0, \"stride\": 2, \"txt_length\": 758.0}": {"glove_dim": 100, "num_filters": 759, "filter_sizes": [1, 4, 7], "compact_dim": 181, "dropout": 0.3, "stride": 2, "txt_length": 758, "
…
78503", "f1_scores": {"f1_score_2": 0.7076875705634815, "f1_score_3": 0.801269738788906, "f1_score_4": 0.7553858841189388}, "pAtK_scores": {"pAtK_1": 0.9557402012711864, "pAtK_3": 0.821680790960452, "pAtK_5": 0.5691472457627119}, "train_vector": [0.036382488973537706, 0.02042104379650368, 0.01735619719774662, 0.015198992502538087, 0.013253552604120302, 0.011544792261681532], "loss_vector": [0.022746561687060837, 0.020055692524538708, 0.019285985418611158, 0.01988930078381199, 0.020302496653176464, 0.020853972457096737], "train_finish": "2018-12-15 06:12:34.292829", "model": "CNN(\n  (embedding): Embedding(400000, 100)\n  (convs): ModuleList(\n    (0): Conv2d(1, 759, kernel_size=(1, 100), stride=(2, 2))\n    (1): Conv2d(1, 759, kernel_size=(4, 100), stride=(2, 2))\n    (2): Conv2d(1, 759, kernel_size=(7, 100), stride=(2, 2))\n  )\n  (fc1): Linear(in_features=2277, out_features=181, bias=True)\n  (fc2): Linear(in_features=181, out_features=126, bias=True)\n)"}, "{\"compact_dim\": 162.0, \"cpu_mode\": false, \"dropout_pctg\": 0.4223240146080278, \"filter_sizes\": [1, 3, 5], \"glove_dim\": 50, \"gpu_no\": 2, \"num_filters\": 626.0, \"stride\": 1, \"txt_length\": 1587.0}": {"glove_dim": 50, "num_filters": 626, "filter_sizes": [1, 3, 5], "compact_dim": 162, "dropout": 0.42, "stride": 1, "txt_length": 1587, 
…
AtK_3": 0.8180724752824858, "pAtK_5": 0.567041843220339}, "train_vector": [0.040110809626004724, 0.02343709502135893, 0.020612256846212176, 0.01901306592606616, 0.017816777166997064, 0.01688577125177664, 0.016063523103272723, 0.015330123585212333, 0.014630574448497177, 0.014128100889535228], "loss_vector": [0.02539306205018597, 0.022095868521827763, 0.021138509459225303, 0.02024061385131741, 0.020593461643715026, 0.020334119048222143, 0.019837781794811205, 0.020389687143645044, 0.02132030378364153, 0.02097683481998363], "train_finish": "2018-12-15 06:49:35.923770", "model": "CNN(\n  (embedding): Embedding(400000, 50)\n  (convs): ModuleList(\n    (0): Conv2d(1, 626, kernel_size=(1, 50), stride=(1, 1))\n    (1): Conv2d(1, 626, kernel_size=(3, 50), stride=(1, 1))\n    (2): Conv2d(1, 626, kernel_size=(5, 50), stride=(1, 1))\n  )\n  (fc1): Linear(in_features=1878, out_features=162, bias=True)\n  (fc2): Linear(in_features=162, out_features=126, bias=True)\n)"}, "{\"compact_dim\": 281.0, \"cpu_mode\": false, \"dropout_pctg\": 0.37433568861969346, \"filter_sizes\": [1, 4, 7], \"glove_dim\": 100, \"gpu_no\": 2, \"num_filters\": 535.0, \"stride\": 2, \"txt_length\": 948.0}": {"glove_dim": 100, "num_filters": 535, "filter_sizes": [1, 4, 7], "compact_dim": 281, "dropout": 0.37, "stride": 2, "txt_length": 948,
…
9804988196653, "f1_score_3": 0.7981384338094855, "f1_score_4": 0.7523651559937362}, "pAtK_scores": {"pAtK_1": 0.953952595338983, "pAtK_3": 0.8184697210451978, "pAtK_5": 0.5667836334745763}, "train_vector": [0.03653087810325159, 0.0204176581137773, 0.01757122577297054, 0.015586767050541895, 0.013896005556863896, 0.012463942681752018, 0.01121665999749269], "loss_vector": [0.022991039198270793, 0.019834057475298136, 0.019404982721780317, 0.019305843394249678, 0.019427595052363005, 0.0202263507723682, 0.022394744134744852], "train_finish": "2018-12-15 07:00:01.772893", "model": "CNN(\n  (embedding): Embedding(400000, 100)\n  (convs): ModuleList(\n    (0): Conv2d(1, 535, kernel_size=(1, 100), stride=(2, 2))\n    (1): Conv2d(1, 535, kernel_size=(4, 100), stride=(2, 2))\n    (2): Conv2d(1, 535, kernel_size=(7, 100), stride=(2, 2))\n  )\n  (fc1): Linear(in_features=1605, out_features=281, bias=True)\n  (fc2): Linear(in_features=281, out_features=126, bias=True)\n)"}, "{\"compact_dim\": 129.0, \"cpu_mode\": false, \"dropout_pctg\": 0.4704746189106536, \"filter_sizes\": [1, 4, 7], \"glove_dim\": 50, \"gpu_no\": 2, \"num_filters\": 346.0, \"stride\": 1, \"txt_length\": 2575.0}": {"glove_dim": 50, "num_filters": 346, "filter_sizes": [1, 4, 7], "compact_dim": 129, "dropout": 0.47, "stride": 1, "txt_length": 2575, 
…
_scores": {"pAtK_1": 0.9524960275423728, "pAtK_3": 0.8126875882768362, "pAtK_5": 0.564016154661017}, "train_vector": [0.043207002317699014, 0.02447115138802232, 0.02144676349541098, 0.019852683564870702, 0.01865784529299675, 0.01778398879292992, 0.017034489224069315, 0.016396623725986968, 0.015829471561994112], "loss_vector": [0.02711281080935466, 0.022962089272815796, 0.021676328120027052, 0.021406527427104066, 0.020900998690749628, 0.020749785179682706, 0.020874675181773255, 0.02126444105879735, 0.021314065619292905], "train_finish": "2018-12-15 07:31:41.528671", "model": "CNN(\n  (embedding): Embedding(400000, 50)\n  (convs): ModuleList(\n    (0): Conv2d(1, 346, kernel_size=(1, 50), stride=(1, 1))\n    (1): Conv2d(1, 346, kernel_size=(4, 50), stride=(1, 1))\n    (2): Conv2d(1, 346, kernel_size=(7, 50), stride=(1, 1))\n  )\n  (fc1): Linear(in_features=1038, out_features=129, bias=True)\n  (fc2): Linear(in_features=129, out_features=126, bias=True)\n)"}, "{\"compact_dim\": 224.0, \"cpu_mode\": false, \"dropout_pctg\": 0.2636354313756334, \"filter_sizes\": [3, 4, 5], \"glove_dim\": 100, \"gpu_no\": 2, \"num_filters\": 795.0, \"stride\": 1, \"txt_length\": 608.0}": {"glove_dim": 100, "num_filters": 795, "filter_sizes": [3, 4, 5], "compact_dim": 224, "dropout": 0.26, "stride": 1, "txt_length": 608, 
…
: 0.7094580724622807, "f1_score_3": 0.8043580017754822, "f1_score_4": 0.7569611104418973}, "pAtK_scores": {"pAtK_1": 0.95703125, "pAtK_3": 0.8248477224576272, "pAtK_5": 0.5702065677966102}, "train_vector": [0.033883509362218955, 0.01917435305433408, 0.016406663476120135, 0.014402772205399324, 0.012658698023941926, 0.01117519112754493, 0.009846532660354445], "loss_vector": [0.021554082016444813, 0.01936116111385873, 0.01857383782044053, 0.01845595557874037, 0.01958308250532817, 0.019437453117600437, 0.02078690053895116], "train_finish": "2018-12-15 07:49:34.632802", "model": "CNN(\n  (embedding): Embedding(400000, 100)\n  (convs): ModuleList(\n    (0): Conv2d(1, 795, kernel_size=(3, 100), stride=(1, 1))\n    (1): Conv2d(1, 795, kernel_size=(4, 100), stride=(1, 1))\n    (2): Conv2d(1, 795, kernel_size=(5, 100), stride=(1, 1))\n  )\n  (fc1): Linear(in_features=2385, out_features=224, bias=True)\n  (fc2): Linear(in_features=224, out_features=126, bias=True)\n)"}, "{\"compact_dim\": 271.0, \"cpu_mode\": false, \"dropout_pctg\": 0.23364230848651948, \"filter_sizes\": [1, 3, 5], \"glove_dim\": 100, \"gpu_no\": 2, \"num_filters\": 679.0, \"stride\": 2, \"txt_length\": 1201.0}": {"glove_dim": 100, "num_filters": 679, "filter_sizes": [1, 3, 5], "compact_dim": 271, "dropout": 0.23, "stride": 2, "txt_length": 120
…
35.586811", "f1_scores": {"f1_score_2": 0.7080211433849944, "f1_score_3": 0.8006348693944529, "f1_score_4": 0.755293223747}, "pAtK_scores": {"pAtK_1": 0.9586864406779662, "pAtK_3": 0.8210297492937854, "pAtK_5": 0.5692730402542373}, "train_vector": [0.03614766942778959, 0.020530920953753154, 0.017791583715271793, 0.015896329036834286, 0.014325441062747302, 0.012897048513113435], "loss_vector": [0.022655837995521094, 0.01998374098122625, 0.0191830616775837, 0.019585234555021182, 0.020068160629184064, 0.01987289030389008], "train_finish": "2018-12-15 08:01:12.060019", "model": "CNN(\n  (embedding): Embedding(400000, 100)\n  (convs): ModuleList(\n    (0): Conv2d(1, 679, kernel_size=(1, 100), stride=(2, 2))\n    (1): Conv2d(1, 679, kernel_size=(3, 100), stride=(2, 2))\n    (2): Conv2d(1, 679, kernel_size=(5, 100), stride=(2, 2))\n  )\n  (fc1): Linear(in_features=2037, out_features=271, bias=True)\n  (fc2): Linear(in_features=271, out_features=126, bias=True)\n)"}, "{\"compact_dim\": 218.0, \"cpu_mode\": false, \"dropout_pctg\": 0.3472624080950302, \"filter_sizes\": [1, 4, 7], \"glove_dim\": 50, \"gpu_no\": 2, \"num_filters\": 400.0, \"stride\": 1, \"txt_length\": 1095.0}": {"glove_dim": 50, "num_filters": 400, "filter_sizes": [1, 4, 7], "compact_dim": 218, "dropout": 0.35, "stride": 1, "txt_length": 1095, 
…
K_scores": {"pAtK_1": 0.9529594809322034, "pAtK_3": 0.8168145303672316, "pAtK_5": 0.5662870762711865}, "train_vector": [0.04002166409540278, 0.02284000553296741, 0.020070934382778023, 0.018436458265758782, 0.017294522017007253, 0.01627906642772922, 0.015486358221358774, 0.01483230309143832, 0.014129284868260714], "loss_vector": [0.02516230078950777, 0.021824794916151944, 0.020347937365394024, 0.020397340484216053, 0.01985037498081387, 0.019763475331335753, 0.02098457182962763, 0.02042000311411033, 0.020898402889527507], "train_finish": "2018-12-15 08:18:19.288428", "model": "CNN(\n  (embedding): Embedding(400000, 50)\n  (convs): ModuleList(\n    (0): Conv2d(1, 400, kernel_size=(1, 50), stride=(1, 1))\n    (1): Conv2d(1, 400, kernel_size=(4, 50), stride=(1, 1))\n    (2): Conv2d(1, 400, kernel_size=(7, 50), stride=(1, 1))\n  )\n  (fc1): Linear(in_features=1200, out_features=218, bias=True)\n  (fc2): Linear(in_features=218, out_features=126, bias=True)\n)"}, "{\"compact_dim\": 202.0, \"cpu_mode\": false, \"dropout_pctg\": 0.402942493547719, \"filter_sizes\": [1, 4, 7], \"glove_dim\": 100, \"gpu_no\": 2, \"num_filters\": 593.0, \"stride\": 2, \"txt_length\": 2355.0}": {"glove_dim": 100, "num_filters": 593, "filter_sizes": [1, 4, 7], "compact_dim": 202, "dropout": 0.4, "stride": 2, "txt_length": 2355, 
…
20.235164", "f1_scores": {"f1_score_2": 0.7062121523144822, "f1_score_3": 0.7981491943076964, "f1_score_4": 0.752958182374144}, "pAtK_scores": {"pAtK_1": 0.956005031779661, "pAtK_3": 0.8184807556497176, "pAtK_5": 0.567531779661017}, "train_vector": [0.03800301910316186, 0.021293220430987213, 0.018276299594723013, 0.01621671971393152, 0.014463264936054624, 0.012969758532114285], "loss_vector": [0.02399928370585381, 0.020825472841891696, 0.019950552898759053, 0.01996871548057613, 0.02040248630189542, 0.02092155813381581], "train_finish": "2018-12-15 08:40:27.069185", "model": "CNN(\n  (embedding): Embedding(400000, 100)\n  (convs): ModuleList(\n    (0): Conv2d(1, 593, kernel_size=(1, 100), stride=(2, 2))\n    (1): Conv2d(1, 593, kernel_size=(4, 100), stride=(2, 2))\n    (2): Conv2d(1, 593, kernel_size=(7, 100), stride=(2, 2))\n  )\n  (fc1): Linear(in_features=1779, out_features=202, bias=True)\n  (fc2): Linear(in_features=202, out_features=126, bias=True)\n)"}, "{\"compact_dim\": 87.0, \"cpu_mode\": false, \"dropout_pctg\": 0.320263310136686, \"filter_sizes\": [1, 4, 7], \"glove_dim\": 100, \"gpu_no\": 2, \"num_filters\": 472.0, \"stride\": 1, \"txt_length\": 1363.0}": {"glove_dim": 100, "num_filters": 472, "filter_sizes": [1, 4, 7], "compact_dim": 87, "dropout": 0.32, "stride": 1, "txt_length": 1363, "
…
64928666737, "f1_score_3": 0.7985580932397168, "f1_score_4": 0.7530415767088888}, "pAtK_scores": {"pAtK_1": 0.9573291843220338, "pAtK_3": 0.818900070621469, "pAtK_5": 0.5673265360169492}, "train_vector": [0.04125922464145316, 0.022220928812190975, 0.019120731489976738, 0.017131990902443935, 0.01561728492644271, 0.014323993058489951, 0.013193713935830787], "loss_vector": [0.024624329423374038, 0.02095635133495523, 0.020113894100285183, 0.020062445883907504, 0.02009827237165833, 0.02010862786575394, 0.020999790761240963], "train_finish": "2018-12-15 09:04:50.921808", "model": "CNN(\n  (embedding): Embedding(400000, 100)\n  (convs): ModuleList(\n    (0): Conv2d(1, 472, kernel_size=(1, 100), stride=(1, 1))\n    (1): Conv2d(1, 472, kernel_size=(4, 100), stride=(1, 1))\n    (2): Conv2d(1, 472, kernel_size=(7, 100), stride=(1, 1))\n  )\n  (fc1): Linear(in_features=1416, out_features=87, bias=True)\n  (fc2): Linear(in_features=87, out_features=126, bias=True)\n)"}, "{\"compact_dim\": 188.0, \"cpu_mode\": false, \"dropout_pctg\": 0.21769566147082947, \"filter_sizes\": [1, 3, 5], \"glove_dim\": 50, \"gpu_no\": 2, \"num_filters\": 569.0, \"stride\": 1, \"txt_length\": 864.0}": {"glove_dim": 50, "num_filters": 569, "filter_sizes": [1, 3, 5], "compact_dim": 188, "dropout": 0.22, "stride": 1, "txt_length": 864, "g
…
, "f1_score_4": 0.755015242631184}, "pAtK_scores": {"pAtK_1": 0.9576602224576272, "pAtK_3": 0.8210849223163842, "pAtK_5": 0.5688360699152543}, "train_vector": [0.03978738807445742, 0.022852648247521107, 0.020176486083018315, 0.018581809960235004, 0.017420954207944518, 0.01650238054869891, 0.015676867107258123, 0.015033541899351173], "loss_vector": [0.025152882576872735, 0.021921181617209972, 0.020515412999853745, 0.01985040463317754, 0.019535048628004932, 0.020104818677498124, 0.01966586360960441, 0.020025004711696655], "train_finish": "2018-12-15 09:20:47.227768", "model": "CNN(\n  (embedding): Embedding(400000, 50)\n  (convs): ModuleList(\n    (0): Conv2d(1, 569, kernel_size=(1, 50), stride=(1, 1))\n    (1): Conv2d(1, 569, kernel_size=(3, 50), stride=(1, 1))\n    (2): Conv2d(1, 569, kernel_size=(5, 50), stride=(1, 1))\n  )\n  (fc1): Linear(in_features=1707, out_features=188, bias=True)\n  (fc2): Linear(in_features=188, out_features=126, bias=True)\n)"}, "{\"compact_dim\": 300.0, \"cpu_mode\": false, \"dropout_pctg\": 0.46485808223797065, \"filter_sizes\": [3, 4, 5], \"glove_dim\": 100, \"gpu_no\": 2, \"num_filters\": 745.0, \"stride\": 2, \"txt_length\": 1941.0}": {"glove_dim": 100, "num_filters": 745, "filter_sizes": [3, 4, 5], "compact_dim": 300, "dropout": 0.46, "stride": 2, "txt_length": 194
…
35694", "f1_scores": {"f1_score_2": 0.7043390126244484, "f1_score_3": 0.7977940978667313, "f1_score_4": 0.7522724956217974}, "pAtK_scores": {"pAtK_1": 0.9507415254237288, "pAtK_3": 0.818116613700565, "pAtK_5": 0.5669028072033898}, "train_vector": [0.03478868886390153, 0.020014707281817975, 0.017163720797478757, 0.015042851279636374, 0.01320003622884825, 0.011540838593680701], "loss_vector": [0.022470187916720317, 0.02002721195409106, 0.019167575653705558, 0.019398722000483235, 0.01997118765267275, 0.021214837642481266], "train_finish": "2018-12-15 09:42:06.926728", "model": "CNN(\n  (embedding): Embedding(400000, 100)\n  (convs): ModuleList(\n    (0): Conv2d(1, 745, kernel_size=(3, 100), stride=(2, 2))\n    (1): Conv2d(1, 745, kernel_size=(4, 100), stride=(2, 2))\n    (2): Conv2d(1, 745, kernel_size=(5, 100), stride=(2, 2))\n  )\n  (fc1): Linear(in_features=2235, out_features=300, bias=True)\n  (fc2): Linear(in_features=300, out_features=126, bias=True)\n)"}, "{\"compact_dim\": 259.0, \"cpu_mode\": false, \"dropout_pctg\": 0.43143067937943425, \"filter_sizes\": [1, 4, 7], \"glove_dim\": 100, \"gpu_no\": 2, \"num_filters\": 707.0, \"stride\": 1, \"txt_length\": 612.0}": {"glove_dim": 100, "num_filters": 707, "filter_sizes": [1, 4, 7], "compact_dim": 259, "dropout": 0.43, "stride": 1, "txt_length": 612,
…
3953607718362, "f1_score_3": 0.8053479676109004, "f1_score_4": 0.7590089046617433}, "pAtK_scores": {"pAtK_1": 0.9592161016949152, "pAtK_3": 0.8258629060734464, "pAtK_5": 0.5719478283898305}, "train_vector": [0.033758012005313524, 0.0191250613879985, 0.01641724992674233, 0.0144758545802429, 0.012766603057924835, 0.011242476358666903, 0.009986181611785456], "loss_vector": [0.021566537437739515, 0.018930099012677448, 0.0185921091538996, 0.018394715136895747, 0.019059599921801836, 0.02002436207544248, 0.020719088077292603], "train_finish": "2018-12-15 09:58:49.872330", "model": "CNN(\n  (embedding): Embedding(400000, 100)\n  (convs): ModuleList(\n    (0): Conv2d(1, 707, kernel_size=(1, 100), stride=(1, 1))\n    (1): Conv2d(1, 707, kernel_size=(4, 100), stride=(1, 1))\n    (2): Conv2d(1, 707, kernel_size=(7, 100), stride=(1, 1))\n  )\n  (fc1): Linear(in_features=2121, out_features=259, bias=True)\n  (fc2): Linear(in_features=259, out_features=126, bias=True)\n)"}, "{\"compact_dim\": 55.0, \"cpu_mode\": false, \"dropout_pctg\": 0.390453754344431, \"filter_sizes\": [1, 4, 7], \"glove_dim\": 100, \"gpu_no\": 2, \"num_filters\": 497.0, \"stride\": 1, \"txt_length\": 2141.0}": {"glove_dim": 100, "num_filters": 497, "filter_sizes": [1, 4, 7], "compact_dim": 55, "dropout": 0.39, "stride": 1, "txt_length": 2141, "
…
39, "f1_score_4": 0.7519574503572057}, "pAtK_scores": {"pAtK_1": 0.9570974576271186, "pAtK_3": 0.819385593220339, "pAtK_5": 0.5659560381355933}, "train_vector": [0.044640245875679455, 0.02350864211535629, 0.020234252667263065, 0.01822541854777276, 0.016700366492501586, 0.015427561498916862, 0.014291407210854867, 0.0133721265841127], "loss_vector": [0.026038507094322625, 0.022805384273435605, 0.02119804729344481, 0.020639815028378014, 0.02043890529233268, 0.020924400830230977, 0.021334914537935942, 0.021993574946803058], "train_finish": "2018-12-15 10:40:12.503700", "model": "CNN(\n  (embedding): Embedding(400000, 100)\n  (convs): ModuleList(\n    (0): Conv2d(1, 497, kernel_size=(1, 100), stride=(1, 1))\n    (1): Conv2d(1, 497, kernel_size=(4, 100), stride=(1, 1))\n    (2): Conv2d(1, 497, kernel_size=(7, 100), stride=(1, 1))\n  )\n  (fc1): Linear(in_features=1491, out_features=55, bias=True)\n  (fc2): Linear(in_features=55, out_features=126, bias=True)\n)"}, "{\"compact_dim\": 245.0, \"cpu_mode\": false, \"dropout_pctg\": 0.272961404895703, \"filter_sizes\": [1, 4, 7], \"glove_dim\": 50, \"gpu_no\": 2, \"num_filters\": 445.0, \"stride\": 2, \"txt_length\": 2816.0}": {"glove_dim": 50, "num_filters": 445, "filter_sizes": [1, 4, 7], "compact_dim": 245, "dropout": 0.27, "stride": 2, "txt_length": 2816, "g
…
8, "f1_score_4": 0.7478340638059321}, "pAtK_scores": {"pAtK_1": 0.9547139830508474, "pAtK_3": 0.8136144950564972, "pAtK_5": 0.5645060911016949}, "train_vector": [0.04099243444759943, 0.023642090294135477, 0.020776520793342104, 0.019102671915272946, 0.017834253257504564, 0.016761958409998515, 0.01582423679484673, 0.01510607835923302], "loss_vector": [0.025902066774413746, 0.02310971131990269, 0.021827260505850033, 0.02149459458414023, 0.020810178386331615, 0.020850897040533816, 0.02090393296458711, 0.021384226963302846], "train_finish": "2018-12-15 11:00:00.093959", "model": "CNN(\n  (embedding): Embedding(400000, 50)\n  (convs): ModuleList(\n    (0): Conv2d(1, 445, kernel_size=(1, 50), stride=(2, 2))\n    (1): Conv2d(1, 445, kernel_size=(4, 50), stride=(2, 2))\n    (2): Conv2d(1, 445, kernel_size=(7, 50), stride=(2, 2))\n  )\n  (fc1): Linear(in_features=1335, out_features=245, bias=True)\n  (fc2): Linear(in_features=245, out_features=126, bias=True)\n)"}, "{\"compact_dim\": 289.0, \"cpu_mode\": false, \"dropout_pctg\": 0.3423526551960464, \"filter_sizes\": [1, 4, 7], \"glove_dim\": 100, \"gpu_no\": 2, \"num_filters\": 369.0, \"stride\": 1, \"txt_length\": 1550.0}": {"glove_dim": 100, "num_filters": 369, "filter_sizes": [1, 4, 7], "compact_dim": 289, "dropout": 0.34, "stride": 1, "txt_length": 1550
…
652571077, "f1_score_3": 0.8010760498211067, "f1_score_4": 0.7552098294122553}, "pAtK_scores": {"pAtK_1": 0.9551112288135594, "pAtK_3": 0.821482168079096, "pAtK_5": 0.5689287605932203}, "train_vector": [0.03702718673355213, 0.02053066723285494, 0.017808095695171684, 0.01610911979765916, 0.014734542948959052, 0.013560034271923425, 0.012507405783274198], "loss_vector": [0.022670327804161835, 0.020148452892268107, 0.019605566550172485, 0.019069475903159987, 0.019100371250977456, 0.019865622096773932, 0.020173264454292544], "train_finish": "2018-12-15 11:21:26.874540", "model": "CNN(\n  (embedding): Embedding(400000, 100)\n  (convs): ModuleList(\n    (0): Conv2d(1, 369, kernel_size=(1, 100), stride=(1, 1))\n    (1): Conv2d(1, 369, kernel_size=(4, 100), stride=(1, 1))\n    (2): Conv2d(1, 369, kernel_size=(7, 100), stride=(1, 1))\n  )\n  (fc1): Linear(in_features=1107, out_features=289, bias=True)\n  (fc2): Linear(in_features=289, out_features=126, bias=True)\n)"}, "{\"compact_dim\": 276.0, \"cpu_mode\": false, \"dropout_pctg\": 0.37244863374935777, \"filter_sizes\": [3, 4, 5], \"glove_dim\": 100, \"gpu_no\": 2, \"num_filters\": 668.0, \"stride\": 1, \"txt_length\": 2225.0}": {"glove_dim": 100, "num_filters": 668, "filter_sizes": [3, 4, 5], "compact_dim": 276, "dropout": 0.37, "stride": 1, "txt_length": 2225, "glove_dim ": 100, "batch_size": 256, "num_workers": 15, "epochs": 20, "train_start": "2018-12-15 11:21:27.749194", "train_error_message": "CUDA error: out of memory", "train_finish": "2018-12-15 11:28:06.685277", "model": "CNN(\n  (embedding): Embedding(400000, 100)\n  (convs): ModuleList(\n    (0): Conv2d(1, 668, kernel_size=(3, 100), stride=(1, 1))\n    (1): Conv2d(1, 668, kernel_size=(4, 100), stride=(1, 1))\n    (2): Conv2d(1, 668, kernel_size=(5, 100), stride=(1, 1))\n  )\n  (fc1): Linear(in_features=2004, out_features=276, bias=True)\n  (fc2): Linear(in_features=276, out_features=126, bias=True)\n)"}, "{\"compact_dim\": 167.0, \"cpu_mode\": false, \"dropout_pctg\": 0.29952763108074043, \"filter_sizes\": [1, 3, 5], \"glove_dim\": 100, \"gpu_no\": 2, \"num_filters\": 520.0, \"stride\": 1, \"txt_length\": 1024.0}": {"glove_dim": 100, "num_filters": 520, "filter_sizes": [1, 3, 5], "compact_dim": 167, "dropout": 0.3, "stride": 1, "txt_length": 1024
…
9641794108, "f1_score_3": 0.803992144836306, "f1_score_4": 0.7576653292686317}, "pAtK_scores": {"pAtK_1": 0.9590505826271186, "pAtK_3": 0.8244725459039548, "pAtK_5": 0.5706501588983051}, "train_vector": [0.03897336557634754, 0.02131768311347381, 0.0185267736806589, 0.016792156807795534, 0.015389245561018332, 0.014228084763473137, 0.013159482474783454], "loss_vector": [0.023752415955256102, 0.020729593972091453, 0.019391268436497047, 0.019057233115437174, 0.019170557874870504, 0.019545147479590724, 0.019836621327420412], "train_finish": "2018-12-15 11:46:34.044201", "model": "CNN(\n  (embedding): Embedding(400000, 100)\n  (convs): ModuleList(\n    (0): Conv2d(1, 520, kernel_size=(1, 100), stride=(1, 1))\n    (1): Conv2d(1, 520, kernel_size=(3, 100), stride=(1, 1))\n    (2): Conv2d(1, 520, kernel_size=(5, 100), stride=(1, 1))\n  )\n  (fc1): Linear(in_features=1560, out_features=167, bias=True)\n  (fc2): Linear(in_features=167, out_features=126, bias=True)\n)"}, "{\"compact_dim\": 234.0, \"cpu_mode\": false, \"dropout_pctg\": 0.4553296691965273, \"filter_sizes\": [1, 4, 7], \"glove_dim\": 100, \"gpu_no\": 2, \"num_filters\": 550.0, \"stride\": 2, \"txt_length\": 731.0}": {"glove_dim": 100, "num_filters": 550, "filter_sizes": [1, 4, 7], "compact_dim": 234, "dropout": 0.46, "stride": 2, "txt_length": 731, 
…
7408395772, "f1_score_3": 0.8003550964409653, "f1_score_4": 0.7541905653209291}, "pAtK_scores": {"pAtK_1": 0.9557070974576272, "pAtK_3": 0.8207428495762712, "pAtK_5": 0.5678959216101694}, "train_vector": [0.038281626278354276, 0.02091743451308113, 0.017897778724371483, 0.015861957045925863, 0.01410453523857346, 0.01260832979642491, 0.01135720210803754], "loss_vector": [0.023710366654194008, 0.020638112160298278, 0.019598210593527655, 0.019376469894422817, 0.01958391867514889, 0.020236934898263316, 0.021828797677437128], "train_finish": "2018-12-15 11:54:49.479608", "model": "CNN(\n  (embedding): Embedding(400000, 100)\n  (convs): ModuleList(\n    (0): Conv2d(1, 550, kernel_size=(1, 100), stride=(2, 2))\n    (1): Conv2d(1, 550, kernel_size=(4, 100), stride=(2, 2))\n    (2): Conv2d(1, 550, kernel_size=(7, 100), stride=(2, 2))\n  )\n  (fc1): Linear(in_features=1650, out_features=234, bias=True)\n  (fc2): Linear(in_features=234, out_features=126, bias=True)\n)"}, "{\"compact_dim\": 268.0, \"cpu_mode\": false, \"dropout_pctg\": 0.48537047570131364, \"filter_sizes\": [1, 4, 7], \"glove_dim\": 50, \"gpu_no\": 2, \"num_filters\": 604.0, \"stride\": 1, \"txt_length\": 592.0}": {"glove_dim": 50, "num_filters": 604, "filter_sizes": [1, 4, 7], "compact_dim": 268, "dropout": 0.49, "stride": 1, "txt_length": 592, "
…
19111156727, "f1_score_3": 0.8010760498211067, "f1_score_4": 0.7544407483251637}, "pAtK_scores": {"pAtK_1": 0.9564684851694916, "pAtK_3": 0.821482168079096, "pAtK_5": 0.5684454449152543}, "train_vector": [0.036517927978025215, 0.021368881556747987, 0.01867611257207405, 0.016965878027291575, 0.015606652515846706, 0.014464999992661955, 0.013449225847766623], "loss_vector": [0.023699770121187982, 0.02048001383920595, 0.01995615744805437, 0.019555694392045676, 0.02056039307045482, 0.01997915212601676, 0.020285689571903923], "train_finish": "2018-12-15 12:05:14.965699", "model": "CNN(\n  (embedding): Embedding(400000, 50)\n  (convs): ModuleList(\n    (0): Conv2d(1, 604, kernel_size=(1, 50), stride=(1, 1))\n    (1): Conv2d(1, 604, kernel_size=(4, 50), stride=(1, 1))\n    (2): Conv2d(1, 604, kernel_size=(7, 50), stride=(1, 1))\n  )\n  (fc1): Linear(in_features=1812, out_features=268, bias=True)\n  (fc2): Linear(in_features=268, out_features=126, bias=True)\n)"}, "{\"compact_dim\": 137.0, \"cpu_mode\": false, \"dropout_pctg\": 0.18595649101150888, \"filter_sizes\": [1, 4, 7], \"glove_dim\": 100, \"gpu_no\": 2, \"num_filters\": 390.0, \"stride\": 1, \"txt_length\": 2999.0}": {"glove_dim": 100, "num_filters": 390, "filter_sizes": [1, 4, 7], "compact_dim": 137, "dropout": 0.19, "stride": 1, "txt_length": 2999, "glove_dim ": 100, "batch_size": 256, "num_workers": 15, "epochs": 20, "train_start": "2018-12-15 12:05:15.823138", "train_error_message": "CUDA error: out of memory", "train_finish": "2018-12-15 12:16:41.679120", "model": "CNN(\n  (embedding): Embedding(400000, 100)\n  (convs): ModuleList(\n    (0): Conv2d(1, 390, kernel_size=(1, 100), stride=(1, 1))\n    (1): Conv2d(1, 390, kernel_size=(4, 100), stride=(1, 1))\n    (2): Conv2d(1, 390, kernel_size=(7, 100), stride=(1, 1))\n  )\n  (fc1): Linear(in_features=1170, out_features=137, bias=True)\n  (fc2): Linear(in_features=137, out_features=126, bias=True)\n)"}, "{\"compact_dim\": 257.0, \"cpu_mode\": false, \"dropout_pctg\": 0.11133468146110931, \"filter_sizes\": [1, 4, 7], \"glove_dim\": 100, \"gpu_no\": 2, \"num_filters\": 445.0, \"stride\": 1, \"txt_length\": 514.0}": {"glove_dim": 100, "num_filters": 445, "filter_sizes": [1, 4, 7], "compact_dim": 257, "dropout": 0.11, "stride": 1, "txt_length": 514,
…
53854049061, "f1_score_3": 0.8060689209910419, "f1_score_4": 0.7590922989964882}, "pAtK_scores": {"pAtK_1": 0.9593154131355932, "pAtK_3": 0.8266022245762712, "pAtK_5": 0.571338718220339}, "train_vector": [0.035146617668148916, 0.019655307348414662, 0.017067463094796242, 0.015278015633871819, 0.01377629764657291, 0.012535970258673182, 0.011397973153178193], "loss_vector": [0.022075719792016987, 0.01926182400656201, 0.01888299225908467, 0.018413547931586283, 0.01881083442782194, 0.019208338995606214, 0.01972647133614805], "train_finish": "2018-12-15 12:26:02.135965", "model": "CNN(\n  (embedding): Embedding(400000, 100)\n  (convs): ModuleList(\n    (0): Conv2d(1, 445, kernel_size=(1, 100), stride=(1, 1))\n    (1): Conv2d(1, 445, kernel_size=(4, 100), stride=(1, 1))\n    (2): Conv2d(1, 445, kernel_size=(7, 100), stride=(1, 1))\n  )\n  (fc1): Linear(in_features=1335, out_features=257, bias=True)\n  (fc2): Linear(in_features=257, out_features=126, bias=True)\n)"}, "{\"compact_dim\": 292.0, \"cpu_mode\": false, \"dropout_pctg\": 0.16350170654338378, \"filter_sizes\": [1, 4, 7], \"glove_dim\": 100, \"gpu_no\": 2, \"num_filters\": 480.0, \"stride\": 1, \"txt_length\": 789.0}": {"glove_dim": 100, "num_filters": 480, "filter_sizes": [1, 4, 7], "compact_dim": 292, "dropout": 0.16, "stride": 1, "txt_length": 789,
…
.083819", "f1_scores": {"f1_score_2": 0.7120753361387663, "f1_score_3": 0.8064993409194845, "f1_score_4": 0.7600096366786816}, "pAtK_scores": {"pAtK_1": 0.960010593220339, "pAtK_3": 0.8270436087570622, "pAtK_5": 0.572364936440678}, "train_vector": [0.034612631792842324, 0.01944784895451545, 0.01683203756024591, 0.015042724134665569, 0.013553760178825435, 0.012215502122752863], "loss_vector": [0.02159065497502432, 0.019389666309106653, 0.018329510883570224, 0.01844027797075904, 0.01848268742531033, 0.019403222466866345], "train_finish": "2018-12-15 12:39:09.749302", "model": "CNN(\n  (embedding): Embedding(400000, 100)\n  (convs): ModuleList(\n    (0): Conv2d(1, 480, kernel_size=(1, 100), stride=(1, 1))\n    (1): Conv2d(1, 480, kernel_size=(4, 100), stride=(1, 1))\n    (2): Conv2d(1, 480, kernel_size=(7, 100), stride=(1, 1))\n  )\n  (fc1): Linear(in_features=1440, out_features=292, bias=True)\n  (fc2): Linear(in_features=292, out_features=126, bias=True)\n)"}, "{\"compact_dim\": 251.0, \"cpu_mode\": false, \"dropout_pctg\": 0.2344005245936585, \"filter_sizes\": [1, 4, 7], \"glove_dim\": 100, \"gpu_no\": 2, \"num_filters\": 315.0, \"stride\": 1, \"txt_length\": 892.0}": {"glove_dim": 100, "num_filters": 315, "filter_sizes": [1, 4, 7], "compact_dim": 251, "dropout": 0.23, "stride": 1, "txt_length": 892, 
…
08085292004516, "f1_score_3": 0.8017754822048262, "f1_score_4": 0.7557101954207244}, "pAtK_scores": {"pAtK_1": 0.9565346927966102, "pAtK_3": 0.8221994173728814, "pAtK_5": 0.5692068326271187}, "train_vector": [0.03860615458396004, 0.021021307985063294, 0.018273729329974703, 0.01658525004580023, 0.01523843826726079, 0.01414611517315628, 0.01317748840124235], "loss_vector": [0.023513000150668924, 0.020173418004128894, 0.01935216711076387, 0.018861169184921152, 0.01914433292034319, 0.0194281982968293, 0.020144528590963554], "train_finish": "2018-12-15 12:51:26.703978", "model": "CNN(\n  (embedding): Embedding(400000, 100)\n  (convs): ModuleList(\n    (0): Conv2d(1, 315, kernel_size=(1, 100), stride=(1, 1))\n    (1): Conv2d(1, 315, kernel_size=(4, 100), stride=(1, 1))\n    (2): Conv2d(1, 315, kernel_size=(7, 100), stride=(1, 1))\n  )\n  (fc1): Linear(in_features=945, out_features=251, bias=True)\n  (fc2): Linear(in_features=251, out_features=126, bias=True)\n)"}, "{\"compact_dim\": 283.0, \"cpu_mode\": false, \"dropout_pctg\": 0.14140150843575008, \"filter_sizes\": [1, 4, 7], \"glove_dim\": 100, \"gpu_no\": 2, \"num_filters\": 525.0, \"stride\": 1, \"txt_length\": 523.0}": {"glove_dim": 100, "num_filters": 525, "filter_sizes": [1, 4, 7], "compact_dim": 283, "dropout": 0.14, "stride": 1, "txt_length": 523,
…
7119342091758186, "f1_score_3": 0.806585424905173, "f1_score_4": 0.75969459141409}, "pAtK_scores": {"pAtK_1": 0.9587526483050848, "pAtK_3": 0.8271318855932204, "pAtK_5": 0.5717492055084745}, "train_vector": [0.03407908431952377, 0.019151714831003936, 0.01657902187026288, 0.014729598937361754, 0.01319222306511038, 0.01182677692060396, 0.010621994661354588], "loss_vector": [0.021179278231210123, 0.019030581220542474, 0.01819960740631667, 0.01809888971590642, 0.018630032198724604, 0.01949768920697398, 0.01979421388547299], "train_finish": "2018-12-15 13:02:44.728610", "model": "CNN(\n  (embedding): Embedding(400000, 100)\n  (convs): ModuleList(\n    (0): Conv2d(1, 525, kernel_size=(1, 100), stride=(1, 1))\n    (1): Conv2d(1, 525, kernel_size=(4, 100), stride=(1, 1))\n    (2): Conv2d(1, 525, kernel_size=(7, 100), stride=(1, 1))\n  )\n  (fc1): Linear(in_features=1575, out_features=283, bias=True)\n  (fc2): Linear(in_features=283, out_features=126, bias=True)\n)"}, "{\"compact_dim\": 282.0, \"cpu_mode\": false, \"dropout_pctg\": 0.1255180209212354, \"filter_sizes\": [1, 4, 7], \"glove_dim\": 100, \"gpu_no\": 2, \"num_filters\": 523.0, \"stride\": 1, \"txt_length\": 1251.0}": {"glove_dim": 100, "num_filters": 523, "filter_sizes": [1, 4, 7], "compact_dim": 282, "dropout": 0.13, "stride": 1, "txt_length": 1251
…
08418864826029, "f1_score_3": 0.8026686035563446, "f1_score_4": 0.756173497280418}, "pAtK_scores": {"pAtK_1": 0.9527277542372882, "pAtK_3": 0.8231152895480226, "pAtK_5": 0.5697629766949153}, "train_vector": [0.035303684905793456, 0.019857511685125572, 0.01715254751732131, 0.015326609439172374, 0.01378902957104924, 0.01235709467061585, 0.011226053617848702], "loss_vector": [0.0221946858722022, 0.01960335099690799, 0.018624817763092154, 0.018336978196403234, 0.018874145854832762, 0.01974321974409839, 0.02091179535550586], "train_finish": "2018-12-15 13:28:38.459579", "model": "CNN(\n  (embedding): Embedding(400000, 100)\n  (convs): ModuleList(\n    (0): Conv2d(1, 523, kernel_size=(1, 100), stride=(1, 1))\n    (1): Conv2d(1, 523, kernel_size=(4, 100), stride=(1, 1))\n    (2): Conv2d(1, 523, kernel_size=(7, 100), stride=(1, 1))\n  )\n  (fc1): Linear(in_features=1569, out_features=282, bias=True)\n  (fc2): Linear(in_features=282, out_features=126, bias=True)\n)"}, "{\"compact_dim\": 230.0, \"cpu_mode\": false, \"dropout_pctg\": 0.0837485278480879, \"filter_sizes\": [1, 4, 7], \"glove_dim\": 100, \"gpu_no\": 2, \"num_filters\": 555.0, \"stride\": 1, \"txt_length\": 570.0}": {"glove_dim": 100, "num_filters": 555, "filter_sizes": [1, 4, 7], "compact_dim": 230, "dropout": 0.08, "stride": 1, "txt_length": 570, 
…
324130144719, "f1_score_3": 0.8034110779329082, "f1_score_4": 0.7568035878096014}, "pAtK_scores": {"pAtK_1": 0.9539856991525424, "pAtK_3": 0.823876677259887, "pAtK_5": 0.5699417372881356}, "train_vector": [0.035919021560582534, 0.01973862658595875, 0.01703420026754462, 0.01512527146307748, 0.013540364339756842, 0.012165851570291186, 0.010929768244546804], "loss_vector": [0.022842432885288685, 0.019844975385625484, 0.01859404572080505, 0.018284299829185516, 0.01885123843706008, 0.019313939594490043, 0.02018952859028921], "train_finish": "2018-12-15 13:41:16.811677", "model": "CNN(\n  (embedding): Embedding(400000, 100)\n  (convs): ModuleList(\n    (0): Conv2d(1, 555, kernel_size=(1, 100), stride=(1, 1))\n    (1): Conv2d(1, 555, kernel_size=(4, 100), stride=(1, 1))\n    (2): Conv2d(1, 555, kernel_size=(7, 100), stride=(1, 1))\n  )\n  (fc1): Linear(in_features=1665, out_features=230, bias=True)\n  (fc2): Linear(in_features=230, out_features=126, bias=True)\n)"}, "{\"compact_dim\": 270.0, \"cpu_mode\": false, \"dropout_pctg\": 0.05299956589724894, \"filter_sizes\": [1, 4, 7], \"glove_dim\": 100, \"gpu_no\": 2, \"num_filters\": 489.0, \"stride\": 1, \"txt_length\": 701.0}": {"glove_dim": 100, "num_filters": 489, "filter_sizes": [1, 4, 7], "compact_dim": 270, "dropout": 0.05, "stride": 1, "txt_length": 701,
…
14991", "f1_scores": {"f1_score_2": 0.7116647849738273, "f1_score_3": 0.8062195679659969, "f1_score_4": 0.7597872517860287}, "pAtK_scores": {"pAtK_1": 0.959182997881356, "pAtK_3": 0.826756709039548, "pAtK_5": 0.5722325211864406}, "train_vector": [0.036158937876036766, 0.019869797989422105, 0.017189347543055632, 0.015335972466818861, 0.013773759413489354, 0.012438142653625367], "loss_vector": [0.022158101611470773, 0.01986122612794072, 0.018432257049795935, 0.01845611722634758, 0.018972411791209953, 0.01960720402046533], "train_finish": "2018-12-15 13:53:01.394216", "model": "CNN(\n  (embedding): Embedding(400000, 100)\n  (convs): ModuleList(\n    (0): Conv2d(1, 489, kernel_size=(1, 100), stride=(1, 1))\n    (1): Conv2d(1, 489, kernel_size=(4, 100), stride=(1, 1))\n    (2): Conv2d(1, 489, kernel_size=(7, 100), stride=(1, 1))\n  )\n  (fc1): Linear(in_features=1467, out_features=270, bias=True)\n  (fc2): Linear(in_features=270, out_features=126, bias=True)\n)"}, "{\"compact_dim\": 245.0, \"cpu_mode\": false, \"dropout_pctg\": 0.09808553252705003, \"filter_sizes\": [1, 4, 7], \"glove_dim\": 100, \"gpu_no\": 2, \"num_filters\": 513.0, \"stride\": 1, \"txt_length\": 1168.0}": {"glove_dim": 100, "num_filters": 513, "filter_sizes": [1, 4, 7], "compact_dim": 245, "dropout": 0.1, "stride": 1, "txt_length": 1168
…
146669403674, "f1_score_3": 0.8039491028434615, "f1_score_4": 0.7573317519296523}, "pAtK_scores": {"pAtK_1": 0.9578919491525424, "pAtK_3": 0.8244284074858758, "pAtK_5": 0.5703787076271186}, "train_vector": [0.036316438323590175, 0.02034338908464395, 0.017513849445578045, 0.01562715682026133, 0.01407435710632032, 0.012727425860477863, 0.01157601135721045], "loss_vector": [0.022749077023591024, 0.01990161855878719, 0.018762050409627667, 0.01868295422518405, 0.018710335566646467, 0.01937868970967198, 0.020232091026412227], "train_finish": "2018-12-15 14:17:17.735501", "model": "CNN(\n  (embedding): Embedding(400000, 100)\n  (convs): ModuleList(\n    (0): Conv2d(1, 513, kernel_size=(1, 100), stride=(1, 1))\n    (1): Conv2d(1, 513, kernel_size=(4, 100), stride=(1, 1))\n    (2): Conv2d(1, 513, kernel_size=(7, 100), stride=(1, 1))\n  )\n  (fc1): Linear(in_features=1539, out_features=245, bias=True)\n  (fc2): Linear(in_features=245, out_features=126, bias=True)\n)"}, "{\"compact_dim\": 218.0, \"cpu_mode\": false, \"dropout_pctg\": 0.14193702573757572, \"filter_sizes\": [1, 4, 7], \"glove_dim\": 100, \"gpu_no\": 2, \"num_filters\": 635.0, \"stride\": 1, \"txt_length\": 971.0}": {"glove_dim": 100, "num_filters": 635, "filter_sizes": [1, 4, 7], "compact_dim": 218, "dropout": 0.14, "stride": 1, "txt_length": 971,
…
9100893, "f1_score_3": 0.8045194092486482, "f1_score_4": 0.7586289971367945}, "pAtK_scores": {"pAtK_1": 0.9546477754237288, "pAtK_3": 0.8250132415254238, "pAtK_5": 0.5712989936440678}, "train_vector": [0.03614711759707394, 0.020136370563056085, 0.01731911295250878, 0.015263587722388684, 0.013601877287461421, 0.012191370799359945, 0.010902701717124548], "loss_vector": [0.022052098247143676, 0.019780720126325802, 0.018850855655589346, 0.018580650089908453, 0.018781903862826906, 0.020184701687451137, 0.020278368034731535], "train_finish": "2018-12-15 14:40:18.556092", "model": "CNN(\n  (embedding): Embedding(400000, 100)\n  (convs): ModuleList(\n    (0): Conv2d(1, 635, kernel_size=(1, 100), stride=(1, 1))\n    (1): Conv2d(1, 635, kernel_size=(4, 100), stride=(1, 1))\n    (2): Conv2d(1, 635, kernel_size=(7, 100), stride=(1, 1))\n  )\n  (fc1): Linear(in_features=1905, out_features=218, bias=True)\n  (fc2): Linear(in_features=218, out_features=126, bias=True)\n)"}, "{\"compact_dim\": 299.0, \"cpu_mode\": false, \"dropout_pctg\": 0.19847515845204186, \"filter_sizes\": [3, 4, 5], \"glove_dim\": 100, \"gpu_no\": 2, \"num_filters\": 573.0, \"stride\": 1, \"txt_length\": 826.0}": {"glove_dim": 100, "num_filters": 573, "filter_sizes": [3, 4, 5], "compact_dim": 299, "dropout": 0.2, "stride": 1, "txt_length": 826, 
…
2987786101, "f1_score_3": 0.8047238587146585, "f1_score_4": 0.7574336783387849}, "pAtK_scores": {"pAtK_1": 0.9566009004237288, "pAtK_3": 0.8252228990112994, "pAtK_5": 0.5705243644067797}, "train_vector": [0.03454569629101927, 0.019488128231735846, 0.01686355489724982, 0.014997323564973004, 0.013398169252696311, 0.011973054111145253, 0.010732124932463753], "loss_vector": [0.021927062690384306, 0.019601387982019932, 0.018699900444470726, 0.01815112561808299, 0.018759493147796492, 0.01934674642664396, 0.02096388199350844], "train_finish": "2018-12-15 14:58:11.522610", "model": "CNN(\n  (embedding): Embedding(400000, 100)\n  (convs): ModuleList(\n    (0): Conv2d(1, 573, kernel_size=(3, 100), stride=(1, 1))\n    (1): Conv2d(1, 573, kernel_size=(4, 100), stride=(1, 1))\n    (2): Conv2d(1, 573, kernel_size=(5, 100), stride=(1, 1))\n  )\n  (fc1): Linear(in_features=1719, out_features=299, bias=True)\n  (fc2): Linear(in_features=299, out_features=126, bias=True)\n)"}}