…
: 0.9723813965884861, "pAtK_3": 0.8420509061833689, "pAtK_5": 0.5806236673773987}, "train_vector": [0.026867017331319437, 0.019031474926869765, 0.01680423496261223, 0.015215234450171946, 0.014071455564779272, 0.013154396183715224], "valid_vector": [0.019055984777037, 0.017672761551304057, 0.017044056298659006, 0.016685337194977307, 0.017090758269797685, 0.01742185708093169], "test_vector": [0.018953014020202382, 0.01753288320402728, 0.016999792672995565, 0.01647569363845437, 0.016949567171349836, 0.017057983549252184], "train_finish": "2018-12-21 16:36:46.249804", "model": "CRNN(\n  (embedding): Embedding(400000, 200)\n  (convs): ModuleList(\n    (0): Conv2d(1, 1382, kernel_size=(2, 200), stride=(1, 1))\n    (1): Conv2d(1, 1382, kernel_size=(3, 200), stride=(1, 1))\n    (2): Conv2d(1, 1382, kernel_size=(4, 200), stride=(1, 1))\n  )\n  (batch_norms): ModuleList(\n    (0): BatchNorm2d(1382, eps=1e-05, momentum=0.1, affine=True, track_running_stats=True)\n    (1): BatchNorm2d(1382, eps=1e-05, momentum=0.1, affine=True, track_running_stats=True)\n    (2): BatchNorm2d(1382, eps=1e-05, momentum=0.1, affine=True, track_running_stats=True)\n  )\n  (gru): GRU(200, 690, num_layers=2, batch_first=True, dropout=0.17, bidirectional=True)\n  (fc1): Linear(in_features=6906, out_features=394, bias=True)\n  (fc2): Linear(in_features=394, out_features=126, bias=True)\n  (dropout): Dropout(p=0.17)\n)"}, "{\"batch_norm\": true, \"bottleneck_fc_dim\": 331.0, \"cpu_mode\": false, \"dropout_pctg\": 0.3426149460514504, \"epochs\": 20, \"filter_sizes\": [2, 3, 4], \"glove_dim\": 300, \"gpu_no\": 2, \"num_filters\": 916.0, \"rnn_bidirectional\": true, \"rnn_hidden_size\": 372.0, \"rnn_num_layers\": 11.0, \"stride\": 1, \"t
…
1": 0.9727478678038379, "pAtK_3": 0.8405739161336176, "pAtK_5": 0.5786580490405118}, "train_vector": [0.03160196140690795, 0.022688729590622025, 0.020331392536067038, 0.0186624759039121, 0.017392446915146954, 0.016567710849551907], "valid_vector": [0.02069499292959477, 0.019538749577795295, 0.01805615975525973, 0.017492347629368504, 0.017970206798550718, 0.01805369959370211], "test_vector": [0.02044153602908987, 0.01928248487190524, 0.018059905028657744, 0.017348350363293054, 0.01789354506645725, 0.018091878841823734], "train_finish": "2018-12-21 21:17:31.843479", "model": "CRNN(\n  (embedding): Embedding(400000, 300)\n  (convs): ModuleList(\n    (0): Conv2d(1, 916, kernel_size=(2, 300), stride=(1, 1))\n    (1): Conv2d(1, 916, kernel_size=(3, 300), stride=(1, 1))\n    (2): Conv2d(1, 916, kernel_size=(4, 300), stride=(1, 1))\n  )\n  (batch_norms): ModuleList(\n    (0): BatchNorm2d(916, eps=1e-05, momentum=0.1, affine=True, track_running_stats=True)\n    (1): BatchNorm2d(916, eps=1e-05, momentum=0.1, affine=True, track_running_stats=True)\n    (2): BatchNorm2d(916, eps=1e-05, momentum=0.1, affine=True, track_running_stats=True)\n  )\n  (gru): GRU(300, 372, num_layers=11, batch_first=True, dropout=0.34, bidirectional=True)\n  (fc1): Linear(in_features=10932, out_features=331, bias=True)\n  (fc2): Linear(in_features=331, out_features=126, bias=True)\n  (dropout): Dropout(p=0.34)\n)"}, "{\"batch_norm\": true, \"bottleneck_fc_dim\": 369.0, \"cpu_mode\": false, \"dropout_pctg\": 0.02221770475427747, \"epochs\": 20, \"filter_sizes\": [3, 4, 5, 6], \"glove_dim\": 300, \"gpu_no\": 2, \"num_filters\": 1056.0, \"rnn_bidirectional\": true, \"rnn_hidden_size\": 216.0, \"rnn_num_layers\": 12.0, \"stride\": 1
…
5, "f1_score_4": 0.7648040497315941}, "pAtK_scores": {"pAtK_1": 0.9685167910447762, "pAtK_3": 0.837719882729211, "pAtK_5": 0.5785047974413646}, "train_vector": [0.025412527885558353, 0.018126461317707072, 0.01605050759889452, 0.015160071820973864, 0.013974343005156795], "valid_vector": [0.020391195894840525, 0.017874665532771474, 0.016838407435112876, 0.017617959052082032, 0.018609420770455572], "test_vector": [0.020150189496465583, 0.01774238388556471, 0.016742638844464506, 0.017515262884737204, 0.018494459935454035], "train_finish": "2018-12-22 01:04:20.401238", "model": "CRNN(\n  (embedding): Embedding(400000, 300)\n  (convs): ModuleList(\n    (0): Conv2d(1, 1056, kernel_size=(3, 300), stride=(1, 1))\n    (1): Conv2d(1, 1056, kernel_size=(4, 300), stride=(1, 1))\n    (2): Conv2d(1, 1056, kernel_size=(5, 300), stride=(1, 1))\n    (3): Conv2d(1, 1056, kernel_size=(6, 300), stride=(1, 1))\n  )\n  (batch_norms): ModuleList(\n    (0): BatchNorm2d(1056, eps=1e-05, momentum=0.1, affine=True, track_running_stats=True)\n    (1): BatchNorm2d(1056, eps=1e-05, momentum=0.1, affine=True, track_running_stats=True)\n    (2): BatchNorm2d(1056, eps=1e-05, momentum=0.1, affine=True, track_running_stats=True)\n    (3): BatchNorm2d(1056, eps=1e-05, momentum=0.1, affine=True, track_running_stats=True)\n  )\n  (gru): GRU(300, 216, num_layers=12, batch_first=True, dropout=0.02, bidirectional=True)\n  (fc1): Linear(in_features=9408, out_features=369, bias=True)\n  (fc2): Linear(in_features=369, out_features=126, bias=True)\n  (dropout): Dropout(p=0.02)\n)"}, "{\"batch_norm\": true, \"bottleneck_fc_dim\": 214.0, \"cpu_mode\": false, \"dropout_pctg\": 0.10793827076011811, \"epochs\": 20, \"filter_sizes\": [1, 2, 3, 4, 5, 6], \"glove_dim\": 300, \"gpu_no\": 2, \"num_filters\": 1064.0, \"rnn_bidirectional\": true, \"rnn_hidden_size\": 585.0, \"rnn_num_layers\": 14.0, \"strid
…
g": 0.11, "num_filters": 1064, "bottleneck_fc_dim": 214, "glove_dim": 300, "batch_norm": true, "filter_sizes": [1, 2, 3, 4, 5, 6], "rnn_hidden_size": 585, "rnn_num_layers": 14, "rnn_bidirectional": true, "batch_size": 64, "num_workers": 12, "epochs": 20, "txt_length": 425, "train_start": "2018-12-22 01:04:21.315669", "no_of_trainable_params": 94906432, "train_error_message": "CUDA out of memory. Tried to allocate 3.98 GiB (GPU 2; 7.93 GiB total capacity; 2.42 GiB already allocated; 841.56 MiB free; 644.95 MiB cached)", "train_finish": "2018-12-22 01:04:53.765862", "model": "CRNN(\n  (embedding): Embedding(400000, 300)\n  (convs): ModuleList(\n    (0): Conv2d(1, 1064, kernel_size=(1, 300), stride=(1, 1))\n    (1): Conv2d(1, 1064, kernel_size=(2, 300), stride=(1, 1))\n    (2): Conv2d(1, 1064, kernel_size=(3, 300), stride=(1, 1))\n    (3): Conv2d(1, 1064, kernel_size=(4, 300), stride=(1, 1))\n    (4): Conv2d(1, 1064, kernel_size=(5, 300), stride=(1, 1))\n    (5): Conv2d(1, 1064, kernel_size=(6, 300), stride=(1, 1))\n  )\n  (batch_norms): ModuleList(\n    (0): BatchNorm2d(1064, eps=1e-05, momentum=0.1, affine=True, track_running_stats=True)\n    (1): BatchNorm2d(1064, eps=1e-05, momentum=0.1, affine=True, track_running_stats=True)\n    (2): BatchNorm2d(1064, eps=1e-05, momentum=0.1, affine=True, track_running_stats=True)\n    (3): BatchNorm2d(1064, eps=1e-05, momentum=0.1, affine=True, track_running_stats=True)\n    (4): BatchNorm2d(1064, eps=1e-05, momentum=0.1, affine=True, track_running_stats=True)\n    (5): BatchNorm2d(1064, eps=1e-05, momentum=0.1, affine=True, track_running_stats=True)\n  )\n  (gru): GRU(300, 585, num_layers=14, batch_first=True, dropout=0.11, bidirectional=True)\n  (fc1): Linear(in_features=22764, out_features=214, bias=True)\n  (fc2): Linear(in_features=214, out_features=126, bias=True)\n  (dropout): Dropout(p=0.11)\n)"}, "{\"batch_norm\": true, \"bottleneck_fc_dim\": 442.0, \"cpu_mode\": false, \"dropout_pctg\": 0.19302545932798978, \"epochs\": 20, \"filter_sizes\": [2, 3, 4, 5], \"glove_dim\": 100, \"gpu_no\": 2, \"num_filters\": 965.0, \"rnn_bidirectional\": true, \"rnn_hidden_size\": 696.0, \"rnn_num_layers\": 7.0, \"stride\": 1, 
…
ropout_pctg": 0.19, "num_filters": 965, "bottleneck_fc_dim": 442, "glove_dim": 100, "batch_norm": true, "filter_sizes": [2, 3, 4, 5], "rnn_hidden_size": 696, "rnn_num_layers": 7, "rnn_bidirectional": true, "batch_size": 64, "num_workers": 12, "epochs": 20, "txt_length": 700, "train_start": "2018-12-22 01:04:54.552777", "no_of_trainable_params": 63131296, "train_error_message": "CUDA out of memory. Tried to allocate 3.40 GiB (GPU 2; 7.93 GiB total capacity; 1.59 GiB already allocated; 227.56 MiB free; 2.42 GiB cached)", "train_finish": "2018-12-22 01:05:24.641300", "model": "CRNN(\n  (embedding): Embedding(400000, 100)\n  (convs): ModuleList(\n    (0): Conv2d(1, 965, kernel_size=(2, 100), stride=(1, 1))\n    (1): Conv2d(1, 965, kernel_size=(3, 100), stride=(1, 1))\n    (2): Conv2d(1, 965, kernel_size=(4, 100), stride=(1, 1))\n    (3): Conv2d(1, 965, kernel_size=(5, 100), stride=(1, 1))\n  )\n  (batch_norms): ModuleList(\n    (0): BatchNorm2d(965, eps=1e-05, momentum=0.1, affine=True, track_running_stats=True)\n    (1): BatchNorm2d(965, eps=1e-05, momentum=0.1, affine=True, track_running_stats=True)\n    (2): BatchNorm2d(965, eps=1e-05, momentum=0.1, affine=True, track_running_stats=True)\n    (3): BatchNorm2d(965, eps=1e-05, momentum=0.1, affine=True, track_running_stats=True)\n  )\n  (gru): GRU(100, 696, num_layers=7, batch_first=True, dropout=0.19, bidirectional=True)\n  (fc1): Linear(in_features=13604, out_features=442, bias=True)\n  (fc2): Linear(in_features=442, out_features=126, bias=True)\n  (dropout): Dropout(p=0.19)\n)"}, "{\"batch_norm\": true, \"bottleneck_fc_dim\": 483.0, \"cpu_mode\": false, \"dropout_pctg\": 0.47850365404972894, \"epochs\": 20, \"filter_sizes\": [2, 3, 4], \"glove_dim\": 100, \"gpu_no\": 2, \"num_filters\": 1027.0, \"rnn_bidirectional\": true, \"rnn_hidden_size\": 518.0, \"rnn_num_layers\": 13.0, \"stride\": 1, \
…
{"dropout_pctg": 0.48, "num_filters": 1027, "bottleneck_fc_dim": 483, "glove_dim": 100, "batch_norm": true, "filter_sizes": [2, 3, 4], "rnn_hidden_size": 518, "rnn_num_layers": 13, "rnn_bidirectional": true, "batch_size": 64, "num_workers": 12, "epochs": 20, "txt_length": 464, "train_start": "2018-12-22 01:05:25.424343", "no_of_trainable_params": 68947713, "train_error_message": "CUDA out of memory. Tried to allocate 3.12 GiB (GPU 2; 7.93 GiB total capacity; 1.60 GiB already allocated; 2.80 GiB free; 2.54 GiB cached)", "train_finish": "2018-12-22 01:05:49.912991", "model": "CRNN(\n  (embedding): Embedding(400000, 100)\n  (convs): ModuleList(\n    (0): Conv2d(1, 1027, kernel_size=(2, 100), stride=(1, 1))\n    (1): Conv2d(1, 1027, kernel_size=(3, 100), stride=(1, 1))\n    (2): Conv2d(1, 1027, kernel_size=(4, 100), stride=(1, 1))\n  )\n  (batch_norms): ModuleList(\n    (0): BatchNorm2d(1027, eps=1e-05, momentum=0.1, affine=True, track_running_stats=True)\n    (1): BatchNorm2d(1027, eps=1e-05, momentum=0.1, affine=True, track_running_stats=True)\n    (2): BatchNorm2d(1027, eps=1e-05, momentum=0.1, affine=True, track_running_stats=True)\n  )\n  (gru): GRU(100, 518, num_layers=13, batch_first=True, dropout=0.48, bidirectional=True)\n  (fc1): Linear(in_features=16549, out_features=483, bias=True)\n  (fc2): Linear(in_features=483, out_features=126, bias=True)\n  (dropout): Dropout(p=0.48)\n)"}, "{\"batch_norm\": true, \"bottleneck_fc_dim\": 413.0, \"cpu_mode\": false, \"dropout_pctg\": 0.2868875715290448, \"epochs\": 20, \"filter_sizes\": [1, 2, 3], \"glove_dim\": 200, \"gpu_no\": 2, \"num_filters\": 1238.0, \"rnn_bidirectional\": true, \"rnn_hidden_size\": 658.0, \"rnn_num_layers\": 10.0, \"stride\": 1, \"
…
{"dropout_pctg": 0.29, "num_filters": 1238, "bottleneck_fc_dim": 413, "glove_dim": 200, "batch_norm": true, "filter_sizes": [1, 2, 3], "rnn_hidden_size": 658, "rnn_num_layers": 10, "rnn_bidirectional": true, "batch_size": 64, "num_workers": 12, "epochs": 20, "txt_length": 719, "train_start": "2018-12-22 01:05:50.669546", "no_of_trainable_params": 82124793, "train_error_message": "CUDA out of memory. Tried to allocate 3.69 GiB (GPU 2; 7.93 GiB total capacity; 1.13 GiB already allocated; 3.33 GiB free; 2.82 GiB cached)", "train_finish": "2018-12-22 01:06:14.670838", "model": "CRNN(\n  (embedding): Embedding(400000, 200)\n  (convs): ModuleList(\n    (0): Conv2d(1, 1238, kernel_size=(1, 200), stride=(1, 1))\n    (1): Conv2d(1, 1238, kernel_size=(2, 200), stride=(1, 1))\n    (2): Conv2d(1, 1238, kernel_size=(3, 200), stride=(1, 1))\n  )\n  (batch_norms): ModuleList(\n    (0): BatchNorm2d(1238, eps=1e-05, momentum=0.1, affine=True, track_running_stats=True)\n    (1): BatchNorm2d(1238, eps=1e-05, momentum=0.1, affine=True, track_running_stats=True)\n    (2): BatchNorm2d(1238, eps=1e-05, momentum=0.1, affine=True, track_running_stats=True)\n  )\n  (gru): GRU(200, 658, num_layers=10, batch_first=True, dropout=0.29, bidirectional=True)\n  (fc1): Linear(in_features=16874, out_features=413, bias=True)\n  (fc2): Linear(in_features=413, out_features=126, bias=True)\n  (dropout): Dropout(p=0.29)\n)"}, "{\"batch_norm\": true, \"bottleneck_fc_dim\": 384.0, \"cpu_mode\": false, \"dropout_pctg\": 0.20208769832527623, \"epochs\": 20, \"filter_sizes\": [1, 2, 3, 4, 5, 6], \"glove_dim\": 300, \"gpu_no\": 2, \"num_filters\": 1285.0, \"rnn_bidirectional\": true, \"rnn_hidden_size\": 668.0, \"rnn_num_layers\": 4.0, \"stride
…
896, "f1_score_4": 0.767529830612188}, "pAtK_scores": {"pAtK_1": 0.9714152452025586, "pAtK_3": 0.8407960199004975, "pAtK_5": 0.5799706823027718}, "train_vector": [0.028183174766590192, 0.019621852586809208, 0.01744996309141244, 0.01592438472305666, 0.014729900554462615], "valid_vector": [0.019567747517346915, 0.017427357098982254, 0.017050120390644834, 0.01778336228058884, 0.017550471796915292], "test_vector": [0.019377202017983392, 0.017300940907077747, 0.016981892348296924, 0.017691833029654044, 0.01726798434902642], "train_finish": "2018-12-22 05:30:11.488587", "model": "CRNN(\n  (embedding): Embedding(400000, 300)\n  (convs): ModuleList(\n    (0): Conv2d(1, 1285, kernel_size=(1, 300), stride=(1, 1))\n    (1): Conv2d(1, 1285, kernel_size=(2, 300), stride=(1, 1))\n    (2): Conv2d(1, 1285, kernel_size=(3, 300), stride=(1, 1))\n    (3): Conv2d(1, 1285, kernel_size=(4, 300), stride=(1, 1))\n    (4): Conv2d(1, 1285, kernel_size=(5, 300), stride=(1, 1))\n    (5): Conv2d(1, 1285, kernel_size=(6, 300), stride=(1, 1))\n  )\n  (batch_norms): ModuleList(\n    (0): BatchNorm2d(1285, eps=1e-05, momentum=0.1, affine=True, track_running_stats=True)\n    (1): BatchNorm2d(1285, eps=1e-05, momentum=0.1, affine=True, track_running_stats=True)\n    (2): BatchNorm2d(1285, eps=1e-05, momentum=0.1, affine=True, track_running_stats=True)\n    (3): BatchNorm2d(1285, eps=1e-05, momentum=0.1, affine=True, track_running_stats=True)\n    (4): BatchNorm2d(1285, eps=1e-05, momentum=0.1, affine=True, track_running_stats=True)\n    (5): BatchNorm2d(1285, eps=1e-05, momentum=0.1, affine=True, track_running_stats=True)\n  )\n  (gru): GRU(300, 668, num_layers=4, batch_first=True, dropout=0.2, bidirectional=True)\n  (fc1): Linear(in_features=13054, out_features=384, bias=True)\n  (fc2): Linear(in_features=384, out_features=126, bias=True)\n  (dropout): Dropout(p=0.2)\n)"}, "{\"batch_norm\": true, \"bottleneck_fc_dim\": 292.0, \"cpu_mode\": false, \"dropout_pctg\": 0.3547249959626045, \"epochs\": 20, \"filter_sizes\": [3, 4, 5], \"glove_dim\": 300, \"gpu_no\": 2, \"num_filters\": 1407.0, \"rnn_bidirectional\": true, \"rnn_hidden_size\": 560.0, \"rnn_num_layers\": 4.0, \"stride\": 1, \"tx
…
31, "f1_score_4": 0.7662874678979038}, "pAtK_scores": {"pAtK_1": 0.9714818763326226, "pAtK_3": 0.8398742892679459, "pAtK_5": 0.5789045842217484}, "train_vector": [0.02979612005665787, 0.021245931399183043, 0.01901952862906545, 0.017544046859132682, 0.016419946086461773], "valid_vector": [0.019512571850051875, 0.018730364064239204, 0.017282873042362697, 0.017784009110117988, 0.018153111332593595], "test_vector": [0.01940401275751433, 0.018587557160094983, 0.017169348103230567, 0.01780164258669752, 0.018058383974359868], "train_finish": "2018-12-22 08:11:16.782741", "model": "CRNN(\n  (embedding): Embedding(400000, 300)\n  (convs): ModuleList(\n    (0): Conv2d(1, 1407, kernel_size=(3, 300), stride=(1, 1))\n    (1): Conv2d(1, 1407, kernel_size=(4, 300), stride=(1, 1))\n    (2): Conv2d(1, 1407, kernel_size=(5, 300), stride=(1, 1))\n  )\n  (batch_norms): ModuleList(\n    (0): BatchNorm2d(1407, eps=1e-05, momentum=0.1, affine=True, track_running_stats=True)\n    (1): BatchNorm2d(1407, eps=1e-05, momentum=0.1, affine=True, track_running_stats=True)\n    (2): BatchNorm2d(1407, eps=1e-05, momentum=0.1, affine=True, track_running_stats=True)\n  )\n  (gru): GRU(300, 560, num_layers=4, batch_first=True, dropout=0.35, bidirectional=True)\n  (fc1): Linear(in_features=8701, out_features=292, bias=True)\n  (fc2): Linear(in_features=292, out_features=126, bias=True)\n  (dropout): Dropout(p=0.35)\n)"}, "{\"batch_norm\": true, \"bottleneck_fc_dim\": 571.0, \"cpu_mode\": false, \"dropout_pctg\": 0.2517858923663218, \"epochs\": 20, \"filter_sizes\": [3, 4, 5], \"glove_dim\": 300, \"gpu_no\": 2, \"num_filters\": 884.0, \"rnn_bidirectional\": true, \"rnn_hidden_size\": 217.0, \"rnn_num_layers\": 6.0, \"stride\": 1, \"tx
…
5800706289978678}, "train_vector": [0.026687875578404584, 0.019100751591898033, 0.017391538204353903, 0.015916933542740676, 0.01481579535460873, 0.013746033076260522, 0.013529815037437618], "valid_vector": [0.01899305141807945, 0.017248853232397804, 0.01695166412796299, 0.017159634061517125, 0.016675644256953975, 0.01720377719763275, 0.0175748585002819], "test_vector": [0.018919981867154396, 0.01717699453163185, 0.016902294297859485, 0.01713181426351481, 0.01672517512736322, 0.017286200308675833, 0.017740710643427905], "train_finish": "2018-12-22 11:44:44.430734", "model": "CRNN(\n  (embedding): Embedding(400000, 300)\n  (convs): ModuleList(\n    (0): Conv2d(1, 884, kernel_size=(3, 300), stride=(1, 1))\n    (1): Conv2d(1, 884, kernel_size=(4, 300), stride=(1, 1))\n    (2): Conv2d(1, 884, kernel_size=(5, 300), stride=(1, 1))\n  )\n  (batch_norms): ModuleList(\n    (0): BatchNorm2d(884, eps=1e-05, momentum=0.1, affine=True, track_running_stats=True)\n    (1): BatchNorm2d(884, eps=1e-05, momentum=0.1, affine=True, track_running_stats=True)\n    (2): BatchNorm2d(884, eps=1e-05, momentum=0.1, affine=True, track_running_stats=True)\n  )\n  (gru): GRU(300, 217, num_layers=6, batch_first=True, dropout=0.25, bidirectional=True)\n  (fc1): Linear(in_features=5256, out_features=571, bias=True)\n  (fc2): Linear(in_features=571, out_features=126, bias=True)\n  (dropout): Dropout(p=0.25)\n)"}, "{\"batch_norm\": true, \"bottleneck_fc_dim\": 468.0, \"cpu_mode\": false, \"dropout_pctg\": 0.11648939016859156, \"epochs\": 20, \"filter_sizes\": [1, 2, 3, 4, 5, 6], \"glove_dim\": 200, \"gpu_no\": 2, \"num_filters\": 630.0, \"rnn_bidirectional\": true, \"rnn_hidden_size\": 488.0, \"rnn_num_layers\": 11.0, \"stride
…
pctg": 0.12, "num_filters": 630, "bottleneck_fc_dim": 468, "glove_dim": 200, "batch_norm": true, "filter_sizes": [1, 2, 3, 4, 5, 6], "rnn_hidden_size": 488, "rnn_num_layers": 11, "rnn_bidirectional": true, "batch_size": 64, "num_workers": 12, "epochs": 20, "txt_length": 595, "train_start": "2018-12-22 11:44:45.432088", "no_of_trainable_params": 54455190, "train_error_message": "CUDA out of memory. Tried to allocate 3.30 GiB (GPU 2; 7.93 GiB total capacity; 1.50 GiB already allocated; 2.27 GiB free; 291.34 MiB cached)", "train_finish": "2018-12-22 11:46:19.310861", "model": "CRNN(\n  (embedding): Embedding(400000, 200)\n  (convs): ModuleList(\n    (0): Conv2d(1, 630, kernel_size=(1, 200), stride=(1, 1))\n    (1): Conv2d(1, 630, kernel_size=(2, 200), stride=(1, 1))\n    (2): Conv2d(1, 630, kernel_size=(3, 200), stride=(1, 1))\n    (3): Conv2d(1, 630, kernel_size=(4, 200), stride=(1, 1))\n    (4): Conv2d(1, 630, kernel_size=(5, 200), stride=(1, 1))\n    (5): Conv2d(1, 630, kernel_size=(6, 200), stride=(1, 1))\n  )\n  (batch_norms): ModuleList(\n    (0): BatchNorm2d(630, eps=1e-05, momentum=0.1, affine=True, track_running_stats=True)\n    (1): BatchNorm2d(630, eps=1e-05, momentum=0.1, affine=True, track_running_stats=True)\n    (2): BatchNorm2d(630, eps=1e-05, momentum=0.1, affine=True, track_running_stats=True)\n    (3): BatchNorm2d(630, eps=1e-05, momentum=0.1, affine=True, track_running_stats=True)\n    (4): BatchNorm2d(630, eps=1e-05, momentum=0.1, affine=True, track_running_stats=True)\n    (5): BatchNorm2d(630, eps=1e-05, momentum=0.1, affine=True, track_running_stats=True)\n  )\n  (gru): GRU(200, 488, num_layers=11, batch_first=True, dropout=0.12, bidirectional=True)\n  (fc1): Linear(in_features=14516, out_features=468, bias=True)\n  (fc2): Linear(in_features=468, out_features=126, bias=True)\n  (dropout): Dropout(p=0.12)\n)"}, "{\"batch_norm\": true, \"bottleneck_fc_dim\": 532.0, \"cpu_mode\": false, \"dropout_pctg\": 0.2123870838385355, \"epochs\": 20, \"filter_sizes\": [3, 4, 5], \"glove_dim\": 300, \"gpu_no\": 2, \"num_filters\": 769.0, \"rnn_bidirectional\": true, \"rnn_hidden_size\": 394.0, \"rnn_num_layers\": 12.0, \"stride\": 1, \"t
…
 {"dropout_pctg": 0.21, "num_filters": 769, "bottleneck_fc_dim": 532, "glove_dim": 300, "batch_norm": true, "filter_sizes": [3, 4, 5], "rnn_hidden_size": 394, "rnn_num_layers": 12, "rnn_bidirectional": true, "batch_size": 64, "num_workers": 12, "epochs": 20, "txt_length": 774, "train_start": "2018-12-22 11:46:20.081880", "no_of_trainable_params": 41535007, "train_error_message": "CUDA out of memory. Tried to allocate 3.21 GiB (GPU 2; 7.93 GiB total capacity; 1.40 GiB already allocated; 3.10 GiB free; 2.78 GiB cached)", "train_finish": "2018-12-22 11:46:47.866995", "model": "CRNN(\n  (embedding): Embedding(400000, 300)\n  (convs): ModuleList(\n    (0): Conv2d(1, 769, kernel_size=(3, 300), stride=(1, 1))\n    (1): Conv2d(1, 769, kernel_size=(4, 300), stride=(1, 1))\n    (2): Conv2d(1, 769, kernel_size=(5, 300), stride=(1, 1))\n  )\n  (batch_norms): ModuleList(\n    (0): BatchNorm2d(769, eps=1e-05, momentum=0.1, affine=True, track_running_stats=True)\n    (1): BatchNorm2d(769, eps=1e-05, momentum=0.1, affine=True, track_running_stats=True)\n    (2): BatchNorm2d(769, eps=1e-05, momentum=0.1, affine=True, track_running_stats=True)\n  )\n  (gru): GRU(300, 394, num_layers=12, batch_first=True, dropout=0.21, bidirectional=True)\n  (fc1): Linear(in_features=11763, out_features=532, bias=True)\n  (fc2): Linear(in_features=532, out_features=126, bias=True)\n  (dropout): Dropout(p=0.21)\n)"}, "{\"batch_norm\": true, \"bottleneck_fc_dim\": 290.0, \"cpu_mode\": false, \"dropout_pctg\": 0.46925515852003735, \"epochs\": 20, \"filter_sizes\": [1, 2, 3, 4, 5, 6], \"glove_dim\": 100, \"gpu_no\": 2, \"num_filters\": 1038.0, \"rnn_bidirectional\": true, \"rnn_hidden_size\": 68.0, \"rnn_num_layers\": 12.0, \"stride
…
81856417976788, 0.01996111735058481, 0.01875988325564312, 0.017764695622116376, 0.016984580646506577], "valid_vector": [0.022646804633580132, 0.02111481566519252, 0.0194633617947029, 0.01898199074026912, 0.018755594749119815, 0.018281022430152328, 0.01825665579890328, 0.018369331646379012, 0.018331625262525544], "test_vector": [0.022472114709299256, 0.02096689530590704, 0.019331810191702613, 0.0188738244083295, 0.018542203420737403, 0.01820420551258745, 0.018241998197427438, 0.018307414908669016, 0.018230216889413817], "train_finish": "2018-12-22 15:33:04.957288", "model": "CRNN(\n  (embedding): Embedding(400000, 100)\n  (convs): ModuleList(\n    (0): Conv2d(1, 1038, kernel_size=(1, 100), stride=(1, 1))\n    (1): Conv2d(1, 1038, kernel_size=(2, 100), stride=(1, 1))\n    (2): Conv2d(1, 1038, kernel_size=(3, 100), stride=(1, 1))\n    (3): Conv2d(1, 1038, kernel_size=(4, 100), stride=(1, 1))\n    (4): Conv2d(1, 1038, kernel_size=(5, 100), stride=(1, 1))\n    (5): Conv2d(1, 1038, kernel_size=(6, 100), stride=(1, 1))\n  )\n  (batch_norms): ModuleList(\n    (0): BatchNorm2d(1038, eps=1e-05, momentum=0.1, affine=True, track_running_stats=True)\n    (1): BatchNorm2d(1038, eps=1e-05, momentum=0.1, affine=True, track_running_stats=True)\n    (2): BatchNorm2d(1038, eps=1e-05, momentum=0.1, affine=True, track_running_stats=True)\n    (3): BatchNorm2d(1038, eps=1e-05, momentum=0.1, affine=True, track_running_stats=True)\n    (4): BatchNorm2d(1038, eps=1e-05, momentum=0.1, affine=True, track_running_stats=True)\n    (5): BatchNorm2d(1038, eps=1e-05, momentum=0.1, affine=True, track_running_stats=True)\n  )\n  (gru): GRU(100, 68, num_layers=12, batch_first=True, dropout=0.47, bidirectional=True)\n  (fc1): Linear(in_features=7860, out_features=290, bias=True)\n  (fc2): Linear(in_features=290, out_features=126, bias=True)\n  (dropout): Dropout(p=0.47)\n)"}, "{\"batch_norm\": true, \"bottleneck_fc_dim\": 382.0, \"cpu_mode\": false, \"dropout_pctg\": 0.2958181999202345, \"epochs\": 20, \"filter_sizes\": [2, 3, 4], \"glove_dim\": 100, \"gpu_no\": 2, \"num_filters\": 1326.0, \"rnn_bidirectional\": true, \"rnn_hidden_size\": 401.0, \"rnn_num_layers\": 6.0, \"stride\": 1, \"t
…
86980277185501}, "train_vector": [0.032138013290370575, 0.022641692165953277, 0.02036681715294663, 0.019048185597880563, 0.017975299850229488, 0.017248346826002965, 0.016711002665874025], "valid_vector": [0.021211786250988924, 0.018953780436874436, 0.0181136870442002, 0.017999021579443948, 0.017427187015328294, 0.017534983521605384, 0.0175411019354874], "test_vector": [0.02103773292019042, 0.01874431117828975, 0.017822856186771954, 0.017909204752158635, 0.017323935809515432, 0.017373971701629444, 0.017635670680203226], "train_finish": "2018-12-22 20:37:47.369831", "model": "CRNN(\n  (embedding): Embedding(400000, 100)\n  (convs): ModuleList(\n    (0): Conv2d(1, 1326, kernel_size=(2, 100), stride=(1, 1))\n    (1): Conv2d(1, 1326, kernel_size=(3, 100), stride=(1, 1))\n    (2): Conv2d(1, 1326, kernel_size=(4, 100), stride=(1, 1))\n  )\n  (batch_norms): ModuleList(\n    (0): BatchNorm2d(1326, eps=1e-05, momentum=0.1, affine=True, track_running_stats=True)\n    (1): BatchNorm2d(1326, eps=1e-05, momentum=0.1, affine=True, track_running_stats=True)\n    (2): BatchNorm2d(1326, eps=1e-05, momentum=0.1, affine=True, track_running_stats=True)\n  )\n  (gru): GRU(100, 401, num_layers=6, batch_first=True, dropout=0.3, bidirectional=True)\n  (fc1): Linear(in_features=8790, out_features=382, bias=True)\n  (fc2): Linear(in_features=382, out_features=126, bias=True)\n  (dropout): Dropout(p=0.3)\n)"}, "{\"batch_norm\": true, \"bottleneck_fc_dim\": 548.0, \"cpu_mode\": false, \"dropout_pctg\": 0.19683696430229486, \"epochs\": 20, \"filter_sizes\": [1, 2, 3, 4, 5], \"glove_dim\": 300, \"gpu_no\": 2, \"num_filters\": 931.0, \"rnn_bidirectional\": true, \"rnn_hidden_size\": 625.0, \"rnn_num_layers\": 5.0, \"stride\": 1
…
: 0.9722814498933902, "pAtK_3": 0.8411513859275054, "pAtK_5": 0.5805370469083155}, "train_vector": [0.02768674082934793, 0.019687499786382234, 0.017467264724987795, 0.01591041812940581, 0.01469400719669424, 0.013833434544622962], "valid_vector": [0.019219219590773554, 0.017918803105835737, 0.016979049836128537, 0.01653254868482291, 0.016897386927251963, 0.017572057045582158], "test_vector": [0.019155094803158027, 0.01769481129896666, 0.016717451366423164, 0.01641545274745681, 0.016882340789143083, 0.01755177678723039], "train_finish": "2018-12-23 03:57:15.492659", "model": "CRNN(\n  (embedding): Embedding(400000, 300)\n  (convs): ModuleList(\n    (0): Conv2d(1, 931, kernel_size=(1, 300), stride=(1, 1))\n    (1): Conv2d(1, 931, kernel_size=(2, 300), stride=(1, 1))\n    (2): Conv2d(1, 931, kernel_size=(3, 300), stride=(1, 1))\n    (3): Conv2d(1, 931, kernel_size=(4, 300), stride=(1, 1))\n    (4): Conv2d(1, 931, kernel_size=(5, 300), stride=(1, 1))\n  )\n  (batch_norms): ModuleList(\n    (0): BatchNorm2d(931, eps=1e-05, momentum=0.1, affine=True, track_running_stats=True)\n    (1): BatchNorm2d(931, eps=1e-05, momentum=0.1, affine=True, track_running_stats=True)\n    (2): BatchNorm2d(931, eps=1e-05, momentum=0.1, affine=True, track_running_stats=True)\n    (3): BatchNorm2d(931, eps=1e-05, momentum=0.1, affine=True, track_running_stats=True)\n    (4): BatchNorm2d(931, eps=1e-05, momentum=0.1, affine=True, track_running_stats=True)\n  )\n  (gru): GRU(300, 625, num_layers=5, batch_first=True, dropout=0.2, bidirectional=True)\n  (fc1): Linear(in_features=10905, out_features=548, bias=True)\n  (fc2): Linear(in_features=548, out_features=126, bias=True)\n  (dropout): Dropout(p=0.2)\n)"}, "{\"batch_norm\": true, \"bottleneck_fc_dim\": 460.0, \"cpu_mode\": false, \"dropout_pctg\": 0.3402754746391526, \"epochs\": 20, \"filter_sizes\": [2, 3, 4, 5], \"glove_dim\": 100, \"gpu_no\": 2, \"num_filters\": 1001.0, \"rnn_bidirectional\": true, \"rnn_hidden_size\": 308.0, \"rnn_num_layers\": 10.0, \"stride\": 1, 
…
5649520255863539}, "train_vector": [0.03319101366713909, 0.023816032710374833, 0.02146966582084156, 0.019856835988806432, 0.018633979481268225, 0.017608464064485053, 0.01940067194706861], "valid_vector": [0.022100161637928186, 0.01991130723315142, 0.01838738612159451, 0.018663462071092738, 0.017776302957057413, 0.01799522256349593, 0.0231004157187993], "test_vector": [0.02191044894386647, 0.019741940202870602, 0.018348314022935276, 0.018479184221738436, 0.017665003025248996, 0.017853620396589418, 0.022812273736590387], "train_finish": "2018-12-23 09:31:05.758774", "model": "CRNN(\n  (embedding): Embedding(400000, 100)\n  (convs): ModuleList(\n    (0): Conv2d(1, 1001, kernel_size=(2, 100), stride=(1, 1))\n    (1): Conv2d(1, 1001, kernel_size=(3, 100), stride=(1, 1))\n    (2): Conv2d(1, 1001, kernel_size=(4, 100), stride=(1, 1))\n    (3): Conv2d(1, 1001, kernel_size=(5, 100), stride=(1, 1))\n  )\n  (batch_norms): ModuleList(\n    (0): BatchNorm2d(1001, eps=1e-05, momentum=0.1, affine=True, track_running_stats=True)\n    (1): BatchNorm2d(1001, eps=1e-05, momentum=0.1, affine=True, track_running_stats=True)\n    (2): BatchNorm2d(1001, eps=1e-05, momentum=0.1, affine=True, track_running_stats=True)\n    (3): BatchNorm2d(1001, eps=1e-05, momentum=0.1, affine=True, track_running_stats=True)\n  )\n  (gru): GRU(100, 308, num_layers=10, batch_first=True, dropout=0.34, bidirectional=True)\n  (fc1): Linear(in_features=10164, out_features=460, bias=True)\n  (fc2): Linear(in_features=460, out_features=126, bias=True)\n  (dropout): Dropout(p=0.34)\n)"}, "{\"batch_norm\": true, \"bottleneck_fc_dim\": 374.0, \"cpu_mode\": false, \"dropout_pctg\": 0.21281807529435487, \"epochs\": 20, \"filter_sizes\": [1, 2, 3, 4, 5], \"glove_dim\": 100, \"gpu_no\": 2, \"num_filters\": 1450.0, \"rnn_bidirectional\": true, \"rnn_hidden_size\": 631.0, \"rnn_num_layers\": 1.0, \"stride\":
…
0292988322, 0.018831647055625136, 0.017215297893738313, 0.01596806373528186, 0.014870275489602281, 0.01401540541498581, 0.013252718318720907], "valid_vector": [0.020247302085870125, 0.01841802602789716, 0.01723712962455869, 0.01714936326576103, 0.017404995049967537, 0.017017774060984123, 0.017261584891244144, 0.018157522527012988], "test_vector": [0.019961624900732975, 0.0182267713731826, 0.017068575362740424, 0.017066837814666315, 0.017275417054782926, 0.016937264336594766, 0.017188260562098358, 0.018078700748524433], "train_finish": "2018-12-23 11:08:41.430603", "model": "CRNN(\n  (embedding): Embedding(400000, 100)\n  (convs): ModuleList(\n    (0): Conv2d(1, 1450, kernel_size=(1, 100), stride=(1, 1))\n    (1): Conv2d(1, 1450, kernel_size=(2, 100), stride=(1, 1))\n    (2): Conv2d(1, 1450, kernel_size=(3, 100), stride=(1, 1))\n    (3): Conv2d(1, 1450, kernel_size=(4, 100), stride=(1, 1))\n    (4): Conv2d(1, 1450, kernel_size=(5, 100), stride=(1, 1))\n  )\n  (batch_norms): ModuleList(\n    (0): BatchNorm2d(1450, eps=1e-05, momentum=0.1, affine=True, track_running_stats=True)\n    (1): BatchNorm2d(1450, eps=1e-05, momentum=0.1, affine=True, track_running_stats=True)\n    (2): BatchNorm2d(1450, eps=1e-05, momentum=0.1, affine=True, track_running_stats=True)\n    (3): BatchNorm2d(1450, eps=1e-05, momentum=0.1, affine=True, track_running_stats=True)\n    (4): BatchNorm2d(1450, eps=1e-05, momentum=0.1, affine=True, track_running_stats=True)\n  )\n  (gru): GRU(100, 631, batch_first=True, dropout=0.21, bidirectional=True)\n  (fc1): Linear(in_features=8512, out_features=374, bias=True)\n  (fc2): Linear(in_features=374, out_features=126, bias=True)\n  (dropout): Dropout(p=0.21)\n)"}, "{\"batch_norm\": true, \"bottleneck_fc_dim\": 482.0, \"cpu_mode\": false, \"dropout_pctg\": 0.4311887723206008, \"epochs\": 20, \"filter_sizes\": [1, 2, 3], \"glove_dim\": 300, \"gpu_no\": 2, \"num_filters\": 709.0, \"rnn_bidirectional\": true, \"rnn_hidden_size\": 197.0, \"rnn_num_layers\": 4.0, \"stride\": 1, \"tx
…
57903137, 0.019432844393841898, 0.01838198982143383, 0.017520913957114248, 0.016927950703061863, 0.016358595932714576, 0.015968822065557938], "valid_vector": [0.0188970685851371, 0.017943328722064365, 0.01772566204601432, 0.017600264123912506, 0.017287193396901174, 0.017117557619119497, 0.018073291299639513, 0.017719018222294502], "test_vector": [0.018629644904087094, 0.01780954482498517, 0.017663344180882612, 0.017514205722412322, 0.017193034759907327, 0.017014560564709052, 0.017810910475501884, 0.017454994118599687], "train_finish": "2018-12-23 13:39:42.541567", "model": "CRNN(\n  (embedding): Embedding(400000, 300)\n  (convs): ModuleList(\n    (0): Conv2d(1, 709, kernel_size=(1, 300), stride=(1, 1))\n    (1): Conv2d(1, 709, kernel_size=(2, 300), stride=(1, 1))\n    (2): Conv2d(1, 709, kernel_size=(3, 300), stride=(1, 1))\n  )\n  (batch_norms): ModuleList(\n    (0): BatchNorm2d(709, eps=1e-05, momentum=0.1, affine=True, track_running_stats=True)\n    (1): BatchNorm2d(709, eps=1e-05, momentum=0.1, affine=True, track_running_stats=True)\n    (2): BatchNorm2d(709, eps=1e-05, momentum=0.1, affine=True, track_running_stats=True)\n  )\n  (gru): GRU(300, 197, num_layers=4, batch_first=True, dropout=0.43, bidirectional=True)\n  (fc1): Linear(in_features=3703, out_features=482, bias=True)\n  (fc2): Linear(in_features=482, out_features=126, bias=True)\n  (dropout): Dropout(p=0.43)\n)"}, "{\"batch_norm\": true, \"bottleneck_fc_dim\": 225.0, \"cpu_mode\": false, \"dropout_pctg\": 0.16699628098254504, \"epochs\": 20, \"filter_sizes\": [1, 2, 3], \"glove_dim\": 300, \"gpu_no\": 2, \"num_filters\": 1123.0, \"rnn_bidirectional\": true, \"rnn_hidden_size\": 463.0, \"rnn_num_layers\": 10.0, \"stride\": 1, \
…
17422204, "f1_score_4": 0.7660927692635755}, "pAtK_scores": {"pAtK_1": 0.9717817164179104, "pAtK_3": 0.839852078891258, "pAtK_5": 0.5786847014925374}, "train_vector": [0.028523440523721126, 0.02032938940657289, 0.0181524789792246, 0.01654990342457599, 0.015408619786309537], "valid_vector": [0.019844971380870678, 0.01827863843164353, 0.017104671935293712, 0.01750899244392507, 0.017562471643668105], "test_vector": [0.01960278430711359, 0.018110157617095755, 0.017007248200126675, 0.0173400974641842, 0.017596405684582588], "train_finish": "2018-12-23 18:42:57.507904", "model": "CRNN(\n  (embedding): Embedding(400000, 300)\n  (convs): ModuleList(\n    (0): Conv2d(1, 1123, kernel_size=(1, 300), stride=(1, 1))\n    (1): Conv2d(1, 1123, kernel_size=(2, 300), stride=(1, 1))\n    (2): Conv2d(1, 1123, kernel_size=(3, 300), stride=(1, 1))\n  )\n  (batch_norms): ModuleList(\n    (0): BatchNorm2d(1123, eps=1e-05, momentum=0.1, affine=True, track_running_stats=True)\n    (1): BatchNorm2d(1123, eps=1e-05, momentum=0.1, affine=True, track_running_stats=True)\n    (2): BatchNorm2d(1123, eps=1e-05, momentum=0.1, affine=True, track_running_stats=True)\n  )\n  (gru): GRU(300, 463, num_layers=10, batch_first=True, dropout=0.17, bidirectional=True)\n  (fc1): Linear(in_features=12629, out_features=225, bias=True)\n  (fc2): Linear(in_features=225, out_features=126, bias=True)\n  (dropout): Dropout(p=0.17)\n)"}, "{\"batch_norm\": true, \"bottleneck_fc_dim\": 340.0, \"cpu_mode\": false, \"dropout_pctg\": 0.18277729071612972, \"epochs\": 20, \"filter_sizes\": [1, 2, 3], \"glove_dim\": 200, \"gpu_no\": 2, \"num_filters\": 1458.0, \"rnn_bidirectional\": true, \"rnn_hidden_size\": 680.0, \"rnn_num_layers\": 4.0, \"stride\": 1, \"
…
.9690165245202559, "pAtK_3": 0.8376199360341151, "pAtK_5": 0.5779650852878465}, "train_vector": [0.027613840079563197, 0.019628187498373945, 0.017494027225773784, 0.016130644553256485, 0.015176445688046476, 0.014526701746250054], "valid_vector": [0.019661130403468348, 0.01811779381820003, 0.017314306760295186, 0.017022852395931237, 0.01720263031626573, 0.01781943003085555], "test_vector": [0.019407562043732292, 0.017985116325016978, 0.017208514975379906, 0.016954690330167378, 0.017095571416598964, 0.01792062935866177], "train_finish": "2018-12-23 22:58:36.133171", "model": "CRNN(\n  (embedding): Embedding(400000, 200)\n  (convs): ModuleList(\n    (0): Conv2d(1, 1458, kernel_size=(1, 200), stride=(1, 1))\n    (1): Conv2d(1, 1458, kernel_size=(2, 200), stride=(1, 1))\n    (2): Conv2d(1, 1458, kernel_size=(3, 200), stride=(1, 1))\n  )\n  (batch_norms): ModuleList(\n    (0): BatchNorm2d(1458, eps=1e-05, momentum=0.1, affine=True, track_running_stats=True)\n    (1): BatchNorm2d(1458, eps=1e-05, momentum=0.1, affine=True, track_running_stats=True)\n    (2): BatchNorm2d(1458, eps=1e-05, momentum=0.1, affine=True, track_running_stats=True)\n  )\n  (gru): GRU(200, 680, num_layers=4, batch_first=True, dropout=0.18, bidirectional=True)\n  (fc1): Linear(in_features=9814, out_features=340, bias=True)\n  (fc2): Linear(in_features=340, out_features=126, bias=True)\n  (dropout): Dropout(p=0.18)\n)"}, "{\"batch_norm\": true, \"bottleneck_fc_dim\": 588.0, \"cpu_mode\": false, \"dropout_pctg\": 0.017361066841942302, \"epochs\": 20, \"filter_sizes\": [1, 2, 3, 4, 5], \"glove_dim\": 300, \"gpu_no\": 2, \"num_filters\": 855.0, \"rnn_bidirectional\": true, \"rnn_hidden_size\": 111.0, \"rnn_num_layers\": 6.0, \"stride\":
…
0.581856343283582}, "train_vector": [0.024174030827459746, 0.01716418977065972, 0.015361145085440462, 0.014224233219460678, 0.012444600707050234, 0.01113714789151708, 0.00967263223138949], "valid_vector": [0.018773774119979665, 0.016973974867359, 0.01634024743601106, 0.016631930966045896, 0.016058231896493955, 0.0171819931109136, 0.017745317822358986], "test_vector": [0.018618618134162955, 0.016841399718695547, 0.01631843978499394, 0.016554456229990862, 0.016007543411423592, 0.017046026969904395, 0.017488248947102315], "train_finish": "2018-12-24 02:08:33.754029", "model": "CRNN(\n  (embedding): Embedding(400000, 300)\n  (convs): ModuleList(\n    (0): Conv2d(1, 855, kernel_size=(1, 300), stride=(1, 1))\n    (1): Conv2d(1, 855, kernel_size=(2, 300), stride=(1, 1))\n    (2): Conv2d(1, 855, kernel_size=(3, 300), stride=(1, 1))\n    (3): Conv2d(1, 855, kernel_size=(4, 300), stride=(1, 1))\n    (4): Conv2d(1, 855, kernel_size=(5, 300), stride=(1, 1))\n  )\n  (batch_norms): ModuleList(\n    (0): BatchNorm2d(855, eps=1e-05, momentum=0.1, affine=True, track_running_stats=True)\n    (1): BatchNorm2d(855, eps=1e-05, momentum=0.1, affine=True, track_running_stats=True)\n    (2): BatchNorm2d(855, eps=1e-05, momentum=0.1, affine=True, track_running_stats=True)\n    (3): BatchNorm2d(855, eps=1e-05, momentum=0.1, affine=True, track_running_stats=True)\n    (4): BatchNorm2d(855, eps=1e-05, momentum=0.1, affine=True, track_running_stats=True)\n  )\n  (gru): GRU(300, 111, num_layers=6, batch_first=True, dropout=0.02, bidirectional=True)\n  (fc1): Linear(in_features=5607, out_features=588, bias=True)\n  (fc2): Linear(in_features=588, out_features=126, bias=True)\n  (dropout): Dropout(p=0.02)\n)"}, "{\"batch_norm\": true, \"bottleneck_fc_dim\": 598.0, \"cpu_mode\": false, \"dropout_pctg\": 0.0031100400300530743, \"epochs\": 20, \"filter_sizes\": [1, 2, 3, 4, 5], \"glove_dim\": 300, \"gpu_no\": 2, \"num_filters\": 796.0, \"rnn_bidirectional\": true, \"rnn_hidden_size\": 60.0, \"rnn_num_layers\": 8.0, \"stride\":
…
: 0.9713152985074627, "pAtK_3": 0.8425839552238806, "pAtK_5": 0.5816297974413646}, "train_vector": [0.02428137698894607, 0.016950358704513727, 0.014913263318467818, 0.013509078237939757, 0.01187911469875979, 0.010302864713097347], "valid_vector": [0.018796612671427508, 0.017101912451637433, 0.016105551356280935, 0.01595736733751435, 0.01635021786438177, 0.017039932698363375], "test_vector": [0.01858438828241215, 0.01690174941060894, 0.015956224615512882, 0.015807438065915475, 0.016246642094296115, 0.01682490085773885], "train_finish": "2018-12-24 04:04:27.051393", "model": "CRNN(\n  (embedding): Embedding(400000, 300)\n  (convs): ModuleList(\n    (0): Conv2d(1, 796, kernel_size=(1, 300), stride=(1, 1))\n    (1): Conv2d(1, 796, kernel_size=(2, 300), stride=(1, 1))\n    (2): Conv2d(1, 796, kernel_size=(3, 300), stride=(1, 1))\n    (3): Conv2d(1, 796, kernel_size=(4, 300), stride=(1, 1))\n    (4): Conv2d(1, 796, kernel_size=(5, 300), stride=(1, 1))\n  )\n  (batch_norms): ModuleList(\n    (0): BatchNorm2d(796, eps=1e-05, momentum=0.1, affine=True, track_running_stats=True)\n    (1): BatchNorm2d(796, eps=1e-05, momentum=0.1, affine=True, track_running_stats=True)\n    (2): BatchNorm2d(796, eps=1e-05, momentum=0.1, affine=True, track_running_stats=True)\n    (3): BatchNorm2d(796, eps=1e-05, momentum=0.1, affine=True, track_running_stats=True)\n    (4): BatchNorm2d(796, eps=1e-05, momentum=0.1, affine=True, track_running_stats=True)\n  )\n  (gru): GRU(300, 60, num_layers=8, batch_first=True, bidirectional=True)\n  (fc1): Linear(in_features=4940, out_features=598, bias=True)\n  (fc2): Linear(in_features=598, out_features=126, bias=True)\n  (dropout): Dropout(p=0.0)\n)"}, "{\"batch_norm\": true, \"bottleneck_fc_dim\": 597.0, \"cpu_mode\": false, \"dropout_pctg\": 0.0010356605218818735, \"epochs\": 20, \"filter_sizes\": [1, 2, 3, 4, 5], \"glove_dim\": 300, \"gpu_no\": 2, \"num_filters\": 800.0, \"rnn_bidirectional\": true, \"rnn_hidden_size\": 58.0, \"rnn_num_layers\": 8.0, \"stride\": 
…
2001, "f1_score_4": 0.7678635996996078}, "pAtK_scores": {"pAtK_1": 0.972547974413646, "pAtK_3": 0.8412735429992892, "pAtK_5": 0.580896855010661}, "train_vector": [0.024238591165636668, 0.01707823311695342, 0.015043568987500722, 0.01404060979024383, 0.012608264218330018], "valid_vector": [0.01922082842309286, 0.016707751650744472, 0.015980510991801426, 0.016782717043367614, 0.016907791663614065], "test_vector": [0.019015028790783272, 0.016605758493436554, 0.01588073342160852, 0.016617612701767225, 0.016775907733157944], "train_finish": "2018-12-24 05:51:06.138096", "model": "CRNN(\n  (embedding): Embedding(400000, 300)\n  (convs): ModuleList(\n    (0): Conv2d(1, 800, kernel_size=(1, 300), stride=(1, 1))\n    (1): Conv2d(1, 800, kernel_size=(2, 300), stride=(1, 1))\n    (2): Conv2d(1, 800, kernel_size=(3, 300), stride=(1, 1))\n    (3): Conv2d(1, 800, kernel_size=(4, 300), stride=(1, 1))\n    (4): Conv2d(1, 800, kernel_size=(5, 300), stride=(1, 1))\n  )\n  (batch_norms): ModuleList(\n    (0): BatchNorm2d(800, eps=1e-05, momentum=0.1, affine=True, track_running_stats=True)\n    (1): BatchNorm2d(800, eps=1e-05, momentum=0.1, affine=True, track_running_stats=True)\n    (2): BatchNorm2d(800, eps=1e-05, momentum=0.1, affine=True, track_running_stats=True)\n    (3): BatchNorm2d(800, eps=1e-05, momentum=0.1, affine=True, track_running_stats=True)\n    (4): BatchNorm2d(800, eps=1e-05, momentum=0.1, affine=True, track_running_stats=True)\n  )\n  (gru): GRU(300, 58, num_layers=8, batch_first=True, bidirectional=True)\n  (fc1): Linear(in_features=4928, out_features=597, bias=True)\n  (fc2): Linear(in_features=597, out_features=126, bias=True)\n  (dropout): Dropout(p=0.0)\n)"}, "{\"batch_norm\": true, \"bottleneck_fc_dim\": 535.0, \"cpu_mode\": false, \"dropout_pctg\": 0.0679876396748461, \"epochs\": 20, \"filter_sizes\": [1, 2, 3, 4, 5], \"glove_dim\": 300, \"gpu_no\": 2, \"num_filters\": 603.0, \"rnn_bidirectional\": true, \"rnn_hidden_size\": 128.0, \"rnn_num_layers\": 8.0, \"stride\": 1,
…
324432001, "f1_score_4": 0.768058298333936}, "pAtK_scores": {"pAtK_1": 0.9702158848614072, "pAtK_3": 0.8412735429992892, "pAtK_5": 0.5809901385927505}, "train_vector": [0.02468076147851728, 0.017765656787019496, 0.016498532331461164, 0.0153528903499186, 0.013890488251145201], "valid_vector": [0.01848816612774113, 0.016752727582171036, 0.016618723183736774, 0.01696235773436326, 0.01674079534470234], "test_vector": [0.018367002829353312, 0.016686207224636762, 0.016459618530262, 0.016828558580485233, 0.01664674322583528], "train_finish": "2018-12-24 08:01:07.518320", "model": "CRNN(\n  (embedding): Embedding(400000, 300)\n  (convs): ModuleList(\n    (0): Conv2d(1, 603, kernel_size=(1, 300), stride=(1, 1))\n    (1): Conv2d(1, 603, kernel_size=(2, 300), stride=(1, 1))\n    (2): Conv2d(1, 603, kernel_size=(3, 300), stride=(1, 1))\n    (3): Conv2d(1, 603, kernel_size=(4, 300), stride=(1, 1))\n    (4): Conv2d(1, 603, kernel_size=(5, 300), stride=(1, 1))\n  )\n  (batch_norms): ModuleList(\n    (0): BatchNorm2d(603, eps=1e-05, momentum=0.1, affine=True, track_running_stats=True)\n    (1): BatchNorm2d(603, eps=1e-05, momentum=0.1, affine=True, track_running_stats=True)\n    (2): BatchNorm2d(603, eps=1e-05, momentum=0.1, affine=True, track_running_stats=True)\n    (3): BatchNorm2d(603, eps=1e-05, momentum=0.1, affine=True, track_running_stats=True)\n    (4): BatchNorm2d(603, eps=1e-05, momentum=0.1, affine=True, track_running_stats=True)\n  )\n  (gru): GRU(300, 128, num_layers=8, batch_first=True, dropout=0.07, bidirectional=True)\n  (fc1): Linear(in_features=5063, out_features=535, bias=True)\n  (fc2): Linear(in_features=535, out_features=126, bias=True)\n  (dropout): Dropout(p=0.07)\n)"}, "{\"batch_norm\": true, \"bottleneck_fc_dim\": 597.0, \"cpu_mode\": false, \"dropout_pctg\": 0.0035064775698738504, \"epochs\": 20, \"filter_sizes\": [1, 2, 3, 4, 5], \"glove_dim\": 300, \"gpu_no\": 2, \"num_filters\": 777.0, \"rnn_bidirectional\": true, \"rnn_hidden_size\": 62.0, \"rnn_num_layers\": 8.0, \"stride\":
…
: 0.9690165245202559, "pAtK_3": 0.8370868869936035, "pAtK_5": 0.5785847547974413}, "train_vector": [0.024071203624996634, 0.016989034393940443, 0.01488807475345414, 0.013256868557744087, 0.011673153316134461, 0.01120191726999073], "valid_vector": [0.018551320122775317, 0.016573478554143137, 0.01614897849168807, 0.015950478452778083, 0.01670978742719654, 0.017938445049173225], "test_vector": [0.018501480225163864, 0.016508653461099115, 0.015936255625792657, 0.015875325812253236, 0.0165030001533597, 0.01801553525940092], "train_finish": "2018-12-24 09:59:37.993929", "model": "CRNN(\n  (embedding): Embedding(400000, 300)\n  (convs): ModuleList(\n    (0): Conv2d(1, 777, kernel_size=(1, 300), stride=(1, 1))\n    (1): Conv2d(1, 777, kernel_size=(2, 300), stride=(1, 1))\n    (2): Conv2d(1, 777, kernel_size=(3, 300), stride=(1, 1))\n    (3): Conv2d(1, 777, kernel_size=(4, 300), stride=(1, 1))\n    (4): Conv2d(1, 777, kernel_size=(5, 300), stride=(1, 1))\n  )\n  (batch_norms): ModuleList(\n    (0): BatchNorm2d(777, eps=1e-05, momentum=0.1, affine=True, track_running_stats=True)\n    (1): BatchNorm2d(777, eps=1e-05, momentum=0.1, affine=True, track_running_stats=True)\n    (2): BatchNorm2d(777, eps=1e-05, momentum=0.1, affine=True, track_running_stats=True)\n    (3): BatchNorm2d(777, eps=1e-05, momentum=0.1, affine=True, track_running_stats=True)\n    (4): BatchNorm2d(777, eps=1e-05, momentum=0.1, affine=True, track_running_stats=True)\n  )\n  (gru): GRU(300, 62, num_layers=8, batch_first=True, bidirectional=True)\n  (fc1): Linear(in_features=4877, out_features=597, bias=True)\n  (fc2): Linear(in_features=597, out_features=126, bias=True)\n  (dropout): Dropout(p=0.0)\n)"}, "{\"batch_norm\": true, \"bottleneck_fc_dim\": 512.0, \"cpu_mode\": false, \"dropout_pctg\": 0.07806655911388434, \"epochs\": 20, \"filter_sizes\": [1, 2, 3, 4, 5], \"glove_dim\": 300, \"gpu_no\": 2, \"num_filters\": 680.0, \"rnn_bidirectional\": true, \"rnn_hidden_size\": 149.0, \"rnn_num_layers\": 9.0, \"stride\": 1
…
_1": 0.9731476545842217, "pAtK_3": 0.8435834221748401, "pAtK_5": 0.5819962686567164}, "train_vector": [0.02535414961097104, 0.01822559393456816, 0.01590328268670023, 0.014338291547233348, 0.013193824539818823, 0.012310682056574082], "valid_vector": [0.018635520883806066, 0.016986719278709542, 0.017012222777498063, 0.01610692533837415, 0.018052908194339228, 0.017068339558541656], "test_vector": [0.01841939240694046, 0.01691867952753327, 0.0168753418285074, 0.0160957051854112, 0.017903210072994613, 0.017001760439442865], "train_finish": "2018-12-24 13:45:47.236974", "model": "CRNN(\n  (embedding): Embedding(400000, 300)\n  (convs): ModuleList(\n    (0): Conv2d(1, 680, kernel_size=(1, 300), stride=(1, 1))\n    (1): Conv2d(1, 680, kernel_size=(2, 300), stride=(1, 1))\n    (2): Conv2d(1, 680, kernel_size=(3, 300), stride=(1, 1))\n    (3): Conv2d(1, 680, kernel_size=(4, 300), stride=(1, 1))\n    (4): Conv2d(1, 680, kernel_size=(5, 300), stride=(1, 1))\n  )\n  (batch_norms): ModuleList(\n    (0): BatchNorm2d(680, eps=1e-05, momentum=0.1, affine=True, track_running_stats=True)\n    (1): BatchNorm2d(680, eps=1e-05, momentum=0.1, affine=True, track_running_stats=True)\n    (2): BatchNorm2d(680, eps=1e-05, momentum=0.1, affine=True, track_running_stats=True)\n    (3): BatchNorm2d(680, eps=1e-05, momentum=0.1, affine=True, track_running_stats=True)\n    (4): BatchNorm2d(680, eps=1e-05, momentum=0.1, affine=True, track_running_stats=True)\n  )\n  (gru): GRU(300, 149, num_layers=9, batch_first=True, dropout=0.08, bidirectional=True)\n  (fc1): Linear(in_features=6082, out_features=512, bias=True)\n  (fc2): Linear(in_features=512, out_features=126, bias=True)\n  (dropout): Dropout(p=0.08)\n)"}, "{\"batch_norm\": true, \"bottleneck_fc_dim\": 599.0, \"cpu_mode\": false, \"dropout_pctg\": 0.054512418442035714, \"epochs\": 20, \"filter_sizes\": [1, 2, 3, 4, 5], \"glove_dim\": 200, \"gpu_no\": 2, \"num_filters\": 797.0, \"rnn_bidirectional\": true, \"rnn_hidden_size\": 274.0, \"rnn_num_layers\": 7.0, \"stride\":
…
: {"f1_score_2": 0.716824385922112, "f1_score_3": 0.8114461074620438, "f1_score_4": 0.763654400652704}, "pAtK_scores": {"pAtK_1": 0.970748933901919, "pAtK_3": 0.8368758884150675, "pAtK_5": 0.5778184968017057}, "train_vector": [0.025117316316582636, 0.017908731102371903, 0.016391563246035582, 0.016788049143557155], "valid_vector": [0.01933224361823268, 0.017229251067542823, 0.019219254629799662, 0.01774094783641926], "test_vector": [0.019019378811867632, 0.017082506465092143, 0.018983154986570005, 0.017419141995261855], "train_finish": "2018-12-24 16:24:53.362741", "model": "CRNN(\n  (embedding): Embedding(400000, 200)\n  (convs): ModuleList(\n    (0): Conv2d(1, 797, kernel_size=(1, 200), stride=(1, 1))\n    (1): Conv2d(1, 797, kernel_size=(2, 200), stride=(1, 1))\n    (2): Conv2d(1, 797, kernel_size=(3, 200), stride=(1, 1))\n    (3): Conv2d(1, 797, kernel_size=(4, 200), stride=(1, 1))\n    (4): Conv2d(1, 797, kernel_size=(5, 200), stride=(1, 1))\n  )\n  (batch_norms): ModuleList(\n    (0): BatchNorm2d(797, eps=1e-05, momentum=0.1, affine=True, track_running_stats=True)\n    (1): BatchNorm2d(797, eps=1e-05, momentum=0.1, affine=True, track_running_stats=True)\n    (2): BatchNorm2d(797, eps=1e-05, momentum=0.1, affine=True, track_running_stats=True)\n    (3): BatchNorm2d(797, eps=1e-05, momentum=0.1, affine=True, track_running_stats=True)\n    (4): BatchNorm2d(797, eps=1e-05, momentum=0.1, affine=True, track_running_stats=True)\n  )\n  (gru): GRU(200, 274, num_layers=7, batch_first=True, dropout=0.05, bidirectional=True)\n  (fc1): Linear(in_features=7821, out_features=599, bias=True)\n  (fc2): Linear(in_features=599, out_features=126, bias=True)\n  (dropout): Dropout(p=0.05)\n)"}, "{\"batch_norm\": true, \"bottleneck_fc_dim\": 570.0, \"cpu_mode\": false, \"dropout_pctg\": 0.13871528929694313, \"epochs\": 20, \"filter_sizes\": [3, 4, 5, 6], \"glove_dim\": 300, \"gpu_no\": 2, \"num_filters\": 709.0, \"rnn_bidirectional\": true, \"rnn_hidden_size\": 59.0, \"rnn_num_layers\": 9.0, \"stride\": 1, \
…
.5801505863539446}, "train_vector": [0.026124037843716422, 0.01818108865111597, 0.01614642936774612, 0.014654843888087486, 0.013329253929196047, 0.011756160426954465, 0.010540978129746406], "valid_vector": [0.019017163774312368, 0.017160606025574184, 0.016559338740962767, 0.016990675275816696, 0.016426016105279856, 0.01668117372659164, 0.018203398381083855], "test_vector": [0.018844602945278576, 0.01703512440048365, 0.01636685507654, 0.016827809896423365, 0.016385953857509822, 0.01662388155713423, 0.01795819195718177], "train_finish": "2018-12-24 19:39:28.919762", "model": "CRNN(\n  (embedding): Embedding(400000, 300)\n  (convs): ModuleList(\n    (0): Conv2d(1, 709, kernel_size=(3, 300), stride=(1, 1))\n    (1): Conv2d(1, 709, kernel_size=(4, 300), stride=(1, 1))\n    (2): Conv2d(1, 709, kernel_size=(5, 300), stride=(1, 1))\n    (3): Conv2d(1, 709, kernel_size=(6, 300), stride=(1, 1))\n  )\n  (batch_norms): ModuleList(\n    (0): BatchNorm2d(709, eps=1e-05, momentum=0.1, affine=True, track_running_stats=True)\n    (1): BatchNorm2d(709, eps=1e-05, momentum=0.1, affine=True, track_running_stats=True)\n    (2): BatchNorm2d(709, eps=1e-05, momentum=0.1, affine=True, track_running_stats=True)\n    (3): BatchNorm2d(709, eps=1e-05, momentum=0.1, affine=True, track_running_stats=True)\n  )\n  (gru): GRU(300, 59, num_layers=9, batch_first=True, dropout=0.14, bidirectional=True)\n  (fc1): Linear(in_features=3898, out_features=570, bias=True)\n  (fc2): Linear(in_features=570, out_features=126, bias=True)\n  (dropout): Dropout(p=0.14)\n)"}, "{\"batch_norm\": true, \"bottleneck_fc_dim\": 517.0, \"cpu_mode\": false, \"dropout_pctg\": 0.04060854773641858, \"epochs\": 20, \"filter_sizes\": [1, 2, 3, 4, 5], \"glove_dim\": 200, \"gpu_no\": 2, \"num_filters\": 1144.0, \"rnn_bidirectional\": true, \"rnn_hidden_size\": 173.0, \"rnn_num_layers\": 1.0, \"stride\":
…
: 0.972547974413646, "pAtK_3": 0.8430392679459844, "pAtK_5": 0.5821228678038379}, "train_vector": [0.025542694375539157, 0.017581822482194143, 0.01528342364016988, 0.013545198829595114, 0.011966243611706824, 0.0104283791892315], "valid_vector": [0.018648549347424874, 0.016838376585549035, 0.01597607062659415, 0.015904664385828996, 0.016383812830871296, 0.017022490711894624], "test_vector": [0.018511770956361216, 0.016915549069388844, 0.01591783565486958, 0.015803860795340623, 0.016250876599609027, 0.01698722202938471], "train_finish": "2018-12-24 20:48:38.339981", "model": "CRNN(\n  (embedding): Embedding(400000, 200)\n  (convs): ModuleList(\n    (0): Conv2d(1, 1144, kernel_size=(1, 200), stride=(1, 1))\n    (1): Conv2d(1, 1144, kernel_size=(2, 200), stride=(1, 1))\n    (2): Conv2d(1, 1144, kernel_size=(3, 200), stride=(1, 1))\n    (3): Conv2d(1, 1144, kernel_size=(4, 200), stride=(1, 1))\n    (4): Conv2d(1, 1144, kernel_size=(5, 200), stride=(1, 1))\n  )\n  (batch_norms): ModuleList(\n    (0): BatchNorm2d(1144, eps=1e-05, momentum=0.1, affine=True, track_running_stats=True)\n    (1): BatchNorm2d(1144, eps=1e-05, momentum=0.1, affine=True, track_running_stats=True)\n    (2): BatchNorm2d(1144, eps=1e-05, momentum=0.1, affine=True, track_running_stats=True)\n    (3): BatchNorm2d(1144, eps=1e-05, momentum=0.1, affine=True, track_running_stats=True)\n    (4): BatchNorm2d(1144, eps=1e-05, momentum=0.1, affine=True, track_running_stats=True)\n  )\n  (gru): GRU(200, 173, batch_first=True, dropout=0.04, bidirectional=True)\n  (fc1): Linear(in_features=6066, out_features=517, bias=True)\n  (fc2): Linear(in_features=517, out_features=126, bias=True)\n  (dropout): Dropout(p=0.04)\n)"}, "{\"batch_norm\": true, \"bottleneck_fc_dim\": 501.0, \"cpu_mode\": false, \"dropout_pctg\": 0.04023835116544057, \"epochs\": 20, \"filter_sizes\": [1, 2, 3, 4, 5], \"glove_dim\": 200, \"gpu_no\": 2, \"num_filters\": 1153.0, \"rnn_bidirectional\": true, \"rnn_hidden_size\": 267.0, \"rnn_num_layers\": 2.0, \"stride\":
…
: 0.972647921108742, "pAtK_3": 0.8432058457711443, "pAtK_5": 0.5814365671641791}, "train_vector": [0.025061147699476465, 0.017266790566940096, 0.01512074291287636, 0.013535973384107683, 0.012089233842242027, 0.010831851272156965], "valid_vector": [0.018818288039577913, 0.016902912369949608, 0.01624571926842656, 0.016158670790109738, 0.01667841090142468, 0.017442818733986152], "test_vector": [0.018580681483533337, 0.0168304659052889, 0.016208028183507323, 0.016021348477434565, 0.016574447326211213, 0.01721454456424726], "train_finish": "2018-12-24 22:33:29.930481", "model": "CRNN(\n  (embedding): Embedding(400000, 200)\n  (convs): ModuleList(\n    (0): Conv2d(1, 1153, kernel_size=(1, 200), stride=(1, 1))\n    (1): Conv2d(1, 1153, kernel_size=(2, 200), stride=(1, 1))\n    (2): Conv2d(1, 1153, kernel_size=(3, 200), stride=(1, 1))\n    (3): Conv2d(1, 1153, kernel_size=(4, 200), stride=(1, 1))\n    (4): Conv2d(1, 1153, kernel_size=(5, 200), stride=(1, 1))\n  )\n  (batch_norms): ModuleList(\n    (0): BatchNorm2d(1153, eps=1e-05, momentum=0.1, affine=True, track_running_stats=True)\n    (1): BatchNorm2d(1153, eps=1e-05, momentum=0.1, affine=True, track_running_stats=True)\n    (2): BatchNorm2d(1153, eps=1e-05, momentum=0.1, affine=True, track_running_stats=True)\n    (3): BatchNorm2d(1153, eps=1e-05, momentum=0.1, affine=True, track_running_stats=True)\n    (4): BatchNorm2d(1153, eps=1e-05, momentum=0.1, affine=True, track_running_stats=True)\n  )\n  (gru): GRU(200, 267, num_layers=2, batch_first=True, dropout=0.04, bidirectional=True)\n  (fc1): Linear(in_features=6833, out_features=501, bias=True)\n  (fc2): Linear(in_features=501, out_features=126, bias=True)\n  (dropout): Dropout(p=0.04)\n)"}, "{\"batch_norm\": true, \"bottleneck_fc_dim\": 421.0, \"cpu_mode\": false, \"dropout_pctg\": 0.09299715192993065, \"epochs\": 20, \"filter_sizes\": [3, 4, 5, 6], \"glove_dim\": 200, \"gpu_no\": 2, \"num_filters\": 1184.0, \"rnn_bidirectional\": true, \"rnn_hidden_size\": 165.0, \"rnn_num_layers\": 2.0, \"stride\": 1,
…
K_1": 0.9706156716417911, "pAtK_3": 0.8407849147121536, "pAtK_5": 0.5806103411513859}, "train_vector": [0.02602818898216542, 0.01836416275829888, 0.0163291473051716, 0.014751553707040465, 0.01317530546574421, 0.011627117867890661], "valid_vector": [0.018547057978628174, 0.01729951899780183, 0.016369207638816267, 0.016303147118204016, 0.016689286084482266, 0.01768410878369152], "test_vector": [0.01835672120486241, 0.017338791047967574, 0.01643863699631269, 0.016358760689923375, 0.01665788124412743, 0.01763163769006062], "train_finish": "2018-12-24 23:55:25.130503", "model": "CRNN(\n  (embedding): Embedding(400000, 200)\n  (convs): ModuleList(\n    (0): Conv2d(1, 1184, kernel_size=(3, 200), stride=(1, 1))\n    (1): Conv2d(1, 1184, kernel_size=(4, 200), stride=(1, 1))\n    (2): Conv2d(1, 1184, kernel_size=(5, 200), stride=(1, 1))\n    (3): Conv2d(1, 1184, kernel_size=(6, 200), stride=(1, 1))\n  )\n  (batch_norms): ModuleList(\n    (0): BatchNorm2d(1184, eps=1e-05, momentum=0.1, affine=True, track_running_stats=True)\n    (1): BatchNorm2d(1184, eps=1e-05, momentum=0.1, affine=True, track_running_stats=True)\n    (2): BatchNorm2d(1184, eps=1e-05, momentum=0.1, affine=True, track_running_stats=True)\n    (3): BatchNorm2d(1184, eps=1e-05, momentum=0.1, affine=True, track_running_stats=True)\n  )\n  (gru): GRU(200, 165, num_layers=2, batch_first=True, dropout=0.09, bidirectional=True)\n  (fc1): Linear(in_features=5396, out_features=421, bias=True)\n  (fc2): Linear(in_features=421, out_features=126, bias=True)\n  (dropout): Dropout(p=0.09)\n)"}, "{\"batch_norm\": true, \"bottleneck_fc_dim\": 560.0, \"cpu_mode\": false, \"dropout_pctg\": 0.14393684284274247, \"epochs\": 20, \"filter_sizes\": [2, 3, 4, 5], \"glove_dim\": 200, \"gpu_no\": 2, \"num_filters\": 1114.0, \"rnn_bidirectional\": true, \"rnn_hidden_size\": 344.0, \"rnn_num_layers\": 3.0, \"stride\": 1,
…
1": 0.9707822494669509, "pAtK_3": 0.8425173240938166, "pAtK_5": 0.5809368336886993}, "train_vector": [0.025769480279092195, 0.018229024887920865, 0.01625809572642548, 0.014705956796370049, 0.01335795451785073, 0.012212318078895062], "valid_vector": [0.01912654996829739, 0.017231081255715586, 0.01663178782081053, 0.016548951838236514, 0.01669324767957779, 0.0170506584079331], "test_vector": [0.018886065052977123, 0.017096886308049595, 0.01650628615329578, 0.016598543285259178, 0.016645754797697893, 0.01698865605466592], "train_finish": "2018-12-25 01:33:59.171111", "model": "CRNN(\n  (embedding): Embedding(400000, 200)\n  (convs): ModuleList(\n    (0): Conv2d(1, 1114, kernel_size=(2, 200), stride=(1, 1))\n    (1): Conv2d(1, 1114, kernel_size=(3, 200), stride=(1, 1))\n    (2): Conv2d(1, 1114, kernel_size=(4, 200), stride=(1, 1))\n    (3): Conv2d(1, 1114, kernel_size=(5, 200), stride=(1, 1))\n  )\n  (batch_norms): ModuleList(\n    (0): BatchNorm2d(1114, eps=1e-05, momentum=0.1, affine=True, track_running_stats=True)\n    (1): BatchNorm2d(1114, eps=1e-05, momentum=0.1, affine=True, track_running_stats=True)\n    (2): BatchNorm2d(1114, eps=1e-05, momentum=0.1, affine=True, track_running_stats=True)\n    (3): BatchNorm2d(1114, eps=1e-05, momentum=0.1, affine=True, track_running_stats=True)\n  )\n  (gru): GRU(200, 344, num_layers=3, batch_first=True, dropout=0.14, bidirectional=True)\n  (fc1): Linear(in_features=6520, out_features=560, bias=True)\n  (fc2): Linear(in_features=560, out_features=126, bias=True)\n  (dropout): Dropout(p=0.14)\n)"}, "{\"batch_norm\": true, \"bottleneck_fc_dim\": 516.0, \"cpu_mode\": false, \"dropout_pctg\": 0.038350360236676144, \"epochs\": 20, \"filter_sizes\": [2, 3, 4], \"glove_dim\": 200, \"gpu_no\": 2, \"num_filters\": 1204.0, \"rnn_bidirectional\": true, \"rnn_hidden_size\": 104.0, \"rnn_num_layers\": 14.0, \"stride\": 1, 
…
5663733142672, 0.017046257276898062, 0.015652049183890248, 0.01409515710992355, 0.012829583694088882, 0.011418419796613163, 0.010707846866685026], "valid_vector": [0.020225025941806436, 0.01853090332017274, 0.017326778926348478, 0.017124666764499193, 0.01719680422063627, 0.01697652812698173, 0.019740591058383453, 0.01822048104316024], "test_vector": [0.020041755553501756, 0.018536079829848652, 0.01744837559926421, 0.01703040748099878, 0.0171896994256897, 0.016981417172228987, 0.01964963523786205, 0.018061195316512003], "train_finish": "2018-12-25 05:14:27.974710", "model": "CRNN(\n  (embedding): Embedding(400000, 200)\n  (convs): ModuleList(\n    (0): Conv2d(1, 1204, kernel_size=(2, 200), stride=(1, 1))\n    (1): Conv2d(1, 1204, kernel_size=(3, 200), stride=(1, 1))\n    (2): Conv2d(1, 1204, kernel_size=(4, 200), stride=(1, 1))\n  )\n  (batch_norms): ModuleList(\n    (0): BatchNorm2d(1204, eps=1e-05, momentum=0.1, affine=True, track_running_stats=True)\n    (1): BatchNorm2d(1204, eps=1e-05, momentum=0.1, affine=True, track_running_stats=True)\n    (2): BatchNorm2d(1204, eps=1e-05, momentum=0.1, affine=True, track_running_stats=True)\n  )\n  (gru): GRU(200, 104, num_layers=14, batch_first=True, dropout=0.04, bidirectional=True)\n  (fc1): Linear(in_features=6524, out_features=516, bias=True)\n  (fc2): Linear(in_features=516, out_features=126, bias=True)\n  (dropout): Dropout(p=0.04)\n)"}, "{\"batch_norm\": true, \"bottleneck_fc_dim\": 439.0, \"cpu_mode\": false, \"dropout_pctg\": 0.12540992498547926, \"epochs\": 20, \"filter_sizes\": [1, 2, 3, 4, 5], \"glove_dim\": 200, \"gpu_no\": 2, \"num_filters\": 1296.0, \"rnn_bidirectional\": true, \"rnn_hidden_size\": 248.0, \"rnn_num_layers\": 1.0, \"stride\":
…
": 0.9714818763326226, "pAtK_3": 0.8412957533759773, "pAtK_5": 0.5797507995735608}, "train_vector": [0.02701673927700014, 0.018638165339652603, 0.016241112238282226, 0.01440159973463296, 0.012664582459067205, 0.011172704441371506], "valid_vector": [0.019019975957931326, 0.01750731494834722, 0.016685212285184402, 0.016500038851890515, 0.01694846566732246, 0.01780313553041848], "test_vector": [0.01899745038498058, 0.01752500445929481, 0.016789982551093232, 0.01655498489951973, 0.017139913471562584, 0.017998551369023157], "train_finish": "2018-12-25 05:58:26.640852", "model": "CRNN(\n  (embedding): Embedding(400000, 200)\n  (convs): ModuleList(\n    (0): Conv2d(1, 1296, kernel_size=(1, 200), stride=(1, 1))\n    (1): Conv2d(1, 1296, kernel_size=(2, 200), stride=(1, 1))\n    (2): Conv2d(1, 1296, kernel_size=(3, 200), stride=(1, 1))\n    (3): Conv2d(1, 1296, kernel_size=(4, 200), stride=(1, 1))\n    (4): Conv2d(1, 1296, kernel_size=(5, 200), stride=(1, 1))\n  )\n  (batch_norms): ModuleList(\n    (0): BatchNorm2d(1296, eps=1e-05, momentum=0.1, affine=True, track_running_stats=True)\n    (1): BatchNorm2d(1296, eps=1e-05, momentum=0.1, affine=True, track_running_stats=True)\n    (2): BatchNorm2d(1296, eps=1e-05, momentum=0.1, affine=True, track_running_stats=True)\n    (3): BatchNorm2d(1296, eps=1e-05, momentum=0.1, affine=True, track_running_stats=True)\n    (4): BatchNorm2d(1296, eps=1e-05, momentum=0.1, affine=True, track_running_stats=True)\n  )\n  (gru): GRU(200, 248, batch_first=True, dropout=0.13, bidirectional=True)\n  (fc1): Linear(in_features=6976, out_features=439, bias=True)\n  (fc2): Linear(in_features=439, out_features=126, bias=True)\n  (dropout): Dropout(p=0.13)\n)"}, "{\"batch_norm\": true, \"bottleneck_fc_dim\": 496.0, \"cpu_mode\": false, \"dropout_pctg\": 0.4127890398383147, \"epochs\": 20, \"filter_sizes\": [3, 4, 5, 6], \"glove_dim\": 200, \"gpu_no\": 2, \"num_filters\": 1095.0, \"rnn_bidirectional\": true, \"rnn_hidden_size\": 181.0, \"rnn_num_layers\": 5.0, \"stride\": 1, 
…
.5793909914712153}, "train_vector": [0.03211540075042857, 0.022755527944903396, 0.020427343107336533, 0.019001346678853736, 0.017922520404308837, 0.016888318295002168, 0.016055715557589348], "valid_vector": [0.020802910521086345, 0.01953919758056618, 0.01815545053763895, 0.017613197462188937, 0.0171892731672345, 0.017794812922050724, 0.018464936999289364], "test_vector": [0.02057475985677194, 0.01935281145420156, 0.01798339705886458, 0.017411652108483604, 0.0171463163917078, 0.017774234436500048, 0.018442464592272858], "train_finish": "2018-12-25 08:57:43.362969", "model": "CRNN(\n  (embedding): Embedding(400000, 200)\n  (convs): ModuleList(\n    (0): Conv2d(1, 1095, kernel_size=(3, 200), stride=(1, 1))\n    (1): Conv2d(1, 1095, kernel_size=(4, 200), stride=(1, 1))\n    (2): Conv2d(1, 1095, kernel_size=(5, 200), stride=(1, 1))\n    (3): Conv2d(1, 1095, kernel_size=(6, 200), stride=(1, 1))\n  )\n  (batch_norms): ModuleList(\n    (0): BatchNorm2d(1095, eps=1e-05, momentum=0.1, affine=True, track_running_stats=True)\n    (1): BatchNorm2d(1095, eps=1e-05, momentum=0.1, affine=True, track_running_stats=True)\n    (2): BatchNorm2d(1095, eps=1e-05, momentum=0.1, affine=True, track_running_stats=True)\n    (3): BatchNorm2d(1095, eps=1e-05, momentum=0.1, affine=True, track_running_stats=True)\n  )\n  (gru): GRU(200, 181, num_layers=5, batch_first=True, dropout=0.41, bidirectional=True)\n  (fc1): Linear(in_features=6190, out_features=496, bias=True)\n  (fc2): Linear(in_features=496, out_features=126, bias=True)\n  (dropout): Dropout(p=0.41)\n)"}, "{\"batch_norm\": true, \"bottleneck_fc_dim\": 537.0, \"cpu_mode\": false, \"dropout_pctg\": 0.09296043130793205, \"epochs\": 20, \"filter_sizes\": [2, 3, 4, 5], \"glove_dim\": 200, \"gpu_no\": 2, \"num_filters\": 978.0, \"rnn_bidirectional\": true, \"rnn_hidden_size\": 326.0, \"rnn_num_layers\": 7.0, \"stride\": 1, 
…
11359, "f1_score_4": 0.7656848292678403}, "pAtK_scores": {"pAtK_1": 0.970815565031983, "pAtK_3": 0.8391857675906184, "pAtK_5": 0.5791644456289978}, "train_vector": [0.02574764037124113, 0.018277100813669515, 0.01634389773560857, 0.01474496464032815, 0.014970027452499755], "valid_vector": [0.018508363363227802, 0.01707183583371484, 0.016442709903444732, 0.01659222359276081, 0.017322142514264158], "test_vector": [0.018289270504975495, 0.016931890834694797, 0.01637262358332176, 0.016529259180574657, 0.017293760476550506], "train_finish": "2018-12-25 12:31:56.152636", "model": "CRNN(\n  (embedding): Embedding(400000, 200)\n  (convs): ModuleList(\n    (0): Conv2d(1, 978, kernel_size=(2, 200), stride=(1, 1))\n    (1): Conv2d(1, 978, kernel_size=(3, 200), stride=(1, 1))\n    (2): Conv2d(1, 978, kernel_size=(4, 200), stride=(1, 1))\n    (3): Conv2d(1, 978, kernel_size=(5, 200), stride=(1, 1))\n  )\n  (batch_norms): ModuleList(\n    (0): BatchNorm2d(978, eps=1e-05, momentum=0.1, affine=True, track_running_stats=True)\n    (1): BatchNorm2d(978, eps=1e-05, momentum=0.1, affine=True, track_running_stats=True)\n    (2): BatchNorm2d(978, eps=1e-05, momentum=0.1, affine=True, track_running_stats=True)\n    (3): BatchNorm2d(978, eps=1e-05, momentum=0.1, affine=True, track_running_stats=True)\n  )\n  (gru): GRU(200, 326, num_layers=7, batch_first=True, dropout=0.09, bidirectional=True)\n  (fc1): Linear(in_features=8476, out_features=537, bias=True)\n  (fc2): Linear(in_features=537, out_features=126, bias=True)\n  (dropout): Dropout(p=0.09)\n)"}, "{\"batch_norm\": true, \"bottleneck_fc_dim\": 443.0, \"cpu_mode\": false, \"dropout_pctg\": 0.24192281243706437, \"epochs\": 20, \"filter_sizes\": [1, 2, 3, 4, 5], \"glove_dim\": 200, \"gpu_no\": 2, \"num_filters\": 1347.0, \"rnn_bidirectional\": true, \"rnn_hidden_size\": 97.0, \"rnn_num_layers\": 13.0, \"stride\":
…
.5808835287846482}, "train_vector": [0.03005835926185065, 0.021730996669581202, 0.019393398705273547, 0.017691819802728725, 0.01617373946011504, 0.014867857727246993, 0.013688140546156564], "valid_vector": [0.020696120190450043, 0.01843668408130905, 0.0176612108317601, 0.017162570455816508, 0.01665293420419228, 0.016808278656362106, 0.017048185908802544], "test_vector": [0.020590015285924426, 0.0183240396719275, 0.017573959614112497, 0.01717406935167751, 0.01658839892659551, 0.016804431489646943, 0.016984012352227212], "train_finish": "2018-12-25 16:56:12.891717", "model": "CRNN(\n  (embedding): Embedding(400000, 200)\n  (convs): ModuleList(\n    (0): Conv2d(1, 1347, kernel_size=(1, 200), stride=(1, 1))\n    (1): Conv2d(1, 1347, kernel_size=(2, 200), stride=(1, 1))\n    (2): Conv2d(1, 1347, kernel_size=(3, 200), stride=(1, 1))\n    (3): Conv2d(1, 1347, kernel_size=(4, 200), stride=(1, 1))\n    (4): Conv2d(1, 1347, kernel_size=(5, 200), stride=(1, 1))\n  )\n  (batch_norms): ModuleList(\n    (0): BatchNorm2d(1347, eps=1e-05, momentum=0.1, affine=True, track_running_stats=True)\n    (1): BatchNorm2d(1347, eps=1e-05, momentum=0.1, affine=True, track_running_stats=True)\n    (2): BatchNorm2d(1347, eps=1e-05, momentum=0.1, affine=True, track_running_stats=True)\n    (3): BatchNorm2d(1347, eps=1e-05, momentum=0.1, affine=True, track_running_stats=True)\n    (4): BatchNorm2d(1347, eps=1e-05, momentum=0.1, affine=True, track_running_stats=True)\n  )\n  (gru): GRU(200, 97, num_layers=13, batch_first=True, dropout=0.24, bidirectional=True)\n  (fc1): Linear(in_features=9257, out_features=443, bias=True)\n  (fc2): Linear(in_features=443, out_features=126, bias=True)\n  (dropout): Dropout(p=0.24)\n)"}, "{\"batch_norm\": true, \"bottleneck_fc_dim\": 577.0, \"cpu_mode\": false, \"dropout_pctg\": 0.15796052473523606, \"epochs\": 20, \"filter_sizes\": [2, 3, 4], \"glove_dim\": 100, \"gpu_no\": 2, \"num_filters\": 1232.0, \"rnn_bidirectional\": true, \"rnn_hidden_size\": 434.0, \"rnn_num_layers\": 9.0, \"stride\": 1, \"
…
0050639658849}, "train_vector": [0.028986876990731603, 0.020752024404846706, 0.01854811724523339, 0.017113435526926114, 0.015943977938445132, 0.015121796956085058, 0.015322286490770404], "valid_vector": [0.020328219066426626, 0.018536886625261956, 0.017714788976025138, 0.017686283288484834, 0.01720508255329711, 0.02582813649158329, 0.018005489258900848], "test_vector": [0.020178892820485746, 0.018326863070636162, 0.017617003254489158, 0.017670286357649036, 0.017106049686177835, 0.02580090165972265, 0.0179732577470161], "train_finish": "2018-12-25 22:59:34.481604", "model": "CRNN(\n  (embedding): Embedding(400000, 100)\n  (convs): ModuleList(\n    (0): Conv2d(1, 1232, kernel_size=(2, 100), stride=(1, 1))\n    (1): Conv2d(1, 1232, kernel_size=(3, 100), stride=(1, 1))\n    (2): Conv2d(1, 1232, kernel_size=(4, 100), stride=(1, 1))\n  )\n  (batch_norms): ModuleList(\n    (0): BatchNorm2d(1232, eps=1e-05, momentum=0.1, affine=True, track_running_stats=True)\n    (1): BatchNorm2d(1232, eps=1e-05, momentum=0.1, affine=True, track_running_stats=True)\n    (2): BatchNorm2d(1232, eps=1e-05, momentum=0.1, affine=True, track_running_stats=True)\n  )\n  (gru): GRU(100, 434, num_layers=9, batch_first=True, dropout=0.16, bidirectional=True)\n  (fc1): Linear(in_features=11508, out_features=577, bias=True)\n  (fc2): Linear(in_features=577, out_features=126, bias=True)\n  (dropout): Dropout(p=0.16)\n)"}, "{\"batch_norm\": true, \"bottleneck_fc_dim\": 404.0, \"cpu_mode\": false, \"dropout_pctg\": 0.025412655379568702, \"epochs\": 20, \"filter_sizes\": [3, 4, 5], \"glove_dim\": 200, \"gpu_no\": 2, \"num_filters\": 936.0, \"rnn_bidirectional\": true, \"rnn_hidden_size\": 226.0, \"rnn_num_layers\": 3.0, \"stride\": 1, \"
…
348, "f1_score_4": 0.7675391019757275}, "pAtK_scores": {"pAtK_1": 0.9709488272921108, "pAtK_3": 0.8411513859275054, "pAtK_5": 0.5808568763326226}, "train_vector": [0.024518251912310527, 0.017102429166057503, 0.01525514794867923, 0.013788986802270106, 0.012493464553066736], "valid_vector": [0.018327562941430904, 0.01675313165255471, 0.016428204425084376, 0.016497981643104658, 0.01690684950622325], "test_vector": [0.018186742193631526, 0.016597274544912933, 0.016314584525552258, 0.0163961786167152, 0.016881303804150143], "train_finish": "2018-12-26 00:22:46.501758", "model": "CRNN(\n  (embedding): Embedding(400000, 200)\n  (convs): ModuleList(\n    (0): Conv2d(1, 936, kernel_size=(3, 200), stride=(1, 1))\n    (1): Conv2d(1, 936, kernel_size=(4, 200), stride=(1, 1))\n    (2): Conv2d(1, 936, kernel_size=(5, 200), stride=(1, 1))\n  )\n  (batch_norms): ModuleList(\n    (0): BatchNorm2d(936, eps=1e-05, momentum=0.1, affine=True, track_running_stats=True)\n    (1): BatchNorm2d(936, eps=1e-05, momentum=0.1, affine=True, track_running_stats=True)\n    (2): BatchNorm2d(936, eps=1e-05, momentum=0.1, affine=True, track_running_stats=True)\n  )\n  (gru): GRU(200, 226, num_layers=3, batch_first=True, dropout=0.03, bidirectional=True)\n  (fc1): Linear(in_features=4164, out_features=404, bias=True)\n  (fc2): Linear(in_features=404, out_features=126, bias=True)\n  (dropout): Dropout(p=0.03)\n)"}, "{\"batch_norm\": true, \"bottleneck_fc_dim\": 314.0, \"cpu_mode\": false, \"dropout_pctg\": 0.06497646088409209, \"epochs\": 20, \"filter_sizes\": [1, 2, 3, 4, 5, 6], \"glove_dim\": 200, \"gpu_no\": 2, \"num_filters\": 852.0, \"rnn_bidirectional\": true, \"rnn_hidden_size\": 151.0, \"rnn_num_layers\": 11.0, \"stride
…
K_1": 0.9716484541577826, "pAtK_3": 0.8410514392324094, "pAtK_5": 0.5810567697228145}, "train_vector": [0.02671303098828491, 0.01917424483901623, 0.016975756676215578, 0.0153138601232823, 0.013915218174578812, 0.012720680519791366], "valid_vector": [0.01970341667579586, 0.01837012022142924, 0.01665705508709615, 0.016612100045952295, 0.01799555681571404, 0.01686808251890479], "test_vector": [0.019506619254282036, 0.01819049129917868, 0.016626447335934078, 0.016514679928347945, 0.01802416543946909, 0.016836975424139422], "train_finish": "2018-12-26 04:54:33.768937", "model": "CRNN(\n  (embedding): Embedding(400000, 200)\n  (convs): ModuleList(\n    (0): Conv2d(1, 852, kernel_size=(1, 200), stride=(1, 1))\n    (1): Conv2d(1, 852, kernel_size=(2, 200), stride=(1, 1))\n    (2): Conv2d(1, 852, kernel_size=(3, 200), stride=(1, 1))\n    (3): Conv2d(1, 852, kernel_size=(4, 200), stride=(1, 1))\n    (4): Conv2d(1, 852, kernel_size=(5, 200), stride=(1, 1))\n    (5): Conv2d(1, 852, kernel_size=(6, 200), stride=(1, 1))\n  )\n  (batch_norms): ModuleList(\n    (0): BatchNorm2d(852, eps=1e-05, momentum=0.1, affine=True, track_running_stats=True)\n    (1): BatchNorm2d(852, eps=1e-05, momentum=0.1, affine=True, track_running_stats=True)\n    (2): BatchNorm2d(852, eps=1e-05, momentum=0.1, affine=True, track_running_stats=True)\n    (3): BatchNorm2d(852, eps=1e-05, momentum=0.1, affine=True, track_running_stats=True)\n    (4): BatchNorm2d(852, eps=1e-05, momentum=0.1, affine=True, track_running_stats=True)\n    (5): BatchNorm2d(852, eps=1e-05, momentum=0.1, affine=True, track_running_stats=True)\n  )\n  (gru): GRU(200, 151, num_layers=11, batch_first=True, dropout=0.06, bidirectional=True)\n  (fc1): Linear(in_features=8434, out_features=314, bias=True)\n  (fc2): Linear(in_features=314, out_features=126, bias=True)\n  (dropout): Dropout(p=0.06)\n)"}, "{\"batch_norm\": true, \"bottleneck_fc_dim\": 346.0, \"cpu_mode\": false, \"dropout_pctg\": 0.0012367380097637048, \"epochs\": 20, \"filter_sizes\": [1, 2, 3, 4, 5], \"glove_dim\": 300, \"gpu_no\": 2, \"num_filters\": 884.0, \"rnn_bidirectional\": true, \"rnn_hidden_size\": 283.0, \"rnn_num_layers\": 5.0, \"stride\"
…
8147, "f1_score_4": 0.7659907842646418}, "pAtK_scores": {"pAtK_1": 0.9714485607675906, "pAtK_3": 0.839807658137882, "pAtK_5": 0.5793776652452025}, "train_vector": [0.023858764265507874, 0.016845097604432323, 0.014847634149851473, 0.014764114512501357, 0.013118465273122213], "valid_vector": [0.01832799709884565, 0.01698533332408237, 0.016080312403244104, 0.01687643054757577, 0.0169552791230594], "test_vector": [0.018108704566224806, 0.016947760268537476, 0.015968105379444385, 0.016721440402707503, 0.016894264325404217], "train_finish": "2018-12-26 07:08:59.729214", "model": "CRNN(\n  (embedding): Embedding(400000, 300)\n  (convs): ModuleList(\n    (0): Conv2d(1, 884, kernel_size=(1, 300), stride=(1, 1))\n    (1): Conv2d(1, 884, kernel_size=(2, 300), stride=(1, 1))\n    (2): Conv2d(1, 884, kernel_size=(3, 300), stride=(1, 1))\n    (3): Conv2d(1, 884, kernel_size=(4, 300), stride=(1, 1))\n    (4): Conv2d(1, 884, kernel_size=(5, 300), stride=(1, 1))\n  )\n  (batch_norms): ModuleList(\n    (0): BatchNorm2d(884, eps=1e-05, momentum=0.1, affine=True, track_running_stats=True)\n    (1): BatchNorm2d(884, eps=1e-05, momentum=0.1, affine=True, track_running_stats=True)\n    (2): BatchNorm2d(884, eps=1e-05, momentum=0.1, affine=True, track_running_stats=True)\n    (3): BatchNorm2d(884, eps=1e-05, momentum=0.1, affine=True, track_running_stats=True)\n    (4): BatchNorm2d(884, eps=1e-05, momentum=0.1, affine=True, track_running_stats=True)\n  )\n  (gru): GRU(300, 283, num_layers=5, batch_first=True, bidirectional=True)\n  (fc1): Linear(in_features=7250, out_features=346, bias=True)\n  (fc2): Linear(in_features=346, out_features=126, bias=True)\n  (dropout): Dropout(p=0.0)\n)"}, "{\"batch_norm\": true, \"bottleneck_fc_dim\": 234.0, \"cpu_mode\": false, \"dropout_pctg\": 0.29676831355172156, \"epochs\": 20, \"filter_sizes\": [3, 4, 5], \"glove_dim\": 100, \"gpu_no\": 2, \"num_filters\": 1080.0, \"rnn_bidirectional\": true, \"rnn_hidden_size\": 360.0, \"rnn_num_layers\": 7.0, \"stride\": 1, \"t
…
4826738364, 0.020309780359073375, 0.019049839745797496, 0.018023247979536628, 0.017206771684643535, 0.016634836258329927, 0.016104637682954746], "valid_vector": [0.020507668820408376, 0.018973062414604464, 0.018496637416408775, 0.01769947417332098, 0.01768379919203634, 0.01753763698013142, 0.017842764064467557, 0.01830784496027174], "test_vector": [0.020185336186639917, 0.01882033037549969, 0.018345904857245906, 0.01747134547017372, 0.017405334601937328, 0.017420216009759508, 0.017763492736671525, 0.01814984426950849], "train_finish": "2018-12-26 11:37:03.914623", "model": "CRNN(\n  (embedding): Embedding(400000, 100)\n  (convs): ModuleList(\n    (0): Conv2d(1, 1080, kernel_size=(3, 100), stride=(1, 1))\n    (1): Conv2d(1, 1080, kernel_size=(4, 100), stride=(1, 1))\n    (2): Conv2d(1, 1080, kernel_size=(5, 100), stride=(1, 1))\n  )\n  (batch_norms): ModuleList(\n    (0): BatchNorm2d(1080, eps=1e-05, momentum=0.1, affine=True, track_running_stats=True)\n    (1): BatchNorm2d(1080, eps=1e-05, momentum=0.1, affine=True, track_running_stats=True)\n    (2): BatchNorm2d(1080, eps=1e-05, momentum=0.1, affine=True, track_running_stats=True)\n  )\n  (gru): GRU(100, 360, num_layers=7, batch_first=True, dropout=0.3, bidirectional=True)\n  (fc1): Linear(in_features=8280, out_features=234, bias=True)\n  (fc2): Linear(in_features=234, out_features=126, bias=True)\n  (dropout): Dropout(p=0.3)\n)"}, "{\"batch_norm\": true, \"bottleneck_fc_dim\": 467.0, \"cpu_mode\": false, \"dropout_pctg\": 0.23753527807796368, \"epochs\": 20, \"filter_sizes\": [3, 4, 5, 6], \"glove_dim\": 300, \"gpu_no\": 2, \"num_filters\": 1390.0, \"rnn_bidirectional\": true, \"rnn_hidden_size\": 548.0, \"rnn_num_layers\": 15.0, \"stride\": 1,
…
ropout_pctg": 0.24, "num_filters": 1390, "bottleneck_fc_dim": 467, "glove_dim": 300, "batch_norm": true, "filter_sizes": [3, 4, 5, 6], "rnn_hidden_size": 548, "rnn_num_layers": 15, "rnn_bidirectional": true, "batch_size": 64, "num_workers": 12, "epochs": 20, "txt_length": 691, "train_start": "2018-12-26 11:37:04.835296", "no_of_trainable_params": 96419587, "train_error_message": "CUDA out of memory. Tried to allocate 4.96 GiB (GPU 2; 7.93 GiB total capacity; 1.36 GiB already allocated; 3.05 GiB free; 2.86 GiB cached)", "train_finish": "2018-12-26 11:37:29.560713", "model": "CRNN(\n  (embedding): Embedding(400000, 300)\n  (convs): ModuleList(\n    (0): Conv2d(1, 1390, kernel_size=(3, 300), stride=(1, 1))\n    (1): Conv2d(1, 1390, kernel_size=(4, 300), stride=(1, 1))\n    (2): Conv2d(1, 1390, kernel_size=(5, 300), stride=(1, 1))\n    (3): Conv2d(1, 1390, kernel_size=(6, 300), stride=(1, 1))\n  )\n  (batch_norms): ModuleList(\n    (0): BatchNorm2d(1390, eps=1e-05, momentum=0.1, affine=True, track_running_stats=True)\n    (1): BatchNorm2d(1390, eps=1e-05, momentum=0.1, affine=True, track_running_stats=True)\n    (2): BatchNorm2d(1390, eps=1e-05, momentum=0.1, affine=True, track_running_stats=True)\n    (3): BatchNorm2d(1390, eps=1e-05, momentum=0.1, affine=True, track_running_stats=True)\n  )\n  (gru): GRU(300, 548, num_layers=15, batch_first=True, dropout=0.24, bidirectional=True)\n  (fc1): Linear(in_features=22000, out_features=467, bias=True)\n  (fc2): Linear(in_features=467, out_features=126, bias=True)\n  (dropout): Dropout(p=0.24)\n)"}, "{\"batch_norm\": true, \"bottleneck_fc_dim\": 550.0, \"cpu_mode\": false, \"dropout_pctg\": 0.09876996188490149, \"epochs\": 20, \"filter_sizes\": [1, 2, 3, 4, 5, 6], \"glove_dim\": 200, \"gpu_no\": 2, \"num_filters\": 1035.0, \"rnn_bidirectional\": true, \"rnn_hidden_size\": 200.0, \"rnn_num_layers\": 11.0, \"strid
…
5678171641791044}, "train_vector": [0.027076598714287674, 0.018671283059581528, 0.016604269483735987, 0.014919676037461535, 0.013404896461704036, 0.012067483965428736, 0.011077548159667059], "valid_vector": [0.019525736355523605, 0.01697535340181256, 0.01665422934549811, 0.01647374755901489, 0.01645733551925241, 0.01697783357656644, 0.02182666366713356], "test_vector": [0.019323522610260227, 0.016986858923790423, 0.016564419074083316, 0.016351239140163353, 0.01648823373607481, 0.0168993265630165, 0.021602187671069143], "train_finish": "2018-12-26 16:23:25.346605", "model": "CRNN(\n  (embedding): Embedding(400000, 200)\n  (convs): ModuleList(\n    (0): Conv2d(1, 1035, kernel_size=(1, 200), stride=(1, 1))\n    (1): Conv2d(1, 1035, kernel_size=(2, 200), stride=(1, 1))\n    (2): Conv2d(1, 1035, kernel_size=(3, 200), stride=(1, 1))\n    (3): Conv2d(1, 1035, kernel_size=(4, 200), stride=(1, 1))\n    (4): Conv2d(1, 1035, kernel_size=(5, 200), stride=(1, 1))\n    (5): Conv2d(1, 1035, kernel_size=(6, 200), stride=(1, 1))\n  )\n  (batch_norms): ModuleList(\n    (0): BatchNorm2d(1035, eps=1e-05, momentum=0.1, affine=True, track_running_stats=True)\n    (1): BatchNorm2d(1035, eps=1e-05, momentum=0.1, affine=True, track_running_stats=True)\n    (2): BatchNorm2d(1035, eps=1e-05, momentum=0.1, affine=True, track_running_stats=True)\n    (3): BatchNorm2d(1035, eps=1e-05, momentum=0.1, affine=True, track_running_stats=True)\n    (4): BatchNorm2d(1035, eps=1e-05, momentum=0.1, affine=True, track_running_stats=True)\n    (5): BatchNorm2d(1035, eps=1e-05, momentum=0.1, affine=True, track_running_stats=True)\n  )\n  (gru): GRU(200, 200, num_layers=11, batch_first=True, dropout=0.1, bidirectional=True)\n  (fc1): Linear(in_features=10610, out_features=550, bias=True)\n  (fc2): Linear(in_features=550, out_features=126, bias=True)\n  (dropout): Dropout(p=0.1)\n)"}, "{\"batch_norm\": true, \"bottleneck_fc_dim\": 527.0, \"cpu_mode\": false, \"dropout_pctg\": 0.3315595632178562, \"epochs\": 20, \"filter_sizes\": [2, 3, 4, 5], \"glove_dim\": 100, \"gpu_no\": 2, \"num_filters\": 627.0, \"rnn_bidirectional\": true, \"rnn_hidden_size\": 239.0, \"rnn_num_layers\": 3.0, \"stride\": 1, \"
…
5805970149253732}, "train_vector": [0.029525539195940313, 0.02050450921089467, 0.018550435005336315, 0.01739024579909649, 0.01647246800255718, 0.015773290411813686, 0.015115614983938007], "valid_vector": [0.019781018829103242, 0.018465524539599685, 0.0172078703574316, 0.016959087226973243, 0.016729158921420937, 0.016758530010429047, 0.016950618474155233], "test_vector": [0.019553098694554398, 0.01823852913998274, 0.017076918444256666, 0.01684940686779045, 0.016747654268720637, 0.016614224807397007, 0.0168652040447031], "train_finish": "2018-12-26 18:07:14.495706", "model": "CRNN(\n  (embedding): Embedding(400000, 100)\n  (convs): ModuleList(\n    (0): Conv2d(1, 627, kernel_size=(2, 100), stride=(1, 1))\n    (1): Conv2d(1, 627, kernel_size=(3, 100), stride=(1, 1))\n    (2): Conv2d(1, 627, kernel_size=(4, 100), stride=(1, 1))\n    (3): Conv2d(1, 627, kernel_size=(5, 100), stride=(1, 1))\n  )\n  (batch_norms): ModuleList(\n    (0): BatchNorm2d(627, eps=1e-05, momentum=0.1, affine=True, track_running_stats=True)\n    (1): BatchNorm2d(627, eps=1e-05, momentum=0.1, affine=True, track_running_stats=True)\n    (2): BatchNorm2d(627, eps=1e-05, momentum=0.1, affine=True, track_running_stats=True)\n    (3): BatchNorm2d(627, eps=1e-05, momentum=0.1, affine=True, track_running_stats=True)\n  )\n  (gru): GRU(100, 239, num_layers=3, batch_first=True, dropout=0.33, bidirectional=True)\n  (fc1): Linear(in_features=3942, out_features=527, bias=True)\n  (fc2): Linear(in_features=527, out_features=126, bias=True)\n  (dropout): Dropout(p=0.33)\n)"}, "{\"batch_norm\": true, \"bottleneck_fc_dim\": 200.0, \"cpu_mode\": false, \"dropout_pctg\": 0.11516588375925901, \"epochs\": 20, \"filter_sizes\": [2, 3, 4], \"glove_dim\": 300, \"gpu_no\": 2, \"num_filters\": 1498.0, \"rnn_bidirectional\": true, \"rnn_hidden_size\": 78.0, \"rnn_num_layers\": 13.0, \"stride\": 1, \"
…
574093816631}, "train_vector": [0.02826007017632201, 0.019955069448385414, 0.018376396687302773, 0.017080855693120466, 0.015888795793466987, 0.014440969071274458, 0.01331133752096675], "valid_vector": [0.01946179031420237, 0.0179996477425851, 0.017663837936116075, 0.017577791616925274, 0.017118975123415873, 0.017616711644657345, 0.017393309718567822], "test_vector": [0.019161403896028936, 0.017863538118202422, 0.017617705929428656, 0.017502391206493766, 0.016967038564415757, 0.017435453205641462, 0.017217865998127947], "train_finish": "2018-12-26 22:38:33.955521", "model": "CRNN(\n  (embedding): Embedding(400000, 300)\n  (convs): ModuleList(\n    (0): Conv2d(1, 1498, kernel_size=(2, 300), stride=(1, 1))\n    (1): Conv2d(1, 1498, kernel_size=(3, 300), stride=(1, 1))\n    (2): Conv2d(1, 1498, kernel_size=(4, 300), stride=(1, 1))\n  )\n  (batch_norms): ModuleList(\n    (0): BatchNorm2d(1498, eps=1e-05, momentum=0.1, affine=True, track_running_stats=True)\n    (1): BatchNorm2d(1498, eps=1e-05, momentum=0.1, affine=True, track_running_stats=True)\n    (2): BatchNorm2d(1498, eps=1e-05, momentum=0.1, affine=True, track_running_stats=True)\n  )\n  (gru): GRU(300, 78, num_layers=13, batch_first=True, dropout=0.12, bidirectional=True)\n  (fc1): Linear(in_features=6522, out_features=200, bias=True)\n  (fc2): Linear(in_features=200, out_features=126, bias=True)\n  (dropout): Dropout(p=0.12)\n)"}, "{\"batch_norm\": true, \"bottleneck_fc_dim\": 490.0, \"cpu_mode\": false, \"dropout_pctg\": 0.37403244229932575, \"epochs\": 20, \"filter_sizes\": [1, 2, 3, 4, 5], \"glove_dim\": 200, \"gpu_no\": 2, \"num_filters\": 1251.0, \"rnn_bidirectional\": true, \"rnn_hidden_size\": 299.0, \"rnn_num_layers\": 6.0, \"stride\":
…
5791844349680171}, "train_vector": [0.03168223940284293, 0.02239547788800141, 0.020212292581997422, 0.01875934575541738, 0.017595767903910986, 0.016673314537189052, 0.01764545726464125], "valid_vector": [0.020713967135372654, 0.018595193729185854, 0.017985078578589976, 0.01785700414313633, 0.01738482797119979, 0.019137631704745844, 0.017818017646164964], "test_vector": [0.02041198156162429, 0.01848760004371786, 0.017743821460396242, 0.01768768513634769, 0.017295579781442055, 0.018937155147637132, 0.017503877656895723], "train_finish": "2018-12-27 03:28:15.624383", "model": "CRNN(\n  (embedding): Embedding(400000, 200)\n  (convs): ModuleList(\n    (0): Conv2d(1, 1251, kernel_size=(1, 200), stride=(1, 1))\n    (1): Conv2d(1, 1251, kernel_size=(2, 200), stride=(1, 1))\n    (2): Conv2d(1, 1251, kernel_size=(3, 200), stride=(1, 1))\n    (3): Conv2d(1, 1251, kernel_size=(4, 200), stride=(1, 1))\n    (4): Conv2d(1, 1251, kernel_size=(5, 200), stride=(1, 1))\n  )\n  (batch_norms): ModuleList(\n    (0): BatchNorm2d(1251, eps=1e-05, momentum=0.1, affine=True, track_running_stats=True)\n    (1): BatchNorm2d(1251, eps=1e-05, momentum=0.1, affine=True, track_running_stats=True)\n    (2): BatchNorm2d(1251, eps=1e-05, momentum=0.1, affine=True, track_running_stats=True)\n    (3): BatchNorm2d(1251, eps=1e-05, momentum=0.1, affine=True, track_running_stats=True)\n    (4): BatchNorm2d(1251, eps=1e-05, momentum=0.1, affine=True, track_running_stats=True)\n  )\n  (gru): GRU(200, 299, num_layers=6, batch_first=True, dropout=0.37, bidirectional=True)\n  (fc1): Linear(in_features=9843, out_features=490, bias=True)\n  (fc2): Linear(in_features=490, out_features=126, bias=True)\n  (dropout): Dropout(p=0.37)\n)"}, "{\"batch_norm\": true, \"bottleneck_fc_dim\": 263.0, \"cpu_mode\": false, \"dropout_pctg\": 0.2684141173839598, \"epochs\": 20, \"filter_sizes\": [1, 2, 3], \"glove_dim\": 300, \"gpu_no\": 2, \"num_filters\": 999.0, \"rnn_bidirectional\": true, \"rnn_hidden_size\": 141.0, \"rnn_num_layers\": 10.0, \"stride\": 1, \"t
…
80057302771855}, "train_vector": [0.029574260197872078, 0.021845831928611708, 0.019834719342850506, 0.018435303493042097, 0.017036681820607667, 0.01608212362068408, 0.015082020503881298], "valid_vector": [0.021398871818603053, 0.018706716662610392, 0.017548233921602884, 0.01830675876883071, 0.017101513774150104, 0.01728475620887721, 0.017429361838588255], "test_vector": [0.021263970087951563, 0.01843717058441405, 0.01740315614709023, 0.017963391167721325, 0.01698094113632592, 0.01710776912608444, 0.017364297987523872], "train_finish": "2018-12-27 07:19:12.711224", "model": "CRNN(\n  (embedding): Embedding(400000, 300)\n  (convs): ModuleList(\n    (0): Conv2d(1, 999, kernel_size=(1, 300), stride=(1, 1))\n    (1): Conv2d(1, 999, kernel_size=(2, 300), stride=(1, 1))\n    (2): Conv2d(1, 999, kernel_size=(3, 300), stride=(1, 1))\n  )\n  (batch_norms): ModuleList(\n    (0): BatchNorm2d(999, eps=1e-05, momentum=0.1, affine=True, track_running_stats=True)\n    (1): BatchNorm2d(999, eps=1e-05, momentum=0.1, affine=True, track_running_stats=True)\n    (2): BatchNorm2d(999, eps=1e-05, momentum=0.1, affine=True, track_running_stats=True)\n  )\n  (gru): GRU(300, 141, num_layers=10, batch_first=True, dropout=0.27, bidirectional=True)\n  (fc1): Linear(in_features=5817, out_features=263, bias=True)\n  (fc2): Linear(in_features=263, out_features=126, bias=True)\n  (dropout): Dropout(p=0.27)\n)"}, "{\"batch_norm\": true, \"bottleneck_fc_dim\": 355.0, \"cpu_mode\": false, \"dropout_pctg\": 0.023481948169243205, \"epochs\": 20, \"filter_sizes\": [3, 4, 5], \"glove_dim\": 100, \"gpu_no\": 2, \"num_filters\": 742.0, \"rnn_bidirectional\": true, \"rnn_hidden_size\": 403.0, \"rnn_num_layers\": 9.0, \"stride\": 1, \"
…
5306892490676, 0.015206200773395368, 0.013849905949720085, 0.012637559652130696, 0.011463281440348817], "valid_vector": [0.02224143357601946, 0.020291977535450714, 0.019558060818713214, 0.01978130741449478, 0.018960171421594632, 0.018832720914678868, 0.01812063128479433, 0.0193728137359734, 0.01913496780880431], "test_vector": [0.02202813892460454, 0.02018469944199138, 0.019449536339131625, 0.019556524386919384, 0.01894184944829516, 0.018776478422587232, 0.01804171313247733, 0.019175896869857174, 0.019090450972493397], "train_finish": "2018-12-27 15:41:41.707529", "model": "CRNN(\n  (embedding): Embedding(400000, 100)\n  (convs): ModuleList(\n    (0): Conv2d(1, 742, kernel_size=(3, 100), stride=(1, 1))\n    (1): Conv2d(1, 742, kernel_size=(4, 100), stride=(1, 1))\n    (2): Conv2d(1, 742, kernel_size=(5, 100), stride=(1, 1))\n  )\n  (batch_norms): ModuleList(\n    (0): BatchNorm2d(742, eps=1e-05, momentum=0.1, affine=True, track_running_stats=True)\n    (1): BatchNorm2d(742, eps=1e-05, momentum=0.1, affine=True, track_running_stats=True)\n    (2): BatchNorm2d(742, eps=1e-05, momentum=0.1, affine=True, track_running_stats=True)\n  )\n  (gru): GRU(100, 403, num_layers=9, batch_first=True, dropout=0.02, bidirectional=True)\n  (fc1): Linear(in_features=9480, out_features=355, bias=True)\n  (fc2): Linear(in_features=355, out_features=126, bias=True)\n  (dropout): Dropout(p=0.02)\n)"}, "{\"batch_norm\": true, \"bottleneck_fc_dim\": 425.0, \"cpu_mode\": false, \"dropout_pctg\": 0.04678572953912097, \"epochs\": 20, \"filter_sizes\": [1, 2, 3, 4, 5], \"glove_dim\": 300, \"gpu_no\": 2, \"num_filters\": 1153.0, \"rnn_bidirectional\": true, \"rnn_hidden_size\": 90.0, \"rnn_num_layers\": 12.0, \"stride\":
…
0.9716151385927505, "pAtK_3": 0.8412513326226013, "pAtK_5": 0.5801439232409382}, "train_vector": [0.02551820501188172, 0.018528974124279146, 0.016417707416344247, 0.014952527641531441, 0.013649016861622933, 0.012308285653013677], "valid_vector": [0.019447952954730056, 0.017479365711834637, 0.01701506754512023, 0.016523530935125947, 0.017849033382455155, 0.017210694446378867], "test_vector": [0.019279892230704268, 0.01729078595238581, 0.016888046064285008, 0.016462146781130768, 0.01767833091155775, 0.01708528044512436], "train_finish": "2018-12-27 20:16:09.399834", "model": "CRNN(\n  (embedding): Embedding(400000, 300)\n  (convs): ModuleList(\n    (0): Conv2d(1, 1153, kernel_size=(1, 300), stride=(1, 1))\n    (1): Conv2d(1, 1153, kernel_size=(2, 300), stride=(1, 1))\n    (2): Conv2d(1, 1153, kernel_size=(3, 300), stride=(1, 1))\n    (3): Conv2d(1, 1153, kernel_size=(4, 300), stride=(1, 1))\n    (4): Conv2d(1, 1153, kernel_size=(5, 300), stride=(1, 1))\n  )\n  (batch_norms): ModuleList(\n    (0): BatchNorm2d(1153, eps=1e-05, momentum=0.1, affine=True, track_running_stats=True)\n    (1): BatchNorm2d(1153, eps=1e-05, momentum=0.1, affine=True, track_running_stats=True)\n    (2): BatchNorm2d(1153, eps=1e-05, momentum=0.1, affine=True, track_running_stats=True)\n    (3): BatchNorm2d(1153, eps=1e-05, momentum=0.1, affine=True, track_running_stats=True)\n    (4): BatchNorm2d(1153, eps=1e-05, momentum=0.1, affine=True, track_running_stats=True)\n  )\n  (gru): GRU(300, 90, num_layers=12, batch_first=True, dropout=0.05, bidirectional=True)\n  (fc1): Linear(in_features=7925, out_features=425, bias=True)\n  (fc2): Linear(in_features=425, out_features=126, bias=True)\n  (dropout): Dropout(p=0.05)\n)"}, "{\"batch_norm\": true, \"bottleneck_fc_dim\": 478.0, \"cpu_mode\": false, \"dropout_pctg\": 0.22108208573812446, \"epochs\": 20, \"filter_sizes\": [1, 2, 3, 4, 5, 6], \"glove_dim\": 200, \"gpu_no\": 2, \"num_filters\": 957.0, \"rnn_bidirectional\": true, \"rnn_hidden_size\": 179.0, \"rnn_num_layers\": 7.0, \"stride\
…
AtK_1": 0.9721148720682303, "pAtK_3": 0.8412069118692252, "pAtK_5": 0.580543710021322}, "train_vector": [0.02828994925032502, 0.020200554559279625, 0.01789248467454331, 0.01631446781838084, 0.01492741198356988, 0.013666130923899636], "valid_vector": [0.019367273685448903, 0.01772386413591324, 0.016879939575253158, 0.01644766396336031, 0.017155600853933535, 0.016970849576416605], "test_vector": [0.0193769259612634, 0.01766428035666058, 0.016881921243216438, 0.0165189368141962, 0.01737647227990602, 0.017158890178780566], "train_finish": "2018-12-27 22:36:50.342143", "model": "CRNN(\n  (embedding): Embedding(400000, 200)\n  (convs): ModuleList(\n    (0): Conv2d(1, 957, kernel_size=(1, 200), stride=(1, 1))\n    (1): Conv2d(1, 957, kernel_size=(2, 200), stride=(1, 1))\n    (2): Conv2d(1, 957, kernel_size=(3, 200), stride=(1, 1))\n    (3): Conv2d(1, 957, kernel_size=(4, 200), stride=(1, 1))\n    (4): Conv2d(1, 957, kernel_size=(5, 200), stride=(1, 1))\n    (5): Conv2d(1, 957, kernel_size=(6, 200), stride=(1, 1))\n  )\n  (batch_norms): ModuleList(\n    (0): BatchNorm2d(957, eps=1e-05, momentum=0.1, affine=True, track_running_stats=True)\n    (1): BatchNorm2d(957, eps=1e-05, momentum=0.1, affine=True, track_running_stats=True)\n    (2): BatchNorm2d(957, eps=1e-05, momentum=0.1, affine=True, track_running_stats=True)\n    (3): BatchNorm2d(957, eps=1e-05, momentum=0.1, affine=True, track_running_stats=True)\n    (4): BatchNorm2d(957, eps=1e-05, momentum=0.1, affine=True, track_running_stats=True)\n    (5): BatchNorm2d(957, eps=1e-05, momentum=0.1, affine=True, track_running_stats=True)\n  )\n  (gru): GRU(200, 179, num_layers=7, batch_first=True, dropout=0.22, bidirectional=True)\n  (fc1): Linear(in_features=8248, out_features=478, bias=True)\n  (fc2): Linear(in_features=478, out_features=126, bias=True)\n  (dropout): Dropout(p=0.22)\n)"}, "{\"batch_norm\": true, \"bottleneck_fc_dim\": 582.0, \"cpu_mode\": false, \"dropout_pctg\": 0.49593415720518325, \"epochs\": 20, \"filter_sizes\": [1, 2, 3], \"glove_dim\": 100, \"gpu_no\": 2, \"num_filters\": 900.0, \"rnn_bidirectional\": true, \"rnn_hidden_size\": 129.0, \"rnn_num_layers\": 5.0, \"stride\": 1, \"t
…
9709488272921108, "pAtK_3": 0.8392412935323383, "pAtK_5": 0.5798307569296375}, "train_vector": [0.032891568637839666, 0.023418074290108098, 0.021397090837530386, 0.02009789128847452, 0.01915934626107465, 0.018572776896303586], "valid_vector": [0.020912471559466614, 0.019037775819434097, 0.018264373462621882, 0.017639412130388037, 0.018045154162312744, 0.017738456616327336], "test_vector": [0.020763379622941842, 0.018812708914089305, 0.01805279656116769, 0.017456952919329662, 0.017817826482898265, 0.017569550019162678], "train_finish": "2018-12-28 00:21:39.296283", "model": "CRNN(\n  (embedding): Embedding(400000, 100)\n  (convs): ModuleList(\n    (0): Conv2d(1, 900, kernel_size=(1, 100), stride=(1, 1))\n    (1): Conv2d(1, 900, kernel_size=(2, 100), stride=(1, 1))\n    (2): Conv2d(1, 900, kernel_size=(3, 100), stride=(1, 1))\n  )\n  (batch_norms): ModuleList(\n    (0): BatchNorm2d(900, eps=1e-05, momentum=0.1, affine=True, track_running_stats=True)\n    (1): BatchNorm2d(900, eps=1e-05, momentum=0.1, affine=True, track_running_stats=True)\n    (2): BatchNorm2d(900, eps=1e-05, momentum=0.1, affine=True, track_running_stats=True)\n  )\n  (gru): GRU(100, 129, num_layers=5, batch_first=True, dropout=0.5, bidirectional=True)\n  (fc1): Linear(in_features=3990, out_features=582, bias=True)\n  (fc2): Linear(in_features=582, out_features=126, bias=True)\n  (dropout): Dropout(p=0.5)\n)"}, "{\"batch_norm\": true, \"bottleneck_fc_dim\": 557.0, \"cpu_mode\": false, \"dropout_pctg\": 0.08055751224260174, \"epochs\": 20, \"filter_sizes\": [1, 2, 3, 4, 5], \"glove_dim\": 300, \"gpu_no\": 2, \"num_filters\": 663.0, \"rnn_bidirectional\": true, \"rnn_hidden_size\": 494.0, \"rnn_num_layers\": 10.0, \"stride\": 
…
pout_pctg": 0.08, "num_filters": 663, "bottleneck_fc_dim": 557, "glove_dim": 300, "batch_norm": true, "filter_sizes": [1, 2, 3, 4, 5], "rnn_hidden_size": 494, "rnn_num_layers": 10, "rnn_bidirectional": true, "batch_size": 64, "num_workers": 12, "epochs": 20, "txt_length": 664, "train_start": "2018-12-28 00:21:40.219314", "no_of_trainable_params": 52360453, "train_error_message": "CUDA out of memory. Tried to allocate 3.59 GiB (GPU 2; 7.93 GiB total capacity; 1.64 GiB already allocated; 3.19 GiB free; 2.59 GiB cached)", "train_finish": "2018-12-28 00:22:15.158880", "model": "CRNN(\n  (embedding): Embedding(400000, 300)\n  (convs): ModuleList(\n    (0): Conv2d(1, 663, kernel_size=(1, 300), stride=(1, 1))\n    (1): Conv2d(1, 663, kernel_size=(2, 300), stride=(1, 1))\n    (2): Conv2d(1, 663, kernel_size=(3, 300), stride=(1, 1))\n    (3): Conv2d(1, 663, kernel_size=(4, 300), stride=(1, 1))\n    (4): Conv2d(1, 663, kernel_size=(5, 300), stride=(1, 1))\n  )\n  (batch_norms): ModuleList(\n    (0): BatchNorm2d(663, eps=1e-05, momentum=0.1, affine=True, track_running_stats=True)\n    (1): BatchNorm2d(663, eps=1e-05, momentum=0.1, affine=True, track_running_stats=True)\n    (2): BatchNorm2d(663, eps=1e-05, momentum=0.1, affine=True, track_running_stats=True)\n    (3): BatchNorm2d(663, eps=1e-05, momentum=0.1, affine=True, track_running_stats=True)\n    (4): BatchNorm2d(663, eps=1e-05, momentum=0.1, affine=True, track_running_stats=True)\n  )\n  (gru): GRU(300, 494, num_layers=10, batch_first=True, dropout=0.08, bidirectional=True)\n  (fc1): Linear(in_features=13195, out_features=557, bias=True)\n  (fc2): Linear(in_features=557, out_features=126, bias=True)\n  (dropout): Dropout(p=0.08)\n)"}, "{\"batch_norm\": true, \"bottleneck_fc_dim\": 394.0, \"cpu_mode\": false, \"dropout_pctg\": 0.18380543044724051, \"epochs\": 20, \"filter_sizes\": [2, 3, 4, 5], \"glove_dim\": 300, \"gpu_no\": 2, \"num_filters\": 844.0, \"rnn_bidirectional\": true, \"rnn_hidden_size\": 207.0, \"rnn_num_layers\": 15.0, \"stride\": 1,
…
out_pctg": 0.18, "num_filters": 844, "bottleneck_fc_dim": 394, "glove_dim": 300, "batch_norm": true, "filter_sizes": [2, 3, 4, 5], "rnn_hidden_size": 207, "rnn_num_layers": 15, "rnn_bidirectional": true, "batch_size": 64, "num_workers": 12, "epochs": 20, "txt_length": 790, "train_start": "2018-12-28 00:22:16.084281", "no_of_trainable_params": 18846878, "train_error_message": "CUDA out of memory. Tried to allocate 2.70 GiB (GPU 2; 7.93 GiB total capacity; 961.15 MiB already allocated; 644.56 MiB free; 2.67 GiB cached)", "train_finish": "2018-12-28 00:23:27.842943", "model": "CRNN(\n  (embedding): Embedding(400000, 300)\n  (convs): ModuleList(\n    (0): Conv2d(1, 844, kernel_size=(2, 300), stride=(1, 1))\n    (1): Conv2d(1, 844, kernel_size=(3, 300), stride=(1, 1))\n    (2): Conv2d(1, 844, kernel_size=(4, 300), stride=(1, 1))\n    (3): Conv2d(1, 844, kernel_size=(5, 300), stride=(1, 1))\n  )\n  (batch_norms): ModuleList(\n    (0): BatchNorm2d(844, eps=1e-05, momentum=0.1, affine=True, track_running_stats=True)\n    (1): BatchNorm2d(844, eps=1e-05, momentum=0.1, affine=True, track_running_stats=True)\n    (2): BatchNorm2d(844, eps=1e-05, momentum=0.1, affine=True, track_running_stats=True)\n    (3): BatchNorm2d(844, eps=1e-05, momentum=0.1, affine=True, track_running_stats=True)\n  )\n  (gru): GRU(300, 207, num_layers=15, batch_first=True, dropout=0.18, bidirectional=True)\n  (fc1): Linear(in_features=9586, out_features=394, bias=True)\n  (fc2): Linear(in_features=394, out_features=126, bias=True)\n  (dropout): Dropout(p=0.18)\n)"}, "{\"batch_norm\": true, \"bottleneck_fc_dim\": 454.0, \"cpu_mode\": false, \"dropout_pctg\": 0.1315389708802146, \"epochs\": 20, \"filter_sizes\": [1, 2, 3, 4, 5], \"glove_dim\": 200, \"gpu_no\": 2, \"num_filters\": 1274.0, \"rnn_bidirectional\": true, \"rnn_hidden_size\": 379.0, \"rnn_num_layers\": 1.0, \"stride\": 
…
K_1": 0.972481343283582, "pAtK_3": 0.8424062722103767, "pAtK_5": 0.581669776119403}, "train_vector": [0.02684010127996638, 0.018426525823497627, 0.01608306153842895, 0.014364058363426321, 0.012810898878389975, 0.0114761160848376], "valid_vector": [0.018765554735079598, 0.01690209602221235, 0.016243798366592906, 0.016145729491346156, 0.016476630174151775, 0.01730416215620369], "test_vector": [0.01853781978268105, 0.016741092941328597, 0.016120716585898833, 0.016031946415014105, 0.01643301919301245, 0.01718755901110039], "train_finish": "2018-12-28 01:29:15.891930", "model": "CRNN(\n  (embedding): Embedding(400000, 200)\n  (convs): ModuleList(\n    (0): Conv2d(1, 1274, kernel_size=(1, 200), stride=(1, 1))\n    (1): Conv2d(1, 1274, kernel_size=(2, 200), stride=(1, 1))\n    (2): Conv2d(1, 1274, kernel_size=(3, 200), stride=(1, 1))\n    (3): Conv2d(1, 1274, kernel_size=(4, 200), stride=(1, 1))\n    (4): Conv2d(1, 1274, kernel_size=(5, 200), stride=(1, 1))\n  )\n  (batch_norms): ModuleList(\n    (0): BatchNorm2d(1274, eps=1e-05, momentum=0.1, affine=True, track_running_stats=True)\n    (1): BatchNorm2d(1274, eps=1e-05, momentum=0.1, affine=True, track_running_stats=True)\n    (2): BatchNorm2d(1274, eps=1e-05, momentum=0.1, affine=True, track_running_stats=True)\n    (3): BatchNorm2d(1274, eps=1e-05, momentum=0.1, affine=True, track_running_stats=True)\n    (4): BatchNorm2d(1274, eps=1e-05, momentum=0.1, affine=True, track_running_stats=True)\n  )\n  (gru): GRU(200, 379, batch_first=True, dropout=0.13, bidirectional=True)\n  (fc1): Linear(in_features=7128, out_features=454, bias=True)\n  (fc2): Linear(in_features=454, out_features=126, bias=True)\n  (dropout): Dropout(p=0.13)\n)"}, "{\"batch_norm\": true, \"bottleneck_fc_dim\": 512.0, \"cpu_mode\": false, \"dropout_pctg\": 0.3164129489554149, \"epochs\": 20, \"filter_sizes\": [2, 3, 4], \"glove_dim\": 300, \"gpu_no\": 2, \"num_filters\": 1060.0, \"rnn_bidirectional\": true, \"rnn_hidden_size\": 431.0, \"rnn_num_layers\": 11.0, \"stride\": 1, \"
…
{"dropout_pctg": 0.32, "num_filters": 1060, "bottleneck_fc_dim": 512, "glove_dim": 300, "batch_norm": true, "filter_sizes": [2, 3, 4], "rnn_hidden_size": 431, "rnn_num_layers": 11, "rnn_bidirectional": true, "batch_size": 64, "num_workers": 12, "epochs": 20, "txt_length": 709, "train_start": "2018-12-28 01:29:16.854431", "no_of_trainable_params": 44803872, "train_error_message": "CUDA out of memory. Tried to allocate 4.05 GiB (GPU 2; 7.93 GiB total capacity; 1.51 GiB already allocated; 3.95 GiB free; 1.96 GiB cached)", "train_finish": "2018-12-28 01:31:34.679389", "model": "CRNN(\n  (embedding): Embedding(400000, 300)\n  (convs): ModuleList(\n    (0): Conv2d(1, 1060, kernel_size=(2, 300), stride=(1, 1))\n    (1): Conv2d(1, 1060, kernel_size=(3, 300), stride=(1, 1))\n    (2): Conv2d(1, 1060, kernel_size=(4, 300), stride=(1, 1))\n  )\n  (batch_norms): ModuleList(\n    (0): BatchNorm2d(1060, eps=1e-05, momentum=0.1, affine=True, track_running_stats=True)\n    (1): BatchNorm2d(1060, eps=1e-05, momentum=0.1, affine=True, track_running_stats=True)\n    (2): BatchNorm2d(1060, eps=1e-05, momentum=0.1, affine=True, track_running_stats=True)\n  )\n  (gru): GRU(300, 431, num_layers=11, batch_first=True, dropout=0.32, bidirectional=True)\n  (fc1): Linear(in_features=12662, out_features=512, bias=True)\n  (fc2): Linear(in_features=512, out_features=126, bias=True)\n  (dropout): Dropout(p=0.32)\n)"}, "{\"batch_norm\": true, \"bottleneck_fc_dim\": 317.0, \"cpu_mode\": false, \"dropout_pctg\": 0.15826931034408462, \"epochs\": 20, \"filter_sizes\": [1, 2, 3, 4, 5], \"glove_dim\": 100, \"gpu_no\": 2, \"num_filters\": 1325.0, \"rnn_bidirectional\": true, \"rnn_hidden_size\": 252.0, \"rnn_num_layers\": 6.0, \"stride\":
…
20590293967, 0.02022707347137895, 0.018623901983094875, 0.017339512757736326, 0.016813457726695742, 0.015266330500348027, 0.014175217957862056], "valid_vector": [0.02031812904331126, 0.019732600567725373, 0.01889325797146778, 0.01778466201527342, 0.01778187235293072, 0.01752074864426894, 0.017706446713946167, 0.018017965827637643], "test_vector": [0.02006621425276372, 0.019580566350108526, 0.01866222946827155, 0.017683964211747907, 0.017818489623293757, 0.017412544255937214, 0.017598155626792834, 0.018062820484333518], "train_finish": "2018-12-28 05:24:57.925294", "model": "CRNN(\n  (embedding): Embedding(400000, 100)\n  (convs): ModuleList(\n    (0): Conv2d(1, 1325, kernel_size=(1, 100), stride=(1, 1))\n    (1): Conv2d(1, 1325, kernel_size=(2, 100), stride=(1, 1))\n    (2): Conv2d(1, 1325, kernel_size=(3, 100), stride=(1, 1))\n    (3): Conv2d(1, 1325, kernel_size=(4, 100), stride=(1, 1))\n    (4): Conv2d(1, 1325, kernel_size=(5, 100), stride=(1, 1))\n  )\n  (batch_norms): ModuleList(\n    (0): BatchNorm2d(1325, eps=1e-05, momentum=0.1, affine=True, track_running_stats=True)\n    (1): BatchNorm2d(1325, eps=1e-05, momentum=0.1, affine=True, track_running_stats=True)\n    (2): BatchNorm2d(1325, eps=1e-05, momentum=0.1, affine=True, track_running_stats=True)\n    (3): BatchNorm2d(1325, eps=1e-05, momentum=0.1, affine=True, track_running_stats=True)\n    (4): BatchNorm2d(1325, eps=1e-05, momentum=0.1, affine=True, track_running_stats=True)\n  )\n  (gru): GRU(100, 252, num_layers=6, batch_first=True, dropout=0.16, bidirectional=True)\n  (fc1): Linear(in_features=9649, out_features=317, bias=True)\n  (fc2): Linear(in_features=317, out_features=126, bias=True)\n  (dropout): Dropout(p=0.16)\n)"}, "{\"batch_norm\": true, \"bottleneck_fc_dim\": 565.0, \"cpu_mode\": false, \"dropout_pctg\": 0.3731938644326418, \"epochs\": 20, \"filter_sizes\": [3, 4, 5, 6], \"glove_dim\": 300, \"gpu_no\": 2, \"num_filters\": 1002.0, \"rnn_bidirectional\": true, \"rnn_hidden_size\": 110.0, \"rnn_num_layers\": 8.0, \"stride\": 1, 
…
1407341508, 0.019342602894436706, 0.017750965709511783, 0.016443848782000326, 0.015025734147648332, 0.0138157832386815, 0.012736345582051261], "valid_vector": [0.02099566704291763, 0.018923881845345207, 0.017294391318706415, 0.01730637699183174, 0.017132953074308975, 0.01704144623028293, 0.017643676840388443, 0.018151812733734087], "test_vector": [0.0209053587069167, 0.018785350608514315, 0.017240454804207852, 0.017312475020435255, 0.017005854905811326, 0.017097684943965123, 0.017796858327030374, 0.018309878621266276], "train_finish": "2018-12-28 08:30:26.435961", "model": "CRNN(\n  (embedding): Embedding(400000, 300)\n  (convs): ModuleList(\n    (0): Conv2d(1, 1002, kernel_size=(3, 300), stride=(1, 1))\n    (1): Conv2d(1, 1002, kernel_size=(4, 300), stride=(1, 1))\n    (2): Conv2d(1, 1002, kernel_size=(5, 300), stride=(1, 1))\n    (3): Conv2d(1, 1002, kernel_size=(6, 300), stride=(1, 1))\n  )\n  (batch_norms): ModuleList(\n    (0): BatchNorm2d(1002, eps=1e-05, momentum=0.1, affine=True, track_running_stats=True)\n    (1): BatchNorm2d(1002, eps=1e-05, momentum=0.1, affine=True, track_running_stats=True)\n    (2): BatchNorm2d(1002, eps=1e-05, momentum=0.1, affine=True, track_running_stats=True)\n    (3): BatchNorm2d(1002, eps=1e-05, momentum=0.1, affine=True, track_running_stats=True)\n  )\n  (gru): GRU(300, 110, num_layers=8, batch_first=True, dropout=0.37, bidirectional=True)\n  (fc1): Linear(in_features=5768, out_features=565, bias=True)\n  (fc2): Linear(in_features=565, out_features=126, bias=True)\n  (dropout): Dropout(p=0.37)\n)"}, "{\"batch_norm\": true, \"bottleneck_fc_dim\": 586.0, \"cpu_mode\": false, \"dropout_pctg\": 0.005653772201572447, \"epochs\": 20, \"filter_sizes\": [3, 4, 5], \"glove_dim\": 200, \"gpu_no\": 2, \"num_filters\": 1430.0, \"rnn_bidirectional\": true, \"rnn_hidden_size\": 54.0, \"rnn_num_layers\": 2.0, \"stride\": 1, \"
…
_1": 0.9704824093816631, "pAtK_3": 0.8404739694385217, "pAtK_5": 0.5802172174840086}, "train_vector": [0.02505910835202024, 0.017586216906889707, 0.015282340045857344, 0.013368121376897238, 0.011520880226516974, 0.009795026769382003], "valid_vector": [0.01890644987872335, 0.017304543706614262, 0.016531133033429037, 0.016325654935584202, 0.016827950427961, 0.017652189232600625], "test_vector": [0.0188785539443559, 0.01729680624788504, 0.016485524421402893, 0.01641432109918358, 0.01697276833195136, 0.017866156607079926], "train_finish": "2018-12-28 09:28:23.063033", "model": "CRNN(\n  (embedding): Embedding(400000, 200)\n  (convs): ModuleList(\n    (0): Conv2d(1, 1430, kernel_size=(3, 200), stride=(1, 1))\n    (1): Conv2d(1, 1430, kernel_size=(4, 200), stride=(1, 1))\n    (2): Conv2d(1, 1430, kernel_size=(5, 200), stride=(1, 1))\n  )\n  (batch_norms): ModuleList(\n    (0): BatchNorm2d(1430, eps=1e-05, momentum=0.1, affine=True, track_running_stats=True)\n    (1): BatchNorm2d(1430, eps=1e-05, momentum=0.1, affine=True, track_running_stats=True)\n    (2): BatchNorm2d(1430, eps=1e-05, momentum=0.1, affine=True, track_running_stats=True)\n  )\n  (gru): GRU(200, 54, num_layers=2, batch_first=True, dropout=0.01, bidirectional=True)\n  (fc1): Linear(in_features=4506, out_features=586, bias=True)\n  (fc2): Linear(in_features=586, out_features=126, bias=True)\n  (dropout): Dropout(p=0.01)\n)"}, "{\"batch_norm\": true, \"bottleneck_fc_dim\": 544.0, \"cpu_mode\": false, \"dropout_pctg\": 0.27720118855219056, \"epochs\": 20, \"filter_sizes\": [1, 2, 3], \"glove_dim\": 300, \"gpu_no\": 2, \"num_filters\": 757.0, \"rnn_bidirectional\": true, \"rnn_hidden_size\": 296.0, \"rnn_num_layers\": 4.0, \"stride\": 1, \"t
…
: 0.9715151918976546, "pAtK_3": 0.8412846481876333, "pAtK_5": 0.580257196162047}, "train_vector": [0.026927383049026435, 0.019215181004007525, 0.017398599177656602, 0.016108814835783965, 0.015123646070903888, 0.01430221991300416], "valid_vector": [0.01866890514380674, 0.017216406566505905, 0.016998168204224475, 0.016951438041464952, 0.01712849319644167, 0.01740664155021417], "test_vector": [0.018496080879558886, 0.017048029227059152, 0.01679346618105544, 0.01673168829008778, 0.017051020632190172, 0.017223502151858704], "train_finish": "2018-12-28 11:18:43.831464", "model": "CRNN(\n  (embedding): Embedding(400000, 300)\n  (convs): ModuleList(\n    (0): Conv2d(1, 757, kernel_size=(1, 300), stride=(1, 1))\n    (1): Conv2d(1, 757, kernel_size=(2, 300), stride=(1, 1))\n    (2): Conv2d(1, 757, kernel_size=(3, 300), stride=(1, 1))\n  )\n  (batch_norms): ModuleList(\n    (0): BatchNorm2d(757, eps=1e-05, momentum=0.1, affine=True, track_running_stats=True)\n    (1): BatchNorm2d(757, eps=1e-05, momentum=0.1, affine=True, track_running_stats=True)\n    (2): BatchNorm2d(757, eps=1e-05, momentum=0.1, affine=True, track_running_stats=True)\n  )\n  (gru): GRU(300, 296, num_layers=4, batch_first=True, dropout=0.28, bidirectional=True)\n  (fc1): Linear(in_features=4639, out_features=544, bias=True)\n  (fc2): Linear(in_features=544, out_features=126, bias=True)\n  (dropout): Dropout(p=0.28)\n)"}, "{\"batch_norm\": true, \"bottleneck_fc_dim\": 522.0, \"cpu_mode\": false, \"dropout_pctg\": 0.10847577576165346, \"epochs\": 20, \"filter_sizes\": [1, 2, 3, 4, 5], \"glove_dim\": 200, \"gpu_no\": 2, \"num_filters\": 1357.0, \"rnn_bidirectional\": true, \"rnn_hidden_size\": 602.0, \"rnn_num_layers\": 9.0, \"stride\":
…
ut_pctg": 0.11, "num_filters": 1357, "bottleneck_fc_dim": 522, "glove_dim": 200, "batch_norm": true, "filter_sizes": [1, 2, 3, 4, 5], "rnn_hidden_size": 602, "rnn_num_layers": 9, "rnn_bidirectional": true, "batch_size": 64, "num_workers": 12, "epochs": 20, "txt_length": 741, "train_start": "2018-12-28 11:18:44.909679", "no_of_trainable_params": 68503953, "train_error_message": "CUDA out of memory. Tried to allocate 3.41 GiB (GPU 2; 7.93 GiB total capacity; 1.01 GiB already allocated; 381.56 MiB free; 2.41 GiB cached)", "train_finish": "2018-12-28 11:19:10.861775", "model": "CRNN(\n  (embedding): Embedding(400000, 200)\n  (convs): ModuleList(\n    (0): Conv2d(1, 1357, kernel_size=(1, 200), stride=(1, 1))\n    (1): Conv2d(1, 1357, kernel_size=(2, 200), stride=(1, 1))\n    (2): Conv2d(1, 1357, kernel_size=(3, 200), stride=(1, 1))\n    (3): Conv2d(1, 1357, kernel_size=(4, 200), stride=(1, 1))\n    (4): Conv2d(1, 1357, kernel_size=(5, 200), stride=(1, 1))\n  )\n  (batch_norms): ModuleList(\n    (0): BatchNorm2d(1357, eps=1e-05, momentum=0.1, affine=True, track_running_stats=True)\n    (1): BatchNorm2d(1357, eps=1e-05, momentum=0.1, affine=True, track_running_stats=True)\n    (2): BatchNorm2d(1357, eps=1e-05, momentum=0.1, affine=True, track_running_stats=True)\n    (3): BatchNorm2d(1357, eps=1e-05, momentum=0.1, affine=True, track_running_stats=True)\n    (4): BatchNorm2d(1357, eps=1e-05, momentum=0.1, affine=True, track_running_stats=True)\n  )\n  (gru): GRU(200, 602, num_layers=9, batch_first=True, dropout=0.11, bidirectional=True)\n  (fc1): Linear(in_features=17621, out_features=522, bias=True)\n  (fc2): Linear(in_features=522, out_features=126, bias=True)\n  (dropout): Dropout(p=0.11)\n)"}, "{\"batch_norm\": true, \"bottleneck_fc_dim\": 503.0, \"cpu_mode\": false, \"dropout_pctg\": 0.05581396803336757, \"epochs\": 20, \"filter_sizes\": [1, 2, 3, 4, 5, 6], \"glove_dim\": 300, \"gpu_no\": 2, \"num_filters\": 820.0, \"rnn_bidirectional\": true, \"rnn_hidden_size\": 176.0, \"rnn_num_layers\": 12.0, \"stride
…
tg": 0.06, "num_filters": 820, "bottleneck_fc_dim": 503, "glove_dim": 300, "batch_norm": true, "filter_sizes": [1, 2, 3, 4, 5, 6], "rnn_hidden_size": 176, "rnn_num_layers": 12, "rnn_bidirectional": true, "batch_size": 64, "num_workers": 12, "epochs": 20, "txt_length": 764, "train_start": "2018-12-28 11:19:11.535172", "no_of_trainable_params": 16505447, "train_error_message": "CUDA out of memory. Tried to allocate 1.96 GiB (GPU 2; 7.93 GiB total capacity; 902.94 MiB already allocated; 227.56 MiB free; 2.70 GiB cached)", "train_finish": "2018-12-28 11:20:16.216055", "model": "CRNN(\n  (embedding): Embedding(400000, 300)\n  (convs): ModuleList(\n    (0): Conv2d(1, 820, kernel_size=(1, 300), stride=(1, 1))\n    (1): Conv2d(1, 820, kernel_size=(2, 300), stride=(1, 1))\n    (2): Conv2d(1, 820, kernel_size=(3, 300), stride=(1, 1))\n    (3): Conv2d(1, 820, kernel_size=(4, 300), stride=(1, 1))\n    (4): Conv2d(1, 820, kernel_size=(5, 300), stride=(1, 1))\n    (5): Conv2d(1, 820, kernel_size=(6, 300), stride=(1, 1))\n  )\n  (batch_norms): ModuleList(\n    (0): BatchNorm2d(820, eps=1e-05, momentum=0.1, affine=True, track_running_stats=True)\n    (1): BatchNorm2d(820, eps=1e-05, momentum=0.1, affine=True, track_running_stats=True)\n    (2): BatchNorm2d(820, eps=1e-05, momentum=0.1, affine=True, track_running_stats=True)\n    (3): BatchNorm2d(820, eps=1e-05, momentum=0.1, affine=True, track_running_stats=True)\n    (4): BatchNorm2d(820, eps=1e-05, momentum=0.1, affine=True, track_running_stats=True)\n    (5): BatchNorm2d(820, eps=1e-05, momentum=0.1, affine=True, track_running_stats=True)\n  )\n  (gru): GRU(300, 176, num_layers=12, batch_first=True, dropout=0.06, bidirectional=True)\n  (fc1): Linear(in_features=9144, out_features=503, bias=True)\n  (fc2): Linear(in_features=503, out_features=126, bias=True)\n  (dropout): Dropout(p=0.06)\n)"}, "{\"batch_norm\": true, \"bottleneck_fc_dim\": 599.0, \"cpu_mode\": false, \"dropout_pctg\": 0.4094788201331579, \"epochs\": 20, \"filter_sizes\": [1, 2, 3, 4, 5], \"glove_dim\": 100, \"gpu_no\": 2, \"num_filters\": 1181.0, \"rnn_bidirectional\": true, \"rnn_hidden_size\": 330.0, \"rnn_num_layers\": 5.0, \"stride\": 
…
_1": 0.9703824626865671, "pAtK_3": 0.8387637704335466, "pAtK_5": 0.5777452025586354}, "train_vector": [0.034735692678150604, 0.02414311372984117, 0.021484608597965988, 0.01987181256178333, 0.01857760771284061, 0.017500744107315513], "valid_vector": [0.02204982686250695, 0.02023917063772837, 0.018282570742514492, 0.017609352002298632, 0.018005952724183143, 0.01771122114874347], "test_vector": [0.02196113650462648, 0.0200371356315609, 0.017971935850788535, 0.01756708074444488, 0.017952684189941583, 0.017689397548641097], "train_finish": "2018-12-28 13:37:27.582018", "model": "CRNN(\n  (embedding): Embedding(400000, 100)\n  (convs): ModuleList(\n    (0): Conv2d(1, 1181, kernel_size=(1, 100), stride=(1, 1))\n    (1): Conv2d(1, 1181, kernel_size=(2, 100), stride=(1, 1))\n    (2): Conv2d(1, 1181, kernel_size=(3, 100), stride=(1, 1))\n    (3): Conv2d(1, 1181, kernel_size=(4, 100), stride=(1, 1))\n    (4): Conv2d(1, 1181, kernel_size=(5, 100), stride=(1, 1))\n  )\n  (batch_norms): ModuleList(\n    (0): BatchNorm2d(1181, eps=1e-05, momentum=0.1, affine=True, track_running_stats=True)\n    (1): BatchNorm2d(1181, eps=1e-05, momentum=0.1, affine=True, track_running_stats=True)\n    (2): BatchNorm2d(1181, eps=1e-05, momentum=0.1, affine=True, track_running_stats=True)\n    (3): BatchNorm2d(1181, eps=1e-05, momentum=0.1, affine=True, track_running_stats=True)\n    (4): BatchNorm2d(1181, eps=1e-05, momentum=0.1, affine=True, track_running_stats=True)\n  )\n  (gru): GRU(100, 330, num_layers=5, batch_first=True, dropout=0.41, bidirectional=True)\n  (fc1): Linear(in_features=9205, out_features=599, bias=True)\n  (fc2): Linear(in_features=599, out_features=126, bias=True)\n  (dropout): Dropout(p=0.41)\n)"}, "{\"batch_norm\": true, \"bottleneck_fc_dim\": 477.0, \"cpu_mode\": false, \"dropout_pctg\": 0.07883407647232535, \"epochs\": 20, \"filter_sizes\": [2, 3, 4, 5], \"glove_dim\": 200, \"gpu_no\": 2, \"num_filters\": 1137.0, \"rnn_bidirectional\": true, \"rnn_hidden_size\": 75.0, \"rnn_num_layers\": 3.0, \"stride\": 1, 
…
.9724480277185501, "pAtK_3": 0.8428504797441365, "pAtK_5": 0.5821095415778251}, "train_vector": [0.026078735899653288, 0.018214783043349152, 0.016004888280448895, 0.014304004084908284, 0.012747486168170783, 0.011271080000573528], "valid_vector": [0.018728177653931415, 0.017181227691218392, 0.016295903839537305, 0.016040461579102404, 0.01613254514823197, 0.01714914796114621], "test_vector": [0.018604956150277338, 0.01716690908458187, 0.016264765289054114, 0.016030535510957622, 0.01612130824480452, 0.016970018272413248], "train_finish": "2018-12-28 14:51:55.037351", "model": "CRNN(\n  (embedding): Embedding(400000, 200)\n  (convs): ModuleList(\n    (0): Conv2d(1, 1137, kernel_size=(2, 200), stride=(1, 1))\n    (1): Conv2d(1, 1137, kernel_size=(3, 200), stride=(1, 1))\n    (2): Conv2d(1, 1137, kernel_size=(4, 200), stride=(1, 1))\n    (3): Conv2d(1, 1137, kernel_size=(5, 200), stride=(1, 1))\n  )\n  (batch_norms): ModuleList(\n    (0): BatchNorm2d(1137, eps=1e-05, momentum=0.1, affine=True, track_running_stats=True)\n    (1): BatchNorm2d(1137, eps=1e-05, momentum=0.1, affine=True, track_running_stats=True)\n    (2): BatchNorm2d(1137, eps=1e-05, momentum=0.1, affine=True, track_running_stats=True)\n    (3): BatchNorm2d(1137, eps=1e-05, momentum=0.1, affine=True, track_running_stats=True)\n  )\n  (gru): GRU(200, 75, num_layers=3, batch_first=True, dropout=0.08, bidirectional=True)\n  (fc1): Linear(in_features=4998, out_features=477, bias=True)\n  (fc2): Linear(in_features=477, out_features=126, bias=True)\n  (dropout): Dropout(p=0.08)\n)"}, "{\"batch_norm\": true, \"bottleneck_fc_dim\": 440.0, \"cpu_mode\": false, \"dropout_pctg\": 0.030459794243966977, \"epochs\": 20, \"filter_sizes\": [2, 3, 4], \"glove_dim\": 300, \"gpu_no\": 2, \"num_filters\": 720.0, \"rnn_bidirectional\": true, \"rnn_hidden_size\": 125.0, \"rnn_num_layers\": 7.0, \"stride\": 1, \"
…
": 0.9715151918976546, "pAtK_3": 0.8389192430703625, "pAtK_5": 0.5795642324093817}, "train_vector": [0.024260349101322357, 0.01742097680085948, 0.015400394077836202, 0.013998926772508401, 0.013797929759829115, 0.013211569789694691], "valid_vector": [0.0181544854937157, 0.01668239232606447, 0.01609931776495174, 0.01590271598757751, 0.017239162202816266, 0.017412287602846476], "test_vector": [0.017886724867133188, 0.016612284248873496, 0.016008596213014203, 0.01579705169444272, 0.017059734801072746, 0.01726256215921057], "train_finish": "2018-12-28 17:25:28.770576", "model": "CRNN(\n  (embedding): Embedding(400000, 300)\n  (convs): ModuleList(\n    (0): Conv2d(1, 720, kernel_size=(2, 300), stride=(1, 1))\n    (1): Conv2d(1, 720, kernel_size=(3, 300), stride=(1, 1))\n    (2): Conv2d(1, 720, kernel_size=(4, 300), stride=(1, 1))\n  )\n  (batch_norms): ModuleList(\n    (0): BatchNorm2d(720, eps=1e-05, momentum=0.1, affine=True, track_running_stats=True)\n    (1): BatchNorm2d(720, eps=1e-05, momentum=0.1, affine=True, track_running_stats=True)\n    (2): BatchNorm2d(720, eps=1e-05, momentum=0.1, affine=True, track_running_stats=True)\n  )\n  (gru): GRU(300, 125, num_layers=7, batch_first=True, dropout=0.03, bidirectional=True)\n  (fc1): Linear(in_features=3910, out_features=440, bias=True)\n  (fc2): Linear(in_features=440, out_features=126, bias=True)\n  (dropout): Dropout(p=0.03)\n)"}, "{\"batch_norm\": true, \"bottleneck_fc_dim\": 372.0, \"cpu_mode\": false, \"dropout_pctg\": 0.01478110701758032, \"epochs\": 20, \"filter_sizes\": [2, 3, 4], \"glove_dim\": 300, \"gpu_no\": 2, \"num_filters\": 730.0, \"rnn_bidirectional\": true, \"rnn_hidden_size\": 225.0, \"rnn_num_layers\": 7.0, \"stride\": 1, \"t
…
5782849147121535}, "train_vector": [0.024059132252409337, 0.019851499590963093, 0.017532903905570302, 0.016183652343233927, 0.014902912725976757, 0.013661486104010478, 0.012493565568517547], "valid_vector": [0.01938605974420909, 0.018845267842577368, 0.01920590628678702, 0.01798435434627571, 0.017774961491885868, 0.017848036142497033, 0.018325621641101016], "test_vector": [0.019182977759078748, 0.018574315863949403, 0.01896546452816552, 0.0178844435537643, 0.01777891511284212, 0.01769290428989922, 0.01820220805601334], "train_finish": "2018-12-28 21:43:35.275797", "model": "CRNN(\n  (embedding): Embedding(400000, 300)\n  (convs): ModuleList(\n    (0): Conv2d(1, 730, kernel_size=(2, 300), stride=(1, 1))\n    (1): Conv2d(1, 730, kernel_size=(3, 300), stride=(1, 1))\n    (2): Conv2d(1, 730, kernel_size=(4, 300), stride=(1, 1))\n  )\n  (batch_norms): ModuleList(\n    (0): BatchNorm2d(730, eps=1e-05, momentum=0.1, affine=True, track_running_stats=True)\n    (1): BatchNorm2d(730, eps=1e-05, momentum=0.1, affine=True, track_running_stats=True)\n    (2): BatchNorm2d(730, eps=1e-05, momentum=0.1, affine=True, track_running_stats=True)\n  )\n  (gru): GRU(300, 225, num_layers=7, batch_first=True, dropout=0.01, bidirectional=True)\n  (fc1): Linear(in_features=5340, out_features=372, bias=True)\n  (fc2): Linear(in_features=372, out_features=126, bias=True)\n  (dropout): Dropout(p=0.01)\n)"}, "{\"batch_norm\": true, \"bottleneck_fc_dim\": 452.0, \"cpu_mode\": false, \"dropout_pctg\": 0.02414456065647231, \"epochs\": 20, \"filter_sizes\": [2, 3, 4], \"glove_dim\": 300, \"gpu_no\": 2, \"num_filters\": 686.0, \"rnn_bidirectional\": true, \"rnn_hidden_size\": 126.0, \"rnn_num_layers\": 8.0, \"stride\": 1, \"t
…
6, "f1_score_4": 0.7690966910503527}, "pAtK_scores": {"pAtK_1": 0.9709155117270789, "pAtK_3": 0.8424395877754086, "pAtK_5": 0.5816297974413646}, "train_vector": [0.024334534088779825, 0.017217085378447284, 0.015195313625792071, 0.01393932603907661, 0.012487136597969751], "valid_vector": [0.01847602530439168, 0.016603147942458155, 0.015969678629755672, 0.01598146100629564, 0.016437206554029492], "test_vector": [0.018197319093051115, 0.016450579693195407, 0.015867560026623102, 0.015843610271319017, 0.016319399026395287], "train_finish": "2018-12-29 00:07:08.108364", "model": "CRNN(\n  (embedding): Embedding(400000, 300)\n  (convs): ModuleList(\n    (0): Conv2d(1, 686, kernel_size=(2, 300), stride=(1, 1))\n    (1): Conv2d(1, 686, kernel_size=(3, 300), stride=(1, 1))\n    (2): Conv2d(1, 686, kernel_size=(4, 300), stride=(1, 1))\n  )\n  (batch_norms): ModuleList(\n    (0): BatchNorm2d(686, eps=1e-05, momentum=0.1, affine=True, track_running_stats=True)\n    (1): BatchNorm2d(686, eps=1e-05, momentum=0.1, affine=True, track_running_stats=True)\n    (2): BatchNorm2d(686, eps=1e-05, momentum=0.1, affine=True, track_running_stats=True)\n  )\n  (gru): GRU(300, 126, num_layers=8, batch_first=True, dropout=0.02, bidirectional=True)\n  (fc1): Linear(in_features=4074, out_features=452, bias=True)\n  (fc2): Linear(in_features=452, out_features=126, bias=True)\n  (dropout): Dropout(p=0.02)\n)"}, "{\"batch_norm\": true, \"bottleneck_fc_dim\": 405.0, \"cpu_mode\": false, \"dropout_pctg\": 0.03536889280091794, \"epochs\": 20, \"filter_sizes\": [2, 3, 4], \"glove_dim\": 300, \"gpu_no\": 2, \"num_filters\": 609.0, \"rnn_bidirectional\": true, \"rnn_hidden_size\": 163.0, \"rnn_num_layers\": 10.0, \"stride\": 1, \"
…
0.9696162046908315, "pAtK_3": 0.8405294953802417, "pAtK_5": 0.5798507462686567}, "train_vector": [0.024808056925134207, 0.017562286704907882, 0.016057916575239667, 0.014343073845541815, 0.013249209122344644, 0.012092811441875939], "valid_vector": [0.019431883059164035, 0.017038446267756985, 0.01663669518117896, 0.0162763230371421, 0.016733674620341973, 0.01725016905814965], "test_vector": [0.019278003014068106, 0.016855299944427412, 0.016492779561276757, 0.016248396381354537, 0.016703477146219153, 0.01727888291713589], "train_finish": "2018-12-29 03:53:02.063522", "model": "CRNN(\n  (embedding): Embedding(400000, 300)\n  (convs): ModuleList(\n    (0): Conv2d(1, 609, kernel_size=(2, 300), stride=(1, 1))\n    (1): Conv2d(1, 609, kernel_size=(3, 300), stride=(1, 1))\n    (2): Conv2d(1, 609, kernel_size=(4, 300), stride=(1, 1))\n  )\n  (batch_norms): ModuleList(\n    (0): BatchNorm2d(609, eps=1e-05, momentum=0.1, affine=True, track_running_stats=True)\n    (1): BatchNorm2d(609, eps=1e-05, momentum=0.1, affine=True, track_running_stats=True)\n    (2): BatchNorm2d(609, eps=1e-05, momentum=0.1, affine=True, track_running_stats=True)\n  )\n  (gru): GRU(300, 163, num_layers=10, batch_first=True, dropout=0.04, bidirectional=True)\n  (fc1): Linear(in_features=5087, out_features=405, bias=True)\n  (fc2): Linear(in_features=405, out_features=126, bias=True)\n  (dropout): Dropout(p=0.04)\n)"}, "{\"batch_norm\": true, \"bottleneck_fc_dim\": 419.0, \"cpu_mode\": false, \"dropout_pctg\": 0.06524329413410371, \"epochs\": 20, \"filter_sizes\": [2, 3, 4], \"glove_dim\": 300, \"gpu_no\": 2, \"num_filters\": 651.0, \"rnn_bidirectional\": true, \"rnn_hidden_size\": 51.0, \"rnn_num_layers\": 14.0, \"stride\": 1, \"t
…
0.5819096481876332}, "train_vector": [0.02543059610110671, 0.01779507557695519, 0.015839412309708454, 0.014377034035200211, 0.013048546556472826, 0.011762236850659224, 0.01069859408092881], "valid_vector": [0.01869966469477735, 0.016994292772973756, 0.016419178676302, 0.01626139732236827, 0.01618375166749104, 0.016695643447762504, 0.01741048493431566], "test_vector": [0.018572648113438568, 0.016839672420134167, 0.016318579545931647, 0.016065325084597126, 0.01600735950301578, 0.016562218068918184, 0.017174539229731316], "train_finish": "2018-12-29 07:44:26.396237", "model": "CRNN(\n  (embedding): Embedding(400000, 300)\n  (convs): ModuleList(\n    (0): Conv2d(1, 651, kernel_size=(2, 300), stride=(1, 1))\n    (1): Conv2d(1, 651, kernel_size=(3, 300), stride=(1, 1))\n    (2): Conv2d(1, 651, kernel_size=(4, 300), stride=(1, 1))\n  )\n  (batch_norms): ModuleList(\n    (0): BatchNorm2d(651, eps=1e-05, momentum=0.1, affine=True, track_running_stats=True)\n    (1): BatchNorm2d(651, eps=1e-05, momentum=0.1, affine=True, track_running_stats=True)\n    (2): BatchNorm2d(651, eps=1e-05, momentum=0.1, affine=True, track_running_stats=True)\n  )\n  (gru): GRU(300, 51, num_layers=14, batch_first=True, dropout=0.07, bidirectional=True)\n  (fc1): Linear(in_features=3381, out_features=419, bias=True)\n  (fc2): Linear(in_features=419, out_features=126, bias=True)\n  (dropout): Dropout(p=0.07)\n)"}, "{\"batch_norm\": true, \"bottleneck_fc_dim\": 439.0, \"cpu_mode\": false, \"dropout_pctg\": 0.0015872649943262582, \"epochs\": 20, \"filter_sizes\": [2, 3, 4], \"glove_dim\": 300, \"gpu_no\": 2, \"num_filters\": 776.0, \"rnn_bidirectional\": true, \"rnn_hidden_size\": 91.0, \"rnn_num_layers\": 6.0, \"stride\": 1, \"
…
9723147654584222, "pAtK_3": 0.8419842750533049, "pAtK_5": 0.5808102345415779}, "train_vector": [0.023822799170307274, 0.016886711958373362, 0.015001478378229606, 0.013746145197633642, 0.012399748536751166, 0.011662101205162556], "valid_vector": [0.01883934320919692, 0.017051610658923265, 0.016305978584879224, 0.01612856600092037, 0.016767285288317002, 0.017132428680436868], "test_vector": [0.01871142685929659, 0.017021675629894744, 0.016335363123518253, 0.016121068255487345, 0.016669150970097798, 0.017118476925969822], "train_finish": "2018-12-29 09:11:52.686028", "model": "CRNN(\n  (embedding): Embedding(400000, 300)\n  (convs): ModuleList(\n    (0): Conv2d(1, 776, kernel_size=(2, 300), stride=(1, 1))\n    (1): Conv2d(1, 776, kernel_size=(3, 300), stride=(1, 1))\n    (2): Conv2d(1, 776, kernel_size=(4, 300), stride=(1, 1))\n  )\n  (batch_norms): ModuleList(\n    (0): BatchNorm2d(776, eps=1e-05, momentum=0.1, affine=True, track_running_stats=True)\n    (1): BatchNorm2d(776, eps=1e-05, momentum=0.1, affine=True, track_running_stats=True)\n    (2): BatchNorm2d(776, eps=1e-05, momentum=0.1, affine=True, track_running_stats=True)\n  )\n  (gru): GRU(300, 91, num_layers=6, batch_first=True, bidirectional=True)\n  (fc1): Linear(in_features=3420, out_features=439, bias=True)\n  (fc2): Linear(in_features=439, out_features=126, bias=True)\n  (dropout): Dropout(p=0.0)\n)"}, "{\"batch_norm\": true, \"bottleneck_fc_dim\": 489.0, \"cpu_mode\": false, \"dropout_pctg\": 0.14914326815400458, \"epochs\": 20, \"filter_sizes\": [2, 3, 4], \"glove_dim\": 300, \"gpu_no\": 2, \"num_filters\": 917.0, \"rnn_bidirectional\": true, \"rnn_hidden_size\": 191.0, \"rnn_num_layers\": 4.0, \"stride\": 1, \"tx
…
1157, "f1_score_4": 0.7694304601377726}, "pAtK_scores": {"pAtK_1": 0.9739805437100213, "pAtK_3": 0.8433724235963042, "pAtK_5": 0.5817497334754798}, "train_vector": [0.025528640946494603, 0.0180493891311227, 0.016242089150749293, 0.015009488542305788, 0.013859738682877777], "valid_vector": [0.018482419321246977, 0.01690075175879128, 0.016474443521394804, 0.016994414228470877, 0.0165836812376277], "test_vector": [0.018393994352694894, 0.016787990022188566, 0.01630880010387759, 0.016928746089982644, 0.016562104457492895], "train_finish": "2018-12-29 10:45:52.871125", "model": "CRNN(\n  (embedding): Embedding(400000, 300)\n  (convs): ModuleList(\n    (0): Conv2d(1, 917, kernel_size=(2, 300), stride=(1, 1))\n    (1): Conv2d(1, 917, kernel_size=(3, 300), stride=(1, 1))\n    (2): Conv2d(1, 917, kernel_size=(4, 300), stride=(1, 1))\n  )\n  (batch_norms): ModuleList(\n    (0): BatchNorm2d(917, eps=1e-05, momentum=0.1, affine=True, track_running_stats=True)\n    (1): BatchNorm2d(917, eps=1e-05, momentum=0.1, affine=True, track_running_stats=True)\n    (2): BatchNorm2d(917, eps=1e-05, momentum=0.1, affine=True, track_running_stats=True)\n  )\n  (gru): GRU(300, 191, num_layers=4, batch_first=True, dropout=0.15, bidirectional=True)\n  (fc1): Linear(in_features=4279, out_features=489, bias=True)\n  (fc2): Linear(in_features=489, out_features=126, bias=True)\n  (dropout): Dropout(p=0.15)\n)"}, "{\"batch_norm\": true, \"bottleneck_fc_dim\": 362.0, \"cpu_mode\": false, \"dropout_pctg\": 0.17034532654727758, \"epochs\": 20, \"filter_sizes\": [1, 2, 3, 4, 5], \"glove_dim\": 300, \"gpu_no\": 2, \"num_filters\": 829.0, \"rnn_bidirectional\": true, \"rnn_hidden_size\": 137.0, \"rnn_num_layers\": 13.0, \"stride\":
…
94051774607905, 0.018256820865291526, 0.01680753392124153, 0.01533196217568319, 0.0141491647757562, 0.01304153344042802, 0.01196486777138947], "valid_vector": [0.020222296151193555, 0.018383134088329058, 0.01736676231874818, 0.017039514616191853, 0.018796184832522614, 0.016790042412211634, 0.017284012556147785, 0.0181789212633635], "test_vector": [0.020123432060755266, 0.018200871193094423, 0.017308868424120997, 0.016834085820111703, 0.01866331420687915, 0.016734827879760692, 0.01716999517582945, 0.017952743692319594], "train_finish": "2018-12-29 17:22:48.193547", "model": "CRNN(\n  (embedding): Embedding(400000, 300)\n  (convs): ModuleList(\n    (0): Conv2d(1, 829, kernel_size=(1, 300), stride=(1, 1))\n    (1): Conv2d(1, 829, kernel_size=(2, 300), stride=(1, 1))\n    (2): Conv2d(1, 829, kernel_size=(3, 300), stride=(1, 1))\n    (3): Conv2d(1, 829, kernel_size=(4, 300), stride=(1, 1))\n    (4): Conv2d(1, 829, kernel_size=(5, 300), stride=(1, 1))\n  )\n  (batch_norms): ModuleList(\n    (0): BatchNorm2d(829, eps=1e-05, momentum=0.1, affine=True, track_running_stats=True)\n    (1): BatchNorm2d(829, eps=1e-05, momentum=0.1, affine=True, track_running_stats=True)\n    (2): BatchNorm2d(829, eps=1e-05, momentum=0.1, affine=True, track_running_stats=True)\n    (3): BatchNorm2d(829, eps=1e-05, momentum=0.1, affine=True, track_running_stats=True)\n    (4): BatchNorm2d(829, eps=1e-05, momentum=0.1, affine=True, track_running_stats=True)\n  )\n  (gru): GRU(300, 137, num_layers=13, batch_first=True, dropout=0.17, bidirectional=True)\n  (fc1): Linear(in_features=7707, out_features=362, bias=True)\n  (fc2): Linear(in_features=362, out_features=126, bias=True)\n  (dropout): Dropout(p=0.17)\n)"}, "{\"batch_norm\": true, \"bottleneck_fc_dim\": 388.0, \"cpu_mode\": false, \"dropout_pctg\": 0.12423347204709412, \"epochs\": 20, \"filter_sizes\": [3, 4, 5, 6], \"glove_dim\": 300, \"gpu_no\": 2, \"num_filters\": 709.0, \"rnn_bidirectional\": true, \"rnn_hidden_size\": 260.0, \"rnn_num_layers\": 9.0, \"stride\": 1, 
…
826101, "f1_score_4": 0.7613272884043056}, "pAtK_scores": {"pAtK_1": 0.9695162579957356, "pAtK_3": 0.8338441719971571, "pAtK_5": 0.5758328891257996}, "train_vector": [0.02617658079942746, 0.018614564328767527, 0.016785520086042074, 0.018137059217838723, 0.018014807009690798], "valid_vector": [0.018756627842638967, 0.017439629951951655, 0.01730767605396341, 0.02015401582533458, 0.0183841796658401], "test_vector": [0.01841322039720664, 0.017231460691475346, 0.01724872938188504, 0.019771591603342912, 0.01825088276954761], "train_finish": "2018-12-29 21:05:24.619947", "model": "CRNN(\n  (embedding): Embedding(400000, 300)\n  (convs): ModuleList(\n    (0): Conv2d(1, 709, kernel_size=(3, 300), stride=(1, 1))\n    (1): Conv2d(1, 709, kernel_size=(4, 300), stride=(1, 1))\n    (2): Conv2d(1, 709, kernel_size=(5, 300), stride=(1, 1))\n    (3): Conv2d(1, 709, kernel_size=(6, 300), stride=(1, 1))\n  )\n  (batch_norms): ModuleList(\n    (0): BatchNorm2d(709, eps=1e-05, momentum=0.1, affine=True, track_running_stats=True)\n    (1): BatchNorm2d(709, eps=1e-05, momentum=0.1, affine=True, track_running_stats=True)\n    (2): BatchNorm2d(709, eps=1e-05, momentum=0.1, affine=True, track_running_stats=True)\n    (3): BatchNorm2d(709, eps=1e-05, momentum=0.1, affine=True, track_running_stats=True)\n  )\n  (gru): GRU(300, 260, num_layers=9, batch_first=True, dropout=0.12, bidirectional=True)\n  (fc1): Linear(in_features=7516, out_features=388, bias=True)\n  (fc2): Linear(in_features=388, out_features=126, bias=True)\n  (dropout): Dropout(p=0.12)\n)"}, "{\"batch_norm\": true, \"bottleneck_fc_dim\": 470.0, \"cpu_mode\": false, \"dropout_pctg\": 0.09042494018619941, \"epochs\": 20, \"filter_sizes\": [1, 2, 3, 4, 5], \"glove_dim\": 200, \"gpu_no\": 2, \"num_filters\": 880.0, \"rnn_bidirectional\": true, \"rnn_hidden_size\": 117.0, \"rnn_num_layers\": 8.0, \"stride\": 
…
": 0.9719482942430704, "pAtK_3": 0.841784381663113, "pAtK_5": 0.581216684434968}, "train_vector": [0.025991210946316255, 0.018868334720352528, 0.016620065325378117, 0.015187436062618971, 0.014772026040993846, 0.013432728534533563], "valid_vector": [0.01928714164041245, 0.017156460094449322, 0.016724591469963086, 0.016626225291455448, 0.01688946872535817, 0.01672188784177008], "test_vector": [0.019173017244285613, 0.017061822440054244, 0.016693546764377846, 0.01659632290203148, 0.01674848875559088, 0.01673747061976174], "train_finish": "2018-12-30 00:13:08.572580", "model": "CRNN(\n  (embedding): Embedding(400000, 200)\n  (convs): ModuleList(\n    (0): Conv2d(1, 880, kernel_size=(1, 200), stride=(1, 1))\n    (1): Conv2d(1, 880, kernel_size=(2, 200), stride=(1, 1))\n    (2): Conv2d(1, 880, kernel_size=(3, 200), stride=(1, 1))\n    (3): Conv2d(1, 880, kernel_size=(4, 200), stride=(1, 1))\n    (4): Conv2d(1, 880, kernel_size=(5, 200), stride=(1, 1))\n  )\n  (batch_norms): ModuleList(\n    (0): BatchNorm2d(880, eps=1e-05, momentum=0.1, affine=True, track_running_stats=True)\n    (1): BatchNorm2d(880, eps=1e-05, momentum=0.1, affine=True, track_running_stats=True)\n    (2): BatchNorm2d(880, eps=1e-05, momentum=0.1, affine=True, track_running_stats=True)\n    (3): BatchNorm2d(880, eps=1e-05, momentum=0.1, affine=True, track_running_stats=True)\n    (4): BatchNorm2d(880, eps=1e-05, momentum=0.1, affine=True, track_running_stats=True)\n  )\n  (gru): GRU(200, 117, num_layers=8, batch_first=True, dropout=0.09, bidirectional=True)\n  (fc1): Linear(in_features=6272, out_features=470, bias=True)\n  (fc2): Linear(in_features=470, out_features=126, bias=True)\n  (dropout): Dropout(p=0.09)\n)"}, "{\"batch_norm\": true, \"bottleneck_fc_dim\": 428.0, \"cpu_mode\": false, \"dropout_pctg\": 0.04806132792261299, \"epochs\": 20, \"filter_sizes\": [3, 4, 5], \"glove_dim\": 300, \"gpu_no\": 2, \"num_filters\": 1101.0, \"rnn_bidirectional\": true, \"rnn_hidden_size\": 156.0, \"rnn_num_layers\": 5.0, \"stride\": 1, \"
…
 0.9733808635394456, "pAtK_3": 0.8430836886993603, "pAtK_5": 0.5824560234541578}, "train_vector": [0.024722543551776412, 0.01750912253094863, 0.015825902610413906, 0.014243958303714797, 0.012765484361953064, 0.011528225135485062], "valid_vector": [0.019195514694124317, 0.01720933185126791, 0.016748948989665387, 0.016432900947003837, 0.016842262495233656, 0.017034715034940372], "test_vector": [0.019126268143434006, 0.017074910715333562, 0.0166717732160378, 0.01632108851802597, 0.01688124646029588, 0.017018815607769786], "train_finish": "2018-12-30 02:01:02.659727", "model": "CRNN(\n  (embedding): Embedding(400000, 300)\n  (convs): ModuleList(\n    (0): Conv2d(1, 1101, kernel_size=(3, 300), stride=(1, 1))\n    (1): Conv2d(1, 1101, kernel_size=(4, 300), stride=(1, 1))\n    (2): Conv2d(1, 1101, kernel_size=(5, 300), stride=(1, 1))\n  )\n  (batch_norms): ModuleList(\n    (0): BatchNorm2d(1101, eps=1e-05, momentum=0.1, affine=True, track_running_stats=True)\n    (1): BatchNorm2d(1101, eps=1e-05, momentum=0.1, affine=True, track_running_stats=True)\n    (2): BatchNorm2d(1101, eps=1e-05, momentum=0.1, affine=True, track_running_stats=True)\n  )\n  (gru): GRU(300, 156, num_layers=5, batch_first=True, dropout=0.05, bidirectional=True)\n  (fc1): Linear(in_features=4863, out_features=428, bias=True)\n  (fc2): Linear(in_features=428, out_features=126, bias=True)\n  (dropout): Dropout(p=0.05)\n)"}, "{\"batch_norm\": true, \"bottleneck_fc_dim\": 506.0, \"cpu_mode\": false, \"dropout_pctg\": 0.10461077790287834, \"epochs\": 20, \"filter_sizes\": [1, 2, 3], \"glove_dim\": 300, \"gpu_no\": 2, \"num_filters\": 952.0, \"rnn_bidirectional\": true, \"rnn_hidden_size\": 79.0, \"rnn_num_layers\": 1.0, \"stride\": 1, \"tx
…
": 0.9731809701492538, "pAtK_3": 0.8420731165600569, "pAtK_5": 0.5827092217484009}, "train_vector": [0.02563918440919787, 0.017886462654066626, 0.01578181174699527, 0.014215883122272035, 0.012896540316429065, 0.011657437763605246], "valid_vector": [0.018870632176343074, 0.01729211588189113, 0.016446788752102044, 0.01608046123204179, 0.016292338433892908, 0.016793495516723662], "test_vector": [0.018662912088003494, 0.01716702188283745, 0.01641624459802215, 0.01593288737359141, 0.016261771117756042, 0.01671181567537505], "train_finish": "2018-12-30 02:45:39.617791", "model": "CRNN(\n  (embedding): Embedding(400000, 300)\n  (convs): ModuleList(\n    (0): Conv2d(1, 952, kernel_size=(1, 300), stride=(1, 1))\n    (1): Conv2d(1, 952, kernel_size=(2, 300), stride=(1, 1))\n    (2): Conv2d(1, 952, kernel_size=(3, 300), stride=(1, 1))\n  )\n  (batch_norms): ModuleList(\n    (0): BatchNorm2d(952, eps=1e-05, momentum=0.1, affine=True, track_running_stats=True)\n    (1): BatchNorm2d(952, eps=1e-05, momentum=0.1, affine=True, track_running_stats=True)\n    (2): BatchNorm2d(952, eps=1e-05, momentum=0.1, affine=True, track_running_stats=True)\n  )\n  (gru): GRU(300, 79, batch_first=True, dropout=0.1, bidirectional=True)\n  (fc1): Linear(in_features=3014, out_features=506, bias=True)\n  (fc2): Linear(in_features=506, out_features=126, bias=True)\n  (dropout): Dropout(p=0.1)\n)"}, "{\"batch_norm\": true, \"bottleneck_fc_dim\": 539.0, \"cpu_mode\": false, \"dropout_pctg\": 0.20243032960800866, \"epochs\": 20, \"filter_sizes\": [2, 3, 4], \"glove_dim\": 200, \"gpu_no\": 2, \"num_filters\": 1207.0, \"rnn_bidirectional\": true, \"rnn_hidden_size\": 232.0, \"rnn_num_layers\": 7.0, \"stride\": 1, \"t
…
580377132196162}, "train_vector": [0.027532751363351256, 0.01976892882259811, 0.017777473878725695, 0.01623643152805874, 0.01522528637437152, 0.014184234654028943, 0.013343035181951506], "valid_vector": [0.019388249050130816, 0.01765231703862802, 0.017006583067390925, 0.01673655590833798, 0.016511750060753193, 0.01693719371065829, 0.017310537695663788], "test_vector": [0.019293592110879894, 0.01743324337475526, 0.016862901310914995, 0.01668910349486892, 0.016368849216890868, 0.016759331084922877, 0.017359974702744724], "train_finish": "2018-12-30 06:25:39.833984", "model": "CRNN(\n  (embedding): Embedding(400000, 200)\n  (convs): ModuleList(\n    (0): Conv2d(1, 1207, kernel_size=(2, 200), stride=(1, 1))\n    (1): Conv2d(1, 1207, kernel_size=(3, 200), stride=(1, 1))\n    (2): Conv2d(1, 1207, kernel_size=(4, 200), stride=(1, 1))\n  )\n  (batch_norms): ModuleList(\n    (0): BatchNorm2d(1207, eps=1e-05, momentum=0.1, affine=True, track_running_stats=True)\n    (1): BatchNorm2d(1207, eps=1e-05, momentum=0.1, affine=True, track_running_stats=True)\n    (2): BatchNorm2d(1207, eps=1e-05, momentum=0.1, affine=True, track_running_stats=True)\n  )\n  (gru): GRU(200, 232, num_layers=7, batch_first=True, dropout=0.2, bidirectional=True)\n  (fc1): Linear(in_features=6869, out_features=539, bias=True)\n  (fc2): Linear(in_features=539, out_features=126, bias=True)\n  (dropout): Dropout(p=0.2)\n)"}, "{\"batch_norm\": true, \"bottleneck_fc_dim\": 526.0, \"cpu_mode\": false, \"dropout_pctg\": 0.0318527143990454, \"epochs\": 20, \"filter_sizes\": [1, 2, 3, 4, 5, 6], \"glove_dim\": 300, \"gpu_no\": 2, \"num_filters\": 988.0, \"rnn_bidirectional\": true, \"rnn_hidden_size\": 310.0, \"rnn_num_layers\": 11.0, \"stride\"
…
t_pctg": 0.03, "num_filters": 988, "bottleneck_fc_dim": 526, "glove_dim": 300, "batch_norm": true, "filter_sizes": [1, 2, 3, 4, 5, 6], "rnn_hidden_size": 310, "rnn_num_layers": 11, "rnn_bidirectional": true, "batch_size": 64, "num_workers": 12, "epochs": 20, "txt_length": 691, "train_start": "2018-12-30 06:25:40.806612", "no_of_trainable_params": 31488080, "train_error_message": "CUDA out of memory. Tried to allocate 2.84 GiB (GPU 2; 7.93 GiB total capacity; 1.20 GiB already allocated; 1.11 GiB free; 5.10 GiB cached)", "train_finish": "2018-12-30 06:28:10.947840", "model": "CRNN(\n  (embedding): Embedding(400000, 300)\n  (convs): ModuleList(\n    (0): Conv2d(1, 988, kernel_size=(1, 300), stride=(1, 1))\n    (1): Conv2d(1, 988, kernel_size=(2, 300), stride=(1, 1))\n    (2): Conv2d(1, 988, kernel_size=(3, 300), stride=(1, 1))\n    (3): Conv2d(1, 988, kernel_size=(4, 300), stride=(1, 1))\n    (4): Conv2d(1, 988, kernel_size=(5, 300), stride=(1, 1))\n    (5): Conv2d(1, 988, kernel_size=(6, 300), stride=(1, 1))\n  )\n  (batch_norms): ModuleList(\n    (0): BatchNorm2d(988, eps=1e-05, momentum=0.1, affine=True, track_running_stats=True)\n    (1): BatchNorm2d(988, eps=1e-05, momentum=0.1, affine=True, track_running_stats=True)\n    (2): BatchNorm2d(988, eps=1e-05, momentum=0.1, affine=True, track_running_stats=True)\n    (3): BatchNorm2d(988, eps=1e-05, momentum=0.1, affine=True, track_running_stats=True)\n    (4): BatchNorm2d(988, eps=1e-05, momentum=0.1, affine=True, track_running_stats=True)\n    (5): BatchNorm2d(988, eps=1e-05, momentum=0.1, affine=True, track_running_stats=True)\n  )\n  (gru): GRU(300, 310, num_layers=11, batch_first=True, dropout=0.03, bidirectional=True)\n  (fc1): Linear(in_features=12748, out_features=526, bias=True)\n  (fc2): Linear(in_features=526, out_features=126, bias=True)\n  (dropout): Dropout(p=0.03)\n)"}, "{\"batch_norm\": true, \"bottleneck_fc_dim\": 559.0, \"cpu_mode\": false, \"dropout_pctg\": 0.058643914417998655, \"epochs\": 20, \"filter_sizes\": [1, 2, 3, 4, 5], \"glove_dim\": 100, \"gpu_no\": 2, \"num_filters\": 1031.0, \"rnn_bidirectional\": true, \"rnn_hidden_size\": 209.0, \"rnn_num_layers\": 6.0, \"stride\"
…
42771908, 0.015164509090607868, 0.013974044162739296, 0.012865444876376853, 0.011813426397744816], "valid_vector": [0.01945903961735863, 0.020211347402371307, 0.01779646466427576, 0.018389907054308215, 0.01774721508027801, 0.017652816121910275, 0.017508282228673337, 0.01771433723567705, 0.017813620933166234], "test_vector": [0.019259055194728918, 0.020154594346436103, 0.01761353848827705, 0.018218297074471455, 0.017613375138467564, 0.017520294117647956, 0.017318374310522827, 0.017558184202148844, 0.017691216224045958], "train_finish": "2018-12-30 11:07:09.731015", "model": "CRNN(\n  (embedding): Embedding(400000, 100)\n  (convs): ModuleList(\n    (0): Conv2d(1, 1031, kernel_size=(1, 100), stride=(1, 1))\n    (1): Conv2d(1, 1031, kernel_size=(2, 100), stride=(1, 1))\n    (2): Conv2d(1, 1031, kernel_size=(3, 100), stride=(1, 1))\n    (3): Conv2d(1, 1031, kernel_size=(4, 100), stride=(1, 1))\n    (4): Conv2d(1, 1031, kernel_size=(5, 100), stride=(1, 1))\n  )\n  (batch_norms): ModuleList(\n    (0): BatchNorm2d(1031, eps=1e-05, momentum=0.1, affine=True, track_running_stats=True)\n    (1): BatchNorm2d(1031, eps=1e-05, momentum=0.1, affine=True, track_running_stats=True)\n    (2): BatchNorm2d(1031, eps=1e-05, momentum=0.1, affine=True, track_running_stats=True)\n    (3): BatchNorm2d(1031, eps=1e-05, momentum=0.1, affine=True, track_running_stats=True)\n    (4): BatchNorm2d(1031, eps=1e-05, momentum=0.1, affine=True, track_running_stats=True)\n  )\n  (gru): GRU(100, 209, num_layers=6, batch_first=True, dropout=0.06, bidirectional=True)\n  (fc1): Linear(in_features=7663, out_features=559, bias=True)\n  (fc2): Linear(in_features=559, out_features=126, bias=True)\n  (dropout): Dropout(p=0.06)\n)"}, "{\"batch_norm\": true, \"bottleneck_fc_dim\": 574.0, \"cpu_mode\": false, \"dropout_pctg\": 0.014980972808995994, \"epochs\": 20, \"filter_sizes\": [2, 3, 4, 5], \"glove_dim\": 200, \"gpu_no\": 2, \"num_filters\": 781.0, \"rnn_bidirectional\": true, \"rnn_hidden_size\": 107.0, \"rnn_num_layers\": 4.0, \"stride\": 1,
…
…
 (3): Conv2d(1, 1226, kernel_size=(6, 100), stride=(1, 1))\n  )\n  (batch_norms): ModuleList(\n    (0): BatchNorm2d(1226, eps=1e-05, momentum=0.1, affine=True, track_running_stats=True)\n    (1): BatchNorm2d(1226, eps=1e-05, momentum=0.1, affine=True, track_running_stats=True)\n    (2): BatchNorm2d(1226, eps=1e-05, momentum=0.1, affine=True, track_running_stats=True)\n    (3): BatchNorm2d(1226, eps=1e-05, momentum=0.1, affine=True, track_running_stats=True)\n  )\n  (gru): GRU(100, 192, num_layers=2, batch_first=True, dropout=0.16, bidirectional=True)\n  (fc1): Linear(in_features=5672, out_features=338, bias=True)\n  (fc2): Linear(in_features=338, out_features=126, bias=True)\n  (dropout): Dropout(p=0.16)\n)"}, "{\"batch_norm\": true, \"bottleneck_fc_dim\": 495.0, \"cpu_mode\": false, \"dropout_pctg\": 0.04657318528464791, \"epochs\": 20, \"filter_sizes\": [1, 2, 3], \"glove_dim\": 200, \"gpu_no\": 2, \"num_filters\": 1013.0, \"rnn_bidirectional\": true, \"rnn_hidden_size\": 417.0, \"rnn_num_layers\": 5.0, \"stride\": 1, \"
…
5939, "f1_score_4": 0.762291510212407}, "pAtK_scores": {"pAtK_1": 0.9695495735607675, "pAtK_3": 0.8360874200426439, "pAtK_5": 0.5766257995735607}, "train_vector": [0.024582666828492885, 0.017827538181401457, 0.015936107992089235, 0.018682666305798477, 0.016818521965395464], "valid_vector": [0.01891534654624653, 0.01735681684927018, 0.01681665601052427, 0.01831143853234262, 0.017802362794057527], "test_vector": [0.018938638222242978, 0.01727323969210516, 0.016748483630338075, 0.018242714549305598, 0.017781849896936402], "train_finish": "2018-12-31 06:40:19.471856", "model": "CRNN(\n  (embedding): Embedding(400000, 200)\n  (convs): ModuleList(\n    (0): Conv2d(1, 1013, kernel_size=(1, 200), stride=(1, 1))\n    (1): Conv2d(1, 1013, kernel_size=(2, 200), stride=(1, 1))\n    (2): Conv2d(1, 1013, kernel_size=(3, 200), stride=(1, 1))\n  )\n  (batch_norms): ModuleList(\n    (0): BatchNorm2d(1013, eps=1e-05, momentum=0.1, affine=True, track_running_stats=True)\n    (1): BatchNorm2d(1013, eps=1e-05, momentum=0.1, affine=True, track_running_stats=True)\n    (2): BatchNorm2d(1013, eps=1e-05, momentum=0.1, affine=True, track_running_stats=True)\n  )\n  (gru): GRU(200, 417, num_layers=5, batch_first=True, dropout=0.05, bidirectional=True)\n  (fc1): Linear(in_features=7209, out_features=495, bias=True)\n  (fc2): Linear(in_features=495, out_features=126, bias=True)\n  (dropout): Dropout(p=0.05)\n)"}, "{\"batch_norm\": true, \"bottleneck_fc_dim\": 416.0, \"cpu_mode\": false, \"dropout_pctg\": 0.13466649191091207, \"epochs\": 20, \"filter_sizes\": [1, 2, 3, 4, 5, 6], \"glove_dim\": 300, \"gpu_no\": 2, \"num_filters\": 738.0, \"rnn_bidirectional\": true, \"rnn_hidden_size\": 270.0, \"rnn_num_layers\": 4.0, \"stride\
…
806569829424307}, "train_vector": [0.02564904098587832, 0.018040591292033566, 0.01611481211843961, 0.014624109470957379, 0.01346007553913224, 0.012381850511085127, 0.01149246283310387], "valid_vector": [0.018512566277915154, 0.017163303196688354, 0.016662702836438333, 0.016719139739821382, 0.01661339072661518, 0.01727554837145211, 0.01758990323852136], "test_vector": [0.018273897866196216, 0.016931074939525205, 0.016419873854864254, 0.01648734107828026, 0.016315334642341715, 0.017091695752455546, 0.017340796851694013], "train_finish": "2018-12-31 10:05:40.225509", "model": "CRNN(\n  (embedding): Embedding(400000, 300)\n  (convs): ModuleList(\n    (0): Conv2d(1, 738, kernel_size=(1, 300), stride=(1, 1))\n    (1): Conv2d(1, 738, kernel_size=(2, 300), stride=(1, 1))\n    (2): Conv2d(1, 738, kernel_size=(3, 300), stride=(1, 1))\n    (3): Conv2d(1, 738, kernel_size=(4, 300), stride=(1, 1))\n    (4): Conv2d(1, 738, kernel_size=(5, 300), stride=(1, 1))\n    (5): Conv2d(1, 738, kernel_size=(6, 300), stride=(1, 1))\n  )\n  (batch_norms): ModuleList(\n    (0): BatchNorm2d(738, eps=1e-05, momentum=0.1, affine=True, track_running_stats=True)\n    (1): BatchNorm2d(738, eps=1e-05, momentum=0.1, affine=True, track_running_stats=True)\n    (2): BatchNorm2d(738, eps=1e-05, momentum=0.1, affine=True, track_running_stats=True)\n    (3): BatchNorm2d(738, eps=1e-05, momentum=0.1, affine=True, track_running_stats=True)\n    (4): BatchNorm2d(738, eps=1e-05, momentum=0.1, affine=True, track_running_stats=True)\n    (5): BatchNorm2d(738, eps=1e-05, momentum=0.1, affine=True, track_running_stats=True)\n  )\n  (gru): GRU(300, 270, num_layers=4, batch_first=True, dropout=0.13, bidirectional=True)\n  (fc1): Linear(in_features=6588, out_features=416, bias=True)\n  (fc2): Linear(in_features=416, out_features=126, bias=True)\n  (dropout): Dropout(p=0.13)\n)"}, "{\"batch_norm\": true, \"bottleneck_fc_dim\": 304.0, \"cpu_mode\": false, \"dropout_pctg\": 0.20365531760978883, \"epochs\": 20, \"filter_sizes\": [2, 3, 4, 5], \"glove_dim\": 300, \"gpu_no\": 2, \"num_filters\": 872.0, \"rnn_bidirectional\": true, \"rnn_hidden_size\": 476.0, \"rnn_num_layers\": 1.0, \"stride\": 1, 
…
4, "f1_score_4": 0.7693933746836147}, "pAtK_scores": {"pAtK_1": 0.9714818763326226, "pAtK_3": 0.8432280561478323, "pAtK_5": 0.5813366204690832}, "train_vector": [0.02667683797312966, 0.018276833662621103, 0.016040344017367956, 0.014291163498392625, 0.01278970496027791], "valid_vector": [0.018299404814440225, 0.01681757074739061, 0.016306110866628944, 0.016548745514666622, 0.016983878530208458], "test_vector": [0.018028199122642783, 0.016606223977991004, 0.016241145225912967, 0.016442164857147026, 0.016921405922740634], "train_finish": "2018-12-31 11:08:52.543843", "model": "CRNN(\n  (embedding): Embedding(400000, 300)\n  (convs): ModuleList(\n    (0): Conv2d(1, 872, kernel_size=(2, 300), stride=(1, 1))\n    (1): Conv2d(1, 872, kernel_size=(3, 300), stride=(1, 1))\n    (2): Conv2d(1, 872, kernel_size=(4, 300), stride=(1, 1))\n    (3): Conv2d(1, 872, kernel_size=(5, 300), stride=(1, 1))\n  )\n  (batch_norms): ModuleList(\n    (0): BatchNorm2d(872, eps=1e-05, momentum=0.1, affine=True, track_running_stats=True)\n    (1): BatchNorm2d(872, eps=1e-05, momentum=0.1, affine=True, track_running_stats=True)\n    (2): BatchNorm2d(872, eps=1e-05, momentum=0.1, affine=True, track_running_stats=True)\n    (3): BatchNorm2d(872, eps=1e-05, momentum=0.1, affine=True, track_running_stats=True)\n  )\n  (gru): GRU(300, 476, batch_first=True, dropout=0.2, bidirectional=True)\n  (fc1): Linear(in_features=4440, out_features=304, bias=True)\n  (fc2): Linear(in_features=304, out_features=126, bias=True)\n  (dropout): Dropout(p=0.2)\n)"}, "{\"batch_norm\": true, \"bottleneck_fc_dim\": 355.0, \"cpu_mode\": false, \"dropout_pctg\": 0.10669093396076505, \"epochs\": 20, \"filter_sizes\": [2, 3, 4], \"glove_dim\": 200, \"gpu_no\": 2, \"num_filters\": 651.0, \"rnn_bidirectional\": true, \"rnn_hidden_size\": 293.0, \"rnn_num_layers\": 14.0, \"stride\": 1, \"t
…
ropout_pctg": 0.11, "num_filters": 651, "bottleneck_fc_dim": 355, "glove_dim": 200, "batch_norm": true, "filter_sizes": [2, 3, 4], "rnn_hidden_size": 293, "rnn_num_layers": 14, "rnn_bidirectional": true, "batch_size": 64, "num_workers": 12, "epochs": 20, "txt_length": 588, "train_start": "2018-12-31 11:08:53.549946", "no_of_trainable_params": 25833189, "train_error_message": "CUDA out of memory. Tried to allocate 2.90 GiB (GPU 2; 7.93 GiB total capacity; 945.55 MiB already allocated; 357.56 MiB free; 2.42 GiB cached)", "train_finish": "2018-12-31 11:52:14.746591", "model": "CRNN(\n  (embedding): Embedding(400000, 200)\n  (convs): ModuleList(\n    (0): Conv2d(1, 651, kernel_size=(2, 200), stride=(1, 1))\n    (1): Conv2d(1, 651, kernel_size=(3, 200), stride=(1, 1))\n    (2): Conv2d(1, 651, kernel_size=(4, 200), stride=(1, 1))\n  )\n  (batch_norms): ModuleList(\n    (0): BatchNorm2d(651, eps=1e-05, momentum=0.1, affine=True, track_running_stats=True)\n    (1): BatchNorm2d(651, eps=1e-05, momentum=0.1, affine=True, track_running_stats=True)\n    (2): BatchNorm2d(651, eps=1e-05, momentum=0.1, affine=True, track_running_stats=True)\n  )\n  (gru): GRU(200, 293, num_layers=14, batch_first=True, dropout=0.11, bidirectional=True)\n  (fc1): Linear(in_features=10157, out_features=355, bias=True)\n  (fc2): Linear(in_features=355, out_features=126, bias=True)\n  (dropout): Dropout(p=0.11)\n)"}, "{\"batch_norm\": true, \"bottleneck_fc_dim\": 471.0, \"cpu_mode\": false, \"dropout_pctg\": 0.18971342776880995, \"epochs\": 20, \"filter_sizes\": [3, 4, 5, 6], \"glove_dim\": 300, \"gpu_no\": 2, \"num_filters\": 1126.0, \"rnn_bidirectional\": true, \"rnn_hidden_size\": 221.0, \"rnn_num_layers\": 3.0, \"stride\": 1,
…
, "f1_score_4": 0.7672887751601628}, "pAtK_scores": {"pAtK_1": 0.9720815565031983, "pAtK_3": 0.8404961798152096, "pAtK_5": 0.5803904584221748}, "train_vector": [0.026571670140357433, 0.018455244093738783, 0.016350717637628284, 0.01476499093935021, 0.013357904179343754], "valid_vector": [0.018392487875010168, 0.017235694289977437, 0.016437273030467173, 0.016733869553671708, 0.01675520028744855], "test_vector": [0.018286354732570616, 0.017064444635357303, 0.016460645168439855, 0.016670824918173142, 0.016784233630879095], "train_finish": "2018-12-31 13:20:12.265126", "model": "CRNN(\n  (embedding): Embedding(400000, 300)\n  (convs): ModuleList(\n    (0): Conv2d(1, 1126, kernel_size=(3, 300), stride=(1, 1))\n    (1): Conv2d(1, 1126, kernel_size=(4, 300), stride=(1, 1))\n    (2): Conv2d(1, 1126, kernel_size=(5, 300), stride=(1, 1))\n    (3): Conv2d(1, 1126, kernel_size=(6, 300), stride=(1, 1))\n  )\n  (batch_norms): ModuleList(\n    (0): BatchNorm2d(1126, eps=1e-05, momentum=0.1, affine=True, track_running_stats=True)\n    (1): BatchNorm2d(1126, eps=1e-05, momentum=0.1, affine=True, track_running_stats=True)\n    (2): BatchNorm2d(1126, eps=1e-05, momentum=0.1, affine=True, track_running_stats=True)\n    (3): BatchNorm2d(1126, eps=1e-05, momentum=0.1, affine=True, track_running_stats=True)\n  )\n  (gru): GRU(300, 221, num_layers=3, batch_first=True, dropout=0.19, bidirectional=True)\n  (fc1): Linear(in_features=5830, out_features=471, bias=True)\n  (fc2): Linear(in_features=471, out_features=126, bias=True)\n  (dropout): Dropout(p=0.19)\n)"}, "{\"batch_norm\": true, \"bottleneck_fc_dim\": 458.0, \"cpu_mode\": false, \"dropout_pctg\": 0.011020355555232987, \"epochs\": 20, \"filter_sizes\": [3, 4, 5], \"glove_dim\": 100, \"gpu_no\": 2, \"num_filters\": 936.0, \"rnn_bidirectional\": true, \"rnn_hidden_size\": 147.0, \"rnn_num_layers\": 4.0, \"stride\": 1, \"
…
0.9692164179104478, "pAtK_3": 0.8410292288557214, "pAtK_5": 0.5812433368869936}, "train_vector": [0.025268492855930753, 0.017589695954430957, 0.015684295121407416, 0.014032931494195582, 0.01279992242507724, 0.011746658286847086], "valid_vector": [0.01861007511293067, 0.01714137982505598, 0.016428874913731645, 0.016080411735362114, 0.01633182696374838, 0.016703070194556264], "test_vector": [0.018600300151004848, 0.017049717790345902, 0.016417799167025255, 0.016066704516305028, 0.016415120538340003, 0.01663470223371281], "train_finish": "2018-12-31 14:42:09.115739", "model": "CRNN(\n  (embedding): Embedding(400000, 100)\n  (convs): ModuleList(\n    (0): Conv2d(1, 936, kernel_size=(3, 100), stride=(1, 1))\n    (1): Conv2d(1, 936, kernel_size=(4, 100), stride=(1, 1))\n    (2): Conv2d(1, 936, kernel_size=(5, 100), stride=(1, 1))\n  )\n  (batch_norms): ModuleList(\n    (0): BatchNorm2d(936, eps=1e-05, momentum=0.1, affine=True, track_running_stats=True)\n    (1): BatchNorm2d(936, eps=1e-05, momentum=0.1, affine=True, track_running_stats=True)\n    (2): BatchNorm2d(936, eps=1e-05, momentum=0.1, affine=True, track_running_stats=True)\n  )\n  (gru): GRU(100, 147, num_layers=4, batch_first=True, dropout=0.01, bidirectional=True)\n  (fc1): Linear(in_features=3984, out_features=458, bias=True)\n  (fc2): Linear(in_features=458, out_features=126, bias=True)\n  (dropout): Dropout(p=0.01)\n)"}, "{\"batch_norm\": true, \"bottleneck_fc_dim\": 485.0, \"cpu_mode\": false, \"dropout_pctg\": 0.22263198996574987, \"epochs\": 20, \"filter_sizes\": [1, 2, 3], \"glove_dim\": 200, \"gpu_no\": 2, \"num_filters\": 802.0, \"rnn_bidirectional\": true, \"rnn_hidden_size\": 166.0, \"rnn_num_layers\": 1.0, \"stride\": 1, \"t
…
36140724946695, "pAtK_3": 0.8428060589907604, "pAtK_5": 0.5820095948827292}, "train_vector": [0.027377662316745936, 0.019067776578020307, 0.017017000904351497, 0.015575472521794444, 0.014471242294260157, 0.013427459933519714], "valid_vector": [0.019065430160236558, 0.017257572302762578, 0.016434738777445328, 0.01621598852619624, 0.016274440215219423, 0.016553714583595114], "test_vector": [0.018904116385971812, 0.017076173666189475, 0.016316943087065015, 0.015951475503840552, 0.016072261274289856, 0.016496397134885668], "train_finish": "2018-12-31 15:15:56.287786", "model": "CRNN(\n  (embedding): Embedding(400000, 200)\n  (convs): ModuleList(\n    (0): Conv2d(1, 802, kernel_size=(1, 200), stride=(1, 1))\n    (1): Conv2d(1, 802, kernel_size=(2, 200), stride=(1, 1))\n    (2): Conv2d(1, 802, kernel_size=(3, 200), stride=(1, 1))\n  )\n  (batch_norms): ModuleList(\n    (0): BatchNorm2d(802, eps=1e-05, momentum=0.1, affine=True, track_running_stats=True)\n    (1): BatchNorm2d(802, eps=1e-05, momentum=0.1, affine=True, track_running_stats=True)\n    (2): BatchNorm2d(802, eps=1e-05, momentum=0.1, affine=True, track_running_stats=True)\n  )\n  (gru): GRU(200, 166, batch_first=True, dropout=0.22, bidirectional=True)\n  (fc1): Linear(in_features=2738, out_features=485, bias=True)\n  (fc2): Linear(in_features=485, out_features=126, bias=True)\n  (dropout): Dropout(p=0.22)\n)"}, "{\"batch_norm\": true, \"bottleneck_fc_dim\": 432.0, \"cpu_mode\": false, \"dropout_pctg\": 0.032291900119089556, \"epochs\": 20, \"filter_sizes\": [2, 3, 4], \"glove_dim\": 300, \"gpu_no\": 2, \"num_filters\": 1050.0, \"rnn_bidirectional\": true, \"rnn_hidden_size\": 504.0, \"rnn_num_layers\": 6.0, \"stride\": 1, \
…
 {"dropout_pctg": 0.03, "num_filters": 1050, "bottleneck_fc_dim": 432, "glove_dim": 300, "batch_norm": true, "filter_sizes": [2, 3, 4], "rnn_hidden_size": 504, "rnn_num_layers": 6, "rnn_bidirectional": true, "batch_size": 64, "num_workers": 12, "epochs": 20, "txt_length": 659, "train_start": "2018-12-31 15:15:57.229026", "no_of_trainable_params": 32202000, "train_error_message": "CUDA out of memory. Tried to allocate 2.32 GiB (GPU 2; 7.93 GiB total capacity; 1.28 GiB already allocated; 1.11 GiB free; 4.03 GiB cached)", "train_finish": "2018-12-31 15:16:38.723796", "model": "CRNN(\n  (embedding): Embedding(400000, 300)\n  (convs): ModuleList(\n    (0): Conv2d(1, 1050, kernel_size=(2, 300), stride=(1, 1))\n    (1): Conv2d(1, 1050, kernel_size=(3, 300), stride=(1, 1))\n    (2): Conv2d(1, 1050, kernel_size=(4, 300), stride=(1, 1))\n  )\n  (batch_norms): ModuleList(\n    (0): BatchNorm2d(1050, eps=1e-05, momentum=0.1, affine=True, track_running_stats=True)\n    (1): BatchNorm2d(1050, eps=1e-05, momentum=0.1, affine=True, track_running_stats=True)\n    (2): BatchNorm2d(1050, eps=1e-05, momentum=0.1, affine=True, track_running_stats=True)\n  )\n  (gru): GRU(300, 504, num_layers=6, batch_first=True, dropout=0.03, bidirectional=True)\n  (fc1): Linear(in_features=9198, out_features=432, bias=True)\n  (fc2): Linear(in_features=432, out_features=126, bias=True)\n  (dropout): Dropout(p=0.03)\n)"}, "{\"batch_norm\": true, \"bottleneck_fc_dim\": 519.0, \"cpu_mode\": false, \"dropout_pctg\": 0.16398183219061682, \"epochs\": 20, \"filter_sizes\": [1, 2, 3, 4, 5, 6], \"glove_dim\": 300, \"gpu_no\": 2, \"num_filters\": 1361.0, \"rnn_bidirectional\": true, \"rnn_hidden_size\": 211.0, \"rnn_num_layers\": 2.0, \"stride
…
9097662, "f1_score_4": 0.7702463401292428}, "pAtK_scores": {"pAtK_1": 0.9739139125799574, "pAtK_3": 0.843772210376688, "pAtK_5": 0.5822694562899787}, "train_vector": [0.027307067793498774, 0.01836146219243895, 0.01617822264882228, 0.014645508735385011, 0.013250607678372505], "valid_vector": [0.01858340387978752, 0.01680586794339148, 0.016297510337220558, 0.016484636135574587, 0.01633145422323484], "test_vector": [0.01837368337894236, 0.016759174248414128, 0.01629178469647159, 0.016408880596666703, 0.01618657197886661], "train_finish": "2018-12-31 17:38:48.333830", "model": "CRNN(\n  (embedding): Embedding(400000, 300)\n  (convs): ModuleList(\n    (0): Conv2d(1, 1361, kernel_size=(1, 300), stride=(1, 1))\n    (1): Conv2d(1, 1361, kernel_size=(2, 300), stride=(1, 1))\n    (2): Conv2d(1, 1361, kernel_size=(3, 300), stride=(1, 1))\n    (3): Conv2d(1, 1361, kernel_size=(4, 300), stride=(1, 1))\n    (4): Conv2d(1, 1361, kernel_size=(5, 300), stride=(1, 1))\n    (5): Conv2d(1, 1361, kernel_size=(6, 300), stride=(1, 1))\n  )\n  (batch_norms): ModuleList(\n    (0): BatchNorm2d(1361, eps=1e-05, momentum=0.1, affine=True, track_running_stats=True)\n    (1): BatchNorm2d(1361, eps=1e-05, momentum=0.1, affine=True, track_running_stats=True)\n    (2): BatchNorm2d(1361, eps=1e-05, momentum=0.1, affine=True, track_running_stats=True)\n    (3): BatchNorm2d(1361, eps=1e-05, momentum=0.1, affine=True, track_running_stats=True)\n    (4): BatchNorm2d(1361, eps=1e-05, momentum=0.1, affine=True, track_running_stats=True)\n    (5): BatchNorm2d(1361, eps=1e-05, momentum=0.1, affine=True, track_running_stats=True)\n  )\n  (gru): GRU(300, 211, num_layers=2, batch_first=True, dropout=0.16, bidirectional=True)\n  (fc1): Linear(in_features=9010, out_features=519, bias=True)\n  (fc2): Linear(in_features=519, out_features=126, bias=True)\n  (dropout): Dropout(p=0.16)\n)"}, "{\"batch_norm\": true, \"bottleneck_fc_dim\": 271.0, \"cpu_mode\": false, \"dropout_pctg\": 0.07966153421479755, \"epochs\": 20, \"filter_sizes\": [3, 4, 5, 6], \"glove_dim\": 200, \"gpu_no\": 2, \"num_filters\": 1154.0, \"rnn_bidirectional\": true, \"rnn_hidden_size\": 553.0, \"rnn_num_layers\": 4.0, \"stride\": 1,
…
0195, "f1_score_4": 0.7664265383509954}, "pAtK_scores": {"pAtK_1": 0.9708488805970149, "pAtK_3": 0.8402407604832978, "pAtK_5": 0.579151119402985}, "train_vector": [0.026243815501195675, 0.018395978735765817, 0.016379162092323405, 0.01493241158319019, 0.013772190732855584], "valid_vector": [0.018996928834534094, 0.017754870389319107, 0.016925649868243974, 0.016946006761387244, 0.017262031216542226], "test_vector": [0.01878683360766119, 0.017624381355750663, 0.0170288409686276, 0.01691068987399816, 0.017177421187580838], "train_finish": "2018-12-31 21:07:42.134009", "model": "CRNN(\n  (embedding): Embedding(400000, 200)\n  (convs): ModuleList(\n    (0): Conv2d(1, 1154, kernel_size=(3, 200), stride=(1, 1))\n    (1): Conv2d(1, 1154, kernel_size=(4, 200), stride=(1, 1))\n    (2): Conv2d(1, 1154, kernel_size=(5, 200), stride=(1, 1))\n    (3): Conv2d(1, 1154, kernel_size=(6, 200), stride=(1, 1))\n  )\n  (batch_norms): ModuleList(\n    (0): BatchNorm2d(1154, eps=1e-05, momentum=0.1, affine=True, track_running_stats=True)\n    (1): BatchNorm2d(1154, eps=1e-05, momentum=0.1, affine=True, track_running_stats=True)\n    (2): BatchNorm2d(1154, eps=1e-05, momentum=0.1, affine=True, track_running_stats=True)\n    (3): BatchNorm2d(1154, eps=1e-05, momentum=0.1, affine=True, track_running_stats=True)\n  )\n  (gru): GRU(200, 553, num_layers=4, batch_first=True, dropout=0.08, bidirectional=True)\n  (fc1): Linear(in_features=9040, out_features=271, bias=True)\n  (fc2): Linear(in_features=271, out_features=126, bias=True)\n  (dropout): Dropout(p=0.08)\n)"}, "{\"batch_norm\": true, \"bottleneck_fc_dim\": 446.0, \"cpu_mode\": false, \"dropout_pctg\": 0.2944923011655484, \"epochs\": 20, \"filter_sizes\": [2, 3, 4, 5], \"glove_dim\": 300, \"gpu_no\": 2, \"num_filters\": 1072.0, \"rnn_bidirectional\": true, \"rnn_hidden_size\": 332.0, \"rnn_num_layers\": 5.0, \"stride\": 1, 
…
1": 0.9715818230277186, "pAtK_3": 0.8414734363894811, "pAtK_5": 0.5808368869936034}, "train_vector": [0.02892104946494325, 0.0204523395424661, 0.018426036913933883, 0.016899791210586664, 0.015651448336708198, 0.014711920790580025], "valid_vector": [0.01990118749843819, 0.017738815435870633, 0.01705773645053322, 0.016776137333214362, 0.01687356274510954, 0.017329367135389784], "test_vector": [0.019814338727689375, 0.01757809942933733, 0.016996073957556472, 0.01676798903389272, 0.016914402368043594, 0.01716844061476939], "train_finish": "2019-01-01 00:24:43.014806", "model": "CRNN(\n  (embedding): Embedding(400000, 300)\n  (convs): ModuleList(\n    (0): Conv2d(1, 1072, kernel_size=(2, 300), stride=(1, 1))\n    (1): Conv2d(1, 1072, kernel_size=(3, 300), stride=(1, 1))\n    (2): Conv2d(1, 1072, kernel_size=(4, 300), stride=(1, 1))\n    (3): Conv2d(1, 1072, kernel_size=(5, 300), stride=(1, 1))\n  )\n  (batch_norms): ModuleList(\n    (0): BatchNorm2d(1072, eps=1e-05, momentum=0.1, affine=True, track_running_stats=True)\n    (1): BatchNorm2d(1072, eps=1e-05, momentum=0.1, affine=True, track_running_stats=True)\n    (2): BatchNorm2d(1072, eps=1e-05, momentum=0.1, affine=True, track_running_stats=True)\n    (3): BatchNorm2d(1072, eps=1e-05, momentum=0.1, affine=True, track_running_stats=True)\n  )\n  (gru): GRU(300, 332, num_layers=5, batch_first=True, dropout=0.29, bidirectional=True)\n  (fc1): Linear(in_features=7608, out_features=446, bias=True)\n  (fc2): Linear(in_features=446, out_features=126, bias=True)\n  (dropout): Dropout(p=0.29)\n)"}, "{\"batch_norm\": true, \"bottleneck_fc_dim\": 412.0, \"cpu_mode\": false, \"dropout_pctg\": 0.06937421207953717, \"epochs\": 20, \"filter_sizes\": [2, 3, 4], \"glove_dim\": 100, \"gpu_no\": 2, \"num_filters\": 1403.0, \"rnn_bidirectional\": true, \"rnn_hidden_size\": 525.0, \"rnn_num_layers\": 10.0, \"stride\": 1, \
…
: 0.9623200959488273, "pAtK_3": 0.8220504619758351, "pAtK_5": 0.5685167910447761}, "train_vector": [0.02891576675903907, 0.020074526761959654, 0.017885293406280298, 0.016236694691789195, 0.015036324865439174, 0.01521115793049904], "valid_vector": [0.021422453681632543, 0.018446963179910153, 0.01825109416196224, 0.017087832317754095, 0.017178526966582373, 0.020762194871782328], "test_vector": [0.021148634548269228, 0.018286354156699516, 0.01821646609428976, 0.01692270071430406, 0.01721338406483184, 0.02064195410338546], "train_finish": "2019-01-01 10:47:13.172287", "model": "CRNN(\n  (embedding): Embedding(400000, 100)\n  (convs): ModuleList(\n    (0): Conv2d(1, 1403, kernel_size=(2, 100), stride=(1, 1))\n    (1): Conv2d(1, 1403, kernel_size=(3, 100), stride=(1, 1))\n    (2): Conv2d(1, 1403, kernel_size=(4, 100), stride=(1, 1))\n  )\n  (batch_norms): ModuleList(\n    (0): BatchNorm2d(1403, eps=1e-05, momentum=0.1, affine=True, track_running_stats=True)\n    (1): BatchNorm2d(1403, eps=1e-05, momentum=0.1, affine=True, track_running_stats=True)\n    (2): BatchNorm2d(1403, eps=1e-05, momentum=0.1, affine=True, track_running_stats=True)\n  )\n  (gru): GRU(100, 525, num_layers=10, batch_first=True, dropout=0.07, bidirectional=True)\n  (fc1): Linear(in_features=14709, out_features=412, bias=True)\n  (fc2): Linear(in_features=412, out_features=126, bias=True)\n  (dropout): Dropout(p=0.07)\n)"}, "{\"batch_norm\": true, \"bottleneck_fc_dim\": 367.0, \"cpu_mode\": false, \"dropout_pctg\": 0.05863087139637775, \"epochs\": 20, \"filter_sizes\": [3, 4, 5, 6], \"glove_dim\": 200, \"gpu_no\": 2, \"num_filters\": 721.0, \"rnn_bidirectional\": true, \"rnn_hidden_size\": 235.0, \"rnn_num_layers\": 7.0, \"stride\": 1, 
…
683, "f1_score_4": 0.7673258606143205}, "pAtK_scores": {"pAtK_1": 0.9711487206823027, "pAtK_3": 0.8414179104477612, "pAtK_5": 0.5797774520255864}, "train_vector": [0.025500861815178893, 0.018270720570823306, 0.016308661459213603, 0.014946983674548074, 0.01365372282105002], "valid_vector": [0.01874297709717576, 0.017499959988912732, 0.01671688240664358, 0.016856948353984613, 0.016833574259415396], "test_vector": [0.018716182335337467, 0.017494861485321384, 0.016693462020973725, 0.01683892409748106, 0.01687882745018932], "train_finish": "2019-01-01 14:03:32.141928", "model": "CRNN(\n  (embedding): Embedding(400000, 200)\n  (convs): ModuleList(\n    (0): Conv2d(1, 721, kernel_size=(3, 200), stride=(1, 1))\n    (1): Conv2d(1, 721, kernel_size=(4, 200), stride=(1, 1))\n    (2): Conv2d(1, 721, kernel_size=(5, 200), stride=(1, 1))\n    (3): Conv2d(1, 721, kernel_size=(6, 200), stride=(1, 1))\n  )\n  (batch_norms): ModuleList(\n    (0): BatchNorm2d(721, eps=1e-05, momentum=0.1, affine=True, track_running_stats=True)\n    (1): BatchNorm2d(721, eps=1e-05, momentum=0.1, affine=True, track_running_stats=True)\n    (2): BatchNorm2d(721, eps=1e-05, momentum=0.1, affine=True, track_running_stats=True)\n    (3): BatchNorm2d(721, eps=1e-05, momentum=0.1, affine=True, track_running_stats=True)\n  )\n  (gru): GRU(200, 235, num_layers=7, batch_first=True, dropout=0.06, bidirectional=True)\n  (fc1): Linear(in_features=6174, out_features=367, bias=True)\n  (fc2): Linear(in_features=367, out_features=126, bias=True)\n  (dropout): Dropout(p=0.06)\n)"}, "{\"batch_norm\": true, \"bottleneck_fc_dim\": 396.0, \"cpu_mode\": false, \"dropout_pctg\": 0.08548866406157388, \"epochs\": 20, \"filter_sizes\": [1, 2, 3, 4, 5], \"glove_dim\": 300, \"gpu_no\": 2, \"num_filters\": 975.0, \"rnn_bidirectional\": true, \"rnn_hidden_size\": 183.0, \"rnn_num_layers\": 2.0, \"stride\": 
…
81050106609808}, "train_vector": [0.025910841694932626, 0.01795569435656548, 0.01589327108059297, 0.014307784204835444, 0.012932504405885769, 0.011621278635745027, 0.010472091243342916], "valid_vector": [0.018634169394381717, 0.016871449001853778, 0.016609089612625222, 0.016483241796065598, 0.01615906405087157, 0.017493570335087742, 0.01786986910311112], "test_vector": [0.01852162678573114, 0.016754209603081698, 0.01645775488627427, 0.016444434349272233, 0.016069962391887963, 0.01737822016585928, 0.017866699448002298], "train_finish": "2019-01-01 16:01:24.513989", "model": "CRNN(\n  (embedding): Embedding(400000, 300)\n  (convs): ModuleList(\n    (0): Conv2d(1, 975, kernel_size=(1, 300), stride=(1, 1))\n    (1): Conv2d(1, 975, kernel_size=(2, 300), stride=(1, 1))\n    (2): Conv2d(1, 975, kernel_size=(3, 300), stride=(1, 1))\n    (3): Conv2d(1, 975, kernel_size=(4, 300), stride=(1, 1))\n    (4): Conv2d(1, 975, kernel_size=(5, 300), stride=(1, 1))\n  )\n  (batch_norms): ModuleList(\n    (0): BatchNorm2d(975, eps=1e-05, momentum=0.1, affine=True, track_running_stats=True)\n    (1): BatchNorm2d(975, eps=1e-05, momentum=0.1, affine=True, track_running_stats=True)\n    (2): BatchNorm2d(975, eps=1e-05, momentum=0.1, affine=True, track_running_stats=True)\n    (3): BatchNorm2d(975, eps=1e-05, momentum=0.1, affine=True, track_running_stats=True)\n    (4): BatchNorm2d(975, eps=1e-05, momentum=0.1, affine=True, track_running_stats=True)\n  )\n  (gru): GRU(300, 183, num_layers=2, batch_first=True, dropout=0.09, bidirectional=True)\n  (fc1): Linear(in_features=5607, out_features=396, bias=True)\n  (fc2): Linear(in_features=396, out_features=126, bias=True)\n  (dropout): Dropout(p=0.09)\n)"}, "{\"batch_norm\": true, \"bottleneck_fc_dim\": 379.0, \"cpu_mode\": false, \"dropout_pctg\": 0.04111761479511234, \"epochs\": 20, \"filter_sizes\": [3, 4, 5], \"glove_dim\": 300, \"gpu_no\": 2, \"num_filters\": 912.0, \"rnn_bidirectional\": true, \"rnn_hidden_size\": 382.0, \"rnn_num_layers\": 15.0, \"stride\": 1, \"
…
"dropout_pctg": 0.04, "num_filters": 912, "bottleneck_fc_dim": 379, "glove_dim": 300, "batch_norm": true, "filter_sizes": [3, 4, 5], "rnn_hidden_size": 382, "rnn_num_layers": 15, "rnn_bidirectional": true, "batch_size": 64, "num_workers": 12, "epochs": 20, "txt_length": 706, "train_start": "2019-01-01 16:01:25.492927", "no_of_trainable_params": 47124703, "train_error_message": "CUDA out of memory. Tried to allocate 3.82 GiB (GPU 2; 7.93 GiB total capacity; 1.51 GiB already allocated; 502.56 MiB free; 5.41 GiB cached)", "train_finish": "2019-01-01 16:01:57.284019", "model": "CRNN(\n  (embedding): Embedding(400000, 300)\n  (convs): ModuleList(\n    (0): Conv2d(1, 912, kernel_size=(3, 300), stride=(1, 1))\n    (1): Conv2d(1, 912, kernel_size=(4, 300), stride=(1, 1))\n    (2): Conv2d(1, 912, kernel_size=(5, 300), stride=(1, 1))\n  )\n  (batch_norms): ModuleList(\n    (0): BatchNorm2d(912, eps=1e-05, momentum=0.1, affine=True, track_running_stats=True)\n    (1): BatchNorm2d(912, eps=1e-05, momentum=0.1, affine=True, track_running_stats=True)\n    (2): BatchNorm2d(912, eps=1e-05, momentum=0.1, affine=True, track_running_stats=True)\n  )\n  (gru): GRU(300, 382, num_layers=15, batch_first=True, dropout=0.04, bidirectional=True)\n  (fc1): Linear(in_features=14196, out_features=379, bias=True)\n  (fc2): Linear(in_features=379, out_features=126, bias=True)\n  (dropout): Dropout(p=0.04)\n)"}, "{\"batch_norm\": true, \"bottleneck_fc_dim\": 478.0, \"cpu_mode\": false, \"dropout_pctg\": 0.11645431608940521, \"epochs\": 20, \"filter_sizes\": [2, 3, 4], \"glove_dim\": 200, \"gpu_no\": 2, \"num_filters\": 622.0, \"rnn_bidirectional\": true, \"rnn_hidden_size\": 261.0, \"rnn_num_layers\": 3.0, \"stride\": 1, \"t
…
: 0.9728144989339019, "pAtK_3": 0.8432058457711443, "pAtK_5": 0.5808235607675906}, "train_vector": [0.0251089848447273, 0.017748607763386427, 0.016025859038837516, 0.014722313327002145, 0.01360129851093983, 0.01264225591752845], "valid_vector": [0.018099074117662605, 0.017385523216657418, 0.016842690266932903, 0.016722535504295536, 0.01678681168901319, 0.016977070305776446], "test_vector": [0.018088141339086393, 0.01729628741085879, 0.016820086821564224, 0.01672347530381067, 0.016789085341931215, 0.016932322714191827], "train_finish": "2019-01-01 17:07:42.704423", "model": "CRNN(\n  (embedding): Embedding(400000, 200)\n  (convs): ModuleList(\n    (0): Conv2d(1, 622, kernel_size=(2, 200), stride=(1, 1))\n    (1): Conv2d(1, 622, kernel_size=(3, 200), stride=(1, 1))\n    (2): Conv2d(1, 622, kernel_size=(4, 200), stride=(1, 1))\n  )\n  (batch_norms): ModuleList(\n    (0): BatchNorm2d(622, eps=1e-05, momentum=0.1, affine=True, track_running_stats=True)\n    (1): BatchNorm2d(622, eps=1e-05, momentum=0.1, affine=True, track_running_stats=True)\n    (2): BatchNorm2d(622, eps=1e-05, momentum=0.1, affine=True, track_running_stats=True)\n  )\n  (gru): GRU(200, 261, num_layers=3, batch_first=True, dropout=0.12, bidirectional=True)\n  (fc1): Linear(in_features=3432, out_features=478, bias=True)\n  (fc2): Linear(in_features=478, out_features=126, bias=True)\n  (dropout): Dropout(p=0.12)\n)"}, "{\"batch_norm\": true, \"bottleneck_fc_dim\": 530.0, \"cpu_mode\": false, \"dropout_pctg\": 0.17757298556061668, \"epochs\": 20, \"filter_sizes\": [1, 2, 3], \"glove_dim\": 300, \"gpu_no\": 2, \"num_filters\": 762.0, \"rnn_bidirectional\": true, \"rnn_hidden_size\": 652.0, \"rnn_num_layers\": 1.0, \"stride\": 1, \"t
…
75998708, "f1_score_4": 0.7698940283147443}, "pAtK_scores": {"pAtK_1": 0.9731809701492538, "pAtK_3": 0.8430170575692963, "pAtK_5": 0.58215618336887}, "train_vector": [0.02459654785725492, 0.016728110561990195, 0.014584058024766462, 0.01278896961625061, 0.011344899861313495], "valid_vector": [0.017742040573677887, 0.0160832323034285, 0.015654485043225638, 0.01621672511895074, 0.016971538723163457], "test_vector": [0.01749160684851695, 0.015897438629095487, 0.015646065132561397, 0.01597747684263789, 0.01683473537987801], "train_finish": "2019-01-01 18:07:10.391951", "model": "CRNN(\n  (embedding): Embedding(400000, 300)\n  (convs): ModuleList(\n    (0): Conv2d(1, 762, kernel_size=(1, 300), stride=(1, 1))\n    (1): Conv2d(1, 762, kernel_size=(2, 300), stride=(1, 1))\n    (2): Conv2d(1, 762, kernel_size=(3, 300), stride=(1, 1))\n  )\n  (batch_norms): ModuleList(\n    (0): BatchNorm2d(762, eps=1e-05, momentum=0.1, affine=True, track_running_stats=True)\n    (1): BatchNorm2d(762, eps=1e-05, momentum=0.1, affine=True, track_running_stats=True)\n    (2): BatchNorm2d(762, eps=1e-05, momentum=0.1, affine=True, track_running_stats=True)\n  )\n  (gru): GRU(300, 652, batch_first=True, dropout=0.18, bidirectional=True)\n  (fc1): Linear(in_features=3590, out_features=530, bias=True)\n  (fc2): Linear(in_features=530, out_features=126, bias=True)\n  (dropout): Dropout(p=0.18)\n)"}, "{\"batch_norm\": true, \"bottleneck_fc_dim\": 591.0, \"cpu_mode\": false, \"dropout_pctg\": 0.3186711820276266, \"epochs\": 20, \"filter_sizes\": [1, 2, 3], \"glove_dim\": 100, \"gpu_no\": 2, \"num_filters\": 815.0, \"rnn_bidirectional\": true, \"rnn_hidden_size\": 641.0, \"rnn_num_layers\": 5.0, \"stride\": 1, \"tx
…
": 0.9686500533049041, "pAtK_3": 0.835987473347548, "pAtK_5": 0.5769256396588486}, "train_vector": [0.03037106211837918, 0.021629966102916204, 0.019797093343792788, 0.018644601027376893, 0.01799465014411409, 0.017513239380889625], "valid_vector": [0.020095182336749697, 0.019323656127092116, 0.017894730841277292, 0.017674618048160506, 0.018578151979027933, 0.01846301979506944], "test_vector": [0.019996249341348343, 0.01914773234473998, 0.01768654311941599, 0.017442312225627938, 0.018564162254611504, 0.0182322487354215], "train_finish": "2019-01-02 01:06:49.986976", "model": "CRNN(\n  (embedding): Embedding(400000, 100)\n  (convs): ModuleList(\n    (0): Conv2d(1, 815, kernel_size=(1, 100), stride=(1, 1))\n    (1): Conv2d(1, 815, kernel_size=(2, 100), stride=(1, 1))\n    (2): Conv2d(1, 815, kernel_size=(3, 100), stride=(1, 1))\n  )\n  (batch_norms): ModuleList(\n    (0): BatchNorm2d(815, eps=1e-05, momentum=0.1, affine=True, track_running_stats=True)\n    (1): BatchNorm2d(815, eps=1e-05, momentum=0.1, affine=True, track_running_stats=True)\n    (2): BatchNorm2d(815, eps=1e-05, momentum=0.1, affine=True, track_running_stats=True)\n  )\n  (gru): GRU(100, 641, num_layers=5, batch_first=True, dropout=0.32, bidirectional=True)\n  (fc1): Linear(in_features=8855, out_features=591, bias=True)\n  (fc2): Linear(in_features=591, out_features=126, bias=True)\n  (dropout): Dropout(p=0.32)\n)"}, "{\"batch_norm\": true, \"bottleneck_fc_dim\": 542.0, \"cpu_mode\": false, \"dropout_pctg\": 0.2156265244600775, \"epochs\": 20, \"filter_sizes\": [1, 2, 3], \"glove_dim\": 200, \"gpu_no\": 2, \"num_filters\": 761.0, \"rnn_bidirectional\": true, \"rnn_hidden_size\": 678.0, \"rnn_num_layers\": 14.0, \"stride\": 1, \"t
…
{"dropout_pctg": 0.22, "num_filters": 761, "bottleneck_fc_dim": 542, "glove_dim": 200, "batch_norm": true, "filter_sizes": [1, 2, 3], "rnn_hidden_size": 678, "rnn_num_layers": 14, "rnn_bidirectional": true, "batch_size": 64, "num_workers": 12, "epochs": 20, "txt_length": 735, "train_start": "2019-01-02 01:06:50.953874", "no_of_trainable_params": 123767387, "train_error_message": "CUDA out of memory. Tried to allocate 5.09 GiB (GPU 2; 7.93 GiB total capacity; 1.45 GiB already allocated; 4.90 GiB free; 1.06 GiB cached)", "train_finish": "2019-01-02 01:07:17.426794", "model": "CRNN(\n  (embedding): Embedding(400000, 200)\n  (convs): ModuleList(\n    (0): Conv2d(1, 761, kernel_size=(1, 200), stride=(1, 1))\n    (1): Conv2d(1, 761, kernel_size=(2, 200), stride=(1, 1))\n    (2): Conv2d(1, 761, kernel_size=(3, 200), stride=(1, 1))\n  )\n  (batch_norms): ModuleList(\n    (0): BatchNorm2d(761, eps=1e-05, momentum=0.1, affine=True, track_running_stats=True)\n    (1): BatchNorm2d(761, eps=1e-05, momentum=0.1, affine=True, track_running_stats=True)\n    (2): BatchNorm2d(761, eps=1e-05, momentum=0.1, affine=True, track_running_stats=True)\n  )\n  (gru): GRU(200, 678, num_layers=14, batch_first=True, dropout=0.22, bidirectional=True)\n  (fc1): Linear(in_features=21267, out_features=542, bias=True)\n  (fc2): Linear(in_features=542, out_features=126, bias=True)\n  (dropout): Dropout(p=0.22)\n)"}, "{\"batch_norm\": true, \"bottleneck_fc_dim\": 531.0, \"cpu_mode\": false, \"dropout_pctg\": 0.2512128486954566, \"epochs\": 20, \"filter_sizes\": [1, 2, 3], \"glove_dim\": 300, \"gpu_no\": 2, \"num_filters\": 857.0, \"rnn_bidirectional\": true, \"rnn_hidden_size\": 581.0, \"rnn_num_layers\": 12.0, \"stride\": 1, \"t
…
"dropout_pctg": 0.25, "num_filters": 857, "bottleneck_fc_dim": 531, "glove_dim": 300, "batch_norm": true, "filter_sizes": [1, 2, 3], "rnn_hidden_size": 581, "rnn_num_layers": 12, "rnn_bidirectional": true, "batch_size": 64, "num_workers": 12, "epochs": 20, "txt_length": 791, "train_start": "2019-01-02 01:07:18.137124", "no_of_trainable_params": 80379249, "train_error_message": "CUDA out of memory. Tried to allocate 4.57 GiB (GPU 2; 7.93 GiB total capacity; 2.18 GiB already allocated; 4.46 GiB free; 793.23 MiB cached)", "train_finish": "2019-01-02 01:07:48.323744", "model": "CRNN(\n  (embedding): Embedding(400000, 300)\n  (convs): ModuleList(\n    (0): Conv2d(1, 857, kernel_size=(1, 300), stride=(1, 1))\n    (1): Conv2d(1, 857, kernel_size=(2, 300), stride=(1, 1))\n    (2): Conv2d(1, 857, kernel_size=(3, 300), stride=(1, 1))\n  )\n  (batch_norms): ModuleList(\n    (0): BatchNorm2d(857, eps=1e-05, momentum=0.1, affine=True, track_running_stats=True)\n    (1): BatchNorm2d(857, eps=1e-05, momentum=0.1, affine=True, track_running_stats=True)\n    (2): BatchNorm2d(857, eps=1e-05, momentum=0.1, affine=True, track_running_stats=True)\n  )\n  (gru): GRU(300, 581, num_layers=12, batch_first=True, dropout=0.25, bidirectional=True)\n  (fc1): Linear(in_features=16515, out_features=531, bias=True)\n  (fc2): Linear(in_features=531, out_features=126, bias=True)\n  (dropout): Dropout(p=0.25)\n)"}, "{\"batch_norm\": true, \"bottleneck_fc_dim\": 505.0, \"cpu_mode\": false, \"dropout_pctg\": 0.10025135139372308, \"epochs\": 20, \"filter_sizes\": [1, 2, 3], \"glove_dim\": 300, \"gpu_no\": 2, \"num_filters\": 1106.0, \"rnn_bidirectional\": true, \"rnn_hidden_size\": 608.0, \"rnn_num_layers\": 1.0, \"stride\": 1, \"
…
962, "f1_score_4": 0.7699218424053625}, "pAtK_scores": {"pAtK_1": 0.9729144456289979, "pAtK_3": 0.8432169509594882, "pAtK_5": 0.5822494669509595}, "train_vector": [0.02426135267929662, 0.016699945146248753, 0.014596986564735036, 0.012852822931750758, 0.011415837606312776], "valid_vector": [0.01753873767545705, 0.016502114059006385, 0.015988334378069725, 0.016457505409170424, 0.01684690159777783], "test_vector": [0.01738699382421241, 0.016474881952108222, 0.015987897747511994, 0.01635753692113864, 0.016749709508002503], "train_finish": "2019-01-02 01:59:12.154175", "model": "CRNN(\n  (embedding): Embedding(400000, 300)\n  (convs): ModuleList(\n    (0): Conv2d(1, 1106, kernel_size=(1, 300), stride=(1, 1))\n    (1): Conv2d(1, 1106, kernel_size=(2, 300), stride=(1, 1))\n    (2): Conv2d(1, 1106, kernel_size=(3, 300), stride=(1, 1))\n  )\n  (batch_norms): ModuleList(\n    (0): BatchNorm2d(1106, eps=1e-05, momentum=0.1, affine=True, track_running_stats=True)\n    (1): BatchNorm2d(1106, eps=1e-05, momentum=0.1, affine=True, track_running_stats=True)\n    (2): BatchNorm2d(1106, eps=1e-05, momentum=0.1, affine=True, track_running_stats=True)\n  )\n  (gru): GRU(300, 608, batch_first=True, dropout=0.1, bidirectional=True)\n  (fc1): Linear(in_features=4534, out_features=505, bias=True)\n  (fc2): Linear(in_features=505, out_features=126, bias=True)\n  (dropout): Dropout(p=0.1)\n)"}, "{\"batch_norm\": true, \"bottleneck_fc_dim\": 494.0, \"cpu_mode\": false, \"dropout_pctg\": 0.36218262870707557, \"epochs\": 20, \"filter_sizes\": [1, 2, 3], \"glove_dim\": 200, \"gpu_no\": 2, \"num_filters\": 1213.0, \"rnn_bidirectional\": true, \"rnn_hidden_size\": 698.0, \"rnn_num_layers\": 6.0, \"stride\": 1, \"t
…
 {"dropout_pctg": 0.36, "num_filters": 1213, "bottleneck_fc_dim": 494, "glove_dim": 200, "batch_norm": true, "filter_sizes": [1, 2, 3], "rnn_hidden_size": 698, "rnn_num_layers": 6, "rnn_bidirectional": true, "batch_size": 64, "num_workers": 12, "epochs": 20, "txt_length": 751, "train_start": "2019-01-02 01:59:13.126910", "no_of_trainable_params": 55124231, "train_error_message": "CUDA out of memory. Tried to allocate 2.56 GiB (GPU 2; 7.93 GiB total capacity; 1.56 GiB already allocated; 1.93 GiB free; 1.40 GiB cached)", "train_finish": "2019-01-02 01:59:43.858843", "model": "CRNN(\n  (embedding): Embedding(400000, 200)\n  (convs): ModuleList(\n    (0): Conv2d(1, 1213, kernel_size=(1, 200), stride=(1, 1))\n    (1): Conv2d(1, 1213, kernel_size=(2, 200), stride=(1, 1))\n    (2): Conv2d(1, 1213, kernel_size=(3, 200), stride=(1, 1))\n  )\n  (batch_norms): ModuleList(\n    (0): BatchNorm2d(1213, eps=1e-05, momentum=0.1, affine=True, track_running_stats=True)\n    (1): BatchNorm2d(1213, eps=1e-05, momentum=0.1, affine=True, track_running_stats=True)\n    (2): BatchNorm2d(1213, eps=1e-05, momentum=0.1, affine=True, track_running_stats=True)\n  )\n  (gru): GRU(200, 698, num_layers=6, batch_first=True, dropout=0.36, bidirectional=True)\n  (fc1): Linear(in_features=12015, out_features=494, bias=True)\n  (fc2): Linear(in_features=494, out_features=126, bias=True)\n  (dropout): Dropout(p=0.36)\n)"}, "{\"batch_norm\": true, \"bottleneck_fc_dim\": 551.0, \"cpu_mode\": false, \"dropout_pctg\": 0.17346031189718406, \"epochs\": 20, \"filter_sizes\": [1, 2, 3], \"glove_dim\": 300, \"gpu_no\": 2, \"num_filters\": 892.0, \"rnn_bidirectional\": true, \"rnn_hidden_size\": 656.0, \"rnn_num_layers\": 9.0, \"stride\": 1, \"t
…
{"dropout_pctg": 0.17, "num_filters": 892, "bottleneck_fc_dim": 551, "glove_dim": 300, "batch_norm": true, "filter_sizes": [1, 2, 3], "rnn_hidden_size": 656, "rnn_num_layers": 9, "rnn_bidirectional": true, "batch_size": 64, "num_workers": 12, "epochs": 20, "txt_length": 716, "train_start": "2019-01-02 01:59:44.677058", "no_of_trainable_params": 75466463, "train_error_message": "CUDA out of memory. Tried to allocate 4.50 GiB (GPU 2; 7.93 GiB total capacity; 2.15 GiB already allocated; 4.46 GiB free; 827.31 MiB cached)", "train_finish": "2019-01-02 02:00:21.705236", "model": "CRNN(\n  (embedding): Embedding(400000, 300)\n  (convs): ModuleList(\n    (0): Conv2d(1, 892, kernel_size=(1, 300), stride=(1, 1))\n    (1): Conv2d(1, 892, kernel_size=(2, 300), stride=(1, 1))\n    (2): Conv2d(1, 892, kernel_size=(3, 300), stride=(1, 1))\n  )\n  (batch_norms): ModuleList(\n    (0): BatchNorm2d(892, eps=1e-05, momentum=0.1, affine=True, track_running_stats=True)\n    (1): BatchNorm2d(892, eps=1e-05, momentum=0.1, affine=True, track_running_stats=True)\n    (2): BatchNorm2d(892, eps=1e-05, momentum=0.1, affine=True, track_running_stats=True)\n  )\n  (gru): GRU(300, 656, num_layers=9, batch_first=True, dropout=0.17, bidirectional=True)\n  (fc1): Linear(in_features=14484, out_features=551, bias=True)\n  (fc2): Linear(in_features=551, out_features=126, bias=True)\n  (dropout): Dropout(p=0.17)\n)"}, "{\"batch_norm\": true, \"bottleneck_fc_dim\": 568.0, \"cpu_mode\": false, \"dropout_pctg\": 0.2781397874964821, \"epochs\": 20, \"filter_sizes\": [1, 2, 3], \"glove_dim\": 100, \"gpu_no\": 2, \"num_filters\": 842.0, \"rnn_bidirectional\": true, \"rnn_hidden_size\": 536.0, \"rnn_num_layers\": 4.0, \"stride\": 1, \"tx
…
8869, "f1_score_4": 0.7675761874298853}, "pAtK_scores": {"pAtK_1": 0.972681236673774, "pAtK_3": 0.8407738095238095, "pAtK_5": 0.580477078891258}, "train_vector": [0.02880909437986574, 0.02032374979017686, 0.018301988717043333, 0.017019972289771264, 0.016114584596806755], "valid_vector": [0.019732171294045076, 0.01774550050890236, 0.016953278915397624, 0.017154615723775194, 0.01736844545798694], "test_vector": [0.019499443671993737, 0.017599081995883094, 0.016773103953781985, 0.017079311528249083, 0.017144555144552102], "train_finish": "2019-01-02 05:22:57.447488", "model": "CRNN(\n  (embedding): Embedding(400000, 100)\n  (convs): ModuleList(\n    (0): Conv2d(1, 842, kernel_size=(1, 100), stride=(1, 1))\n    (1): Conv2d(1, 842, kernel_size=(2, 100), stride=(1, 1))\n    (2): Conv2d(1, 842, kernel_size=(3, 100), stride=(1, 1))\n  )\n  (batch_norms): ModuleList(\n    (0): BatchNorm2d(842, eps=1e-05, momentum=0.1, affine=True, track_running_stats=True)\n    (1): BatchNorm2d(842, eps=1e-05, momentum=0.1, affine=True, track_running_stats=True)\n    (2): BatchNorm2d(842, eps=1e-05, momentum=0.1, affine=True, track_running_stats=True)\n  )\n  (gru): GRU(100, 536, num_layers=4, batch_first=True, dropout=0.28, bidirectional=True)\n  (fc1): Linear(in_features=6814, out_features=568, bias=True)\n  (fc2): Linear(in_features=568, out_features=126, bias=True)\n  (dropout): Dropout(p=0.28)\n)"}, "{\"batch_norm\": true, \"bottleneck_fc_dim\": 517.0, \"cpu_mode\": false, \"dropout_pctg\": 0.3957144149081627, \"epochs\": 20, \"filter_sizes\": [1, 2, 3, 4, 5], \"glove_dim\": 300, \"gpu_no\": 2, \"num_filters\": 703.0, \"rnn_bidirectional\": true, \"rnn_hidden_size\": 571.0, \"rnn_num_layers\": 3.0, \"stride\": 1
…
1": 0.9728811300639659, "pAtK_3": 0.8404961798152096, "pAtK_5": 0.579737473347548}, "train_vector": [0.028752132924223912, 0.020493411806659534, 0.018430305365572427, 0.017184513082067813, 0.01627568021904192, 0.01570730791809862], "valid_vector": [0.019869853929889058, 0.01788613924891678, 0.017441847486851382, 0.0172983141967715, 0.01750851763069316, 0.017680745824912327], "test_vector": [0.01957627082231647, 0.01768666213112218, 0.017278115269042917, 0.017150820786955515, 0.017360506164255555, 0.017543977009319166], "train_finish": "2019-01-02 08:55:41.101643", "model": "CRNN(\n  (embedding): Embedding(400000, 300)\n  (convs): ModuleList(\n    (0): Conv2d(1, 703, kernel_size=(1, 300), stride=(1, 1))\n    (1): Conv2d(1, 703, kernel_size=(2, 300), stride=(1, 1))\n    (2): Conv2d(1, 703, kernel_size=(3, 300), stride=(1, 1))\n    (3): Conv2d(1, 703, kernel_size=(4, 300), stride=(1, 1))\n    (4): Conv2d(1, 703, kernel_size=(5, 300), stride=(1, 1))\n  )\n  (batch_norms): ModuleList(\n    (0): BatchNorm2d(703, eps=1e-05, momentum=0.1, affine=True, track_running_stats=True)\n    (1): BatchNorm2d(703, eps=1e-05, momentum=0.1, affine=True, track_running_stats=True)\n    (2): BatchNorm2d(703, eps=1e-05, momentum=0.1, affine=True, track_running_stats=True)\n    (3): BatchNorm2d(703, eps=1e-05, momentum=0.1, affine=True, track_running_stats=True)\n    (4): BatchNorm2d(703, eps=1e-05, momentum=0.1, affine=True, track_running_stats=True)\n  )\n  (gru): GRU(300, 571, num_layers=3, batch_first=True, dropout=0.4, bidirectional=True)\n  (fc1): Linear(in_features=6941, out_features=517, bias=True)\n  (fc2): Linear(in_features=517, out_features=126, bias=True)\n  (dropout): Dropout(p=0.4)\n)"}, "{\"batch_norm\": true, \"bottleneck_fc_dim\": 580.0, \"cpu_mode\": false, \"dropout_pctg\": 0.24005574346471212, \"epochs\": 20, \"filter_sizes\": [1, 2, 3, 4, 5, 6], \"glove_dim\": 200, \"gpu_no\": 2, \"num_filters\": 954.0, \"rnn_bidirectional\": true, \"rnn_hidden_size\": 453.0, \"rnn_num_layers\": 12.0, \"stride\
…
t_pctg": 0.24, "num_filters": 954, "bottleneck_fc_dim": 580, "glove_dim": 200, "batch_norm": true, "filter_sizes": [1, 2, 3, 4, 5, 6], "rnn_hidden_size": 453, "rnn_num_layers": 12, "rnn_bidirectional": true, "batch_size": 64, "num_workers": 12, "epochs": 20, "txt_length": 726, "train_start": "2019-01-02 08:55:42.158048", "no_of_trainable_params": 56194906, "train_error_message": "CUDA out of memory. Tried to allocate 3.80 GiB (GPU 2; 7.93 GiB total capacity; 1.52 GiB already allocated; 3.64 GiB free; 2.25 GiB cached)", "train_finish": "2019-01-02 08:56:44.570915", "model": "CRNN(\n  (embedding): Embedding(400000, 200)\n  (convs): ModuleList(\n    (0): Conv2d(1, 954, kernel_size=(1, 200), stride=(1, 1))\n    (1): Conv2d(1, 954, kernel_size=(2, 200), stride=(1, 1))\n    (2): Conv2d(1, 954, kernel_size=(3, 200), stride=(1, 1))\n    (3): Conv2d(1, 954, kernel_size=(4, 200), stride=(1, 1))\n    (4): Conv2d(1, 954, kernel_size=(5, 200), stride=(1, 1))\n    (5): Conv2d(1, 954, kernel_size=(6, 200), stride=(1, 1))\n  )\n  (batch_norms): ModuleList(\n    (0): BatchNorm2d(954, eps=1e-05, momentum=0.1, affine=True, track_running_stats=True)\n    (1): BatchNorm2d(954, eps=1e-05, momentum=0.1, affine=True, track_running_stats=True)\n    (2): BatchNorm2d(954, eps=1e-05, momentum=0.1, affine=True, track_running_stats=True)\n    (3): BatchNorm2d(954, eps=1e-05, momentum=0.1, affine=True, track_running_stats=True)\n    (4): BatchNorm2d(954, eps=1e-05, momentum=0.1, affine=True, track_running_stats=True)\n    (5): BatchNorm2d(954, eps=1e-05, momentum=0.1, affine=True, track_running_stats=True)\n  )\n  (gru): GRU(200, 453, num_layers=12, batch_first=True, dropout=0.24, bidirectional=True)\n  (fc1): Linear(in_features=16596, out_features=580, bias=True)\n  (fc2): Linear(in_features=580, out_features=126, bias=True)\n  (dropout): Dropout(p=0.24)\n)"}, "{\"batch_norm\": true, \"bottleneck_fc_dim\": 509.0, \"cpu_mode\": false, \"dropout_pctg\": 0.19423470974862272, \"epochs\": 20, \"filter_sizes\": [1, 2, 3], \"glove_dim\": 300, \"gpu_no\": 2, \"num_filters\": 677.0, \"rnn_bidirectional\": true, \"rnn_hidden_size\": 95.0, \"rnn_num_layers\": 1.0, \"stride\": 1, \"tx
…
K_1": 0.97278118336887, "pAtK_3": 0.8422619047619048, "pAtK_5": 0.5823227611940298}, "train_vector": [0.026707636075901424, 0.01867840808615975, 0.0165988603490529, 0.01516384323174283, 0.013977166944110851, 0.012890861602748566], "valid_vector": [0.019209042734115014, 0.01731862003323255, 0.016528279188142193, 0.016138300452486123, 0.016249849831736062, 0.016467866473590463], "test_vector": [0.018896908600574365, 0.01714172847926426, 0.01637502771311763, 0.016094611968590952, 0.0161548923633532, 0.016303717171642255], "train_finish": "2019-01-02 09:31:26.246470", "model": "CRNN(\n  (embedding): Embedding(400000, 300)\n  (convs): ModuleList(\n    (0): Conv2d(1, 677, kernel_size=(1, 300), stride=(1, 1))\n    (1): Conv2d(1, 677, kernel_size=(2, 300), stride=(1, 1))\n    (2): Conv2d(1, 677, kernel_size=(3, 300), stride=(1, 1))\n  )\n  (batch_norms): ModuleList(\n    (0): BatchNorm2d(677, eps=1e-05, momentum=0.1, affine=True, track_running_stats=True)\n    (1): BatchNorm2d(677, eps=1e-05, momentum=0.1, affine=True, track_running_stats=True)\n    (2): BatchNorm2d(677, eps=1e-05, momentum=0.1, affine=True, track_running_stats=True)\n  )\n  (gru): GRU(300, 95, batch_first=True, dropout=0.19, bidirectional=True)\n  (fc1): Linear(in_features=2221, out_features=509, bias=True)\n  (fc2): Linear(in_features=509, out_features=126, bias=True)\n  (dropout): Dropout(p=0.19)\n)"}}