…
      0.1944999451938119,
      0.062120106205542126,
      0.056107845581516595,
      0.053566112951773166,
      0.048483345678793636,
      0.043937170188838665,
      0.04250545585545688,
      0.04166502350732769,
      0.04108831423566282,
      0.0405810368680298
    ],
    "loss_vector": [
      0.07040058183720556,
      0.057721624245583,
      0.05445143574122655,
      0.052440541338617516,
      0.045133084185042624,
      0.04322713783989519,
      0.04233261374598843,
      0.041764856521355906,
      0.0413816623642283,
      0.041081382877240745
    ],
    "model": "Model(\n  (embedding): Embedding(400000, 50)\n  (conv1): Conv2d(1, 50, kernel_size=(1, 50), stride=(1, 1))\n  (bn1): BatchNorm2d(50, eps=1e-05, momentum=0.1, affine=True, track_running_stats=True)\n  (conv2): Conv2d(1, 50, kernel_size=(4, 50), stride=(1, 1))\n  (bn2): BatchNorm2d(50, eps=1e-05, momentum=0.1, affine=True, track_running_stats=True)\n  (conv3): Conv2d(1, 50, kernel_size=(7, 50), stride=(1, 1))\n  (bn3): BatchNorm2d(50, eps=1e-05, momentum=0.1, affine=True, track_running_stats=True)\n  (fc1): Linear(in_features=150, out_features=10, bias=True)\n  (fc2): Linear(in_features=10, out_features=126, bias=True)\n  (dropout): Dropout(p=0.0)\n)",
    "train_start": "2018-12-09 16:20:22.388201",
    "train_finish": "2018-12-09 16:24:16.786160",
    "f1_scores": {
      "f1_score_2": 0.6248588730370522,
      "f1_score_3": 0.6829688214564335,
      "f1_score_4": 0.6462504980494992
    },
    "pAtK_scores": {
      "pAtK_1": 0.9257481461864406,
      "pAtK_3": 0.7003663488700564,
…
      0.12912599634965863,
      0.046911188113225706,
      0.04001910537057176,
      0.03646813345758467,
      0.03400400845047645,
      0.032145617473198974,
      0.030845972714659387,
      0.029930558458564405,
      0.029253371632472387,
      0.028710714143752147
    ],
    "loss_vector": [
      0.05295542046680289,
      0.042339015941498644,
      0.038044376519777004,
      0.03557509676379673,
      0.03369304266268924,
      0.03240624932035551,
      0.03134093411519366,
      0.030719760963219708,
      0.03052819476036702,
      0.029948255868028788
    ],
    "model": "Model(\n  (embedding): Embedding(400000, 100)\n  (conv1): Conv2d(1, 50, kernel_size=(1, 100), stride=(1, 1))\n  (bn1): BatchNorm2d(50, eps=1e-05, momentum=0.1, affine=True, track_running_stats=True)\n  (conv2): Conv2d(1, 50, kernel_size=(4, 100), stride=(1, 1))\n  (bn2): BatchNorm2d(50, eps=1e-05, momentum=0.1, affine=True, track_running_stats=True)\n  (conv3): Conv2d(1, 50, kernel_size=(7, 100), stride=(1, 1))\n  (bn3): BatchNorm2d(50, eps=1e-05, momentum=0.1, affine=True, track_running_stats=True)\n  (fc1): Linear(in_features=150, out_features=10, bias=True)\n  (fc2): Linear(in_features=10, out_features=126, bias=True)\n  (dropout): Dropout(p=0.0)\n)",
    "train_start": "2018-12-09 16:28:09.320622",
    "train_finish": "2018-12-09 16:32:19.823544",
    "f1_scores": {
      "f1_score_2": 0.6711613466078209,
      "f1_score_3": 0.752578484383827,
      "f1_score_4": 0.7086294604386542
    },
    "pAtK_scores": {
      "pAtK_1": 0.9467028601694916,
      "pAtK_3": 0.7717492055084746,
…
      0.09081167634399838,
      0.04132918624005915,
      0.035109686281751186,
      0.031779787080818384,
      0.02977312385215931,
      0.02846686093161409,
      0.027540721504664512,
      0.026857707999378047,
      0.026299859876028727,
      0.025841537979652354
    ],
    "loss_vector": [
      0.04643925102585453,
      0.037249125950669836,
      0.03313043138990968,
      0.03080240734931776,
      0.02936427266794746,
      0.028486138304411355,
      0.02779797758212534,
      0.02732345499729706,
      0.026986583278088245,
      0.02675534304925951
    ],
    "model": "Model(\n  (embedding): Embedding(400000, 50)\n  (conv1): Conv2d(1, 50, kernel_size=(1, 50), stride=(1, 1))\n  (bn1): BatchNorm2d(50, eps=1e-05, momentum=0.1, affine=True, track_running_stats=True)\n  (conv2): Conv2d(1, 50, kernel_size=(4, 50), stride=(1, 1))\n  (bn2): BatchNorm2d(50, eps=1e-05, momentum=0.1, affine=True, track_running_stats=True)\n  (conv3): Conv2d(1, 50, kernel_size=(7, 50), stride=(1, 1))\n  (bn3): BatchNorm2d(50, eps=1e-05, momentum=0.1, affine=True, track_running_stats=True)\n  (fc1): Linear(in_features=150, out_features=30, bias=True)\n  (fc2): Linear(in_features=30, out_features=126, bias=True)\n  (dropout): Dropout(p=0.0)\n)",
    "train_start": "2018-12-09 16:36:26.504204",
    "train_finish": "2018-12-09 16:40:27.044957",
    "f1_scores": {
      "f1_score_2": 0.6806681720209381,
      "f1_score_3": 0.7671912409544562,
      "f1_score_4": 0.7254473179455343
    },
    "pAtK_scores": {
      "pAtK_1": 0.9460076800847458,
      "pAtK_3": 0.7867341984463276,
…
      0.13480004244810942,
      0.054397409658108534,
      0.04632531260573208,
      0.0427707769047377,
      0.04067659867923898,
      0.039214140302598816,
      0.03821905016672905,
      0.037459262323334276,
      0.03695177305949254,
      0.0364576313623441
    ],
    "loss_vector": [
      0.06189270784794274,
      0.048621460416559445,
      0.04402636199937028,
      0.041592172710067134,
      0.039990464067560134,
      0.03901205773828393,
      0.0382180077860416,
      0.03766423018680791,
      0.037281431131443735,
      0.03695315990786431
    ],
    "model": "Model(\n  (embedding): Embedding(400000, 50)\n  (conv1): Conv2d(1, 50, kernel_size=(3, 50), stride=(1, 1))\n  (bn1): BatchNorm2d(50, eps=1e-05, momentum=0.1, affine=True, track_running_stats=True)\n  (conv2): Conv2d(1, 50, kernel_size=(4, 50), stride=(1, 1))\n  (bn2): BatchNorm2d(50, eps=1e-05, momentum=0.1, affine=True, track_running_stats=True)\n  (conv3): Conv2d(1, 50, kernel_size=(5, 50), stride=(1, 1))\n  (bn3): BatchNorm2d(50, eps=1e-05, momentum=0.1, affine=True, track_running_stats=True)\n  (fc1): Linear(in_features=150, out_features=10, bias=True)\n  (fc2): Linear(in_features=10, out_features=126, bias=True)\n  (dropout): Dropout(p=0.0)\n)",
    "train_start": "2018-12-09 16:20:15.431806",
    "train_finish": "2018-12-09 16:24:10.382454",
    "f1_scores": {
      "f1_score_2": 0.639536077183619,
      "f1_score_3": 0.7074597153848223,
      "f1_score_4": 0.6708981569852022
    },
    "pAtK_scores": {
      "pAtK_1": 0.9371358580508474,
      "pAtK_3": 0.7254811087570622,
…
      0.1282428601222993,
      0.052040485407188676,
      0.04270724663104459,
      0.03843646851391222,
      0.03577126010163798,
      0.033960858656825105,
      0.032734842331235275,
      0.031857330797406255,
      0.031247182040558368,
      0.03078124279145724
    ],
    "loss_vector": [
      0.058658683262134005,
      0.04598409297355151,
      0.04002518358372026,
      0.03701638487183442,
      0.034854666913970045,
      0.033472245874798905,
      0.03244911380491014,
      0.03187683246777219,
      0.03153497245857271,
      0.03117317703189486
    ],
    "model": "Model(\n  (embedding): Embedding(400000, 50)\n  (conv1): Conv2d(1, 50, kernel_size=(1, 50), stride=(1, 1))\n  (bn1): BatchNorm2d(50, eps=1e-05, momentum=0.1, affine=True, track_running_stats=True)\n  (conv2): Conv2d(1, 50, kernel_size=(3, 50), stride=(1, 1))\n  (bn2): BatchNorm2d(50, eps=1e-05, momentum=0.1, affine=True, track_running_stats=True)\n  (conv3): Conv2d(1, 50, kernel_size=(5, 50), stride=(1, 1))\n  (bn3): BatchNorm2d(50, eps=1e-05, momentum=0.1, affine=True, track_running_stats=True)\n  (fc1): Linear(in_features=150, out_features=10, bias=True)\n  (fc2): Linear(in_features=10, out_features=126, bias=True)\n  (dropout): Dropout(p=0.0)\n)",
    "train_start": "2018-12-09 16:20:20.467346",
    "train_finish": "2018-12-09 16:24:16.042591",
    "f1_scores": {
      "f1_score_2": 0.6639767012213896,
      "f1_score_3": 0.7443682242487828,
      "f1_score_4": 0.7021617664773308
    },
    "pAtK_scores": {
      "pAtK_1": 0.9431276483050848,
      "pAtK_3": 0.763329802259887,
…
      0.16996908634618293,
      0.06214176551695114,
      0.05401273759566177,
      0.050761062142914565,
      0.048961431841300605,
      0.04777384097679064,
      0.04691778229411684,
      0.046217917561870374,
      0.045523717865149936,
      0.04501254064873907
    ],
    "loss_vector": [
      0.07050712368750976,
      0.05619423659676212,
      0.05208508556677123,
      0.049770710958262625,
      0.04857738505480653,
      0.047599731171030106,
      0.047073941046403625,
      0.046620323812052354,
      0.04605621718249078,
      0.04578648949578657
    ],
    "model": "Model(\n  (embedding): Embedding(400000, 100)\n  (conv1): Conv2d(1, 50, kernel_size=(3, 100), stride=(1, 1))\n  (bn1): BatchNorm2d(50, eps=1e-05, momentum=0.1, affine=True, track_running_stats=True)\n  (conv2): Conv2d(1, 50, kernel_size=(4, 100), stride=(1, 1))\n  (bn2): BatchNorm2d(50, eps=1e-05, momentum=0.1, affine=True, track_running_stats=True)\n  (conv3): Conv2d(1, 50, kernel_size=(5, 100), stride=(1, 1))\n  (bn3): BatchNorm2d(50, eps=1e-05, momentum=0.1, affine=True, track_running_stats=True)\n  (fc1): Linear(in_features=150, out_features=10, bias=True)\n  (fc2): Linear(in_features=10, out_features=126, bias=True)\n  (dropout): Dropout(p=0.0)\n)",
    "train_start": "2018-12-09 16:28:03.155413",
    "train_finish": "2018-12-09 16:32:14.209554",
    "f1_scores": {
      "f1_score_2": 0.5977753258749872,
      "f1_score_3": 0.6442417883948028,
      "f1_score_4": 0.6143753301025751
    },
    "pAtK_scores": {
      "pAtK_1": 0.9320709745762712,
      "pAtK_3": 0.6606528072033898,
…
      0.20277752703235996,
      0.043751433901700845,
      0.03701703639902471,
      0.034608806269614475,
      0.03322763385452627,
      0.032212059361686966,
      0.03149891648604137,
      0.03100619927062821,
      0.030584428247340038,
      0.030237598026584857
    ],
    "loss_vector": [
      0.05441793875168946,
      0.038789095262349665,
      0.035611242434736026,
      0.03419109582269596,
      0.0332201751170017,
      0.032792602744648014,
      0.032109162375583485,
      0.03192286262825384,
      0.031632320229279795,
      0.03152640252295187
    ],
    "model": "Model(\n  (embedding): Embedding(400000, 100)\n  (conv1): Conv2d(1, 50, kernel_size=(1, 100), stride=(1, 1))\n  (bn1): BatchNorm2d(50, eps=1e-05, momentum=0.1, affine=True, track_running_stats=True)\n  (conv2): Conv2d(1, 50, kernel_size=(3, 100), stride=(1, 1))\n  (bn2): BatchNorm2d(50, eps=1e-05, momentum=0.1, affine=True, track_running_stats=True)\n  (conv3): Conv2d(1, 50, kernel_size=(5, 100), stride=(1, 1))\n  (bn3): BatchNorm2d(50, eps=1e-05, momentum=0.1, affine=True, track_running_stats=True)\n  (fc1): Linear(in_features=150, out_features=10, bias=True)\n  (fc2): Linear(in_features=10, out_features=126, bias=True)\n  (dropout): Dropout(p=0.0)\n)",
    "train_start": "2018-12-09 16:28:12.107539",
    "train_finish": "2018-12-09 16:32:14.526169",
    "f1_scores": {
      "f1_score_2": 0.663720106743303,
      "f1_score_3": 0.7412799612622065,
      "f1_score_4": 0.6981032421864141
    },
    "pAtK_scores": {
      "pAtK_1": 0.947265625,
      "pAtK_3": 0.7601628707627118,
…
      0.09082580553597472,
      0.04105597869466559,
      0.03507312462511393,
      0.031710319535584106,
      0.02958450119313298,
      0.028243428689959604,
      0.027308056431431926,
      0.026637840015810176,
      0.026110281524525873,
      0.02573128814404332
    ],
    "loss_vector": [
      0.04577814995989961,
      0.03715009466445042,
      0.033123292597168584,
      0.03059960971191778,
      0.029041463067218408,
      0.02802504393887722,
      0.027454618585564323,
      0.02703996441500672,
      0.026579448953270912,
      0.02638322935771134
    ],
    "model": "Model(\n  (embedding): Embedding(400000, 50)\n  (conv1): Conv2d(1, 50, kernel_size=(1, 50), stride=(1, 1))\n  (bn1): BatchNorm2d(50, eps=1e-05, momentum=0.1, affine=True, track_running_stats=True)\n  (conv2): Conv2d(1, 50, kernel_size=(3, 50), stride=(1, 1))\n  (bn2): BatchNorm2d(50, eps=1e-05, momentum=0.1, affine=True, track_running_stats=True)\n  (conv3): Conv2d(1, 50, kernel_size=(5, 50), stride=(1, 1))\n  (bn3): BatchNorm2d(50, eps=1e-05, momentum=0.1, affine=True, track_running_stats=True)\n  (fc1): Linear(in_features=150, out_features=30, bias=True)\n  (fc2): Linear(in_features=30, out_features=126, bias=True)\n  (dropout): Dropout(p=0.0)\n)",
    "train_start": "2018-12-09 16:36:14.633393",
    "train_finish": "2018-12-09 16:40:15.588313",
    "f1_scores": {
      "f1_score_2": 0.6818998255157549,
      "f1_score_3": 0.7686223872165281,
      "f1_score_4": 0.7277638272440025
    },
    "pAtK_scores": {
      "pAtK_1": 0.9460076800847458,
      "pAtK_3": 0.7882018008474576,
…
      0.09050270074543736,
      0.04097543282883217,
      0.03472236817812219,
      0.03160709994836256,
      0.02959398265779584,
      0.0282135063312255,
      0.027201861468279836,
      0.026481061145323954,
      0.025927648906095883,
      0.02549569736423936
    ],
    "loss_vector": [
      0.04631809650336282,
      0.03661884013879097,
      0.032861996157947236,
      0.03061335521229243,
      0.029213549916521978,
      0.028224302960907,
      0.027550789922223252,
      0.026962400240413215,
      0.02659823271935269,
      0.026329885252704053
    ],
    "model": "Model(\n  (embedding): Embedding(400000, 50)\n  (conv1): Conv2d(1, 50, kernel_size=(3, 50), stride=(1, 1))\n  (bn1): BatchNorm2d(50, eps=1e-05, momentum=0.1, affine=True, track_running_stats=True)\n  (conv2): Conv2d(1, 50, kernel_size=(4, 50), stride=(1, 1))\n  (bn2): BatchNorm2d(50, eps=1e-05, momentum=0.1, affine=True, track_running_stats=True)\n  (conv3): Conv2d(1, 50, kernel_size=(5, 50), stride=(1, 1))\n  (bn3): BatchNorm2d(50, eps=1e-05, momentum=0.1, affine=True, track_running_stats=True)\n  (fc1): Linear(in_features=150, out_features=30, bias=True)\n  (fc2): Linear(in_features=30, out_features=126, bias=True)\n  (dropout): Dropout(p=0.0)\n)",
    "train_start": "2018-12-09 16:36:17.446885",
    "train_finish": "2018-12-09 16:40:18.248985",
    "f1_scores": {
      "f1_score_2": 0.6824515036436416,
      "f1_score_3": 0.7693756220913028,
      "f1_score_4": 0.7265499763716051
    },
    "pAtK_scores": {
      "pAtK_1": 0.945511122881356,
      "pAtK_3": 0.7889742231638418,
…
      0.08961606677444882,
      0.03568700045361351,
      0.02933076701959351,
      0.026574963021606376,
      0.02505329684610611,
      0.0240932556339301,
      0.023387668717942383,
      0.022814830337461983,
      0.02234798111728405,
      0.021943924195739303
    ],
    "loss_vector": [
      0.04088526155989049,
      0.03152122645307395,
      0.027964265196252676,
      0.026254333334706597,
      0.025235884049433773,
      0.02481511405716508,
      0.024164007913510678,
      0.02385395563254922,
      0.023635214605068757,
      0.023310743461726076
    ],
    "model": "Model(\n  (embedding): Embedding(400000, 100)\n  (conv1): Conv2d(1, 50, kernel_size=(1, 100), stride=(1, 1))\n  (bn1): BatchNorm2d(50, eps=1e-05, momentum=0.1, affine=True, track_running_stats=True)\n  (conv2): Conv2d(1, 50, kernel_size=(3, 100), stride=(1, 1))\n  (bn2): BatchNorm2d(50, eps=1e-05, momentum=0.1, affine=True, track_running_stats=True)\n  (conv3): Conv2d(1, 50, kernel_size=(5, 100), stride=(1, 1))\n  (bn3): BatchNorm2d(50, eps=1e-05, momentum=0.1, affine=True, track_running_stats=True)\n  (fc1): Linear(in_features=150, out_features=30, bias=True)\n  (fc2): Linear(in_features=30, out_features=126, bias=True)\n  (dropout): Dropout(p=0.0)\n)",
    "train_start": "2018-12-09 16:44:15.995255",
    "train_finish": "2018-12-09 16:48:18.024033",
    "f1_scores": {
      "f1_score_2": 0.6955506517499743,
      "f1_score_3": 0.7851397519705161,
      "f1_score_4": 0.7398745378563949
    },
    "pAtK_scores": {
      "pAtK_1": 0.9534229343220338,
      "pAtK_3": 0.8051399187853108,
…
      0.08707538903805744,
      0.0365940975573133,
      0.03036265785627392,
      0.02705306992415459,
      0.025345462167624958,
      0.024247166391398466,
      0.023435427710074626,
      0.022800824285062485,
      0.022296546702140648,
      0.021865124494346314
    ],
    "loss_vector": [
      0.04174088749845149,
      0.03271284566844924,
      0.028713478659421712,
      0.026624133999822504,
      0.02556415795648502,
      0.02491827021842286,
      0.024475706899065083,
      0.024081588833261343,
      0.023729092993978726,
      0.023643509690034186
    ],
    "model": "Model(\n  (embedding): Embedding(400000, 100)\n  (conv1): Conv2d(1, 50, kernel_size=(3, 100), stride=(1, 1))\n  (bn1): BatchNorm2d(50, eps=1e-05, momentum=0.1, affine=True, track_running_stats=True)\n  (conv2): Conv2d(1, 50, kernel_size=(4, 100), stride=(1, 1))\n  (bn2): BatchNorm2d(50, eps=1e-05, momentum=0.1, affine=True, track_running_stats=True)\n  (conv3): Conv2d(1, 50, kernel_size=(5, 100), stride=(1, 1))\n  (bn3): BatchNorm2d(50, eps=1e-05, momentum=0.1, affine=True, track_running_stats=True)\n  (fc1): Linear(in_features=150, out_features=30, bias=True)\n  (fc2): Linear(in_features=30, out_features=126, bias=True)\n  (dropout): Dropout(p=0.0)\n)",
    "train_start": "2018-12-09 16:44:17.337367",
    "train_finish": "2018-12-09 16:48:27.360272",
    "f1_scores": {
      "f1_score_2": 0.6944344657702965,
      "f1_score_3": 0.7845048825760632,
      "f1_score_4": 0.7404675642368028
    },
    "pAtK_scores": {
      "pAtK_1": 0.9509070444915254,
      "pAtK_3": 0.804488877118644,
…
      0.07879816578874325,
      0.034637151081008975,
      0.029276731143046377,
      0.026610236176673102,
      0.024982289840560938,
      0.023875941474704634,
      0.023023728974008017,
      0.02237908447080025,
      0.02183257683093679,
      0.021356748360468948
    ],
    "loss_vector": [
      0.03995657787989762,
      0.03121487808934713,
      0.028018680764204364,
      0.026223335888678746,
      0.02523304398913505,
      0.024542396256731727,
      0.02398099267255452,
      0.023511341315204815,
      0.023210773497062215,
      0.022980106236823533
    ],
    "model": "Model(\n  (embedding): Embedding(400000, 100)\n  (conv1): Conv2d(1, 50, kernel_size=(1, 100), stride=(1, 1))\n  (bn1): BatchNorm2d(50, eps=1e-05, momentum=0.1, affine=True, track_running_stats=True)\n  (conv2): Conv2d(1, 50, kernel_size=(4, 100), stride=(1, 1))\n  (bn2): BatchNorm2d(50, eps=1e-05, momentum=0.1, affine=True, track_running_stats=True)\n  (conv3): Conv2d(1, 50, kernel_size=(7, 100), stride=(1, 1))\n  (bn3): BatchNorm2d(50, eps=1e-05, momentum=0.1, affine=True, track_running_stats=True)\n  (fc1): Linear(in_features=150, out_features=30, bias=True)\n  (fc2): Linear(in_features=30, out_features=126, bias=True)\n  (dropout): Dropout(p=0.0)\n)",
    "train_start": "2018-12-09 16:44:23.836423",
    "train_finish": "2018-12-09 16:48:39.198273",
    "f1_scores": {
      "f1_score_2": 0.6964359026993739,
      "f1_score_3": 0.7869259946735534,
      "f1_score_4": 0.7422003131920573
    },
    "pAtK_scores": {
      "pAtK_1": 0.9509401483050848,
      "pAtK_3": 0.8069716631355932,
…
      0.08120883475331699,
      0.03863999374083595,
      0.03276687095638018,
      0.02952354320764994,
      0.0276058495108328,
      0.026381324711600335,
      0.025476542278502202,
      0.02483797401359457,
      0.024307978245830853,
      0.023865550130860176
    ],
    "loss_vector": [
      0.04300618380055589,
      0.034879937673271716,
      0.030721732146911703,
      0.028493887602777806,
      0.027260538127462743,
      0.026358132834656763,
      0.025834775545586972,
      0.025181934426901705,
      0.02482876191073555,
      0.024556014244839296
    ],
    "model": "Model(\n  (embedding): Embedding(400000, 50)\n  (conv1): Conv2d(1, 50, kernel_size=(1, 50), stride=(1, 1))\n  (bn1): BatchNorm2d(50, eps=1e-05, momentum=0.1, affine=True, track_running_stats=True)\n  (conv2): Conv2d(1, 50, kernel_size=(3, 50), stride=(1, 1))\n  (bn2): BatchNorm2d(50, eps=1e-05, momentum=0.1, affine=True, track_running_stats=True)\n  (conv3): Conv2d(1, 50, kernel_size=(5, 50), stride=(1, 1))\n  (bn3): BatchNorm2d(50, eps=1e-05, momentum=0.1, affine=True, track_running_stats=True)\n  (fc1): Linear(in_features=150, out_features=50, bias=True)\n  (fc2): Linear(in_features=50, out_features=126, bias=True)\n  (dropout): Dropout(p=0.0)\n)",
    "train_start": "2018-12-09 16:52:15.654849",
    "train_finish": "2018-12-09 16:56:10.615993",
    "f1_scores": {
      "f1_score_2": 0.6880965821615518,
      "f1_score_3": 0.7769725338283164,
      "f1_score_4": 0.733944274052316
    },
    "pAtK_scores": {
      "pAtK_1": 0.9479277012711864,
      "pAtK_3": 0.7967646539548022,
…
      0.07794741672628067,
      0.03721627571126994,
      0.030975909062450933,
      0.02809154306957233,
      0.0264065737254649,
      0.025262423647846848,
      0.024437834015663934,
      0.023828904284075948,
      0.02335137546953146,
      0.022966184937863468
    ],
    "loss_vector": [
      0.042801801367836484,
      0.03300479635343713,
      0.02918824730283123,
      0.027244073228310732,
      0.02610366059056783,
      0.02532584431691695,
      0.02481075979264106,
      0.02441527625009165,
      0.02417043378671347,
      0.023901844870741085
    ],
    "model": "Model(\n  (embedding): Embedding(400000, 50)\n  (conv1): Conv2d(1, 50, kernel_size=(3, 50), stride=(1, 1))\n  (bn1): BatchNorm2d(50, eps=1e-05, momentum=0.1, affine=True, track_running_stats=True)\n  (conv2): Conv2d(1, 50, kernel_size=(4, 50), stride=(1, 1))\n  (bn2): BatchNorm2d(50, eps=1e-05, momentum=0.1, affine=True, track_running_stats=True)\n  (conv3): Conv2d(1, 50, kernel_size=(5, 50), stride=(1, 1))\n  (bn3): BatchNorm2d(50, eps=1e-05, momentum=0.1, affine=True, track_running_stats=True)\n  (fc1): Linear(in_features=150, out_features=50, bias=True)\n  (fc2): Linear(in_features=50, out_features=126, bias=True)\n  (dropout): Dropout(p=0.0)\n)",
    "train_start": "2018-12-09 16:52:33.718150",
    "train_finish": "2018-12-09 16:56:25.937584",
    "f1_scores": {
      "f1_score_2": 0.6911115672790722,
      "f1_score_3": 0.7802006832916364,
      "f1_score_4": 0.7367796814336413
    },
    "pAtK_scores": {
      "pAtK_1": 0.9491856461864406,
      "pAtK_3": 0.8000750353107344,
…
      0.08168900888095092,
      0.03927019041250734,
      0.03344716807116933,
      0.030140345771240327,
      0.028182070592747015,
      0.026855839865257438,
      0.02581268051317566,
      0.02503875723599935,
      0.024422955644481322,
      0.02391142502738131
    ],
    "loss_vector": [
      0.04371255301570488,
      0.03559635361751257,
      0.03167406842112541,
      0.029237745392878177,
      0.027963097002041543,
      0.026900488946397426,
      0.026100394552794552,
      0.025660216492616524,
      0.025242042996115602,
      0.024854922730286243
    ],
    "model": "Model(\n  (embedding): Embedding(400000, 50)\n  (conv1): Conv2d(1, 50, kernel_size=(1, 50), stride=(1, 1))\n  (bn1): BatchNorm2d(50, eps=1e-05, momentum=0.1, affine=True, track_running_stats=True)\n  (conv2): Conv2d(1, 50, kernel_size=(4, 50), stride=(1, 1))\n  (bn2): BatchNorm2d(50, eps=1e-05, momentum=0.1, affine=True, track_running_stats=True)\n  (conv3): Conv2d(1, 50, kernel_size=(7, 50), stride=(1, 1))\n  (bn3): BatchNorm2d(50, eps=1e-05, momentum=0.1, affine=True, track_running_stats=True)\n  (fc1): Linear(in_features=150, out_features=50, bias=True)\n  (fc2): Linear(in_features=50, out_features=126, bias=True)\n  (dropout): Dropout(p=0.0)\n)",
    "train_start": "2018-12-09 16:52:52.805786",
    "train_finish": "2018-12-09 16:56:48.516999",
    "f1_scores": {
      "f1_score_2": 0.687160012316535,
      "f1_score_3": 0.7752723751109676,
      "f1_score_4": 0.732628496770786
    },
    "pAtK_scores": {
      "pAtK_1": 0.9469014830508474,
      "pAtK_3": 0.795021186440678,
…
      0.0820489203384185,
      0.035475980949922124,
      0.02956016239422096,
      0.026902155576015784,
      0.025037002747973863,
      0.023793954734444844,
      0.02294069987702302,
      0.022225588955960645,
      0.021703503322584354,
      0.021272108736368464
    ],
    "loss_vector": [
      0.04086913825091669,
      0.03145444292133137,
      0.028218651506102692,
      0.02635134892317198,
      0.02497759170956531,
      0.024179576564643344,
      0.023661104614956904,
      0.023112671544491235,
      0.022938042089848194,
      0.022481239669151224
    ],
    "model": "Model(\n  (embedding): Embedding(400000, 100)\n  (conv1): Conv2d(1, 50, kernel_size=(1, 100), stride=(1, 1))\n  (bn1): BatchNorm2d(50, eps=1e-05, momentum=0.1, affine=True, track_running_stats=True)\n  (conv2): Conv2d(1, 50, kernel_size=(3, 100), stride=(1, 1))\n  (bn2): BatchNorm2d(50, eps=1e-05, momentum=0.1, affine=True, track_running_stats=True)\n  (conv3): Conv2d(1, 50, kernel_size=(5, 100), stride=(1, 1))\n  (bn3): BatchNorm2d(50, eps=1e-05, momentum=0.1, affine=True, track_running_stats=True)\n  (fc1): Linear(in_features=150, out_features=50, bias=True)\n  (fc2): Linear(in_features=50, out_features=126, bias=True)\n  (dropout): Dropout(p=0.0)\n)",
    "train_start": "2018-12-09 17:00:07.604422",
    "train_finish": "2018-12-09 17:04:11.854599",
    "f1_scores": {
      "f1_score_2": 0.6991044852714768,
      "f1_score_3": 0.7895730772334759,
      "f1_score_4": 0.7445816847508826
    },
    "pAtK_scores": {
      "pAtK_1": 0.9532574152542372,
      "pAtK_3": 0.8096861758474576,
…
      0.07099657023654264,
      0.03199117089952192,
      0.026883836418559928,
      0.0245589492153341,
      0.023123999909131984,
      0.022166993744685483,
      0.02145264729631241,
      0.02088548015428449,
      0.02040334114454955,
      0.020021653972721643
    ],
    "loss_vector": [
      0.03670776427044707,
      0.02868916807790934,
      0.02597146702267356,
      0.024357184325739488,
      0.023496482647576575,
      0.022962663259546635,
      0.022498375467829786,
      0.022151088973475716,
      0.021961023241786632,
      0.021960458007909484
    ],
    "model": "Model(\n  (embedding): Embedding(400000, 100)\n  (conv1): Conv2d(1, 50, kernel_size=(3, 100), stride=(1, 1))\n  (bn1): BatchNorm2d(50, eps=1e-05, momentum=0.1, affine=True, track_running_stats=True)\n  (conv2): Conv2d(1, 50, kernel_size=(4, 100), stride=(1, 1))\n  (bn2): BatchNorm2d(50, eps=1e-05, momentum=0.1, affine=True, track_running_stats=True)\n  (conv3): Conv2d(1, 50, kernel_size=(5, 100), stride=(1, 1))\n  (bn3): BatchNorm2d(50, eps=1e-05, momentum=0.1, affine=True, track_running_stats=True)\n  (fc1): Linear(in_features=150, out_features=50, bias=True)\n  (fc2): Linear(in_features=50, out_features=126, bias=True)\n  (dropout): Dropout(p=0.0)\n)",
    "train_start": "2018-12-09 17:00:22.883434",
    "train_finish": "2018-12-09 17:04:32.910502",
    "f1_scores": {
      "f1_score_2": 0.7013625166786411,
      "f1_score_3": 0.792306243779087,
      "f1_score_4": 0.7469352581981265
    },
    "pAtK_scores": {
      "pAtK_1": 0.9548132944915254,
      "pAtK_3": 0.8124889653954802,
…
      0.07402236835299453,
      0.03313712747078353,
      0.027522904328309155,
      0.024829633890932155,
      0.023290809933131516,
      0.022268198907686367,
      0.021547143031229784,
      0.020993288730110343,
      0.0205364604524745,
      0.020155389169390105
    ],
    "loss_vector": [
      0.03798714958889,
      0.029760199362191105,
      0.026358331064299002,
      0.024666374233567108,
      0.02366744073391971,
      0.023197524186413167,
      0.022824990642020256,
      0.02235281985189955,
      0.022111490621405133,
      0.022043492139901144
    ],
    "model": "Model(\n  (embedding): Embedding(400000, 100)\n  (conv1): Conv2d(1, 50, kernel_size=(1, 100), stride=(1, 1))\n  (bn1): BatchNorm2d(50, eps=1e-05, momentum=0.1, affine=True, track_running_stats=True)\n  (conv2): Conv2d(1, 50, kernel_size=(4, 100), stride=(1, 1))\n  (bn2): BatchNorm2d(50, eps=1e-05, momentum=0.1, affine=True, track_running_stats=True)\n  (conv3): Conv2d(1, 50, kernel_size=(7, 100), stride=(1, 1))\n  (bn3): BatchNorm2d(50, eps=1e-05, momentum=0.1, affine=True, track_running_stats=True)\n  (fc1): Linear(in_features=150, out_features=50, bias=True)\n  (fc2): Linear(in_features=50, out_features=126, bias=True)\n  (dropout): Dropout(p=0.0)\n)",
    "train_start": "2018-12-09 17:00:43.854908",
    "train_finish": "2018-12-09 17:05:05.038703",
    "f1_scores": {
      "f1_score_2": 0.6995150364364159,
      "f1_score_3": 0.791176391466925,
      "f1_score_4": 0.7458974620324126
    },
    "pAtK_scores": {
      "pAtK_1": 0.9538863877118644,
      "pAtK_3": 0.811330331920904,
…
      0.06718065516150201,
      0.034924681102273814,
      0.02956410616183869,
      0.026808050579516893,
      0.025114721507258162,
      0.023992156910319484,
      0.0231942597642343,
      0.022582573766698196,
      0.022121764995171857,
      0.0217358566947861
    ],
    "loss_vector": [
      0.03880932731396061,
      0.03145222968848075,
      0.027924933802273313,
      0.02609765914789701,
      0.024904530716396995,
      0.024177697281968797,
      0.02359860267300727,
      0.023194711844799883,
      0.022817093342290085,
      0.022583042508212185
    ],
    "model": "Model(\n  (embedding): Embedding(400000, 50)\n  (conv1): Conv2d(1, 50, kernel_size=(1, 50), stride=(1, 1))\n  (bn1): BatchNorm2d(50, eps=1e-05, momentum=0.1, affine=True, track_running_stats=True)\n  (conv2): Conv2d(1, 50, kernel_size=(3, 50), stride=(1, 1))\n  (bn2): BatchNorm2d(50, eps=1e-05, momentum=0.1, affine=True, track_running_stats=True)\n  (conv3): Conv2d(1, 50, kernel_size=(5, 50), stride=(1, 1))\n  (bn3): BatchNorm2d(50, eps=1e-05, momentum=0.1, affine=True, track_running_stats=True)\n  (fc1): Linear(in_features=150, out_features=100, bias=True)\n  (fc2): Linear(in_features=100, out_features=126, bias=True)\n  (dropout): Dropout(p=0.0)\n)",
    "train_start": "2018-12-09 17:08:05.667383",
    "train_finish": "2018-12-09 17:11:57.271653",
    "f1_scores": {
      "f1_score_2": 0.6937031715077492,
      "f1_score_3": 0.7837731686977109,
      "f1_score_4": 0.7410605906172107
    },
    "pAtK_scores": {
      "pAtK_1": 0.9502118644067796,
      "pAtK_3": 0.8037385240112994,
…
      0.0678486529476163,
      0.03282601506125882,
      0.02789987762948141,
      0.0256131566262166,
      0.02422371607422263,
      0.023271064890771256,
      0.022567536434480315,
      0.022014815028071177,
      0.021587631214530237,
      0.021234909086656074
    ],
    "loss_vector": [
      0.03701464304605783,
      0.029621194827101998,
      0.026735581299763615,
      0.0254443585241245,
      0.024238269428833056,
      0.023681098058567208,
      0.023211889032085063,
      0.022816211679729366,
      0.022507733744332344,
      0.02234005476584879
    ],
    "model": "Model(\n  (embedding): Embedding(400000, 50)\n  (conv1): Conv2d(1, 50, kernel_size=(3, 50), stride=(1, 1))\n  (bn1): BatchNorm2d(50, eps=1e-05, momentum=0.1, affine=True, track_running_stats=True)\n  (conv2): Conv2d(1, 50, kernel_size=(4, 50), stride=(1, 1))\n  (bn2): BatchNorm2d(50, eps=1e-05, momentum=0.1, affine=True, track_running_stats=True)\n  (conv3): Conv2d(1, 50, kernel_size=(5, 50), stride=(1, 1))\n  (bn3): BatchNorm2d(50, eps=1e-05, momentum=0.1, affine=True, track_running_stats=True)\n  (fc1): Linear(in_features=150, out_features=100, bias=True)\n  (fc2): Linear(in_features=100, out_features=126, bias=True)\n  (dropout): Dropout(p=0.0)\n)",
    "train_start": "2018-12-09 17:08:34.395480",
    "train_finish": "2018-12-09 17:12:29.806949",
    "f1_scores": {
      "f1_score_2": 0.6963204351842348,
      "f1_score_3": 0.7872703306163075,
      "f1_score_4": 0.7427192112749141
    },
    "pAtK_scores": {
      "pAtK_1": 0.9503773834745762,
      "pAtK_3": 0.807324770480226,
…
      0.06817193128578578,
      0.03339816603731838,
      0.02839811439970526,
      0.02595375281399862,
      0.02444961449693344,
      0.023450817948161312,
      0.02272274267048605,
      0.022220571057082805,
      0.02177438310981928,
      0.021409012161661824
    ],
    "loss_vector": [
      0.03787233645759397,
      0.030053719309932093,
      0.02704910132086883,
      0.025654572141119988,
      0.02440139720753088,
      0.0237715475703195,
      0.023421712535417687,
      0.023012028628234135,
      0.022734443136190965,
      0.022468039986945815
    ],
    "model": "Model(\n  (embedding): Embedding(400000, 50)\n  (conv1): Conv2d(1, 50, kernel_size=(1, 50), stride=(1, 1))\n  (bn1): BatchNorm2d(50, eps=1e-05, momentum=0.1, affine=True, track_running_stats=True)\n  (conv2): Conv2d(1, 50, kernel_size=(4, 50), stride=(1, 1))\n  (bn2): BatchNorm2d(50, eps=1e-05, momentum=0.1, affine=True, track_running_stats=True)\n  (conv3): Conv2d(1, 50, kernel_size=(7, 50), stride=(1, 1))\n  (bn3): BatchNorm2d(50, eps=1e-05, momentum=0.1, affine=True, track_running_stats=True)\n  (fc1): Linear(in_features=150, out_features=100, bias=True)\n  (fc2): Linear(in_features=100, out_features=126, bias=True)\n  (dropout): Dropout(p=0.0)\n)",
    "train_start": "2018-12-09 17:09:14.978213",
    "train_finish": "2018-12-09 17:13:08.054133",
    "f1_scores": {
      "f1_score_2": 0.6953325464436005,
      "f1_score_3": 0.7851935544615717,
      "f1_score_4": 0.7417370113323635
    },
    "pAtK_scores": {
      "pAtK_1": 0.950046345338983,
      "pAtK_3": 0.8051950918079096,
…
      0.06843768030518146,
      0.03016811939384046,
      0.025504438853354336,
      0.02345844239448913,
      0.022211250978074897,
      0.02138242054822549,
      0.020764775708515686,
      0.020281427220019035,
      0.019888782894956318,
      0.019533705750950373
    ],
    "loss_vector": [
      0.034611225759578965,
      0.02711746428098719,
      0.024556841480277352,
      0.023354108050718147,
      0.022517745588290488,
      0.021928585371223545,
      0.02188676404687813,
      0.02145611960440874,
      0.021242578087721842,
      0.020928207516543947
    ],
    "model": "Model(\n  (embedding): Embedding(400000, 100)\n  (conv1): Conv2d(1, 50, kernel_size=(1, 100), stride=(1, 1))\n  (bn1): BatchNorm2d(50, eps=1e-05, momentum=0.1, affine=True, track_running_stats=True)\n  (conv2): Conv2d(1, 50, kernel_size=(3, 100), stride=(1, 1))\n  (bn2): BatchNorm2d(50, eps=1e-05, momentum=0.1, affine=True, track_running_stats=True)\n  (conv3): Conv2d(1, 50, kernel_size=(5, 100), stride=(1, 1))\n  (bn3): BatchNorm2d(50, eps=1e-05, momentum=0.1, affine=True, track_running_stats=True)\n  (fc1): Linear(in_features=150, out_features=100, bias=True)\n  (fc2): Linear(in_features=100, out_features=126, bias=True)\n  (dropout): Dropout(p=0.0)\n)",
    "train_start": "2018-12-09 17:15:46.285387",
    "train_finish": "2018-12-09 17:19:40.604044",
    "f1_scores": {
      "f1_score_2": 0.7015421328133019,
      "f1_score_3": 0.7933715331019826,
      "f1_score_4": 0.7485475486698604
    },
    "pAtK_scores": {
      "pAtK_1": 0.9538863877118644,
      "pAtK_3": 0.8135813912429378,
…
      0.0629660674146389,
      0.029192194593557822,
      0.02490258948131689,
      0.022857791070863463,
      0.021579232816169112,
      0.020693791196089543,
      0.02002482512078656,
      0.019527780805737402,
      0.019099307439132705,
      0.018765247393349994
    ],
    "loss_vector": [
      0.03296579717326972,
      0.0265258098557844,
      0.024205528262813213,
      0.022907798573122185,
      0.02225575659234645,
      0.02170081648154784,
      0.021615862799019128,
      0.021220907632072093,
      0.020917032482260366,
      0.02067864741498636
    ],
    "model": "Model(\n  (embedding): Embedding(400000, 100)\n  (conv1): Conv2d(1, 50, kernel_size=(3, 100), stride=(1, 1))\n  (bn1): BatchNorm2d(50, eps=1e-05, momentum=0.1, affine=True, track_running_stats=True)\n  (conv2): Conv2d(1, 50, kernel_size=(4, 100), stride=(1, 1))\n  (bn2): BatchNorm2d(50, eps=1e-05, momentum=0.1, affine=True, track_running_stats=True)\n  (conv3): Conv2d(1, 50, kernel_size=(5, 100), stride=(1, 1))\n  (bn3): BatchNorm2d(50, eps=1e-05, momentum=0.1, affine=True, track_running_stats=True)\n  (fc1): Linear(in_features=150, out_features=100, bias=True)\n  (fc2): Linear(in_features=100, out_features=126, bias=True)\n  (dropout): Dropout(p=0.0)\n)",
    "train_start": "2018-12-09 17:16:27.381623",
    "train_finish": "2018-12-09 17:20:39.445347",
    "f1_scores": {
      "f1_score_2": 0.7031843374730575,
      "f1_score_3": 0.7955989562316735,
      "f1_score_4": 0.7504563523317983
    },
    "pAtK_scores": {
      "pAtK_1": 0.9555415783898306,
      "pAtK_3": 0.815865554378531,
…
      0.06318198484094704,
      0.029595270668080455,
      0.025453268951494284,
      0.023415806899430402,
      0.02214005563683822,
      0.021246854032069953,
      0.020579681277586116,
      0.020040986310174615,
      0.01958071641920866,
      0.01920469855249946
    ],
    "loss_vector": [
      0.03331003596974631,
      0.02698290979458114,
      0.02478401624929097,
      0.023487288315417403,
      0.022618570254515795,
      0.022191027431922444,
      0.02186885504525597,
      0.02159352594260442,
      0.02152545308157549,
      0.021223605673570754
    ],
    "model": "Model(\n  (embedding): Embedding(400000, 100)\n  (conv1): Conv2d(1, 50, kernel_size=(1, 100), stride=(1, 1))\n  (bn1): BatchNorm2d(50, eps=1e-05, momentum=0.1, affine=True, track_running_stats=True)\n  (conv2): Conv2d(1, 50, kernel_size=(4, 100), stride=(1, 1))\n  (bn2): BatchNorm2d(50, eps=1e-05, momentum=0.1, affine=True, track_running_stats=True)\n  (conv3): Conv2d(1, 50, kernel_size=(7, 100), stride=(1, 1))\n  (bn3): BatchNorm2d(50, eps=1e-05, momentum=0.1, affine=True, track_running_stats=True)\n  (fc1): Linear(in_features=150, out_features=100, bias=True)\n  (fc2): Linear(in_features=100, out_features=126, bias=True)\n  (dropout): Dropout(p=0.0)\n)",
    "train_start": "2018-12-09 17:17:06.154840",
    "train_finish": "2018-12-09 17:21:21.492902",
    "f1_scores": {
      "f1_score_2": 0.7008621574463717,
      "f1_score_3": 0.7926182982272079,
      "f1_score_4": 0.7477784675827689
    },
    "pAtK_scores": {
      "pAtK_1": 0.9552436440677966,
      "pAtK_3": 0.8128089689265536,
…
      0.1519071775960402,
      0.054879320852557444,
      0.04622971620658091,
      0.041630242875224044,
      0.03902127213450944,
      0.03732279526949834,
      0.036204074822238995,
      0.03537252218421881,
      0.03469583108328438,
      0.0341451706742935
    ],
    "loss_vector": [
      0.06131152789724075,
      0.04924788989000401,
      0.04318915187554844,
      0.04008947312831879,
      0.03818498974886991,
      0.03696266006110078,
      0.0363086149475332,
      0.035704848214478814,
      0.03519100768460055,
      0.03499703661743867
    ],
    "model": "Model(\n  (embedding): Embedding(400000, 50)\n  (conv1): Conv2d(1, 100, kernel_size=(1, 50), stride=(1, 1))\n  (bn1): BatchNorm2d(100, eps=1e-05, momentum=0.1, affine=True, track_running_stats=True)\n  (conv2): Conv2d(1, 100, kernel_size=(3, 50), stride=(1, 1))\n  (bn2): BatchNorm2d(100, eps=1e-05, momentum=0.1, affine=True, track_running_stats=True)\n  (conv3): Conv2d(1, 100, kernel_size=(5, 50), stride=(1, 1))\n  (bn3): BatchNorm2d(100, eps=1e-05, momentum=0.1, affine=True, track_running_stats=True)\n  (fc1): Linear(in_features=300, out_features=10, bias=True)\n  (fc2): Linear(in_features=10, out_features=126, bias=True)\n  (dropout): Dropout(p=0.0)\n)",
    "train_start": "2018-12-09 17:23:31.800173",
    "train_finish": "2018-12-09 17:27:47.465485",
    "f1_scores": {
      "f1_score_2": 0.6504413425023093,
      "f1_score_3": 0.7220294299626073,
      "f1_score_4": 0.6831015279695333
    },
    "pAtK_scores": {
      "pAtK_1": 0.9401483050847458,
      "pAtK_3": 0.7404219632768362,
…
      0.13584017749359756,
      0.05091189731626402,
      0.04216961309568253,
      0.038034296910891725,
      0.035671787785341434,
      0.03414674263723209,
      0.03301518453564318,
      0.03221384446848841,
      0.031620118494871896,
      0.03116276983235321
    ],
    "loss_vector": [
      0.05738493219270545,
      0.04522508092350879,
      0.039748173459606656,
      0.03701084650168985,
      0.035264823459467645,
      0.03416385166978432,
      0.033509366466837415,
      0.03296222843987457,
      0.03263599024612015,
      0.032451547650715055
    ],
    "model": "Model(\n  (embedding): Embedding(400000, 50)\n  (conv1): Conv2d(1, 100, kernel_size=(3, 50), stride=(1, 1))\n  (bn1): BatchNorm2d(100, eps=1e-05, momentum=0.1, affine=True, track_running_stats=True)\n  (conv2): Conv2d(1, 100, kernel_size=(4, 50), stride=(1, 1))\n  (bn2): BatchNorm2d(100, eps=1e-05, momentum=0.1, affine=True, track_running_stats=True)\n  (conv3): Conv2d(1, 100, kernel_size=(5, 50), stride=(1, 1))\n  (bn3): BatchNorm2d(100, eps=1e-05, momentum=0.1, affine=True, track_running_stats=True)\n  (fc1): Linear(in_features=300, out_features=10, bias=True)\n  (fc2): Linear(in_features=10, out_features=126, bias=True)\n  (dropout): Dropout(p=0.0)\n)",
    "train_start": "2018-12-09 17:24:42.500194",
    "train_finish": "2018-12-09 17:29:04.765755",
    "f1_scores": {
      "f1_score_2": 0.6583829415990967,
      "f1_score_3": 0.737524547386544,
      "f1_score_4": 0.696870859239629
    },
    "pAtK_scores": {
      "pAtK_1": 0.9450807733050848,
      "pAtK_3": 0.7563117937853108,
…
      0.13610705225048075,
      0.050127633856132316,
      0.04262332344671581,
      0.03852660751122225,
      0.036176168792783875,
      0.03470439602050089,
      0.033612367083836324,
      0.03278717246309516,
      0.03210306205774394,
      0.03152472991319603
    ],
    "loss_vector": [
      0.055556119498559986,
      0.04538432344541711,
      0.04015729241704537,
      0.037341523505115916,
      0.03588846603692588,
      0.03489882442153106,
      0.03418805510184522,
      0.03364846716492863,
      0.033134732016567456,
      0.032884079268423176
    ],
    "model": "Model(\n  (embedding): Embedding(400000, 50)\n  (conv1): Conv2d(1, 100, kernel_size=(1, 50), stride=(1, 1))\n  (bn1): BatchNorm2d(100, eps=1e-05, momentum=0.1, affine=True, track_running_stats=True)\n  (conv2): Conv2d(1, 100, kernel_size=(4, 50), stride=(1, 1))\n  (bn2): BatchNorm2d(100, eps=1e-05, momentum=0.1, affine=True, track_running_stats=True)\n  (conv3): Conv2d(1, 100, kernel_size=(7, 50), stride=(1, 1))\n  (bn3): BatchNorm2d(100, eps=1e-05, momentum=0.1, affine=True, track_running_stats=True)\n  (fc1): Linear(in_features=300, out_features=10, bias=True)\n  (fc2): Linear(in_features=10, out_features=126, bias=True)\n  (dropout): Dropout(p=0.0)\n)",
    "train_start": "2018-12-09 17:25:31.028228",
    "train_finish": "2018-12-09 17:29:54.195456",
    "f1_scores": {
      "f1_score_2": 0.6579210715385404,
      "f1_score_3": 0.734651494364189,
      "f1_score_4": 0.6947767348338136
    },
    "pAtK_scores": {
      "pAtK_1": 0.9425648834745762,
      "pAtK_3": 0.753365554378531,
…
      0.15687992116277313,
      0.056684046969581146,
      0.047089394012314094,
      0.042951384258847085,
      0.04061315732476155,
      0.03911306583932274,
      0.038082796408736505,
      0.037284862490430955,
      0.03645879244414181,
      0.03578949996059941
    ],
    "loss_vector": [
      0.06521190027311696,
      0.05022049531088037,
      0.04438025908449949,
      0.041817223116502926,
      0.04004734312578783,
      0.03904760477401442,
      0.038720381903951454,
      0.037918313106490395,
      0.037115859720161404,
      0.03687657422180903
    ],
    "model": "Model(\n  (embedding): Embedding(400000, 100)\n  (conv1): Conv2d(1, 100, kernel_size=(1, 100), stride=(1, 1))\n  (bn1): BatchNorm2d(100, eps=1e-05, momentum=0.1, affine=True, track_running_stats=True)\n  (conv2): Conv2d(1, 100, kernel_size=(3, 100), stride=(1, 1))\n  (bn2): BatchNorm2d(100, eps=1e-05, momentum=0.1, affine=True, track_running_stats=True)\n  (conv3): Conv2d(1, 100, kernel_size=(5, 100), stride=(1, 1))\n  (bn3): BatchNorm2d(100, eps=1e-05, momentum=0.1, affine=True, track_running_stats=True)\n  (fc1): Linear(in_features=300, out_features=10, bias=True)\n  (fc2): Linear(in_features=10, out_features=126, bias=True)\n  (dropout): Dropout(p=0.0)\n)",
    "train_start": "2018-12-09 17:31:48.656545",
    "train_finish": "2018-12-09 17:36:19.493217",
    "f1_scores": {
      "f1_score_2": 0.6431027404290259,
      "f1_score_3": 0.712366502569069,
      "f1_score_4": 0.6715838437375489
    },
    "pAtK_scores": {
      "pAtK_1": 0.9388241525423728,
      "pAtK_3": 0.730512888418079,
…
      0.16930150100696245,
      0.06068125632953825,
      0.05272433125684338,
      0.04991004963810123,
      0.048346986389759594,
      0.047214022185476726,
      0.04636186849064347,
      0.045544126383833004,
      0.044839463293891706,
      0.04422347753024192
    ],
    "loss_vector": [
      0.06745824621895612,
      0.05485987985285662,
      0.05081335890848758,
      0.04906187755829197,
      0.048142736998655025,
      0.047274420448278974,
      0.04674706532288406,
      0.04628050725086261,
      0.045740877041372204,
      0.04531785953095404
    ],
    "model": "Model(\n  (embedding): Embedding(400000, 100)\n  (conv1): Conv2d(1, 100, kernel_size=(3, 100), stride=(1, 1))\n  (bn1): BatchNorm2d(100, eps=1e-05, momentum=0.1, affine=True, track_running_stats=True)\n  (conv2): Conv2d(1, 100, kernel_size=(4, 100), stride=(1, 1))\n  (bn2): BatchNorm2d(100, eps=1e-05, momentum=0.1, affine=True, track_running_stats=True)\n  (conv3): Conv2d(1, 100, kernel_size=(5, 100), stride=(1, 1))\n  (bn3): BatchNorm2d(100, eps=1e-05, momentum=0.1, affine=True, track_running_stats=True)\n  (fc1): Linear(in_features=300, out_features=10, bias=True)\n  (fc2): Linear(in_features=10, out_features=126, bias=True)\n  (dropout): Dropout(p=0.0)\n)",
    "train_start": "2018-12-09 17:33:12.713621",
    "train_finish": "2018-12-09 17:38:13.346065",
    "f1_scores": {
      "f1_score_2": 0.5898465565021042,
      "f1_score_3": 0.6375487585075189,
      "f1_score_4": 0.609621853022118
    },
    "pAtK_scores": {
      "pAtK_1": 0.9256488347457628,
      "pAtK_3": 0.6537892831920904,
…
      0.13765927650868554,
      0.05125106217258343,
      0.04280627556357257,
      0.03871545488937304,
      0.03627090233482378,
      0.03451857244352009,
      0.03320454408465911,
      0.03219680330473965,
      0.03140626269864516,
      0.030800132968054776
    ],
    "loss_vector": [
      0.0570628355115147,
      0.04587263424517745,
      0.040309421023574925,
      0.03765670566866964,
      0.035923939008834,
      0.03514037038183818,
      0.03399044010093657,
      0.03323931597425776,
      0.03290140998186702,
      0.03280221017361697
    ],
    "model": "Model(\n  (embedding): Embedding(400000, 100)\n  (conv1): Conv2d(1, 100, kernel_size=(1, 100), stride=(1, 1))\n  (bn1): BatchNorm2d(100, eps=1e-05, momentum=0.1, affine=True, track_running_stats=True)\n  (conv2): Conv2d(1, 100, kernel_size=(4, 100), stride=(1, 1))\n  (bn2): BatchNorm2d(100, eps=1e-05, momentum=0.1, affine=True, track_running_stats=True)\n  (conv3): Conv2d(1, 100, kernel_size=(7, 100), stride=(1, 1))\n  (bn3): BatchNorm2d(100, eps=1e-05, momentum=0.1, affine=True, track_running_stats=True)\n  (fc1): Linear(in_features=300, out_features=10, bias=True)\n  (fc2): Linear(in_features=10, out_features=126, bias=True)\n  (dropout): Dropout(p=0.0)\n)",
    "train_start": "2018-12-09 17:34:03.012928",
    "train_finish": "2018-12-09 17:38:56.649100",
    "f1_scores": {
      "f1_score_2": 0.6577671148516884,
      "f1_score_3": 0.7347160573534555,
      "f1_score_4": 0.6934794896266714
    },
    "pAtK_scores": {
      "pAtK_1": 0.9458421610169492,
      "pAtK_3": 0.7534317620056498,
…
      0.08454015107376525,
      0.03763039850504394,
      0.03177318666519092,
      0.028853849516704368,
      0.027140744323833392,
      0.025952897206005382,
      0.025105016514574103,
      0.024451636559059544,
      0.023963720391043223,
      0.023519961516844705
    ],
    "loss_vector": [
      0.042206388030011775,
      0.03366418078668037,
      0.030199828983868582,
      0.02828632134123374,
      0.02712224906910274,
      0.02621251404664274,
      0.025791001521934896,
      0.02525946561057689,
      0.025086831932855866,
      0.024805308335413365
    ],
    "model": "Model(\n  (embedding): Embedding(400000, 50)\n  (conv1): Conv2d(1, 100, kernel_size=(1, 50), stride=(1, 1))\n  (bn1): BatchNorm2d(100, eps=1e-05, momentum=0.1, affine=True, track_running_stats=True)\n  (conv2): Conv2d(1, 100, kernel_size=(3, 50), stride=(1, 1))\n  (bn2): BatchNorm2d(100, eps=1e-05, momentum=0.1, affine=True, track_running_stats=True)\n  (conv3): Conv2d(1, 100, kernel_size=(5, 50), stride=(1, 1))\n  (bn3): BatchNorm2d(100, eps=1e-05, momentum=0.1, affine=True, track_running_stats=True)\n  (fc1): Linear(in_features=300, out_features=30, bias=True)\n  (fc2): Linear(in_features=30, out_features=126, bias=True)\n  (dropout): Dropout(p=0.0)\n)",
    "train_start": "2018-12-09 17:40:30.748626",
    "train_finish": "2018-12-09 17:44:41.265624",
    "f1_scores": {
      "f1_score_2": 0.6891614492456122,
      "f1_score_3": 0.7761870174589084,
      "f1_score_4": 0.73349950426701
    },
    "pAtK_scores": {
      "pAtK_1": 0.9516022245762712,
      "pAtK_3": 0.7959591278248588,
…
      0.0791673467369075,
      0.03500193215030081,
      0.02963549847338186,
      0.027024958293312414,
      0.025449233426512757,
      0.024319160913437096,
      0.02353382925282054,
      0.022873657400343403,
      0.0223948754603485,
      0.021975414046356754
    ],
    "loss_vector": [
      0.039643803769249024,
      0.03149824084366782,
      0.028533368008369107,
      0.026664110058445042,
      0.025670695860507124,
      0.024959972538685395,
      0.024439020303346343,
      0.024070794204786673,
      0.023975086161645794,
      0.023695320175108264
    ],
    "model": "Model(\n  (embedding): Embedding(400000, 50)\n  (conv1): Conv2d(1, 100, kernel_size=(3, 50), stride=(1, 1))\n  (bn1): BatchNorm2d(100, eps=1e-05, momentum=0.1, affine=True, track_running_stats=True)\n  (conv2): Conv2d(1, 100, kernel_size=(4, 50), stride=(1, 1))\n  (bn2): BatchNorm2d(100, eps=1e-05, momentum=0.1, affine=True, track_running_stats=True)\n  (conv3): Conv2d(1, 100, kernel_size=(5, 50), stride=(1, 1))\n  (bn3): BatchNorm2d(100, eps=1e-05, momentum=0.1, affine=True, track_running_stats=True)\n  (fc1): Linear(in_features=300, out_features=30, bias=True)\n  (fc2): Linear(in_features=30, out_features=126, bias=True)\n  (dropout): Dropout(p=0.0)\n)",
    "train_start": "2018-12-09 17:42:56.767969",
    "train_finish": "2018-12-09 17:47:20.340831",
    "f1_scores": {
      "f1_score_2": 0.694113722672688,
      "f1_score_3": 0.7837516477012886,
      "f1_score_4": 0.7394205020338952
    },
    "pAtK_scores": {
      "pAtK_1": 0.9509070444915254,
      "pAtK_3": 0.8037164548022598,
…
      0.09732863949558766,
      0.04164946827139755,
      0.03553251876536424,
      0.03253062735656294,
      0.03062629720206731,
      0.029240125185850674,
      0.02816033617821319,
      0.027379770552919756,
      0.02670171457136039,
      0.02620862298194439
    ],
    "loss_vector": [
      0.04644469449580726,
      0.03760382473089938,
      0.03403098521343732,
      0.03183574008487039,
      0.030612327095310567,
      0.029684610854266054,
      0.02901092651536909,
      0.028492000332828296,
      0.028135628834114235,
      0.02789330804499529
    ],
    "model": "Model(\n  (embedding): Embedding(400000, 50)\n  (conv1): Conv2d(1, 100, kernel_size=(1, 50), stride=(1, 1))\n  (bn1): BatchNorm2d(100, eps=1e-05, momentum=0.1, affine=True, track_running_stats=True)\n  (conv2): Conv2d(1, 100, kernel_size=(4, 50), stride=(1, 1))\n  (bn2): BatchNorm2d(100, eps=1e-05, momentum=0.1, affine=True, track_running_stats=True)\n  (conv3): Conv2d(1, 100, kernel_size=(7, 50), stride=(1, 1))\n  (bn3): BatchNorm2d(100, eps=1e-05, momentum=0.1, affine=True, track_running_stats=True)\n  (fc1): Linear(in_features=300, out_features=30, bias=True)\n  (fc2): Linear(in_features=30, out_features=126, bias=True)\n  (dropout): Dropout(p=0.0)\n)",
    "train_start": "2018-12-09 17:43:33.466886",
    "train_finish": "2018-12-09 17:47:52.339683",
    "f1_scores": {
      "f1_score_2": 0.6770758493277225,
      "f1_score_3": 0.7630376886449842,
      "f1_score_4": 0.7194614579182921
    },
    "pAtK_scores": {
      "pAtK_1": 0.9454780190677966,
      "pAtK_3": 0.782474841101695,
…
      0.08262343641787598,
      0.032974896726306296,
      0.02761298860202365,
      0.02510135070874976,
      0.02355083206445827,
      0.02251992214195416,
      0.02173487723326095,
      0.02110180316362141,
      0.02063937582061458,
      0.020198830935319417
    ],
    "loss_vector": [
      0.037232906825966756,
      0.02952225951446315,
      0.026491675810036013,
      0.02501469910523649,
      0.023939419411501642,
      0.023579823358331697,
      0.02310915951127723,
      0.02287521765772569,
      0.022679247909178166,
      0.022544154676340394
    ],
    "model": "Model(\n  (embedding): Embedding(400000, 100)\n  (conv1): Conv2d(1, 100, kernel_size=(1, 100), stride=(1, 1))\n  (bn1): BatchNorm2d(100, eps=1e-05, momentum=0.1, affine=True, track_running_stats=True)\n  (conv2): Conv2d(1, 100, kernel_size=(3, 100), stride=(1, 1))\n  (bn2): BatchNorm2d(100, eps=1e-05, momentum=0.1, affine=True, track_running_stats=True)\n  (conv3): Conv2d(1, 100, kernel_size=(5, 100), stride=(1, 1))\n  (bn3): BatchNorm2d(100, eps=1e-05, momentum=0.1, affine=True, track_running_stats=True)\n  (fc1): Linear(in_features=300, out_features=30, bias=True)\n  (fc2): Linear(in_features=30, out_features=126, bias=True)\n  (dropout): Dropout(p=0.0)\n)",
    "train_start": "2018-12-09 17:48:47.516060",
    "train_finish": "2018-12-09 17:53:22.876821",
    "f1_scores": {
      "f1_score_2": 0.7004259468336241,
      "f1_score_3": 0.790563043068894,
      "f1_score_4": 0.7456009488422087
    },
    "pAtK_scores": {
      "pAtK_1": 0.9556739936440678,
      "pAtK_3": 0.8107013594632768,
…
      0.0841064277675844,
      0.0341382296879615,
      0.028801958258679063,
      0.026122357600865148,
      0.02448213792828387,
      0.023357972389606643,
      0.022522425402726347,
      0.021866542999358737,
      0.02130542583834288,
      0.020839287144833542
    ],
    "loss_vector": [
      0.038629263323747505,
      0.030711751967921096,
      0.027848876886448617,
      0.02610894482014543,
      0.02517253722427255,
      0.024751618567664745,
      0.024171464902869727,
      0.024076303530295017,
      0.023899019964165606,
      0.023738984618399104
    ],
    "model": "Model(\n  (embedding): Embedding(400000, 100)\n  (conv1): Conv2d(1, 100, kernel_size=(3, 100), stride=(1, 1))\n  (bn1): BatchNorm2d(100, eps=1e-05, momentum=0.1, affine=True, track_running_stats=True)\n  (conv2): Conv2d(1, 100, kernel_size=(4, 100), stride=(1, 1))\n  (bn2): BatchNorm2d(100, eps=1e-05, momentum=0.1, affine=True, track_running_stats=True)\n  (conv3): Conv2d(1, 100, kernel_size=(5, 100), stride=(1, 1))\n  (bn3): BatchNorm2d(100, eps=1e-05, momentum=0.1, affine=True, track_running_stats=True)\n  (fc1): Linear(in_features=300, out_features=30, bias=True)\n  (fc2): Linear(in_features=30, out_features=126, bias=True)\n  (dropout): Dropout(p=0.0)\n)",
    "train_start": "2018-12-09 17:51:26.150393",
    "train_finish": "2018-12-09 17:56:22.895540",
    "f1_scores": {
      "f1_score_2": 0.696551370214513,
      "f1_score_3": 0.7865170957415328,
      "f1_score_4": 0.7410327925056291
    },
    "pAtK_scores": {
      "pAtK_1": 0.9534229343220338,
      "pAtK_3": 0.8065523481638418,
…
      0.0832432520556382,
      0.037019948243557615,
      0.030574699096819934,
      0.027465394554938943,
      0.025662745174154837,
      0.02440129132831798,
      0.02348199175702553,
      0.02273996651837111,
      0.022158050361801598,
      0.021657531861873233
    ],
    "loss_vector": [
      0.042296918645753696,
      0.032977617424675976,
      0.029075910447765203,
      0.02726235815276534,
      0.02631598212203737,
      0.025889067168710596,
      0.024907597072296225,
      0.02483617356520588,
      0.024382510806544352,
      0.024217678139270362
    ],
    "model": "Model(\n  (embedding): Embedding(400000, 100)\n  (conv1): Conv2d(1, 100, kernel_size=(1, 100), stride=(1, 1))\n  (bn1): BatchNorm2d(100, eps=1e-05, momentum=0.1, affine=True, track_running_stats=True)\n  (conv2): Conv2d(1, 100, kernel_size=(4, 100), stride=(1, 1))\n  (bn2): BatchNorm2d(100, eps=1e-05, momentum=0.1, affine=True, track_running_stats=True)\n  (conv3): Conv2d(1, 100, kernel_size=(7, 100), stride=(1, 1))\n  (bn3): BatchNorm2d(100, eps=1e-05, momentum=0.1, affine=True, track_running_stats=True)\n  (fc1): Linear(in_features=300, out_features=30, bias=True)\n  (fc2): Linear(in_features=30, out_features=126, bias=True)\n  (dropout): Dropout(p=0.0)\n)",
    "train_start": "2018-12-09 17:52:05.462899",
    "train_finish": "2018-12-09 17:57:00.069459",
    "f1_scores": {
      "f1_score_2": 0.6940110848814534,
      "f1_score_3": 0.782697118876604,
      "f1_score_4": 0.7381881190871101
    },
    "pAtK_scores": {
      "pAtK_1": 0.9520325741525424,
      "pAtK_3": 0.802635063559322,
…
      0.07029714720214114,
      0.03413295643704553,
      0.028562461600357938,
      0.025981314360134063,
      0.024446708300421314,
      0.023431672709348983,
      0.02264466156133325,
      0.022082393370441513,
      0.02163822886726662,
      0.021238628654710708
    ],
    "loss_vector": [
      0.03876540323687812,
      0.03047074724809598,
      0.027257435118495408,
      0.02546019340723248,
      0.024536936938510102,
      0.023853384242472003,
      0.023490107507776407,
      0.023070754735904225,
      0.022749319735725047,
      0.022597051241387753
    ],
    "model": "Model(\n  (embedding): Embedding(400000, 50)\n  (conv1): Conv2d(1, 100, kernel_size=(1, 50), stride=(1, 1))\n  (bn1): BatchNorm2d(100, eps=1e-05, momentum=0.1, affine=True, track_running_stats=True)\n  (conv2): Conv2d(1, 100, kernel_size=(3, 50), stride=(1, 1))\n  (bn2): BatchNorm2d(100, eps=1e-05, momentum=0.1, affine=True, track_running_stats=True)\n  (conv3): Conv2d(1, 100, kernel_size=(5, 50), stride=(1, 1))\n  (bn3): BatchNorm2d(100, eps=1e-05, momentum=0.1, affine=True, track_running_stats=True)\n  (fc1): Linear(in_features=300, out_features=50, bias=True)\n  (fc2): Linear(in_features=50, out_features=126, bias=True)\n  (dropout): Dropout(p=0.0)\n)",
    "train_start": "2018-12-09 17:57:39.471555",
    "train_finish": "2018-12-09 18:01:48.379405",
    "f1_scores": {
      "f1_score_2": 0.6960125218105306,
      "f1_score_3": 0.787044360153875,
      "f1_score_4": 0.7432844395437403
    },
    "pAtK_scores": {
      "pAtK_1": 0.9505429025423728,
      "pAtK_3": 0.8070930437853108,
…
      0.07815894869066053,
      0.03435264352843363,
      0.029435657092018418,
      0.026909909704152274,
      0.025296067143922966,
      0.024225088348877273,
      0.023385620455079106,
      0.0227328949913637,
      0.022238752212679364,
      0.021848840515290086
    ],
    "loss_vector": [
      0.03843495679103722,
      0.031276249468831695,
      0.02828195264910237,
      0.026552001614186724,
      0.025598892973641218,
      0.02493104799571684,
      0.02442112372462022,
      0.024052926860118316,
      0.023764846878031553,
      0.02353387970035359
    ],
    "model": "Model(\n  (embedding): Embedding(400000, 50)\n  (conv1): Conv2d(1, 100, kernel_size=(3, 50), stride=(1, 1))\n  (bn1): BatchNorm2d(100, eps=1e-05, momentum=0.1, affine=True, track_running_stats=True)\n  (conv2): Conv2d(1, 100, kernel_size=(4, 50), stride=(1, 1))\n  (bn2): BatchNorm2d(100, eps=1e-05, momentum=0.1, affine=True, track_running_stats=True)\n  (conv3): Conv2d(1, 100, kernel_size=(5, 50), stride=(1, 1))\n  (bn3): BatchNorm2d(100, eps=1e-05, momentum=0.1, affine=True, track_running_stats=True)\n  (fc1): Linear(in_features=300, out_features=50, bias=True)\n  (fc2): Linear(in_features=50, out_features=126, bias=True)\n  (dropout): Dropout(p=0.0)\n)",
    "train_start": "2018-12-09 18:01:01.812369",
    "train_finish": "2018-12-09 18:05:35.321154",
    "f1_scores": {
      "f1_score_2": 0.6941008929487837,
      "f1_score_3": 0.7837301267048664,
      "f1_score_4": 0.7388738058394567
    },
    "pAtK_scores": {
      "pAtK_1": 0.9514367055084746,
      "pAtK_3": 0.8036943855932204,
…
      0.07463349358830777,
      0.0345547811660131,
      0.029502560163669613,
      0.02689886074760607,
      0.02534452914498902,
      0.024239911954051178,
      0.023467970619674424,
      0.022812437856361355,
      0.02232972124283974,
      0.02188737027036058
    ],
    "loss_vector": [
      0.038145068338361836,
      0.03156426381635464,
      0.028251997053118077,
      0.026603694468484086,
      0.025587398180011975,
      0.02512754746160265,
      0.02444525126178386,
      0.024214304888905105,
      0.023803025957638935,
      0.023729948232234534
    ],
    "model": "Model(\n  (embedding): Embedding(400000, 50)\n  (conv1): Conv2d(1, 100, kernel_size=(1, 50), stride=(1, 1))\n  (bn1): BatchNorm2d(100, eps=1e-05, momentum=0.1, affine=True, track_running_stats=True)\n  (conv2): Conv2d(1, 100, kernel_size=(4, 50), stride=(1, 1))\n  (bn2): BatchNorm2d(100, eps=1e-05, momentum=0.1, affine=True, track_running_stats=True)\n  (conv3): Conv2d(1, 100, kernel_size=(7, 50), stride=(1, 1))\n  (bn3): BatchNorm2d(100, eps=1e-05, momentum=0.1, affine=True, track_running_stats=True)\n  (fc1): Linear(in_features=300, out_features=50, bias=True)\n  (fc2): Linear(in_features=50, out_features=126, bias=True)\n  (dropout): Dropout(p=0.0)\n)",
    "train_start": "2018-12-09 18:01:34.140584",
    "train_finish": "2018-12-09 18:06:02.285980",
    "f1_scores": {
      "f1_score_2": 0.6936133634404188,
      "f1_score_3": 0.7832566647835795,
      "f1_score_4": 0.7391517869552728
    },
    "pAtK_scores": {
      "pAtK_1": 0.9519332627118644,
      "pAtK_3": 0.8032088629943502,
…
      0.08204641990519113,
      0.035056193360963404,
      0.02897477671645398,
      0.026136753069805917,
      0.02447165310227328,
      0.023349783660762676,
      0.022504468273505766,
      0.021883811430556725,
      0.021367994195426437,
      0.02091967375273949
    ],
    "loss_vector": [
      0.040048331906229764,
      0.031195713175555407,
      0.02761114799117638,
      0.025847244186926695,
      0.025056272839843217,
      0.02434392614384829,
      0.024017793205329926,
      0.023547337343127042,
      0.023521299994850562,
      0.023240689409233756
    ],
    "model": "Model(\n  (embedding): Embedding(400000, 100)\n  (conv1): Conv2d(1, 100, kernel_size=(1, 100), stride=(1, 1))\n  (bn1): BatchNorm2d(100, eps=1e-05, momentum=0.1, affine=True, track_running_stats=True)\n  (conv2): Conv2d(1, 100, kernel_size=(3, 100), stride=(1, 1))\n  (bn2): BatchNorm2d(100, eps=1e-05, momentum=0.1, affine=True, track_running_stats=True)\n  (conv3): Conv2d(1, 100, kernel_size=(5, 100), stride=(1, 1))\n  (bn3): BatchNorm2d(100, eps=1e-05, momentum=0.1, affine=True, track_running_stats=True)\n  (fc1): Linear(in_features=300, out_features=50, bias=True)\n  (fc2): Linear(in_features=50, out_features=126, bias=True)\n  (dropout): Dropout(p=0.0)\n)",
    "train_start": "2018-12-09 18:05:59.987088",
    "train_finish": "2018-12-09 18:10:29.645180",
    "f1_scores": {
      "f1_score_2": 0.697077388894591,
      "f1_score_3": 0.7873671751002072,
      "f1_score_4": 0.7419130660390469
    },
    "pAtK_scores": {
      "pAtK_1": 0.9527939618644068,
      "pAtK_3": 0.807424081920904,
…
      0.07168506435781322,
      0.031021441677602915,
      0.026097318097468344,
      0.02364944658141435,
      0.022086734931202043,
      0.02103444583629182,
      0.020245513078214095,
      0.019611329250249734,
      0.019061524954675724,
      0.01864636844409315
    ],
    "loss_vector": [
      0.0351169181956073,
      0.028208881806013948,
      0.02527732421028412,
      0.023816194511571173,
      0.022995644769931243,
      0.022620585036732383,
      0.022523180297496965,
      0.022083185707866135,
      0.0219372225514913,
      0.021761213792330127
    ],
    "model": "Model(\n  (embedding): Embedding(400000, 100)\n  (conv1): Conv2d(1, 100, kernel_size=(3, 100), stride=(1, 1))\n  (bn1): BatchNorm2d(100, eps=1e-05, momentum=0.1, affine=True, track_running_stats=True)\n  (conv2): Conv2d(1, 100, kernel_size=(4, 100), stride=(1, 1))\n  (bn2): BatchNorm2d(100, eps=1e-05, momentum=0.1, affine=True, track_running_stats=True)\n  (conv3): Conv2d(1, 100, kernel_size=(5, 100), stride=(1, 1))\n  (bn3): BatchNorm2d(100, eps=1e-05, momentum=0.1, affine=True, track_running_stats=True)\n  (fc1): Linear(in_features=300, out_features=50, bias=True)\n  (fc2): Linear(in_features=50, out_features=126, bias=True)\n  (dropout): Dropout(p=0.0)\n)",
    "train_start": "2018-12-09 18:09:44.845746",
    "train_finish": "2018-12-09 18:14:40.240269",
    "f1_scores": {
      "f1_score_2": 0.7029277429949707,
      "f1_score_3": 0.794060204987491,
      "f1_score_4": 0.7488533278972582
    },
    "pAtK_scores": {
      "pAtK_1": 0.9553098516949152,
      "pAtK_3": 0.8142876059322034,
…
      0.07711156495834437,
      0.033677998385913455,
      0.02780381762961622,
      0.02518334518941349,
      0.02357773502945787,
      0.022411549205854676,
      0.021521271342514137,
      0.020862202211309657,
      0.02029834475290504,
      0.019845949150127072
    ],
    "loss_vector": [
      0.03957880231536041,
      0.029749344466096263,
      0.026661263368392394,
      0.025260002178660895,
      0.02418411942988129,
      0.023549584072020093,
      0.02323969481986458,
      0.022777307778596878,
      0.022762011105226257,
      0.022753826168886687
    ],
    "model": "Model(\n  (embedding): Embedding(400000, 100)\n  (conv1): Conv2d(1, 100, kernel_size=(1, 100), stride=(1, 1))\n  (bn1): BatchNorm2d(100, eps=1e-05, momentum=0.1, affine=True, track_running_stats=True)\n  (conv2): Conv2d(1, 100, kernel_size=(4, 100), stride=(1, 1))\n  (bn2): BatchNorm2d(100, eps=1e-05, momentum=0.1, affine=True, track_running_stats=True)\n  (conv3): Conv2d(1, 100, kernel_size=(7, 100), stride=(1, 1))\n  (bn3): BatchNorm2d(100, eps=1e-05, momentum=0.1, affine=True, track_running_stats=True)\n  (fc1): Linear(in_features=300, out_features=50, bias=True)\n  (fc2): Linear(in_features=50, out_features=126, bias=True)\n  (dropout): Dropout(p=0.0)\n)",
    "train_start": "2018-12-09 18:10:10.894563",
    "train_finish": "2018-12-09 18:14:58.609171",
    "f1_scores": {
      "f1_score_2": 0.698616955763112,
      "f1_score_3": 0.7904661985849945,
      "f1_score_4": 0.7457770035488922
    },
    "pAtK_scores": {
      "pAtK_1": 0.9533567266949152,
      "pAtK_3": 0.8106020480225988,
…
      0.06212000663355134,
      0.031482665592793946,
      0.02641875842900724,
      0.024173115491442933,
      0.022810136213672456,
      0.02187633331674213,
      0.02116135698327869,
      0.02062930516630015,
      0.02019451309059105,
      0.01983121349926918
    ],
    "loss_vector": [
      0.03619593025137812,
      0.028108181589740818,
      0.025308137254442198,
      0.02383547936076835,
      0.02318086689811642,
      0.0225718726988061,
      0.02217697655245409,
      0.02175969917769149,
      0.021619889364277913,
      0.021356929725004456
    ],
    "model": "Model(\n  (embedding): Embedding(400000, 50)\n  (conv1): Conv2d(1, 100, kernel_size=(1, 50), stride=(1, 1))\n  (bn1): BatchNorm2d(100, eps=1e-05, momentum=0.1, affine=True, track_running_stats=True)\n  (conv2): Conv2d(1, 100, kernel_size=(3, 50), stride=(1, 1))\n  (bn2): BatchNorm2d(100, eps=1e-05, momentum=0.1, affine=True, track_running_stats=True)\n  (conv3): Conv2d(1, 100, kernel_size=(5, 50), stride=(1, 1))\n  (bn3): BatchNorm2d(100, eps=1e-05, momentum=0.1, affine=True, track_running_stats=True)\n  (fc1): Linear(in_features=300, out_features=100, bias=True)\n  (fc2): Linear(in_features=100, out_features=126, bias=True)\n  (dropout): Dropout(p=0.0)\n)",
    "train_start": "2018-12-09 18:14:44.394117",
    "train_finish": "2018-12-09 18:18:55.314440",
    "f1_scores": {
      "f1_score_2": 0.7010032844093195,
      "f1_score_3": 0.7920479918220213,
      "f1_score_4": 0.7464441582268512
    },
    "pAtK_scores": {
      "pAtK_1": 0.9532905190677966,
      "pAtK_3": 0.8122241348870056,
…
      0.06163040359824387,
      0.031297989115401735,
      0.026138238736076645,
      0.023879587484180814,
      0.022516846370510404,
      0.021572191752422695,
      0.02086200537531154,
      0.020302998502888987,
      0.01984761299766897,
      0.019454948964618867
    ],
    "loss_vector": [
      0.03610638248086986,
      0.027854568025065682,
      0.02520549635134511,
      0.0237944192110987,
      0.02297075452693438,
      0.022324794335132937,
      0.02195995480958688,
      0.02165927540637174,
      0.021637726890838753,
      0.02137348930335651
    ],
    "model": "Model(\n  (embedding): Embedding(400000, 50)\n  (conv1): Conv2d(1, 100, kernel_size=(3, 50), stride=(1, 1))\n  (bn1): BatchNorm2d(100, eps=1e-05, momentum=0.1, affine=True, track_running_stats=True)\n  (conv2): Conv2d(1, 100, kernel_size=(4, 50), stride=(1, 1))\n  (bn2): BatchNorm2d(100, eps=1e-05, momentum=0.1, affine=True, track_running_stats=True)\n  (conv3): Conv2d(1, 100, kernel_size=(5, 50), stride=(1, 1))\n  (bn3): BatchNorm2d(100, eps=1e-05, momentum=0.1, affine=True, track_running_stats=True)\n  (fc1): Linear(in_features=300, out_features=100, bias=True)\n  (fc2): Linear(in_features=100, out_features=126, bias=True)\n  (dropout): Dropout(p=0.0)\n)",
    "train_start": "2018-12-09 18:19:15.437345",
    "train_finish": "2018-12-09 18:23:31.776673",
    "f1_scores": {
      "f1_score_2": 0.7003617982141024,
      "f1_score_3": 0.7917789793667447,
      "f1_score_4": 0.7471669091279732
    },
    "pAtK_scores": {
      "pAtK_1": 0.9522311970338984,
      "pAtK_3": 0.8119482697740112,
…
      0.06585048194939316,
      0.033335077500348975,
      0.02796535274858606,
      0.025322496152325645,
      0.023770608972807538,
      0.02267755632354141,
      0.0218743881532318,
      0.021202458210105687,
      0.020712858143720272,
      0.020286136237900897
    ],
    "loss_vector": [
      0.03769856498781907,
      0.029904296590110003,
      0.026761532050825782,
      0.025205720089754816,
      0.024153008551920874,
      0.023410945183644862,
      0.022898352973289408,
      0.02274880144681971,
      0.022197790759599816,
      0.022168370942443102
    ],
    "model": "Model(\n  (embedding): Embedding(400000, 50)\n  (conv1): Conv2d(1, 100, kernel_size=(1, 50), stride=(1, 1))\n  (bn1): BatchNorm2d(100, eps=1e-05, momentum=0.1, affine=True, track_running_stats=True)\n  (conv2): Conv2d(1, 100, kernel_size=(4, 50), stride=(1, 1))\n  (bn2): BatchNorm2d(100, eps=1e-05, momentum=0.1, affine=True, track_running_stats=True)\n  (conv3): Conv2d(1, 100, kernel_size=(7, 50), stride=(1, 1))\n  (bn3): BatchNorm2d(100, eps=1e-05, momentum=0.1, affine=True, track_running_stats=True)\n  (fc1): Linear(in_features=300, out_features=100, bias=True)\n  (fc2): Linear(in_features=100, out_features=126, bias=True)\n  (dropout): Dropout(p=0.0)\n)",
    "train_start": "2018-12-09 18:19:30.235041",
    "train_finish": "2018-12-09 18:23:51.252186",
    "f1_scores": {
      "f1_score_2": 0.6977317048137124,
      "f1_score_3": 0.7895623167352649,
      "f1_score_4": 0.745350765837974
    },
    "pAtK_scores": {
      "pAtK_1": 0.952198093220339,
      "pAtK_3": 0.8096751412429378,
…
      0.057852439317265546,
      0.028226998586921584,
      0.023742051579524717,
      0.02163099903309368,
      0.02038657524935774,
      0.01946413637522389,
      0.018816834391647882,
      0.018268238572824384,
      0.017848232584303878,
      0.017436922040098193
    ],
    "loss_vector": [
      0.03207004711158195,
      0.025491480636647194,
      0.022962849366210274,
      0.02199808227182445,
      0.02113591293977984,
      0.02083302980636136,
      0.020402017775607312,
      0.02014088032419904,
      0.020162105386666324,
      0.01990155462112467
    ],
    "model": "Model(\n  (embedding): Embedding(400000, 100)\n  (conv1): Conv2d(1, 100, kernel_size=(1, 100), stride=(1, 1))\n  (bn1): BatchNorm2d(100, eps=1e-05, momentum=0.1, affine=True, track_running_stats=True)\n  (conv2): Conv2d(1, 100, kernel_size=(3, 100), stride=(1, 1))\n  (bn2): BatchNorm2d(100, eps=1e-05, momentum=0.1, affine=True, track_running_stats=True)\n  (conv3): Conv2d(1, 100, kernel_size=(5, 100), stride=(1, 1))\n  (bn3): BatchNorm2d(100, eps=1e-05, momentum=0.1, affine=True, track_running_stats=True)\n  (fc1): Linear(in_features=300, out_features=100, bias=True)\n  (fc2): Linear(in_features=100, out_features=126, bias=True)\n  (dropout): Dropout(p=0.0)\n)",
    "train_start": "2018-12-09 18:23:02.480578",
    "train_finish": "2018-12-09 18:27:38.201182",
    "f1_scores": {
      "f1_score_2": 0.706430257620856,
      "f1_score_3": 0.8000430419928443,
      "f1_score_4": 0.7544129502135821
    },
    "pAtK_scores": {
      "pAtK_1": 0.9553760593220338,
      "pAtK_3": 0.8204228460451978,
…
      0.060079592949864535,
      0.02889646527550026,
      0.02404913975657503,
      0.021821406074363094,
      0.020450263929180448,
      0.019503359567988984,
      0.01874275648157047,
      0.01817013862837933,
      0.01765998648002433,
      0.01727589974763045
    ],
    "loss_vector": [
      0.03337632710019411,
      0.025937984681735606,
      0.023305088250061213,
      0.02206818415325577,
      0.021276976487015264,
      0.020923005432774453,
      0.020875516363372235,
      0.020413824988497517,
      0.02050996074547707,
      0.020278226347419166
    ],
    "model": "Model(\n  (embedding): Embedding(400000, 100)\n  (conv1): Conv2d(1, 100, kernel_size=(3, 100), stride=(1, 1))\n  (bn1): BatchNorm2d(100, eps=1e-05, momentum=0.1, affine=True, track_running_stats=True)\n  (conv2): Conv2d(1, 100, kernel_size=(4, 100), stride=(1, 1))\n  (bn2): BatchNorm2d(100, eps=1e-05, momentum=0.1, affine=True, track_running_stats=True)\n  (conv3): Conv2d(1, 100, kernel_size=(5, 100), stride=(1, 1))\n  (bn3): BatchNorm2d(100, eps=1e-05, momentum=0.1, affine=True, track_running_stats=True)\n  (fc1): Linear(in_features=300, out_features=100, bias=True)\n  (fc2): Linear(in_features=100, out_features=126, bias=True)\n  (dropout): Dropout(p=0.0)\n)",
    "train_start": "2018-12-09 18:27:44.564427",
    "train_finish": "2018-12-09 18:32:36.777714",
    "f1_scores": {
      "f1_score_2": 0.7065585548598994,
      "f1_score_3": 0.7993543701073359,
      "f1_score_4": 0.7531435031180215
    },
    "pAtK_scores": {
      "pAtK_1": 0.9558726165254238,
      "pAtK_3": 0.8197166313559322,
…
      0.05908368534251227,
      0.028647629784480218,
      0.024205427309339143,
      0.022052174416393663,
      0.020680393295564054,
      0.019737575715672813,
      0.018986958010118647,
      0.01837846557954344,
      0.0179217288896187,
      0.017462265944599653
    ],
    "loss_vector": [
      0.03252722177717645,
      0.02612795838612621,
      0.023741619061615506,
      0.022864817247047264,
      0.021971406509815637,
      0.021211155437690726,
      0.02090367253364648,
      0.02087775927226422,
      0.020558040162895697,
      0.020693588417844248
    ],
    "model": "Model(\n  (embedding): Embedding(400000, 100)\n  (conv1): Conv2d(1, 100, kernel_size=(1, 100), stride=(1, 1))\n  (bn1): BatchNorm2d(100, eps=1e-05, momentum=0.1, affine=True, track_running_stats=True)\n  (conv2): Conv2d(1, 100, kernel_size=(4, 100), stride=(1, 1))\n  (bn2): BatchNorm2d(100, eps=1e-05, momentum=0.1, affine=True, track_running_stats=True)\n  (conv3): Conv2d(1, 100, kernel_size=(7, 100), stride=(1, 1))\n  (bn3): BatchNorm2d(100, eps=1e-05, momentum=0.1, affine=True, track_running_stats=True)\n  (fc1): Linear(in_features=300, out_features=100, bias=True)\n  (fc2): Linear(in_features=100, out_features=126, bias=True)\n  (dropout): Dropout(p=0.0)\n)",
    "train_start": "2018-12-09 18:28:04.815332",
    "train_finish": "2018-12-09 18:33:00.826129",
    "f1_scores": {
      "f1_score_2": 0.7046597557220569,
      "f1_score_3": 0.7980631103220079,
      "f1_score_4": 0.7523188258077668
    },
    "pAtK_scores": {
      "pAtK_1": 0.9556408898305084,
      "pAtK_3": 0.8183924788135594,
…
      0.16877865319120816,
      0.0675392293599231,
      0.057756479688172546,
      0.05352560027840016,
      0.05133256846349651,
      0.04984567739931863,
      0.04877989849453859,
      0.047875136610622426,
      0.0471394000825891,
      0.046557006434991645
    ],
    "loss_vector": [
      0.07463359807507466,
      0.061235594673682066,
      0.054823868797492174,
      0.05218650823680021,
      0.050614668024798574,
      0.049421683143256075,
      0.0487976288896496,
      0.047964501368292306,
      0.047616265840449576,
      0.046999450204736094
    ],
    "model": "Model(\n  (embedding): Embedding(400000, 50)\n  (conv1): Conv2d(1, 150, kernel_size=(1, 50), stride=(1, 1))\n  (bn1): BatchNorm2d(150, eps=1e-05, momentum=0.1, affine=True, track_running_stats=True)\n  (conv2): Conv2d(1, 150, kernel_size=(3, 50), stride=(1, 1))\n  (bn2): BatchNorm2d(150, eps=1e-05, momentum=0.1, affine=True, track_running_stats=True)\n  (conv3): Conv2d(1, 150, kernel_size=(5, 50), stride=(1, 1))\n  (bn3): BatchNorm2d(150, eps=1e-05, momentum=0.1, affine=True, track_running_stats=True)\n  (fc1): Linear(in_features=450, out_features=10, bias=True)\n  (fc2): Linear(in_features=10, out_features=126, bias=True)\n  (dropout): Dropout(p=0.0)\n)",
    "train_start": "2018-12-09 18:31:53.397759",
    "train_finish": "2018-12-09 18:37:02.826992",
    "f1_scores": {
      "f1_score_2": 0.5875628656471312,
      "f1_score_3": 0.6195572054986147,
      "f1_score_4": 0.5993365517369187
    },
    "pAtK_scores": {
      "pAtK_1": 0.9137314618644068,
      "pAtK_3": 0.6353394244350282,
…
      0.1382972646992392,
      0.04481454643171698,
      0.037559752315424196,
      0.034118181978135,
      0.03211773587019665,
      0.030716830150593618,
      0.0296670738148169,
      0.028887136823425256,
      0.028307117030476937,
      0.027757919518952127
    ],
    "loss_vector": [
      0.05107530067532749,
      0.03991185854804718,
      0.035690319266612244,
      0.033468032729322625,
      0.03211093233045885,
      0.031182086726619027,
      0.03053923519486088,
      0.030151448228349118,
      0.029992145975514993,
      0.02952841290477979
    ],
    "model": "Model(\n  (embedding): Embedding(400000, 50)\n  (conv1): Conv2d(1, 150, kernel_size=(3, 50), stride=(1, 1))\n  (bn1): BatchNorm2d(150, eps=1e-05, momentum=0.1, affine=True, track_running_stats=True)\n  (conv2): Conv2d(1, 150, kernel_size=(4, 50), stride=(1, 1))\n  (bn2): BatchNorm2d(150, eps=1e-05, momentum=0.1, affine=True, track_running_stats=True)\n  (conv3): Conv2d(1, 150, kernel_size=(5, 50), stride=(1, 1))\n  (bn3): BatchNorm2d(150, eps=1e-05, momentum=0.1, affine=True, track_running_stats=True)\n  (fc1): Linear(in_features=450, out_features=10, bias=True)\n  (fc2): Linear(in_features=10, out_features=126, bias=True)\n  (dropout): Dropout(p=0.0)\n)",
    "train_start": "2018-12-09 18:37:08.764100",
    "train_finish": "2018-12-09 18:42:43.758987",
    "f1_scores": {
      "f1_score_2": 0.6731242943651854,
      "f1_score_3": 0.7546337395421407,
      "f1_score_4": 0.7114092715968162
    },
    "pAtK_scores": {
      "pAtK_1": 0.949318061440678,
      "pAtK_3": 0.7738568149717514,
…
      0.14931210840873746,
      0.05838788460508922,
      0.04962294297098435,
      0.045202874707542286,
      0.04272425561379889,
      0.04121416698314207,
      0.04009169070103137,
      0.03911526170355998,
      0.03841004752513354,
      0.03783703882395656
    ],
    "loss_vector": [
      0.06518355030882156,
      0.05261140019964364,
      0.04661711482173306,
      0.04468194616295523,
      0.04219941005615865,
      0.041235324753037955,
      0.040472912333779414,
      0.03988166121860682,
      0.039588281979500234,
      0.03941117650118925
    ],
    "model": "Model(\n  (embedding): Embedding(400000, 50)\n  (conv1): Conv2d(1, 150, kernel_size=(1, 50), stride=(1, 1))\n  (bn1): BatchNorm2d(150, eps=1e-05, momentum=0.1, affine=True, track_running_stats=True)\n  (conv2): Conv2d(1, 150, kernel_size=(4, 50), stride=(1, 1))\n  (bn2): BatchNorm2d(150, eps=1e-05, momentum=0.1, affine=True, track_running_stats=True)\n  (conv3): Conv2d(1, 150, kernel_size=(7, 50), stride=(1, 1))\n  (bn3): BatchNorm2d(150, eps=1e-05, momentum=0.1, affine=True, track_running_stats=True)\n  (fc1): Linear(in_features=450, out_features=10, bias=True)\n  (fc2): Linear(in_features=10, out_features=126, bias=True)\n  (dropout): Dropout(p=0.0)\n)",
    "train_start": "2018-12-09 18:37:31.475316",
    "train_finish": "2018-12-09 18:42:52.577766",
    "f1_scores": {
      "f1_score_2": 0.6259493995689213,
      "f1_score_3": 0.6910069136201007,
      "f1_score_4": 0.6526903938992411
    },
    "pAtK_scores": {
      "pAtK_1": 0.9355137711864406,
      "pAtK_3": 0.7086091984463276,
…
      0.18812612346612073,
      0.07596857745405393,
      0.06995206927099536,
      0.06679774135831863,
      0.06524118458749674,
      0.06412882764295337,
      0.06324499824298174,
      0.0625289875724171,
      0.06195572653407164,
      0.0612615979288968
    ],
    "loss_vector": [
      0.07897503446724455,
      0.07228955601231526,
      0.06774782073699821,
      0.06589673630009263,
      0.06483934175665096,
      0.06384388875153105,
      0.06323579357842267,
      0.06265034185627759,
      0.062737195863057,
      0.06185743572600817
    ],
    "model": "Model(\n  (embedding): Embedding(400000, 100)\n  (conv1): Conv2d(1, 150, kernel_size=(1, 100), stride=(1, 1))\n  (bn1): BatchNorm2d(150, eps=1e-05, momentum=0.1, affine=True, track_running_stats=True)\n  (conv2): Conv2d(1, 150, kernel_size=(3, 100), stride=(1, 1))\n  (bn2): BatchNorm2d(150, eps=1e-05, momentum=0.1, affine=True, track_running_stats=True)\n  (conv3): Conv2d(1, 150, kernel_size=(5, 100), stride=(1, 1))\n  (bn3): BatchNorm2d(150, eps=1e-05, momentum=0.1, affine=True, track_running_stats=True)\n  (fc1): Linear(in_features=450, out_features=10, bias=True)\n  (fc2): Linear(in_features=10, out_features=126, bias=True)\n  (dropout): Dropout(p=0.0)\n)",
    "train_start": "2018-12-09 18:41:42.203111",
    "train_finish": "2018-12-09 18:47:58.856704",
    "f1_scores": {
      "f1_score_2": 0.5102637791234732,
      "f1_score_3": 0.5205821429532188,
      "f1_score_4": 0.5014223367092596
    },
    "pAtK_scores": {
      "pAtK_1": 0.8695047669491526,
      "pAtK_3": 0.5338431320621468,
…
      0.13832153156541105,
      0.045017765364848236,
      0.03743976662801384,
      0.0339850178783657,
      0.0319037608470082,
      0.030475173721644863,
      0.0293430050470967,
      0.028534330516007414,
      0.02775688481073565,
      0.0271962101604839
    ],
    "loss_vector": [
      0.05266336964096053,
      0.03994171965425297,
      0.03574219671220093,
      0.033588880420488826,
      0.03238681343904996,
      0.031419837468508946,
      0.030986294466055046,
      0.0306647009831869,
      0.030226848356552042,
      0.02995343986204115
    ],
    "model": "Model(\n  (embedding): Embedding(400000, 100)\n  (conv1): Conv2d(1, 150, kernel_size=(1, 100), stride=(1, 1))\n  (bn1): BatchNorm2d(150, eps=1e-05, momentum=0.1, affine=True, track_running_stats=True)\n  (conv2): Conv2d(1, 150, kernel_size=(4, 100), stride=(1, 1))\n  (bn2): BatchNorm2d(150, eps=1e-05, momentum=0.1, affine=True, track_running_stats=True)\n  (conv3): Conv2d(1, 150, kernel_size=(7, 100), stride=(1, 1))\n  (bn3): BatchNorm2d(150, eps=1e-05, momentum=0.1, affine=True, track_running_stats=True)\n  (fc1): Linear(in_features=450, out_features=10, bias=True)\n  (fc2): Linear(in_features=10, out_features=126, bias=True)\n  (dropout): Dropout(p=0.0)\n)",
    "train_start": "2018-12-09 18:47:46.279231",
    "train_finish": "2018-12-09 18:54:40.754427",
    "f1_scores": {
      "f1_score_2": 0.6715205788771427,
      "f1_score_3": 0.7522771904339172,
      "f1_score_4": 0.7085090019551339
    },
    "pAtK_scores": {
      "pAtK_1": 0.9518670550847458,
      "pAtK_3": 0.771440236581921,
…
      0.17513713803304892,
      0.06279696541815374,
      0.05275011001829857,
      0.048813358274424554,
      0.046792919696282166,
      0.04545832918055596,
      0.04446598743945643,
      0.04360200712135666,
      0.04284759258155126,
      0.04224592961187155
    ],
    "loss_vector": [
      0.0705630973739139,
      0.055855764802229604,
      0.05023781506944511,
      0.047913266503709855,
      0.0464764845447015,
      0.04576274285377082,
      0.04501645443803173,
      0.0446539954361269,
      0.04435635812706867,
      0.04385987372469094
    ],
    "model": "Model(\n  (embedding): Embedding(400000, 100)\n  (conv1): Conv2d(1, 150, kernel_size=(3, 100), stride=(1, 1))\n  (bn1): BatchNorm2d(150, eps=1e-05, momentum=0.1, affine=True, track_running_stats=True)\n  (conv2): Conv2d(1, 150, kernel_size=(4, 100), stride=(1, 1))\n  (bn2): BatchNorm2d(150, eps=1e-05, momentum=0.1, affine=True, track_running_stats=True)\n  (conv3): Conv2d(1, 150, kernel_size=(5, 100), stride=(1, 1))\n  (bn3): BatchNorm2d(150, eps=1e-05, momentum=0.1, affine=True, track_running_stats=True)\n  (fc1): Linear(in_features=450, out_features=10, bias=True)\n  (fc2): Linear(in_features=10, out_features=126, bias=True)\n  (dropout): Dropout(p=0.0)\n)",
    "train_start": "2018-12-09 18:47:47.581109",
    "train_finish": "2018-12-09 18:54:56.162909",
    "f1_scores": {
      "f1_score_2": 0.6101944986143898,
      "f1_score_3": 0.6582519570656121,
      "f1_score_4": 0.6264860407149674
    },
    "pAtK_scores": {
      "pAtK_1": 0.938228283898305,
      "pAtK_3": 0.6750198622881356,
…
      0.08108898040889789,
      0.03496345947982577,
      0.029622711608826097,
      0.026905117362059045,
      0.025263814252060778,
      0.02420713775481965,
      0.02333682580043401,
      0.022735595091668434,
      0.02227421296474151,
      0.021833884400762688
    ],
    "loss_vector": [
      0.03927022944820129,
      0.03148972252541679,
      0.0282934067802409,
      0.026648977203136782,
      0.02544958277021424,
      0.02474125288426876,
      0.024331062369174875,
      0.023953868044634997,
      0.023732581633632465,
      0.023836166897820213
    ],
    "model": "Model(\n  (embedding): Embedding(400000, 50)\n  (conv1): Conv2d(1, 150, kernel_size=(1, 50), stride=(1, 1))\n  (bn1): BatchNorm2d(150, eps=1e-05, momentum=0.1, affine=True, track_running_stats=True)\n  (conv2): Conv2d(1, 150, kernel_size=(3, 50), stride=(1, 1))\n  (bn2): BatchNorm2d(150, eps=1e-05, momentum=0.1, affine=True, track_running_stats=True)\n  (conv3): Conv2d(1, 150, kernel_size=(5, 50), stride=(1, 1))\n  (bn3): BatchNorm2d(150, eps=1e-05, momentum=0.1, affine=True, track_running_stats=True)\n  (fc1): Linear(in_features=450, out_features=30, bias=True)\n  (fc2): Linear(in_features=30, out_features=126, bias=True)\n  (dropout): Dropout(p=0.0)\n)",
    "train_start": "2018-12-09 18:53:47.928229",
    "train_finish": "2018-12-09 18:58:44.171215",
    "f1_scores": {
      "f1_score_2": 0.6936005337165143,
      "f1_score_3": 0.782212896457106,
      "f1_score_4": 0.7383734398309874
    },
    "pAtK_scores": {
      "pAtK_1": 0.9525291313559322,
      "pAtK_3": 0.8021385063559322,
…
      0.09086824822782114,
      0.03784359602763033,
      0.03235601067571305,
      0.029329606909764334,
      0.027359933449234635,
      0.02599465491805063,
      0.025031935667488334,
      0.024301586492407705,
      0.023756357401157013,
      0.023278819768207122
    ],
    "loss_vector": [
      0.04207133425999496,
      0.03428548457637682,
      0.03086220757183382,
      0.028881773826176838,
      0.027567618794865526,
      0.02676326674172434,
      0.02638164535164833,
      0.026021531262135102,
      0.02590671131166361,
      0.02553916409990545
    ],
    "model": "Model(\n  (embedding): Embedding(400000, 50)\n  (conv1): Conv2d(1, 150, kernel_size=(1, 50), stride=(1, 1))\n  (bn1): BatchNorm2d(150, eps=1e-05, momentum=0.1, affine=True, track_running_stats=True)\n  (conv2): Conv2d(1, 150, kernel_size=(4, 50), stride=(1, 1))\n  (bn2): BatchNorm2d(150, eps=1e-05, momentum=0.1, affine=True, track_running_stats=True)\n  (conv3): Conv2d(1, 150, kernel_size=(7, 50), stride=(1, 1))\n  (bn3): BatchNorm2d(150, eps=1e-05, momentum=0.1, affine=True, track_running_stats=True)\n  (fc1): Linear(in_features=450, out_features=30, bias=True)\n  (fc2): Linear(in_features=30, out_features=126, bias=True)\n  (dropout): Dropout(p=0.0)\n)",
    "train_start": "2018-12-09 19:01:14.399446",
    "train_finish": "2018-12-09 19:06:33.609971",
    "f1_scores": {
      "f1_score_2": 0.6885584522221082,
      "f1_score_3": 0.7760040889893202,
      "f1_score_4": 0.7320632685019598
    },
    "pAtK_scores": {
      "pAtK_1": 0.9513042902542372,
      "pAtK_3": 0.7957715395480226,
…
      0.08148002370032685,
      0.03563105323806094,
      0.030016554197900887,
      0.027194663755016037,
      0.025503900131843348,
      0.024360397851812092,
      0.023555223011823487,
      0.02295872266890315,
      0.022441792625234068,
      0.022002877989179496
    ],
    "loss_vector": [
      0.039880905552940854,
      0.031990641538622015,
      0.028577650439436154,
      0.026878673046574753,
      0.025851106586850296,
      0.025378765822467158,
      0.02486316875507266,
      0.024472094251442762,
      0.02438980814511493,
      0.024334284050737398
    ],
    "model": "Model(\n  (embedding): Embedding(400000, 50)\n  (conv1): Conv2d(1, 150, kernel_size=(3, 50), stride=(1, 1))\n  (bn1): BatchNorm2d(150, eps=1e-05, momentum=0.1, affine=True, track_running_stats=True)\n  (conv2): Conv2d(1, 150, kernel_size=(4, 50), stride=(1, 1))\n  (bn2): BatchNorm2d(150, eps=1e-05, momentum=0.1, affine=True, track_running_stats=True)\n  (conv3): Conv2d(1, 150, kernel_size=(5, 50), stride=(1, 1))\n  (bn3): BatchNorm2d(150, eps=1e-05, momentum=0.1, affine=True, track_running_stats=True)\n  (fc1): Linear(in_features=450, out_features=30, bias=True)\n  (fc2): Linear(in_features=30, out_features=126, bias=True)\n  (dropout): Dropout(p=0.0)\n)",
    "train_start": "2018-12-09 19:01:44.754309",
    "train_finish": "2018-12-09 19:07:20.063277",
    "f1_scores": {
      "f1_score_2": 0.6932413014471929,
      "f1_score_3": 0.7821268124714175,
      "f1_score_4": 0.7379842662688447
    },
    "pAtK_scores": {
      "pAtK_1": 0.9525622351694916,
      "pAtK_3": 0.802050229519774,
…
      0.09832755984487525,
      0.04113309503845743,
      0.033414907806484026,
      0.02986302568207882,
      0.02788881783636969,
      0.02657529015440416,
      0.025648307864619614,
      0.024903293186533608,
      0.02428193272672862,
      0.02374675011781859
    ],
    "loss_vector": [
      0.046957903683690704,
      0.03602415083323495,
      0.0314996345757933,
      0.029317078164826007,
      0.028141874283299607,
      0.027452902868390083,
      0.027170772553753046,
      0.02661159066325527,
      0.026524652206039025,
      0.026547085367521997
    ],
    "model": "Model(\n  (embedding): Embedding(400000, 100)\n  (conv1): Conv2d(1, 150, kernel_size=(1, 100), stride=(1, 1))\n  (bn1): BatchNorm2d(150, eps=1e-05, momentum=0.1, affine=True, track_running_stats=True)\n  (conv2): Conv2d(1, 150, kernel_size=(3, 100), stride=(1, 1))\n  (bn2): BatchNorm2d(150, eps=1e-05, momentum=0.1, affine=True, track_running_stats=True)\n  (conv3): Conv2d(1, 150, kernel_size=(5, 100), stride=(1, 1))\n  (bn3): BatchNorm2d(150, eps=1e-05, momentum=0.1, affine=True, track_running_stats=True)\n  (fc1): Linear(in_features=450, out_features=30, bias=True)\n  (fc2): Linear(in_features=30, out_features=126, bias=True)\n  (dropout): Dropout(p=0.0)\n)",
    "train_start": "2018-12-09 19:03:20.573330",
    "train_finish": "2018-12-09 19:09:38.974966",
    "f1_scores": {
      "f1_score_2": 0.6847865133942318,
      "f1_score_3": 0.7724638850778791,
      "f1_score_4": 0.7273561216074721
    },
    "pAtK_scores": {
      "pAtK_1": 0.9517677436440678,
      "pAtK_3": 0.792141154661017,
…
      0.08256267157491064,
      0.03354080962953803,
      0.02813689297231257,
      0.025372050709640732,
      0.023684904647308914,
      0.02252395167254067,
      0.021596824962370084,
      0.02088928156915833,
      0.0202615117544637,
      0.019784473826440732
    ],
    "loss_vector": [
      0.03782291887170178,
      0.03025648184120655,
      0.027162161482087638,
      0.02545331229092711,
      0.024583105187294847,
      0.023947244446914075,
      0.023623952263240086,
      0.023318442973797603,
      0.02328634868233891,
      0.02311689084616758
    ],
    "model": "Model(\n  (embedding): Embedding(400000, 100)\n  (conv1): Conv2d(1, 150, kernel_size=(1, 100), stride=(1, 1))\n  (bn1): BatchNorm2d(150, eps=1e-05, momentum=0.1, affine=True, track_running_stats=True)\n  (conv2): Conv2d(1, 150, kernel_size=(4, 100), stride=(1, 1))\n  (bn2): BatchNorm2d(150, eps=1e-05, momentum=0.1, affine=True, track_running_stats=True)\n  (conv3): Conv2d(1, 150, kernel_size=(7, 100), stride=(1, 1))\n  (bn3): BatchNorm2d(150, eps=1e-05, momentum=0.1, affine=True, track_running_stats=True)\n  (fc1): Linear(in_features=450, out_features=30, bias=True)\n  (fc2): Linear(in_features=30, out_features=126, bias=True)\n  (dropout): Dropout(p=0.0)\n)",
    "train_start": "2018-12-09 19:11:28.025696",
    "train_finish": "2018-12-09 19:18:28.656374",
    "f1_scores": {
      "f1_score_2": 0.698386020732834,
      "f1_score_3": 0.7889274473408119,
      "f1_score_4": 0.7433215036925158
    },
    "pAtK_scores": {
      "pAtK_1": 0.9550119173728814,
      "pAtK_3": 0.8090240995762712,
…
      0.09126914279849978,
      0.03595461681188284,
      0.030027161230398537,
      0.027191061844635732,
      0.025465006683820565,
      0.024240960096639973,
      0.023322678208209758,
      0.022571780847869743,
      0.021899481842990617,
      0.02140799310744035
    ],
    "loss_vector": [
      0.04093608304353084,
      0.03211208151937541,
      0.028814504554463646,
      0.027070406729639587,
      0.026354246693900078,
      0.02575090271815405,
      0.025346542661220342,
      0.024936774429880966,
      0.02477280192582284,
      0.024893641440292536
    ],
    "model": "Model(\n  (embedding): Embedding(400000, 100)\n  (conv1): Conv2d(1, 150, kernel_size=(3, 100), stride=(1, 1))\n  (bn1): BatchNorm2d(150, eps=1e-05, momentum=0.1, affine=True, track_running_stats=True)\n  (conv2): Conv2d(1, 150, kernel_size=(4, 100), stride=(1, 1))\n  (bn2): BatchNorm2d(150, eps=1e-05, momentum=0.1, affine=True, track_running_stats=True)\n  (conv3): Conv2d(1, 150, kernel_size=(5, 100), stride=(1, 1))\n  (bn3): BatchNorm2d(150, eps=1e-05, momentum=0.1, affine=True, track_running_stats=True)\n  (fc1): Linear(in_features=450, out_features=30, bias=True)\n  (fc2): Linear(in_features=30, out_features=126, bias=True)\n  (dropout): Dropout(p=0.0)\n)",
    "train_start": "2018-12-09 19:12:26.964529",
    "train_finish": "2018-12-09 19:19:46.061114",
    "f1_scores": {
      "f1_score_2": 0.6915221184440111,
      "f1_score_3": 0.7804158932558578,
      "f1_score_4": 0.7345002362839483
    },
    "pAtK_scores": {
      "pAtK_1": 0.9551443326271186,
      "pAtK_3": 0.80029572740113,
…
      0.07560223589812103,
      0.034538124527153075,
      0.028941209553484674,
      0.026258630519008275,
      0.024655118174638876,
      0.023506851075128767,
      0.022713076008706437,
      0.022107364744145912,
      0.021598418138963675,
      0.021213688207277762
    ],
    "loss_vector": [
      0.03923562049108036,
      0.03084058567123898,
      0.02752482793214968,
      0.025941067801441176,
      0.024795882277569528,
      0.024070480680566723,
      0.023790420364525357,
      0.023397877180980423,
      0.023127604781065958,
      0.02301161265853098
    ],
    "model": "Model(\n  (embedding): Embedding(400000, 50)\n  (conv1): Conv2d(1, 150, kernel_size=(1, 50), stride=(1, 1))\n  (bn1): BatchNorm2d(150, eps=1e-05, momentum=0.1, affine=True, track_running_stats=True)\n  (conv2): Conv2d(1, 150, kernel_size=(3, 50), stride=(1, 1))\n  (bn2): BatchNorm2d(150, eps=1e-05, momentum=0.1, affine=True, track_running_stats=True)\n  (conv3): Conv2d(1, 150, kernel_size=(5, 50), stride=(1, 1))\n  (bn3): BatchNorm2d(150, eps=1e-05, momentum=0.1, affine=True, track_running_stats=True)\n  (fc1): Linear(in_features=450, out_features=50, bias=True)\n  (fc2): Linear(in_features=50, out_features=126, bias=True)\n  (dropout): Dropout(p=0.0)\n)",
    "train_start": "2018-12-09 19:15:27.678822",
    "train_finish": "2018-12-09 19:20:27.232771",
    "f1_scores": {
      "f1_score_2": 0.6972441753053474,
      "f1_score_3": 0.787173486132408,
      "f1_score_4": 0.7427562754236896
    },
    "pAtK_scores": {
      "pAtK_1": 0.9541843220338984,
      "pAtK_3": 0.807225459039548,
…
      0.07197408679257761,
      0.03304671600772036,
      0.027994744988614286,
      0.025427003173719546,
      0.0238437264931496,
      0.022703116038633932,
      0.02191031226920109,
      0.02127977183523395,
      0.02073496336601604,
      0.020279965124868803
    ],
    "loss_vector": [
      0.03713817032590761,
      0.02988400979567382,
      0.02672445559400623,
      0.02523452510773125,
      0.02422037603870287,
      0.023859469883017622,
      0.023207422503727978,
      0.023079912572846573,
      0.02277971355844352,
      0.022786204182242944
    ],
    "model": "Model(\n  (embedding): Embedding(400000, 50)\n  (conv1): Conv2d(1, 150, kernel_size=(1, 50), stride=(1, 1))\n  (bn1): BatchNorm2d(150, eps=1e-05, momentum=0.1, affine=True, track_running_stats=True)\n  (conv2): Conv2d(1, 150, kernel_size=(4, 50), stride=(1, 1))\n  (bn2): BatchNorm2d(150, eps=1e-05, momentum=0.1, affine=True, track_running_stats=True)\n  (conv3): Conv2d(1, 150, kernel_size=(7, 50), stride=(1, 1))\n  (bn3): BatchNorm2d(150, eps=1e-05, momentum=0.1, affine=True, track_running_stats=True)\n  (fc1): Linear(in_features=450, out_features=50, bias=True)\n  (fc2): Linear(in_features=50, out_features=126, bias=True)\n  (dropout): Dropout(p=0.0)\n)",
    "train_start": "2018-12-09 19:25:03.838631",
    "train_finish": "2018-12-09 19:30:29.250187",
    "f1_scores": {
      "f1_score_2": 0.6961664784973828,
      "f1_score_3": 0.7867538267021764,
      "f1_score_4": 0.7422837075268021
    },
    "pAtK_scores": {
      "pAtK_1": 0.9507415254237288,
      "pAtK_3": 0.8067951094632768,
…
      0.06831025932358836,
      0.03101564822559452,
      0.026555466131648258,
      0.02409838279620859,
      0.022497988078015126,
      0.021360204514448287,
      0.020565683495755212,
      0.019863245828497793,
      0.01935864007012102,
      0.018870413229152193
    ],
    "loss_vector": [
      0.03451334372541662,
      0.02870242038773278,
      0.025688033677258734,
      0.024368794098243874,
      0.023146737430055263,
      0.022505688212685667,
      0.022195232526983244,
      0.021807104727979434,
      0.021844611929382307,
      0.021651115015906802
    ],
    "model": "Model(\n  (embedding): Embedding(400000, 100)\n  (conv1): Conv2d(1, 150, kernel_size=(1, 100), stride=(1, 1))\n  (bn1): BatchNorm2d(150, eps=1e-05, momentum=0.1, affine=True, track_running_stats=True)\n  (conv2): Conv2d(1, 150, kernel_size=(3, 100), stride=(1, 1))\n  (bn2): BatchNorm2d(150, eps=1e-05, momentum=0.1, affine=True, track_running_stats=True)\n  (conv3): Conv2d(1, 150, kernel_size=(5, 100), stride=(1, 1))\n  (bn3): BatchNorm2d(150, eps=1e-05, momentum=0.1, affine=True, track_running_stats=True)\n  (fc1): Linear(in_features=450, out_features=50, bias=True)\n  (fc2): Linear(in_features=50, out_features=126, bias=True)\n  (dropout): Dropout(p=0.0)\n)",
    "train_start": "2018-12-09 19:25:01.805067",
    "train_finish": "2018-12-09 19:31:18.482625",
    "f1_scores": {
      "f1_score_2": 0.7040054398029354,
      "f1_score_3": 0.7952438597907082,
      "f1_score_4": 0.7492795656081763
    },
    "pAtK_scores": {
      "pAtK_1": 0.9565346927966102,
      "pAtK_3": 0.8155014124293786,
…
      0.07603603706074846,
      0.03507280591133084,
      0.029072227550271112,
      0.026359249316367975,
      0.024687076210127383,
      0.02358791706429713,
      0.022722690965294612,
      0.022110722446549096,
      0.02156698761730538,
      0.021147527832686336
    ],
    "loss_vector": [
      0.040492348499217276,
      0.031243795907850994,
      0.027747630662584708,
      0.0260886944262153,
      0.024938785423666746,
      0.024365462173344725,
      0.023754606686406218,
      0.023694244102906374,
      0.023390190360152115,
      0.023206205091486545
    ],
    "model": "Model(\n  (embedding): Embedding(400000, 50)\n  (conv1): Conv2d(1, 150, kernel_size=(3, 50), stride=(1, 1))\n  (bn1): BatchNorm2d(150, eps=1e-05, momentum=0.1, affine=True, track_running_stats=True)\n  (conv2): Conv2d(1, 150, kernel_size=(4, 50), stride=(1, 1))\n  (bn2): BatchNorm2d(150, eps=1e-05, momentum=0.1, affine=True, track_running_stats=True)\n  (conv3): Conv2d(1, 150, kernel_size=(5, 50), stride=(1, 1))\n  (bn3): BatchNorm2d(150, eps=1e-05, momentum=0.1, affine=True, track_running_stats=True)\n  (fc1): Linear(in_features=450, out_features=50, bias=True)\n  (fc2): Linear(in_features=50, out_features=126, bias=True)\n  (dropout): Dropout(p=0.0)\n)",
    "train_start": "2018-12-09 19:26:36.796753",
    "train_finish": "2018-12-09 19:32:12.040992",
    "f1_scores": {
      "f1_score_2": 0.6963332649081392,
      "f1_score_3": 0.786710784709332,
      "f1_score_4": 0.7424690282706795
    },
    "pAtK_scores": {
      "pAtK_1": 0.9541843220338984,
      "pAtK_3": 0.8067509710451978,
…
      0.06144077066452273,
      0.031540725069152335,
      0.02660057866906984,
      0.02419752350511768,
      0.022722931741339207,
      0.021686029806026245,
      0.020946911926711758,
      0.0203396896115969,
      0.019862698009361354,
      0.019482221323607996
    ],
    "loss_vector": [
      0.035573088232490974,
      0.028659679784865704,
      0.025506252391358553,
      0.024235297625852845,
      0.023098055904699585,
      0.02256821983067666,
      0.02199027788335994,
      0.02180556940325236,
      0.021568496301138804,
      0.021292213571526237
    ],
    "model": "Model(\n  (embedding): Embedding(400000, 50)\n  (conv1): Conv2d(1, 150, kernel_size=(1, 50), stride=(1, 1))\n  (bn1): BatchNorm2d(150, eps=1e-05, momentum=0.1, affine=True, track_running_stats=True)\n  (conv2): Conv2d(1, 150, kernel_size=(3, 50), stride=(1, 1))\n  (bn2): BatchNorm2d(150, eps=1e-05, momentum=0.1, affine=True, track_running_stats=True)\n  (conv3): Conv2d(1, 150, kernel_size=(5, 50), stride=(1, 1))\n  (bn3): BatchNorm2d(150, eps=1e-05, momentum=0.1, affine=True, track_running_stats=True)\n  (fc1): Linear(in_features=450, out_features=100, bias=True)\n  (fc2): Linear(in_features=100, out_features=126, bias=True)\n  (dropout): Dropout(p=0.0)\n)",
    "train_start": "2018-12-09 19:37:10.504975",
    "train_finish": "2018-12-09 19:42:10.177118",
    "f1_scores": {
      "f1_score_2": 0.7017987272913888,
      "f1_score_3": 0.7940494444892799,
      "f1_score_4": 0.7494370882404723
    },
    "pAtK_scores": {
      "pAtK_1": 0.9548132944915254,
      "pAtK_3": 0.8142765713276836,
…
      0.06343309846008638,
      0.029009937356443513,
      0.02465809262101406,
      0.022442207606314934,
      0.02099581906462417,
      0.019979248876618026,
      0.019174092991783,
      0.01848123985142986,
      0.017941857617440327,
      0.017464957542830558
    ],
    "loss_vector": [
      0.032770267766663586,
      0.026484915734095088,
      0.0243130528636403,
      0.02299438028643697,
      0.02208709208515741,
      0.021956037224854452,
      0.0215712502535622,
      0.021494582879467535,
      0.021392187798174762,
      0.02131306046967284
    ],
    "model": "Model(\n  (embedding): Embedding(400000, 100)\n  (conv1): Conv2d(1, 150, kernel_size=(1, 100), stride=(1, 1))\n  (bn1): BatchNorm2d(150, eps=1e-05, momentum=0.1, affine=True, track_running_stats=True)\n  (conv2): Conv2d(1, 150, kernel_size=(4, 100), stride=(1, 1))\n  (bn2): BatchNorm2d(150, eps=1e-05, momentum=0.1, affine=True, track_running_stats=True)\n  (conv3): Conv2d(1, 150, kernel_size=(7, 100), stride=(1, 1))\n  (bn3): BatchNorm2d(150, eps=1e-05, momentum=0.1, affine=True, track_running_stats=True)\n  (fc1): Linear(in_features=450, out_features=50, bias=True)\n  (fc2): Linear(in_features=50, out_features=126, bias=True)\n  (dropout): Dropout(p=0.0)\n)",
    "train_start": "2018-12-09 19:35:24.095205",
    "train_finish": "2018-12-09 19:42:23.655035",
    "f1_scores": {
      "f1_score_2": 0.7048393718567175,
      "f1_score_3": 0.797611169397143,
      "f1_score_4": 0.7520779088407259
    },
    "pAtK_scores": {
      "pAtK_1": 0.9568988347457628,
      "pAtK_3": 0.8179290254237288,
…
      0.06714758134148378,
      0.02989164566660063,
      0.025131055410152595,
      0.022753828998648012,
      0.021225201782454125,
      0.020150193951642265,
      0.019363806190665463,
      0.018648233004903998,
      0.018050540952573916,
      0.017606149879999925
    ],
    "loss_vector": [
      0.03398929927813805,
      0.02701973501529734,
      0.02448650313762285,
      0.023038487155306136,
      0.02269557238382808,
      0.022132589655407403,
      0.021836137588498956,
      0.02162998172817594,
      0.02162746292681007,
      0.021418335137225814
    ],
    "model": "Model(\n  (embedding): Embedding(400000, 100)\n  (conv1): Conv2d(1, 150, kernel_size=(3, 100), stride=(1, 1))\n  (bn1): BatchNorm2d(150, eps=1e-05, momentum=0.1, affine=True, track_running_stats=True)\n  (conv2): Conv2d(1, 150, kernel_size=(4, 100), stride=(1, 1))\n  (bn2): BatchNorm2d(150, eps=1e-05, momentum=0.1, affine=True, track_running_stats=True)\n  (conv3): Conv2d(1, 150, kernel_size=(5, 100), stride=(1, 1))\n  (bn3): BatchNorm2d(150, eps=1e-05, momentum=0.1, affine=True, track_running_stats=True)\n  (fc1): Linear(in_features=450, out_features=50, bias=True)\n  (fc2): Linear(in_features=50, out_features=126, bias=True)\n  (dropout): Dropout(p=0.0)\n)",
    "train_start": "2018-12-09 19:37:18.427689",
    "train_finish": "2018-12-09 19:44:34.134490",
    "f1_scores": {
      "f1_score_2": 0.7053782202607001,
      "f1_score_3": 0.7974067199311329,
      "f1_score_4": 0.7513736900139918
    },
    "pAtK_scores": {
      "pAtK_1": 0.9568657309322034,
      "pAtK_3": 0.8177193679378532,
…
      0.054684136197168866,
      0.026834558225475407,
      0.022734394148557643,
      0.020668261866500528,
      0.01941315371691615,
      0.018490374310956507,
      0.017816437604488977,
      0.0172118262919744,
      0.016776363580952445,
      0.016332720231399138
    ],
    "loss_vector": [
      0.030282872839499327,
      0.02449557759751708,
      0.02213197293044147,
      0.021065687381867634,
      0.020416202181476658,
      0.020067657533464796,
      0.019863404759789927,
      0.01952941859361984,
      0.01967439546360303,
      0.019608312602139126
    ],
    "model": "Model(\n  (embedding): Embedding(400000, 100)\n  (conv1): Conv2d(1, 150, kernel_size=(1, 100), stride=(1, 1))\n  (bn1): BatchNorm2d(150, eps=1e-05, momentum=0.1, affine=True, track_running_stats=True)\n  (conv2): Conv2d(1, 150, kernel_size=(3, 100), stride=(1, 1))\n  (bn2): BatchNorm2d(150, eps=1e-05, momentum=0.1, affine=True, track_running_stats=True)\n  (conv3): Conv2d(1, 150, kernel_size=(5, 100), stride=(1, 1))\n  (bn3): BatchNorm2d(150, eps=1e-05, momentum=0.1, affine=True, track_running_stats=True)\n  (fc1): Linear(in_features=450, out_features=100, bias=True)\n  (fc2): Linear(in_features=100, out_features=126, bias=True)\n  (dropout): Dropout(p=0.0)\n)",
    "train_start": "2018-12-09 19:46:45.010033",
    "train_finish": "2018-12-09 19:52:57.884472",
    "f1_scores": {
      "f1_score_2": 0.708457353997742,
      "f1_score_3": 0.8018077636994594,
      "f1_score_4": 0.7562383595407752
    },
    "pAtK_scores": {
      "pAtK_1": 0.9578919491525424,
      "pAtK_3": 0.8222325211864406,
…
      0.058168591828963785,
      0.029909096032635536,
      0.025205645222478392,
      0.022999932105870355,
      0.021650733221216266,
      0.02065296236079264,
      0.01991654828940103,
      0.019354387504566438,
      0.01888529866036077,
      0.018419318425997498
    ],
    "loss_vector": [
      0.03389440003340527,
      0.02706689870584819,
      0.024450927436099213,
      0.023018884614615116,
      0.022367829646346933,
      0.021708352870102657,
      0.021600484500749636,
      0.021205726963609964,
      0.021135006210435243,
      0.021058730623227054
    ],
    "model": "Model(\n  (embedding): Embedding(400000, 50)\n  (conv1): Conv2d(1, 150, kernel_size=(1, 50), stride=(1, 1))\n  (bn1): BatchNorm2d(150, eps=1e-05, momentum=0.1, affine=True, track_running_stats=True)\n  (conv2): Conv2d(1, 150, kernel_size=(4, 50), stride=(1, 1))\n  (bn2): BatchNorm2d(150, eps=1e-05, momentum=0.1, affine=True, track_running_stats=True)\n  (conv3): Conv2d(1, 150, kernel_size=(7, 50), stride=(1, 1))\n  (bn3): BatchNorm2d(150, eps=1e-05, momentum=0.1, affine=True, track_running_stats=True)\n  (fc1): Linear(in_features=450, out_features=100, bias=True)\n  (fc2): Linear(in_features=100, out_features=126, bias=True)\n  (dropout): Dropout(p=0.0)\n)",
    "train_start": "2018-12-09 19:48:57.352064",
    "train_finish": "2018-12-09 19:54:15.035009",
    "f1_scores": {
      "f1_score_2": 0.7025941701734578,
      "f1_score_3": 0.7945229064105669,
      "f1_score_4": 0.7500208485836862
    },
    "pAtK_scores": {
      "pAtK_1": 0.9537208686440678,
      "pAtK_3": 0.8147620939265536,
…
      0.0591809266375862,
      0.0308662939116896,
      0.026020948016977175,
      0.023663387982001568,
      0.022206863777206563,
      0.021182913089301827,
      0.0204206049456429,
      0.019796803385104127,
      0.0192741324393471,
      0.018889950411623977
    ],
    "loss_vector": [
      0.0348450915288117,
      0.02779212638230647,
      0.02512655366148989,
      0.02356009415777053,
      0.022977839808090258,
      0.022284940453404088,
      0.021789647891359815,
      0.021652951078899835,
      0.021446673041683132,
      0.02121223100476851
    ],
    "model": "Model(\n  (embedding): Embedding(400000, 50)\n  (conv1): Conv2d(1, 150, kernel_size=(3, 50), stride=(1, 1))\n  (bn1): BatchNorm2d(150, eps=1e-05, momentum=0.1, affine=True, track_running_stats=True)\n  (conv2): Conv2d(1, 150, kernel_size=(4, 50), stride=(1, 1))\n  (bn2): BatchNorm2d(150, eps=1e-05, momentum=0.1, affine=True, track_running_stats=True)\n  (conv3): Conv2d(1, 150, kernel_size=(5, 50), stride=(1, 1))\n  (bn3): BatchNorm2d(150, eps=1e-05, momentum=0.1, affine=True, track_running_stats=True)\n  (fc1): Linear(in_features=450, out_features=100, bias=True)\n  (fc2): Linear(in_features=100, out_features=126, bias=True)\n  (dropout): Dropout(p=0.0)\n)",
    "train_start": "2018-12-09 19:51:22.783613",
    "train_finish": "2018-12-09 19:56:58.546443",
    "f1_scores": {
      "f1_score_2": 0.7021194703889972,
      "f1_score_3": 0.7942108519624459,
      "f1_score_4": 0.7497613995422577
    },
    "pAtK_scores": {
      "pAtK_1": 0.9548463983050848,
      "pAtK_3": 0.8144420903954802,
…
      0.19793355548347874,
      0.07133479929569776,
      0.06749643009346848,
      0.0657524660484162,
      0.06460776791485483,
      0.06370123657459778,
      0.0629686209774334,
      0.062279528936466634,
      0.061662889331353006,
      0.06103925862167547
    ],
    "loss_vector": [
      0.07499846727666208,
      0.06855565183243509,
      0.06636283085760424,
      0.06518678392394114,
      0.06428068851010274,
      0.0635253677807622,
      0.06303721161211952,
      0.0624011190513433,
      0.06198844452530651,
      0.061522999367976595
    ],
    "model": "Model(\n  (embedding): Embedding(400000, 50)\n  (conv1): Conv2d(1, 200, kernel_size=(1, 50), stride=(1, 1))\n  (bn1): BatchNorm2d(200, eps=1e-05, momentum=0.1, affine=True, track_running_stats=True)\n  (conv2): Conv2d(1, 200, kernel_size=(3, 50), stride=(1, 1))\n  (bn2): BatchNorm2d(200, eps=1e-05, momentum=0.1, affine=True, track_running_stats=True)\n  (conv3): Conv2d(1, 200, kernel_size=(5, 50), stride=(1, 1))\n  (bn3): BatchNorm2d(200, eps=1e-05, momentum=0.1, affine=True, track_running_stats=True)\n  (fc1): Linear(in_features=600, out_features=10, bias=True)\n  (fc2): Linear(in_features=10, out_features=126, bias=True)\n  (dropout): Dropout(p=0.0)\n)",
    "train_start": "2018-12-09 19:58:49.524720",
    "train_finish": "2018-12-09 20:04:34.864124",
    "f1_scores": {
      "f1_score_2": 0.4548393718567177,
      "f1_score_3": 0.4925187636187555,
      "f1_score_4": 0.49632601625262923
    },
    "pAtK_scores": {
      "pAtK_1": 0.7128575211864406,
      "pAtK_3": 0.5050648834745762,
…
      0.05782096542460416,
      0.02702055357933836,
      0.0230140931748801,
      0.02094996573873557,
      0.019583105192691144,
      0.01860074564793361,
      0.017849115955252803,
      0.017176360434426642,
      0.01664965873516997,
      0.016166020306693195
    ],
    "loss_vector": [
      0.030665237645981676,
      0.024709083392458447,
      0.022750271452685534,
      0.021540785555617285,
      0.021066228306647075,
      0.02052005969177363,
      0.02031813274627015,
      0.020344509869435076,
      0.02003053026431698,
      0.020118759976605238
    ],
    "model": "Model(\n  (embedding): Embedding(400000, 100)\n  (conv1): Conv2d(1, 150, kernel_size=(1, 100), stride=(1, 1))\n  (bn1): BatchNorm2d(150, eps=1e-05, momentum=0.1, affine=True, track_running_stats=True)\n  (conv2): Conv2d(1, 150, kernel_size=(4, 100), stride=(1, 1))\n  (bn2): BatchNorm2d(150, eps=1e-05, momentum=0.1, affine=True, track_running_stats=True)\n  (conv3): Conv2d(1, 150, kernel_size=(7, 100), stride=(1, 1))\n  (bn3): BatchNorm2d(150, eps=1e-05, momentum=0.1, affine=True, track_running_stats=True)\n  (fc1): Linear(in_features=450, out_features=100, bias=True)\n  (fc2): Linear(in_features=100, out_features=126, bias=True)\n  (dropout): Dropout(p=0.0)\n)",
    "train_start": "2018-12-09 19:59:08.253439",
    "train_finish": "2018-12-09 20:06:07.345507",
    "f1_scores": {
      "f1_score_2": 0.706776660166273,
      "f1_score_3": 0.800150646974955,
      "f1_score_4": 0.7551079030031227
    },
    "pAtK_scores": {
      "pAtK_1": 0.9584216101694916,
      "pAtK_3": 0.8205331920903954,
…
      0.05490485983114315,
      0.026809227838405395,
      0.02271248734568509,
      0.020623474344752545,
      0.01931938976826998,
      0.01833704343168118,
      0.017560560208527934,
      0.01693993287631072,
      0.01637028793201727,
      0.01590225768701458
    ],
    "loss_vector": [
      0.03012359707411063,
      0.02480059252830885,
      0.022498219037207508,
      0.021259867822972393,
      0.020764983843191195,
      0.020275441471929268,
      0.020032382633347633,
      0.019939673906665737,
      0.020008582732308718,
      0.02005085814744234
    ],
    "model": "Model(\n  (embedding): Embedding(400000, 100)\n  (conv1): Conv2d(1, 150, kernel_size=(3, 100), stride=(1, 1))\n  (bn1): BatchNorm2d(150, eps=1e-05, momentum=0.1, affine=True, track_running_stats=True)\n  (conv2): Conv2d(1, 150, kernel_size=(4, 100), stride=(1, 1))\n  (bn2): BatchNorm2d(150, eps=1e-05, momentum=0.1, affine=True, track_running_stats=True)\n  (conv3): Conv2d(1, 150, kernel_size=(5, 100), stride=(1, 1))\n  (bn3): BatchNorm2d(150, eps=1e-05, momentum=0.1, affine=True, track_running_stats=True)\n  (fc1): Linear(in_features=450, out_features=100, bias=True)\n  (fc2): Linear(in_features=100, out_features=126, bias=True)\n  (dropout): Dropout(p=0.0)\n)",
    "train_start": "2018-12-09 20:02:05.750693",
    "train_finish": "2018-12-09 20:09:18.205692",
    "f1_scores": {
      "f1_score_2": 0.7076362516678641,
      "f1_score_3": 0.8021090576493691,
      "f1_score_4": 0.7554600124164897
    },
    "pAtK_scores": {
      "pAtK_1": 0.958057468220339,
      "pAtK_3": 0.8225414901129944,
…
      0.16499246448363253,
      0.05217225557684446,
      0.04535721709679607,
      0.04201221166344702,
      0.039874409412014415,
      0.03802360831079492,
      0.036731508887413555,
      0.035603341273610006,
      0.034798323577959124,
      0.03405636785449407
    ],
    "loss_vector": [
      0.05721614320399398,
      0.047668224674160195,
      0.043450778886928394,
      0.04124580096390288,
      0.03965466160137775,
      0.03861374992056418,
      0.03756962738678617,
      0.036816931092890644,
      0.03665927721787307,
      0.0363025000097893
    ],
    "model": "Model(\n  (embedding): Embedding(400000, 100)\n  (conv1): Conv2d(1, 200, kernel_size=(1, 100), stride=(1, 1))\n  (bn1): BatchNorm2d(200, eps=1e-05, momentum=0.1, affine=True, track_running_stats=True)\n  (conv2): Conv2d(1, 200, kernel_size=(3, 100), stride=(1, 1))\n  (bn2): BatchNorm2d(200, eps=1e-05, momentum=0.1, affine=True, track_running_stats=True)\n  (conv3): Conv2d(1, 200, kernel_size=(5, 100), stride=(1, 1))\n  (bn3): BatchNorm2d(200, eps=1e-05, momentum=0.1, affine=True, track_running_stats=True)\n  (fc1): Linear(in_features=600, out_features=10, bias=True)\n  (fc2): Linear(in_features=10, out_features=126, bias=True)\n  (dropout): Dropout(p=0.0)\n)",
    "train_start": "2018-12-09 20:09:48.152014",
    "train_finish": "2018-12-09 20:16:33.030775",
    "f1_scores": {
      "f1_score_2": 0.6452709637688596,
      "f1_score_3": 0.7131304979420547,
      "f1_score_4": 0.6713892569564776
    },
    "pAtK_scores": {
      "pAtK_1": 0.9449483580508474,
      "pAtK_3": 0.731296345338983,
…
