…
"pAtK_1": 0.9521318855932204, "pAtK_3": 0.8154903778248588, "pAtK_5": 0.5651416843220339}, "train_vector": [0.04435726095952334, 0.024438831205895097, 0.0212943522644846, 0.01944134095807399, 0.017948242297583388, 0.016723275418787403, 0.015680399698609983, 0.014817852145184602, 0.014054648308666597], "loss_vector": [0.025111800817362334, 0.021894939014909125, 0.02125650129707183, 0.020569587007985782, 0.020312267552934967, 0.020210017410691006, 0.020897649907333365, 0.022144170864721983, 0.022507829149648294], "train_finish": "2018-12-14 13:24:44.529411", "model": "ReutersModel(\n  (embedding): Embedding(400000, 100)\n  (conv1): Conv2d(1, 629, kernel_size=(1, 100), stride=(2, 2))\n  (bn1): BatchNorm2d(629, eps=1e-05, momentum=0.1, affine=True, track_running_stats=True)\n  (conv2): Conv2d(1, 629, kernel_size=(3, 100), stride=(2, 2))\n  (bn2): BatchNorm2d(629, eps=1e-05, momentum=0.1, affine=True, track_running_stats=True)\n  (conv3): Conv2d(1, 629, kernel_size=(5, 100), stride=(2, 2))\n  (bn3): BatchNorm2d(629, eps=1e-05, momentum=0.1, affine=True, track_running_stats=True)\n  (fc1): Linear(in_features=1887, out_features=78, bias=True)\n  (fc2): Linear(in_features=78, out_features=126, bias=True)\n  (dropout): Dropout(p=0.055298203436646105)\n)"}, "n_flt:700, btl_dim:275, glove:100,flt_sz:(3, 4, 5),bn:True,do_pctg:0.14050571940665524,txt_length:1132,stride:1": {"dropout_pctg": 0.14050571940665524, "num_filters": 700, "bottleneck_fc_dim": 275, "glove_dim": 100, "batch_norm": true, "filter_sizes": [3, 4, 5], "batch_size": 256, "num_workers": 15, "
…
665, "f1_score_4": 0.7597779857488348}, "pAtK_scores": {"pAtK_1": 0.9602423199152542, "pAtK_3": 0.826028425141243, "pAtK_5": 0.57265625}, "train_vector": [0.039147702406250665, 0.022910054373701565, 0.02054367676921599, 0.019128734043550165, 0.0181015297227965, 0.017223208881137042, 0.016444220371099022, 0.015564453983378987], "loss_vector": [0.022405390848674007, 0.02007834952703472, 0.01952156049625601, 0.01856827978991856, 0.01845646498061843, 0.019006903977843666, 0.01868814213390825, 0.018833259294219945], "train_finish": "2018-12-14 14:00:50.009399", "model": "ReutersModel(\n  (embedding): Embedding(400000, 100)\n  (conv1): Conv2d(1, 700, kernel_size=(3, 100), stride=(1, 1))\n  (bn1): BatchNorm2d(700, eps=1e-05, momentum=0.1, affine=True, track_running_stats=True)\n  (conv2): Conv2d(1, 700, kernel_size=(4, 100), stride=(1, 1))\n  (bn2): BatchNorm2d(700, eps=1e-05, momentum=0.1, affine=True, track_running_stats=True)\n  (conv3): Conv2d(1, 700, kernel_size=(5, 100), stride=(1, 1))\n  (bn3): BatchNorm2d(700, eps=1e-05, momentum=0.1, affine=True, track_running_stats=True)\n  (fc1): Linear(in_features=2100, out_features=275, bias=True)\n  (fc2): Linear(in_features=275, out_features=126, bias=True)\n  (dropout): Dropout(p=0.14050571940665524)\n)"}, "n_flt:682, btl_dim:263, glove:100,flt_sz:(1, 4, 7),bn:False,do_pctg:0.2393850502808334,txt_length:2422,stride:1": {"dropout_pctg": 0.2393850502808334, "num_filters": 682, "bottleneck_fc_dim": 263, "glove_dim": 100, "batch_norm": false, "filter_sizes": [1, 4, 7], "batch_size": 256, "num_workers": 15, "epochs": 20, "txt_length": 2422, "train_start": "2018-12-14 14:01:12.582381", "train_error_message": "CUDA error: out of memory", "train_finish": "2018-12-14 14:08:39.919177", "model": "ReutersModel(\n  (embedding): Embedding(400000, 100)\n  (conv1): Conv2d(1, 682, kernel_size=(1, 100), stride=(1, 1))\n  (bn1): BatchNorm2d(682, eps=1e-05, momentum=0.1, affine=True, track_running_stats=True)\n  (conv2): Conv2d(1, 682, kernel_size=(4, 100), stride=(1, 1))\n  (bn2): BatchNorm2d(682, eps=1e-05, momentum=0.1, affine=True, track_running_stats=True)\n  (conv3): Conv2d(1, 682, kernel_size=(7, 100), stride=(1, 1))\n  (bn3): BatchNorm2d(682, eps=1e-05, momentum=0.1, affine=True, track_running_stats=True)\n  (fc1): Linear(in_features=2046, out_features=263, bias=True)\n  (fc2): Linear(in_features=263, out_features=126, bias=True)\n  (dropout): Dropout(p=0.2393850502808334)\n)"}, "n_flt:687, btl_dim:254, glove:50,flt_sz:(1, 4, 7),bn:True,do_pctg:0.17885442926721745,txt_length:828,stride:1": {"dropout_pctg": 0.17885442926721745, "num_filters": 687, "bottleneck_fc_dim": 254, "glove_dim": 50, "batch_norm": true, "filter_sizes": [1, 4, 7], "batch_size": 256, "num_workers": 15, "epoc
…
": {"pAtK_1": 0.958057468220339, "pAtK_3": 0.8225525247175142, "pAtK_5": 0.5695709745762711}, "train_vector": [0.04175725776836474, 0.025185963769833886, 0.022570097635180267, 0.02099814957124402, 0.019999217970978887, 0.01918457911669699, 0.018399054241106903, 0.017722579562220106, 0.01727595625523004], "loss_vector": [0.024739966459446035, 0.02177004890232268, 0.020490372750781857, 0.01969865509072098, 0.01988777654024504, 0.019155328083088844, 0.019542023871030847, 0.019239935155768516, 0.01920998124090039], "train_finish": "2018-12-14 14:33:13.043590", "model": "ReutersModel(\n  (embedding): Embedding(400000, 50)\n  (conv1): Conv2d(1, 687, kernel_size=(1, 50), stride=(1, 1))\n  (bn1): BatchNorm2d(687, eps=1e-05, momentum=0.1, affine=True, track_running_stats=True)\n  (conv2): Conv2d(1, 687, kernel_size=(4, 50), stride=(1, 1))\n  (bn2): BatchNorm2d(687, eps=1e-05, momentum=0.1, affine=True, track_running_stats=True)\n  (conv3): Conv2d(1, 687, kernel_size=(7, 50), stride=(1, 1))\n  (bn3): BatchNorm2d(687, eps=1e-05, momentum=0.1, affine=True, track_running_stats=True)\n  (fc1): Linear(in_features=2061, out_features=254, bias=True)\n  (fc2): Linear(in_features=254, out_features=126, bias=True)\n  (dropout): Dropout(p=0.17885442926721745)\n)"}, "n_flt:799, btl_dim:97, glove:100,flt_sz:(1, 4, 7),bn:False,do_pctg:0.3753776202305036,txt_length:2178,stride:1": {"dropout_pctg": 0.3753776202305036, "num_filters": 799, "bottleneck_fc_dim": 97, "glove_dim": 100, "batch_norm": false, "filter_sizes": [1, 4, 7], "batch_size": 256, "num_workers": 15, "epochs": 20, "txt_length": 2178, "train_start": "2018-12-14 14:33:35.840637", "train_error_message": "CUDA error: out of memory", "train_finish": "2018-12-14 14:34:13.097355", "model": "ReutersModel(\n  (embedding): Embedding(400000, 100)\n  (conv1): Conv2d(1, 799, kernel_size=(1, 100), stride=(1, 1))\n  (bn1): BatchNorm2d(799, eps=1e-05, momentum=0.1, affine=True, track_running_stats=True)\n  (conv2): Conv2d(1, 799, kernel_size=(4, 100), stride=(1, 1))\n  (bn2): BatchNorm2d(799, eps=1e-05, momentum=0.1, affine=True, track_running_stats=True)\n  (conv3): Conv2d(1, 799, kernel_size=(7, 100), stride=(1, 1))\n  (bn3): BatchNorm2d(799, eps=1e-05, momentum=0.1, affine=True, track_running_stats=True)\n  (fc1): Linear(in_features=2397, out_features=97, bias=True)\n  (fc2): Linear(in_features=97, out_features=126, bias=True)\n  (dropout): Dropout(p=0.3753776202305036)\n)"}, "n_flt:430, btl_dim:112, glove:50,flt_sz:(3, 4, 5),bn:True,do_pctg:0.08031762292786332,txt_length:2946,stride:1": {"dropout_pctg": 0.08031762292786332, "num_filters": 430, "bottleneck_fc_dim": 112, "glove_dim": 50, "batch_norm": true, "filter_sizes": [3, 4, 5], "batch_size": 256, "num_workers": 15, "epochs": 20, "txt_length": 2946, "train_start": "2018-12-14 14:34:35.057418", "train_error_message": "CUDA error: out of memory", "train_finish": "2018-12-14 14:39:30.198757", "model": "ReutersModel(\n  (embedding): Embedding(400000, 50)\n  (conv1): Conv2d(1, 430, kernel_size=(3, 50), stride=(1, 1))\n  (bn1): BatchNorm2d(430, eps=1e-05, momentum=0.1, affine=True, track_running_stats=True)\n  (conv2): Conv2d(1, 430, kernel_size=(4, 50), stride=(1, 1))\n  (bn2): BatchNorm2d(430, eps=1e-05, momentum=0.1, affine=True, track_running_stats=True)\n  (conv3): Conv2d(1, 430, kernel_size=(5, 50), stride=(1, 1))\n  (bn3): BatchNorm2d(430, eps=1e-05, momentum=0.1, affine=True, track_running_stats=True)\n  (fc1): Linear(in_features=1290, out_features=112, bias=True)\n  (fc2): Linear(in_features=112, out_features=126, bias=True)\n  (dropout): Dropout(p=0.08031762292786332)\n)"}, "n_flt:387, btl_dim:218, glove:100,flt_sz:(1, 4, 7),bn:True,do_pctg:0.06645204169330898,txt_length:823,stride:1": {"dropout_pctg": 0.06645204169330898, "num_filters": 387, "bottleneck_fc_dim": 218, "glove_dim": 100, "batch_norm": true, "filter_sizes": [1, 4, 7], "batch_size": 256, "num_workers": 15, "e
…
7, "f1_score_3": 0.8060904419874639, "f1_score_4": 0.7595185367074064}, "pAtK_scores": {"pAtK_1": 0.9609043961864406, "pAtK_3": 0.8266242937853108, "pAtK_5": 0.5720736228813559}, "train_vector": [0.03925701275474942, 0.022357197934355182, 0.01987266541145869, 0.018356310723232815, 0.017320782077839807, 0.016380280979062505, 0.015552039158334372], "loss_vector": [0.0229013362204877, 0.020342094626403965, 0.01927112202333697, 0.018603438456242873, 0.018730834813125558, 0.018670763954583367, 0.018980688833773643], "train_finish": "2018-12-14 14:54:51.574606", "model": "ReutersModel(\n  (embedding): Embedding(400000, 100)\n  (conv1): Conv2d(1, 387, kernel_size=(1, 100), stride=(1, 1))\n  (bn1): BatchNorm2d(387, eps=1e-05, momentum=0.1, affine=True, track_running_stats=True)\n  (conv2): Conv2d(1, 387, kernel_size=(4, 100), stride=(1, 1))\n  (bn2): BatchNorm2d(387, eps=1e-05, momentum=0.1, affine=True, track_running_stats=True)\n  (conv3): Conv2d(1, 387, kernel_size=(7, 100), stride=(1, 1))\n  (bn3): BatchNorm2d(387, eps=1e-05, momentum=0.1, affine=True, track_running_stats=True)\n  (fc1): Linear(in_features=1161, out_features=218, bias=True)\n  (fc2): Linear(in_features=218, out_features=126, bias=True)\n  (dropout): Dropout(p=0.06645204169330898)\n)"}, "n_flt:353, btl_dim:160, glove:50,flt_sz:(1, 3, 5),bn:True,do_pctg:0.3592472391964082,txt_length:2617,stride:1": {"dropout_pctg": 0.3592472391964082, "num_filters": 353, "bottleneck_fc_dim": 160, "glove_dim": 50, "batch_norm": true, "filter_sizes": [1, 3, 5], "batch_size": 256, "num_workers": 15, "epochs": 20, "txt_length": 2617, "train_start": "2018-12-14 14:55:12.879695", "train_error_message": "CUDA error: out of memory", "train_finish": "2018-12-14 14:58:44.133853", "model": "ReutersModel(\n  (embedding): Embedding(400000, 50)\n  (conv1): Conv2d(1, 353, kernel_size=(1, 50), stride=(1, 1))\n  (bn1): BatchNorm2d(353, eps=1e-05, momentum=0.1, affine=True, track_running_stats=True)\n  (conv2): Conv2d(1, 353, kernel_size=(3, 50), stride=(1, 1))\n  (bn2): BatchNorm2d(353, eps=1e-05, momentum=0.1, affine=True, track_running_stats=True)\n  (conv3): Conv2d(1, 353, kernel_size=(5, 50), stride=(1, 1))\n  (bn3): BatchNorm2d(353, eps=1e-05, momentum=0.1, affine=True, track_running_stats=True)\n  (fc1): Linear(in_features=1059, out_features=160, bias=True)\n  (fc2): Linear(in_features=160, out_features=126, bias=True)\n  (dropout): Dropout(p=0.3592472391964082)\n)"}, "n_flt:484, btl_dim:189, glove:100,flt_sz:(3, 4, 5),bn:False,do_pctg:0.4401516808290032,txt_length:1468,stride:2": {"dropout_pctg": 0.4401516808290032, "num_filters": 484, "bottleneck_fc_dim": 189, "glove_dim": 100, "batch_norm": false, "filter_sizes": [3, 4, 5], "batch_size": 256, "num_workers": 15, "e
…
2, "f1_score_3": 0.7956958007155732, "f1_score_4": 0.7499652523605229}, "pAtK_scores": {"pAtK_1": 0.9567995233050848, "pAtK_3": 0.815964865819209, "pAtK_5": 0.5651615466101695}, "train_vector": [0.048132621112369725, 0.028778241035410077, 0.025711169598917467, 0.023949174113232337, 0.022582681573913264, 0.021485518573993636, 0.02059987568132141], "loss_vector": [0.02604857731168553, 0.022852721000563795, 0.022051876623941175, 0.02114284186923908, 0.021166950740488404, 0.02175514557067368, 0.021725459805673968], "train_finish": "2018-12-14 15:11:48.230235", "model": "ReutersModel(\n  (embedding): Embedding(400000, 100)\n  (conv1): Conv2d(1, 484, kernel_size=(3, 100), stride=(2, 2))\n  (bn1): BatchNorm2d(484, eps=1e-05, momentum=0.1, affine=True, track_running_stats=True)\n  (conv2): Conv2d(1, 484, kernel_size=(4, 100), stride=(2, 2))\n  (bn2): BatchNorm2d(484, eps=1e-05, momentum=0.1, affine=True, track_running_stats=True)\n  (conv3): Conv2d(1, 484, kernel_size=(5, 100), stride=(2, 2))\n  (bn3): BatchNorm2d(484, eps=1e-05, momentum=0.1, affine=True, track_running_stats=True)\n  (fc1): Linear(in_features=1452, out_features=189, bias=True)\n  (fc2): Linear(in_features=189, out_features=126, bias=True)\n  (dropout): Dropout(p=0.4401516808290032)\n)"}, "n_flt:504, btl_dim:110, glove:100,flt_sz:(1, 3, 5),bn:True,do_pctg:0.45455530346794504,txt_length:2119,stride:1": {"dropout_pctg": 0.45455530346794504, "num_filters": 504, "bottleneck_fc_dim": 110, "glove_dim": 100, "batch_norm": true, "filter_sizes": [1, 3, 5], "batch_size": 256, "num_workers": 15, "epochs": 20, "txt_length": 2119, "train_start": "2018-12-14 15:12:10.101307", "train_error_message": "CUDA error: out of memory", "train_finish": "2018-12-14 15:16:35.863139", "model": "ReutersModel(\n  (embedding): Embedding(400000, 100)\n  (conv1): Conv2d(1, 504, kernel_size=(1, 100), stride=(1, 1))\n  (bn1): BatchNorm2d(504, eps=1e-05, momentum=0.1, affine=True, track_running_stats=True)\n  (conv2): Conv2d(1, 504, kernel_size=(3, 100), stride=(1, 1))\n  (bn2): BatchNorm2d(504, eps=1e-05, momentum=0.1, affine=True, track_running_stats=True)\n  (conv3): Conv2d(1, 504, kernel_size=(5, 100), stride=(1, 1))\n  (bn3): BatchNorm2d(504, eps=1e-05, momentum=0.1, affine=True, track_running_stats=True)\n  (fc1): Linear(in_features=1512, out_features=110, bias=True)\n  (fc2): Linear(in_features=110, out_features=126, bias=True)\n  (dropout): Dropout(p=0.45455530346794504)\n)"}, "n_flt:564, btl_dim:293, glove:100,flt_sz:(1, 4, 7),bn:True,do_pctg:0.31825391576502615,txt_length:2842,stride:2": {"dropout_pctg": 0.31825391576502615, "num_filters": 564, "bottleneck_fc_dim": 293, "glove_dim": 100, "batch_norm": true, "filter_sizes": [1, 4, 7], "batch_size": 256, "num_workers": 15, "
…
6272}, "train_vector": [0.04314685729729892, 0.0264447304902623, 0.02395729979136128, 0.022375113890988778, 0.021201122797799406, 0.020288139472112936, 0.01950901722627386, 0.018773717991300846, 0.018016955825858934, 0.017390404864120697, 0.01677158402643066], "loss_vector": [0.024997218212081215, 0.02185685949210646, 0.02100505357829191, 0.020428859423530305, 0.019880472256217974, 0.019614642438620836, 0.01980561983250713, 0.019362269079912516, 0.019777598775039287, 0.019790856767508944, 0.020201604868585275], "train_finish": "2018-12-14 16:05:47.683155", "model": "ReutersModel(\n  (embedding): Embedding(400000, 100)\n  (conv1): Conv2d(1, 564, kernel_size=(1, 100), stride=(2, 2))\n  (bn1): BatchNorm2d(564, eps=1e-05, momentum=0.1, affine=True, track_running_stats=True)\n  (conv2): Conv2d(1, 564, kernel_size=(4, 100), stride=(2, 2))\n  (bn2): BatchNorm2d(564, eps=1e-05, momentum=0.1, affine=True, track_running_stats=True)\n  (conv3): Conv2d(1, 564, kernel_size=(7, 100), stride=(2, 2))\n  (bn3): BatchNorm2d(564, eps=1e-05, momentum=0.1, affine=True, track_running_stats=True)\n  (fc1): Linear(in_features=1692, out_features=293, bias=True)\n  (fc2): Linear(in_features=293, out_features=126, bias=True)\n  (dropout): Dropout(p=0.31825391576502615)\n)"}, "n_flt:649, btl_dim:228, glove:100,flt_sz:(1, 3, 5),bn:True,do_pctg:0.3755199428416099,txt_length:1163,stride:2": {"dropout_pctg": 0.3755199428416099, "num_filters": 649, "bottleneck_fc_dim": 228, "glove_dim": 100, "batch_norm": true, "filter_sizes": [1, 3, 5], "batch_size": 256, "num_workers": 15, "ep
…
s": {"pAtK_1": 0.958057468220339, "pAtK_3": 0.819286281779661, "pAtK_5": 0.5685315148305085}, "train_vector": [0.04511459492875062, 0.027866882680291468, 0.025389052498060678, 0.023852488126754195, 0.0227607378216577, 0.02186836975236093, 0.021089953942970148, 0.020518262533955205, 0.019761150569409358], "loss_vector": [0.025694460181866663, 0.022711835233336787, 0.02126195422231646, 0.020928727675986997, 0.020600149265916672, 0.01984898954377336, 0.019984965678304434, 0.02021838653580112, 0.02038215962633238], "train_finish": "2018-12-14 16:23:27.208317", "model": "ReutersModel(\n  (embedding): Embedding(400000, 100)\n  (conv1): Conv2d(1, 649, kernel_size=(1, 100), stride=(2, 2))\n  (bn1): BatchNorm2d(649, eps=1e-05, momentum=0.1, affine=True, track_running_stats=True)\n  (conv2): Conv2d(1, 649, kernel_size=(3, 100), stride=(2, 2))\n  (bn2): BatchNorm2d(649, eps=1e-05, momentum=0.1, affine=True, track_running_stats=True)\n  (conv3): Conv2d(1, 649, kernel_size=(5, 100), stride=(2, 2))\n  (bn3): BatchNorm2d(649, eps=1e-05, momentum=0.1, affine=True, track_running_stats=True)\n  (fc1): Linear(in_features=1947, out_features=228, bias=True)\n  (fc2): Linear(in_features=228, out_features=126, bias=True)\n  (dropout): Dropout(p=0.3755199428416099)\n)"}, "n_flt:626, btl_dim:150, glove:100,flt_sz:(3, 4, 5),bn:False,do_pctg:0.3531401476556841,txt_length:1058,stride:2": {"dropout_pctg": 0.3531401476556841, "num_filters": 626, "bottleneck_fc_dim": 150, "glove_dim": 100, "batch_norm": false, "filter_sizes": [3, 4, 5], "batch_size": 256, "num_workers": 15, "e
…
re_4": 0.754283225692868}, "pAtK_scores": {"pAtK_1": 0.9573622881355932, "pAtK_3": 0.8200145656779662, "pAtK_5": 0.5682997881355932}, "train_vector": [0.044503613968911726, 0.02603165368837582, 0.023118508410634758, 0.021322202230794833, 0.01985586422055507, 0.018694098138443038, 0.017706160979660004, 0.016871176577885363], "loss_vector": [0.024569121378836996, 0.021459935035682835, 0.020474898802526925, 0.02046427167004953, 0.019756066747072896, 0.020434226130403705, 0.020380530214347575, 0.02144530019328251], "train_finish": "2018-12-14 16:36:36.202313", "model": "ReutersModel(\n  (embedding): Embedding(400000, 100)\n  (conv1): Conv2d(1, 626, kernel_size=(3, 100), stride=(2, 2))\n  (bn1): BatchNorm2d(626, eps=1e-05, momentum=0.1, affine=True, track_running_stats=True)\n  (conv2): Conv2d(1, 626, kernel_size=(4, 100), stride=(2, 2))\n  (bn2): BatchNorm2d(626, eps=1e-05, momentum=0.1, affine=True, track_running_stats=True)\n  (conv3): Conv2d(1, 626, kernel_size=(5, 100), stride=(2, 2))\n  (bn3): BatchNorm2d(626, eps=1e-05, momentum=0.1, affine=True, track_running_stats=True)\n  (fc1): Linear(in_features=1878, out_features=150, bias=True)\n  (fc2): Linear(in_features=150, out_features=126, bias=True)\n  (dropout): Dropout(p=0.3531401476556841)\n)"}, "n_flt:370, btl_dim:281, glove:50,flt_sz:(1, 4, 7),bn:False,do_pctg:0.1466197312515898,txt_length:779,stride:1": {"dropout_pctg": 0.1466197312515898, "num_filters": 370, "bottleneck_fc_dim": 281, "glove_dim": 50, "batch_norm": false, "filter_sizes": [1, 4, 7], "batch_size": 256, "num_workers": 15, "epoc
…
3": 0.8179952330508474, "pAtK_5": 0.5670286016949152}, "train_vector": [0.041919792919248286, 0.024227624990583257, 0.02141275308563231, 0.019742373553806283, 0.01866000590216814, 0.01769920899152784, 0.016955607905595138, 0.01638376177332772, 0.015822714435880337, 0.01532303481459957], "loss_vector": [0.024847211750318943, 0.02156332678208917, 0.02048850974257467, 0.02004308186439892, 0.01976403953917956, 0.02011546301576546, 0.019749880689433067, 0.01989397431045013, 0.0206409166251325, 0.020457440340039084], "train_finish": "2018-12-14 16:49:10.761306", "model": "ReutersModel(\n  (embedding): Embedding(400000, 50)\n  (conv1): Conv2d(1, 370, kernel_size=(1, 50), stride=(1, 1))\n  (bn1): BatchNorm2d(370, eps=1e-05, momentum=0.1, affine=True, track_running_stats=True)\n  (conv2): Conv2d(1, 370, kernel_size=(4, 50), stride=(1, 1))\n  (bn2): BatchNorm2d(370, eps=1e-05, momentum=0.1, affine=True, track_running_stats=True)\n  (conv3): Conv2d(1, 370, kernel_size=(7, 50), stride=(1, 1))\n  (bn3): BatchNorm2d(370, eps=1e-05, momentum=0.1, affine=True, track_running_stats=True)\n  (fc1): Linear(in_features=1110, out_features=281, bias=True)\n  (fc2): Linear(in_features=281, out_features=126, bias=True)\n  (dropout): Dropout(p=0.1466197312515898)\n)"}, "n_flt:430, btl_dim:275, glove:100,flt_sz:(1, 3, 5),bn:False,do_pctg:0.4589009094740758,txt_length:559,stride:2": {"dropout_pctg": 0.4589009094740758, "num_filters": 430, "bottleneck_fc_dim": 275, "glove_dim": 100, "batch_norm": false, "filter_sizes": [1, 3, 5], "batch_size": 256, "num_workers": 15, "ep
…
": {"pAtK_1": 0.9583222987288136, "pAtK_3": 0.8219345868644068, "pAtK_5": 0.5693988347457627}, "train_vector": [0.044208185006802514, 0.0257994889403628, 0.022980739908607453, 0.02132288409322783, 0.02015362157569438, 0.019094378266844056, 0.018253907487079134, 0.017637643618491503, 0.017058173989774605], "loss_vector": [0.025137636999962694, 0.021218831564094556, 0.019962670360455067, 0.0200383725607673, 0.019901297094647663, 0.019840600868781744, 0.0205599355227235, 0.020724457838588346, 0.02052788083615192], "train_finish": "2018-12-14 16:55:09.892300", "model": "ReutersModel(\n  (embedding): Embedding(400000, 100)\n  (conv1): Conv2d(1, 430, kernel_size=(1, 100), stride=(2, 2))\n  (bn1): BatchNorm2d(430, eps=1e-05, momentum=0.1, affine=True, track_running_stats=True)\n  (conv2): Conv2d(1, 430, kernel_size=(3, 100), stride=(2, 2))\n  (bn2): BatchNorm2d(430, eps=1e-05, momentum=0.1, affine=True, track_running_stats=True)\n  (conv3): Conv2d(1, 430, kernel_size=(5, 100), stride=(2, 2))\n  (bn3): BatchNorm2d(430, eps=1e-05, momentum=0.1, affine=True, track_running_stats=True)\n  (fc1): Linear(in_features=1290, out_features=275, bias=True)\n  (fc2): Linear(in_features=275, out_features=126, bias=True)\n  (dropout): Dropout(p=0.4589009094740758)\n)"}, "n_flt:555, btl_dim:219, glove:100,flt_sz:(1, 4, 7),bn:True,do_pctg:0.16101551950025617,txt_length:2496,stride:1": {"dropout_pctg": 0.16101551950025617, "num_filters": 555, "bottleneck_fc_dim": 219, "glove_dim": 100, "batch_norm": true, "filter_sizes": [1, 4, 7], "batch_size": 256, "num_workers": 15, "epochs": 20, "txt_length": 2496, "train_start": "2018-12-14 16:55:32.753322", "train_error_message": "CUDA error: out of memory", "train_finish": "2018-12-14 17:02:34.818906", "model": "ReutersModel(\n  (embedding): Embedding(400000, 100)\n  (conv1): Conv2d(1, 555, kernel_size=(1, 100), stride=(1, 1))\n  (bn1): BatchNorm2d(555, eps=1e-05, momentum=0.1, affine=True, track_running_stats=True)\n  (conv2): Conv2d(1, 555, kernel_size=(4, 100), stride=(1, 1))\n  (bn2): BatchNorm2d(555, eps=1e-05, momentum=0.1, affine=True, track_running_stats=True)\n  (conv3): Conv2d(1, 555, kernel_size=(7, 100), stride=(1, 1))\n  (bn3): BatchNorm2d(555, eps=1e-05, momentum=0.1, affine=True, track_running_stats=True)\n  (fc1): Linear(in_features=1665, out_features=219, bias=True)\n  (fc2): Linear(in_features=219, out_features=126, bias=True)\n  (dropout): Dropout(p=0.16101551950025617)\n)"}, "n_flt:679, btl_dim:155, glove:100,flt_sz:(3, 4, 5),bn:True,do_pctg:0.4185387854620502,txt_length:1310,stride:1": {"dropout_pctg": 0.4185387854620502, "num_filters": 679, "bottleneck_fc_dim": 155, "glove_dim": 100, "batch_norm": true, "filter_sizes": [3, 4, 5], "batch_size": 256, "num_workers": 15, "epochs": 20, "txt_length": 1310, "train_start": "2018-12-14 17:02:59.747431", "train_error_message": "CUDA error: out of memory", "train_finish": "2018-12-14 17:07:30.474571", "model": "ReutersModel(\n  (embedding): Embedding(400000, 100)\n  (conv1): Conv2d(1, 679, kernel_size=(3, 100), stride=(1, 1))\n  (bn1): BatchNorm2d(679, eps=1e-05, momentum=0.1, affine=True, track_running_stats=True)\n  (conv2): Conv2d(1, 679, kernel_size=(4, 100), stride=(1, 1))\n  (bn2): BatchNorm2d(679, eps=1e-05, momentum=0.1, affine=True, track_running_stats=True)\n  (conv3): Conv2d(1, 679, kernel_size=(5, 100), stride=(1, 1))\n  (bn3): BatchNorm2d(679, eps=1e-05, momentum=0.1, affine=True, track_running_stats=True)\n  (fc1): Linear(in_features=2037, out_features=155, bias=True)\n  (fc2): Linear(in_features=155, out_features=126, bias=True)\n  (dropout): Dropout(p=0.4185387854620502)\n)"}, "n_flt:582, btl_dim:154, glove:100,flt_sz:(1, 3, 5),bn:True,do_pctg:0.3871259484249372,txt_length:1572,stride:2": {"dropout_pctg": 0.3871259484249372, "num_filters": 582, "bottleneck_fc_dim": 154, "glove_dim": 100, "batch_norm": true, "filter_sizes": [1, 3, 5], "batch_size": 256, "num_workers": 15, "epo
…
41, 0.03197849634504635, 0.02925003826285958, 0.027673740227984182, 0.02657151235659842, 0.025852522507055435, 0.024815493897734603, 0.024214479607482225, 0.02352666973968724, 0.02304370023939313, 0.022478632676632512, 0.02214154081005582], "loss_vector": [0.027459592100674824, 0.02423457001825258, 0.023145099367820107, 0.022254178805624025, 0.02192412290753702, 0.02223997326346777, 0.02155056200384841, 0.022179607088851222, 0.021143325115159407, 0.021602270619596464, 0.02209194537283758, 0.021557653875295388], "train_finish": "2018-12-14 17:35:39.514931", "model": "ReutersModel(\n  (embedding): Embedding(400000, 100)\n  (conv1): Conv2d(1, 582, kernel_size=(1, 100), stride=(2, 2))\n  (bn1): BatchNorm2d(582, eps=1e-05, momentum=0.1, affine=True, track_running_stats=True)\n  (conv2): Conv2d(1, 582, kernel_size=(3, 100), stride=(2, 2))\n  (bn2): BatchNorm2d(582, eps=1e-05, momentum=0.1, affine=True, track_running_stats=True)\n  (conv3): Conv2d(1, 582, kernel_size=(5, 100), stride=(2, 2))\n  (bn3): BatchNorm2d(582, eps=1e-05, momentum=0.1, affine=True, track_running_stats=True)\n  (fc1): Linear(in_features=1746, out_features=154, bias=True)\n  (fc2): Linear(in_features=154, out_features=126, bias=True)\n  (dropout): Dropout(p=0.3871259484249372)\n)"}, "n_flt:311, btl_dim:171, glove:50,flt_sz:(1, 3, 5),bn:False,do_pctg:0.05738846973510307,txt_length:2201,stride:2": {"dropout_pctg": 0.05738846973510307, "num_filters": 311, "bottleneck_fc_dim": 171, "glove_dim": 50, "batch_norm": false, "filter_sizes": [1, 3, 5], "batch_size": 256, "num_workers": 15, "e
…
": 0.8128531073446328, "pAtK_5": 0.5641551906779662}, "train_vector": [0.0460310279457093, 0.02619316466718177, 0.023215377243833026, 0.021630269024641283, 0.02054966325417472, 0.01972676368971025, 0.01901696229342944, 0.01851345639343619, 0.017994634542027505, 0.01759984725874193], "loss_vector": [0.027524733316090146, 0.02370555484983123, 0.022598609241451753, 0.021436523227810353, 0.021520926127746955, 0.02105142206932276, 0.02086318017504478, 0.02094993181526661, 0.021088739762366828, 0.021162238327186493], "train_finish": "2018-12-14 17:49:43.850449", "model": "ReutersModel(\n  (embedding): Embedding(400000, 50)\n  (conv1): Conv2d(1, 311, kernel_size=(1, 50), stride=(2, 2))\n  (bn1): BatchNorm2d(311, eps=1e-05, momentum=0.1, affine=True, track_running_stats=True)\n  (conv2): Conv2d(1, 311, kernel_size=(3, 50), stride=(2, 2))\n  (bn2): BatchNorm2d(311, eps=1e-05, momentum=0.1, affine=True, track_running_stats=True)\n  (conv3): Conv2d(1, 311, kernel_size=(5, 50), stride=(2, 2))\n  (bn3): BatchNorm2d(311, eps=1e-05, momentum=0.1, affine=True, track_running_stats=True)\n  (fc1): Linear(in_features=933, out_features=171, bias=True)\n  (fc2): Linear(in_features=171, out_features=126, bias=True)\n  (dropout): Dropout(p=0.05738846973510307)\n)"}, "n_flt:379, btl_dim:114, glove:100,flt_sz:(1, 3, 5),bn:False,do_pctg:0.4369633450285385,txt_length:1643,stride:2": {"dropout_pctg": 0.4369633450285385, "num_filters": 379, "bottleneck_fc_dim": 114, "glove_dim": 100, "batch_norm": false, "filter_sizes": [1, 3, 5], "batch_size": 256, "num_workers": 15, "
…
808494438559322, "pAtK_5": 0.5609242584745763}, "train_vector": [0.054912363806389544, 0.03285825605622618, 0.029731339927006377, 0.028061089104136887, 0.026758919468244973, 0.025789561350980112, 0.025039081848747816, 0.024386218922173842, 0.023847815073475213, 0.023292175867016898], "loss_vector": [0.02906904412212513, 0.025314405213220644, 0.023715938970257165, 0.0237862278896747, 0.02272379515155897, 0.02263310719754989, 0.022550997276932508, 0.023151260066651188, 0.023291019028273678, 0.023003177591047044], "train_finish": "2018-12-14 18:04:05.793554", "model": "ReutersModel(\n  (embedding): Embedding(400000, 100)\n  (conv1): Conv2d(1, 379, kernel_size=(1, 100), stride=(2, 2))\n  (bn1): BatchNorm2d(379, eps=1e-05, momentum=0.1, affine=True, track_running_stats=True)\n  (conv2): Conv2d(1, 379, kernel_size=(3, 100), stride=(2, 2))\n  (bn2): BatchNorm2d(379, eps=1e-05, momentum=0.1, affine=True, track_running_stats=True)\n  (conv3): Conv2d(1, 379, kernel_size=(5, 100), stride=(2, 2))\n  (bn3): BatchNorm2d(379, eps=1e-05, momentum=0.1, affine=True, track_running_stats=True)\n  (fc1): Linear(in_features=1137, out_features=114, bias=True)\n  (fc2): Linear(in_features=114, out_features=126, bias=True)\n  (dropout): Dropout(p=0.4369633450285385)\n)"}, "n_flt:775, btl_dim:236, glove:100,flt_sz:(3, 4, 5),bn:True,do_pctg:0.11306304030333086,txt_length:527,stride:1": {"dropout_pctg": 0.11306304030333086, "num_filters": 775, "bottleneck_fc_dim": 236, "glove_dim": 100, "batch_norm": true, "filter_sizes": [3, 4, 5], "batch_size": 256, "num_workers": 15, "ep
…
ore_4": 0.7612512856626606}, "pAtK_scores": {"pAtK_1": 0.9606726694915254, "pAtK_3": 0.8284339689265536, "pAtK_5": 0.5732984639830508}, "train_vector": [0.03751494781957123, 0.021915347064426435, 0.01947473779151064, 0.018047726847429318, 0.01687015648365756, 0.015826986515912203, 0.014953999411654031, 0.014180267119225277], "loss_vector": [0.02214496214163758, 0.019942688140071045, 0.018756768697778047, 0.018085171815828752, 0.01806663018572381, 0.018233782580217062, 0.018259586876858087, 0.01837412772258207], "train_finish": "2018-12-14 18:23:14.178336", "model": "ReutersModel(\n  (embedding): Embedding(400000, 100)\n  (conv1): Conv2d(1, 775, kernel_size=(3, 100), stride=(1, 1))\n  (bn1): BatchNorm2d(775, eps=1e-05, momentum=0.1, affine=True, track_running_stats=True)\n  (conv2): Conv2d(1, 775, kernel_size=(4, 100), stride=(1, 1))\n  (bn2): BatchNorm2d(775, eps=1e-05, momentum=0.1, affine=True, track_running_stats=True)\n  (conv3): Conv2d(1, 775, kernel_size=(5, 100), stride=(1, 1))\n  (bn3): BatchNorm2d(775, eps=1e-05, momentum=0.1, affine=True, track_running_stats=True)\n  (fc1): Linear(in_features=2325, out_features=236, bias=True)\n  (fc2): Linear(in_features=236, out_features=126, bias=True)\n  (dropout): Dropout(p=0.11306304030333086)\n)"}, "n_flt:797, btl_dim:242, glove:100,flt_sz:(3, 4, 5),bn:True,do_pctg:0.22593748610847603,txt_length:577,stride:1": {"dropout_pctg": 0.22593748610847603, "num_filters": 797, "bottleneck_fc_dim": 242, "glove_dim": 100, "batch_norm": true, "filter_sizes": [3, 4, 5], "batch_size": 256, "num_workers": 15, "e
…
0.8296477754237288, "pAtK_5": 0.5743048199152543}, "train_vector": [0.04048749520151789, 0.023850786289380442, 0.021425653580378252, 0.019876208860582657, 0.018871505547710738, 0.01794883692318987, 0.017052320415327286, 0.016371242840733713, 0.01576262657960039, 0.015061470919396495], "loss_vector": [0.02312704105466857, 0.01982684042778308, 0.01989979231414401, 0.01882380333934295, 0.018543222090387244, 0.018472426791943736, 0.01813011989786716, 0.018385404547266032, 0.01896980445105898, 0.019226879228727293], "train_finish": "2018-12-14 18:49:27.986594", "model": "ReutersModel(\n  (embedding): Embedding(400000, 100)\n  (conv1): Conv2d(1, 797, kernel_size=(3, 100), stride=(1, 1))\n  (bn1): BatchNorm2d(797, eps=1e-05, momentum=0.1, affine=True, track_running_stats=True)\n  (conv2): Conv2d(1, 797, kernel_size=(4, 100), stride=(1, 1))\n  (bn2): BatchNorm2d(797, eps=1e-05, momentum=0.1, affine=True, track_running_stats=True)\n  (conv3): Conv2d(1, 797, kernel_size=(5, 100), stride=(1, 1))\n  (bn3): BatchNorm2d(797, eps=1e-05, momentum=0.1, affine=True, track_running_stats=True)\n  (fc1): Linear(in_features=2391, out_features=242, bias=True)\n  (fc2): Linear(in_features=242, out_features=126, bias=True)\n  (dropout): Dropout(p=0.22593748610847603)\n)"}, "n_flt:797, btl_dim:247, glove:100,flt_sz:(3, 4, 5),bn:True,do_pctg:0.2516932556857159,txt_length:566,stride:1": {"dropout_pctg": 0.2516932556857159, "num_filters": 797, "bottleneck_fc_dim": 247, "glove_dim": 100, "batch_norm": true, "filter_sizes": [3, 4, 5], "batch_size": 256, "num_workers": 15, "epo
…
"pAtK_1": 0.9618313029661016, "pAtK_3": 0.8283015536723164, "pAtK_5": 0.5731461864406779}, "train_vector": [0.039459175124509964, 0.023667889251329528, 0.021336255743534108, 0.019934625101524918, 0.018868953954477918, 0.018013296708061698, 0.017233041312149682, 0.01667535292564324, 0.016093300854295944], "loss_vector": [0.02285723179831343, 0.020149090145793507, 0.019214752698475022, 0.018844126952591085, 0.01845103507009098, 0.017954054738442273, 0.01857833835785672, 0.018388744143737576, 0.01836865687332416], "train_finish": "2018-12-14 19:12:49.778083", "model": "ReutersModel(\n  (embedding): Embedding(400000, 100)\n  (conv1): Conv2d(1, 797, kernel_size=(3, 100), stride=(1, 1))\n  (bn1): BatchNorm2d(797, eps=1e-05, momentum=0.1, affine=True, track_running_stats=True)\n  (conv2): Conv2d(1, 797, kernel_size=(4, 100), stride=(1, 1))\n  (bn2): BatchNorm2d(797, eps=1e-05, momentum=0.1, affine=True, track_running_stats=True)\n  (conv3): Conv2d(1, 797, kernel_size=(5, 100), stride=(1, 1))\n  (bn3): BatchNorm2d(797, eps=1e-05, momentum=0.1, affine=True, track_running_stats=True)\n  (fc1): Linear(in_features=2391, out_features=247, bias=True)\n  (fc2): Linear(in_features=247, out_features=126, bias=True)\n  (dropout): Dropout(p=0.2516932556857159)\n)"}, "n_flt:741, btl_dim:199, glove:100,flt_sz:(3, 4, 5),bn:True,do_pctg:0.2888182906100262,txt_length:1860,stride:1": {"dropout_pctg": 0.2888182906100262, "num_filters": 741, "bottleneck_fc_dim": 199, "glove_dim": 100, "batch_norm": true, "filter_sizes": [3, 4, 5], "batch_size": 256, "num_workers": 15, "epochs": 20, "txt_length": 1860, "train_start": "2018-12-14 19:13:12.102875", "train_error_message": "CUDA error: out of memory", "train_finish": "2018-12-14 19:19:30.647836", "model": "ReutersModel(\n  (embedding): Embedding(400000, 100)\n  (conv1): Conv2d(1, 741, kernel_size=(3, 100), stride=(1, 1))\n  (bn1): BatchNorm2d(741, eps=1e-05, momentum=0.1, affine=True, track_running_stats=True)\n  (conv2): Conv2d(1, 741, kernel_size=(4, 100), stride=(1, 1))\n  (bn2): BatchNorm2d(741, eps=1e-05, momentum=0.1, affine=True, track_running_stats=True)\n  (conv3): Conv2d(1, 741, kernel_size=(5, 100), stride=(1, 1))\n  (bn3): BatchNorm2d(741, eps=1e-05, momentum=0.1, affine=True, track_running_stats=True)\n  (fc1): Linear(in_features=2223, out_features=199, bias=True)\n  (fc2): Linear(in_features=199, out_features=126, bias=True)\n  (dropout): Dropout(p=0.2888182906100262)\n)"}, "n_flt:759, btl_dim:199, glove:100,flt_sz:(3, 4, 5),bn:True,do_pctg:0.10698139052387085,txt_length:507,stride:1": {"dropout_pctg": 0.10698139052387085, "num_filters": 759, "bottleneck_fc_dim": 199, "glove_dim": 100, "batch_norm": true, "filter_sizes": [3, 4, 5], "batch_size": 256, "num_workers": 15, "ep
…
9665, "f1_score_3": 0.8059075135178759, "f1_score_4": 0.7582861537606213}, "pAtK_scores": {"pAtK_1": 0.9578919491525424, "pAtK_3": 0.8264367055084746, "pAtK_5": 0.5716432733050848}, "train_vector": [0.037625368901897764, 0.021839607499037964, 0.019467701076881595, 0.01799557702810251, 0.01681617113445272, 0.01580049073238781, 0.014961805706225208], "loss_vector": [0.02182421320260076, 0.0197501115627208, 0.01863521888410136, 0.01807163783617444, 0.018420987288956924, 0.018076152059296937, 0.018812425979176314], "train_finish": "2018-12-14 19:34:38.504421", "model": "ReutersModel(\n  (embedding): Embedding(400000, 100)\n  (conv1): Conv2d(1, 759, kernel_size=(3, 100), stride=(1, 1))\n  (bn1): BatchNorm2d(759, eps=1e-05, momentum=0.1, affine=True, track_running_stats=True)\n  (conv2): Conv2d(1, 759, kernel_size=(4, 100), stride=(1, 1))\n  (bn2): BatchNorm2d(759, eps=1e-05, momentum=0.1, affine=True, track_running_stats=True)\n  (conv3): Conv2d(1, 759, kernel_size=(5, 100), stride=(1, 1))\n  (bn3): BatchNorm2d(759, eps=1e-05, momentum=0.1, affine=True, track_running_stats=True)\n  (fc1): Linear(in_features=2277, out_features=199, bias=True)\n  (fc2): Linear(in_features=199, out_features=126, bias=True)\n  (dropout): Dropout(p=0.10698139052387085)\n)"}, "n_flt:757, btl_dim:297, glove:50,flt_sz:(3, 4, 5),bn:True,do_pctg:0.021429080624312896,txt_length:959,stride:1": {"dropout_pctg": 0.021429080624312896, "num_filters": 757, "bottleneck_fc_dim": 297, "glove_dim": 50, "batch_norm": true, "filter_sizes": [3, 4, 5], "batch_size": 256, "num_workers": 15, "e
…
91}, "train_vector": [0.03705225141800276, 0.022481917643979672, 0.020090366856847137, 0.01875596660661177, 0.01771337073561391, 0.016877221699938376, 0.016019086577917185, 0.015332387921098175, 0.014712592553297868, 0.014107112128612721, 0.013579007130349497], "loss_vector": [0.023573634017385162, 0.02137831222044967, 0.019940616192012015, 0.019626603011925845, 0.01908001380230663, 0.018978180474270197, 0.018973784308122882, 0.018706222001652596, 0.01894319423679578, 0.019308475319738106, 0.01953035610396478], "train_finish": "2018-12-14 20:10:33.663370", "model": "ReutersModel(\n  (embedding): Embedding(400000, 50)\n  (conv1): Conv2d(1, 757, kernel_size=(3, 50), stride=(1, 1))\n  (bn1): BatchNorm2d(757, eps=1e-05, momentum=0.1, affine=True, track_running_stats=True)\n  (conv2): Conv2d(1, 757, kernel_size=(4, 50), stride=(1, 1))\n  (bn2): BatchNorm2d(757, eps=1e-05, momentum=0.1, affine=True, track_running_stats=True)\n  (conv3): Conv2d(1, 757, kernel_size=(5, 50), stride=(1, 1))\n  (bn3): BatchNorm2d(757, eps=1e-05, momentum=0.1, affine=True, track_running_stats=True)\n  (fc1): Linear(in_features=2271, out_features=297, bias=True)\n  (fc2): Linear(in_features=297, out_features=126, bias=True)\n  (dropout): Dropout(p=0.021429080624312896)\n)"}, "n_flt:793, btl_dim:241, glove:100,flt_sz:(3, 4, 5),bn:True,do_pctg:0.49861150344649563,txt_length:659,stride:1": {"dropout_pctg": 0.49861150344649563, "num_filters": 793, "bottleneck_fc_dim": 241, "glove_dim": 100, "batch_norm": true, "filter_sizes": [3, 4, 5], "batch_size": 256, "num_workers": 15, "
…
, 0.030384720345531403, 0.027789501628822575, 0.026195975455262855, 0.02521345904185322, 0.0242263603764648, 0.023382537830373595, 0.022638833357031814, 0.02208611610357913, 0.02159902631116066, 0.021043609013954138, 0.02076031631777731], "loss_vector": [0.025519092709331188, 0.023082943214892834, 0.02240684078374909, 0.02117542567331407, 0.020813682519088862, 0.021219032185183742, 0.020225597869099703, 0.020392020043553942, 0.020102021150227824, 0.020210170234411448, 0.020252586650204355, 0.02027838787663791], "train_finish": "2018-12-14 20:46:33.797430", "model": "ReutersModel(\n  (embedding): Embedding(400000, 100)\n  (conv1): Conv2d(1, 793, kernel_size=(3, 100), stride=(1, 1))\n  (bn1): BatchNorm2d(793, eps=1e-05, momentum=0.1, affine=True, track_running_stats=True)\n  (conv2): Conv2d(1, 793, kernel_size=(4, 100), stride=(1, 1))\n  (bn2): BatchNorm2d(793, eps=1e-05, momentum=0.1, affine=True, track_running_stats=True)\n  (conv3): Conv2d(1, 793, kernel_size=(5, 100), stride=(1, 1))\n  (bn3): BatchNorm2d(793, eps=1e-05, momentum=0.1, affine=True, track_running_stats=True)\n  (fc1): Linear(in_features=2379, out_features=241, bias=True)\n  (fc2): Linear(in_features=241, out_features=126, bias=True)\n  (dropout): Dropout(p=0.49861150344649563)\n)"}, "n_flt:739, btl_dim:248, glove:100,flt_sz:(3, 4, 5),bn:True,do_pctg:0.19651818569030718,txt_length:1923,stride:1": {"dropout_pctg": 0.19651818569030718, "num_filters": 739, "bottleneck_fc_dim": 248, "glove_dim": 100, "batch_norm": true, "filter_sizes": [3, 4, 5], "batch_size": 256, "num_workers": 15, "epochs": 20, "txt_length": 1923, "train_start": "2018-12-14 20:46:57.239086", "train_error_message": "CUDA error: out of memory", "train_finish": "2018-12-14 20:53:36.328227", "model": "ReutersModel(\n  (embedding): Embedding(400000, 100)\n  (conv1): Conv2d(1, 739, kernel_size=(3, 100), stride=(1, 1))\n  (bn1): BatchNorm2d(739, eps=1e-05, momentum=0.1, affine=True, track_running_stats=True)\n  (conv2): Conv2d(1, 739, kernel_size=(4, 100), stride=(1, 1))\n  (bn2): BatchNorm2d(739, eps=1e-05, momentum=0.1, affine=True, track_running_stats=True)\n  (conv3): Conv2d(1, 739, kernel_size=(5, 100), stride=(1, 1))\n  (bn3): BatchNorm2d(739, eps=1e-05, momentum=0.1, affine=True, track_running_stats=True)\n  (fc1): Linear(in_features=2217, out_features=248, bias=True)\n  (fc2): Linear(in_features=248, out_features=126, bias=True)\n  (dropout): Dropout(p=0.19651818569030718)\n)"}, "n_flt:612, btl_dim:57, glove:100,flt_sz:(3, 4, 5),bn:True,do_pctg:0.02239460914132202,txt_length:1396,stride:1": {"dropout_pctg": 0.02239460914132202, "num_filters": 612, "bottleneck_fc_dim": 57, "glove_dim": 100, "batch_norm": true, "filter_sizes": [3, 4, 5], "batch_size": 256, "num_workers": 15, "epochs": 20, "txt_length": 1396, "train_start": "2018-12-14 20:54:00.282335", "train_error_message": "CUDA error: out of memory", "train_finish": "2018-12-14 20:58:20.850646", "model": "ReutersModel(\n  (embedding): Embedding(400000, 100)\n  (conv1): Conv2d(1, 612, kernel_size=(3, 100), stride=(1, 1))\n  (bn1): BatchNorm2d(612, eps=1e-05, momentum=0.1, affine=True, track_running_stats=True)\n  (conv2): Conv2d(1, 612, kernel_size=(4, 100), stride=(1, 1))\n  (bn2): BatchNorm2d(612, eps=1e-05, momentum=0.1, affine=True, track_running_stats=True)\n  (conv3): Conv2d(1, 612, kernel_size=(5, 100), stride=(1, 1))\n  (bn3): BatchNorm2d(612, eps=1e-05, momentum=0.1, affine=True, track_running_stats=True)\n  (fc1): Linear(in_features=1836, out_features=57, bias=True)\n  (fc2): Linear(in_features=57, out_features=126, bias=True)\n  (dropout): Dropout(p=0.02239460914132202)\n)"}, "n_flt:713, btl_dim:230, glove:50,flt_sz:(3, 4, 5),bn:True,do_pctg:0.1100747024193256,txt_length:1255,stride:1": {"dropout_pctg": 0.1100747024193256, "num_filters": 713, "bottleneck_fc_dim": 230, "glove_dim": 50, "batch_norm": true, "filter_sizes": [3, 4, 5], "batch_size": 256, "num_workers": 15, "epochs": 20, "txt_length": 1255, "train_start": "2018-12-14 20:58:43.074345", "train_error_message": "CUDA error: out of memory", "train_finish": "2018-12-14 21:02:23.027796", "model": "ReutersModel(\n  (embedding): Embedding(400000, 50)\n  (conv1): Conv2d(1, 713, kernel_size=(3, 50), stride=(1, 1))\n  (bn1): BatchNorm2d(713, eps=1e-05, momentum=0.1, affine=True, track_running_stats=True)\n  (conv2): Conv2d(1, 713, kernel_size=(4, 50), stride=(1, 1))\n  (bn2): BatchNorm2d(713, eps=1e-05, momentum=0.1, affine=True, track_running_stats=True)\n  (conv3): Conv2d(1, 713, kernel_size=(5, 50), stride=(1, 1))\n  (bn3): BatchNorm2d(713, eps=1e-05, momentum=0.1, affine=True, track_running_stats=True)\n  (fc1): Linear(in_features=2139, out_features=230, bias=True)\n  (fc2): Linear(in_features=230, out_features=126, bias=True)\n  (dropout): Dropout(p=0.1100747024193256)\n)"}, "n_flt:773, btl_dim:206, glove:100,flt_sz:(3, 4, 5),bn:True,do_pctg:0.29749108729667223,txt_length:989,stride:1": {"dropout_pctg": 0.29749108729667223, "num_filters": 773, "bottleneck_fc_dim": 206, "glove_dim": 100, "batch_norm": true, "filter_sizes": [3, 4, 5], "batch_size": 256, "num_workers": 15, "ep
…
3178528, 0.02658494545122082, 0.0240566022022569, 0.02246971171617904, 0.02147740265442875, 0.02057269898877679, 0.01976408036355021, 0.019032263640575888, 0.018497756653177273, 0.017764759130698173, 0.017396119280949772, 0.01697932054293987], "loss_vector": [0.024235744281845578, 0.02144371546110359, 0.02064708212264261, 0.01967296428126046, 0.019480543155854537, 0.019234803418423665, 0.019549031805057647, 0.0197632126352292, 0.01919154882020617, 0.01927525285726129, 0.01922621267011105, 0.019821120307670307], "train_finish": "2018-12-14 21:54:47.883245", "model": "ReutersModel(\n  (embedding): Embedding(400000, 100)\n  (conv1): Conv2d(1, 773, kernel_size=(3, 100), stride=(1, 1))\n  (bn1): BatchNorm2d(773, eps=1e-05, momentum=0.1, affine=True, track_running_stats=True)\n  (conv2): Conv2d(1, 773, kernel_size=(4, 100), stride=(1, 1))\n  (bn2): BatchNorm2d(773, eps=1e-05, momentum=0.1, affine=True, track_running_stats=True)\n  (conv3): Conv2d(1, 773, kernel_size=(5, 100), stride=(1, 1))\n  (bn3): BatchNorm2d(773, eps=1e-05, momentum=0.1, affine=True, track_running_stats=True)\n  (fc1): Linear(in_features=2319, out_features=206, bias=True)\n  (fc2): Linear(in_features=206, out_features=126, bias=True)\n  (dropout): Dropout(p=0.29749108729667223)\n)"}, "n_flt:721, btl_dim:265, glove:100,flt_sz:(3, 4, 5),bn:True,do_pctg:0.214411437810483,txt_length:729,stride:1": {"dropout_pctg": 0.214411437810483, "num_filters": 721, "bottleneck_fc_dim": 265, "glove_dim": 100, "batch_norm": true, "filter_sizes": [3, 4, 5], "batch_size": 256, "num_workers": 15, "epoch
…
.02351047694364976, 0.021100240416711716, 0.019746320277091958, 0.018615587739065374, 0.017713182758667154, 0.016977382845031468, 0.016248516785245977, 0.015757661243013515, 0.015307597965320158, 0.014614973025506033, 0.014165695766393498], "loss_vector": [0.022556119203820068, 0.020352722611278296, 0.01948112730031549, 0.01880895785229691, 0.019077626348994042, 0.018280538240984336, 0.018251169757065127, 0.01839478553067577, 0.018243867611922954, 0.01870341280127986, 0.018829496198539006, 0.01880535830633115], "train_finish": "2018-12-14 22:30:48.558871", "model": "ReutersModel(\n  (embedding): Embedding(400000, 100)\n  (conv1): Conv2d(1, 721, kernel_size=(3, 100), stride=(1, 1))\n  (bn1): BatchNorm2d(721, eps=1e-05, momentum=0.1, affine=True, track_running_stats=True)\n  (conv2): Conv2d(1, 721, kernel_size=(4, 100), stride=(1, 1))\n  (bn2): BatchNorm2d(721, eps=1e-05, momentum=0.1, affine=True, track_running_stats=True)\n  (conv3): Conv2d(1, 721, kernel_size=(5, 100), stride=(1, 1))\n  (bn3): BatchNorm2d(721, eps=1e-05, momentum=0.1, affine=True, track_running_stats=True)\n  (fc1): Linear(in_features=2163, out_features=265, bias=True)\n  (fc2): Linear(in_features=265, out_features=126, bias=True)\n  (dropout): Dropout(p=0.214411437810483)\n)"}, "n_flt:662, btl_dim:132, glove:100,flt_sz:(3, 4, 5),bn:True,do_pctg:0.2586157144577682,txt_length:538,stride:1": {"dropout_pctg": 0.2586157144577682, "num_filters": 662, "bottleneck_fc_dim": 132, "glove_dim": 100, "batch_norm": true, "filter_sizes": [3, 4, 5], "batch_size": 256, "num_workers": 15, "epoch
…
re_4": 0.7561549652060303}, "pAtK_scores": {"pAtK_1": 0.9607719809322034, "pAtK_3": 0.8215704449152542, "pAtK_5": 0.5693326271186441}, "train_vector": [0.045952645718938256, 0.027317783676893706, 0.024620335780621366, 0.023035231023404813, 0.02186861890058901, 0.020870702623953404, 0.020195590993089062, 0.01932660962120971], "loss_vector": [0.024773912180720243, 0.02235586799965319, 0.02068988309573319, 0.020284114587041786, 0.019428159749545787, 0.01944873014749107, 0.020212947761924085, 0.019536095955488036], "train_finish": "2018-12-14 22:47:50.417538", "model": "ReutersModel(\n  (embedding): Embedding(400000, 100)\n  (conv1): Conv2d(1, 662, kernel_size=(3, 100), stride=(1, 1))\n  (bn1): BatchNorm2d(662, eps=1e-05, momentum=0.1, affine=True, track_running_stats=True)\n  (conv2): Conv2d(1, 662, kernel_size=(4, 100), stride=(1, 1))\n  (bn2): BatchNorm2d(662, eps=1e-05, momentum=0.1, affine=True, track_running_stats=True)\n  (conv3): Conv2d(1, 662, kernel_size=(5, 100), stride=(1, 1))\n  (bn3): BatchNorm2d(662, eps=1e-05, momentum=0.1, affine=True, track_running_stats=True)\n  (fc1): Linear(in_features=1986, out_features=132, bias=True)\n  (fc2): Linear(in_features=132, out_features=126, bias=True)\n  (dropout): Dropout(p=0.2586157144577682)\n)"}, "n_flt:516, btl_dim:181, glove:100,flt_sz:(3, 4, 5),bn:True,do_pctg:0.10655388221660964,txt_length:1144,stride:1": {"dropout_pctg": 0.10655388221660964, "num_filters": 516, "bottleneck_fc_dim": 181, "glove_dim": 100, "batch_norm": true, "filter_sizes": [3, 4, 5], "batch_size": 256, "num_workers": 15, "e
…
: {"pAtK_1": 0.9566340042372882, "pAtK_3": 0.8241415077683616, "pAtK_5": 0.5717425847457627}, "train_vector": [0.0396675610706295, 0.023015382540619012, 0.0204915687180278, 0.019094298378983247, 0.0179246709022876, 0.016999098624277724, 0.016219379034854712, 0.015498095284793985, 0.014958871403033978], "loss_vector": [0.023422491389437246, 0.020409000011445102, 0.01931869127329881, 0.018905206362448506, 0.01871057504282917, 0.018554362571024795, 0.018766851993119817, 0.019155460907051624, 0.018776575955799072], "train_finish": "2018-12-14 23:19:31.576266", "model": "ReutersModel(\n  (embedding): Embedding(400000, 100)\n  (conv1): Conv2d(1, 516, kernel_size=(3, 100), stride=(1, 1))\n  (bn1): BatchNorm2d(516, eps=1e-05, momentum=0.1, affine=True, track_running_stats=True)\n  (conv2): Conv2d(1, 516, kernel_size=(4, 100), stride=(1, 1))\n  (bn2): BatchNorm2d(516, eps=1e-05, momentum=0.1, affine=True, track_running_stats=True)\n  (conv3): Conv2d(1, 516, kernel_size=(5, 100), stride=(1, 1))\n  (bn3): BatchNorm2d(516, eps=1e-05, momentum=0.1, affine=True, track_running_stats=True)\n  (fc1): Linear(in_features=1548, out_features=181, bias=True)\n  (fc2): Linear(in_features=181, out_features=126, bias=True)\n  (dropout): Dropout(p=0.10655388221660964)\n)"}, "n_flt:796, btl_dim:286, glove:50,flt_sz:(3, 4, 5),bn:True,do_pctg:0.18540230474514893,txt_length:899,stride:1": {"dropout_pctg": 0.18540230474514893, "num_filters": 796, "bottleneck_fc_dim": 286, "glove_dim": 50, "batch_norm": true, "filter_sizes": [3, 4, 5], "batch_size": 256, "num_workers": 15, "epo
…
6102}, "train_vector": [0.040160838774347105, 0.02435480241276734, 0.022093292348708892, 0.020666139051883678, 0.01972543427975145, 0.01898174649334214, 0.01837422311981076, 0.017736096125965554, 0.017222823346284638, 0.016731340992149582, 0.01606926485980937], "loss_vector": [0.023820395857663983, 0.021312504462203233, 0.020253228647160833, 0.0199654485272654, 0.019453690568837573, 0.018958590956310094, 0.019179842908377365, 0.01876965333249862, 0.019078422132563794, 0.01895189971931405, 0.018957223885266456], "train_finish": "2018-12-14 23:56:24.594102", "model": "ReutersModel(\n  (embedding): Embedding(400000, 50)\n  (conv1): Conv2d(1, 796, kernel_size=(3, 50), stride=(1, 1))\n  (bn1): BatchNorm2d(796, eps=1e-05, momentum=0.1, affine=True, track_running_stats=True)\n  (conv2): Conv2d(1, 796, kernel_size=(4, 50), stride=(1, 1))\n  (bn2): BatchNorm2d(796, eps=1e-05, momentum=0.1, affine=True, track_running_stats=True)\n  (conv3): Conv2d(1, 796, kernel_size=(5, 50), stride=(1, 1))\n  (bn3): BatchNorm2d(796, eps=1e-05, momentum=0.1, affine=True, track_running_stats=True)\n  (fc1): Linear(in_features=2388, out_features=286, bias=True)\n  (fc2): Linear(in_features=286, out_features=126, bias=True)\n  (dropout): Dropout(p=0.18540230474514893)\n)"}, "n_flt:609, btl_dim:257, glove:100,flt_sz:(3, 4, 5),bn:True,do_pctg:0.23967283814138643,txt_length:621,stride:1": {"dropout_pctg": 0.23967283814138643, "num_filters": 609, "bottleneck_fc_dim": 257, "glove_dim": 100, "batch_norm": true, "filter_sizes": [3, 4, 5], "batch_size": 256, "num_workers": 15, "e
…
80146539548022, "pAtK_5": 0.5734573622881356}, "train_vector": [0.040294773037239655, 0.023601465444990647, 0.02119665596266569, 0.019770787726642397, 0.018764540237644987, 0.017817422416259093, 0.01714547691986926, 0.016418950472281542, 0.015752399313763717, 0.015179877402702704], "loss_vector": [0.02272666480108085, 0.020175936189874753, 0.019198395319724993, 0.019050876144319773, 0.01826295104288196, 0.018125345835746345, 0.017931801109116966, 0.01865337914550456, 0.018452818694887525, 0.018529334468609195], "train_finish": "2018-12-15 00:18:02.689682", "model": "ReutersModel(\n  (embedding): Embedding(400000, 100)\n  (conv1): Conv2d(1, 609, kernel_size=(3, 100), stride=(1, 1))\n  (bn1): BatchNorm2d(609, eps=1e-05, momentum=0.1, affine=True, track_running_stats=True)\n  (conv2): Conv2d(1, 609, kernel_size=(4, 100), stride=(1, 1))\n  (bn2): BatchNorm2d(609, eps=1e-05, momentum=0.1, affine=True, track_running_stats=True)\n  (conv3): Conv2d(1, 609, kernel_size=(5, 100), stride=(1, 1))\n  (bn3): BatchNorm2d(609, eps=1e-05, momentum=0.1, affine=True, track_running_stats=True)\n  (fc1): Linear(in_features=1827, out_features=257, bias=True)\n  (fc2): Linear(in_features=257, out_features=126, bias=True)\n  (dropout): Dropout(p=0.23967283814138643)\n)"}, "n_flt:592, btl_dim:258, glove:50,flt_sz:(1, 4, 7),bn:False,do_pctg:0.26075826983906975,txt_length:662,stride:1": {"dropout_pctg": 0.26075826983906975, "num_filters": 592, "bottleneck_fc_dim": 258, "glove_dim": 50, "batch_norm": false, "filter_sizes": [1, 4, 7], "batch_size": 256, "num_workers": 15, "e
…
, "f1_score_3": 0.7989562316735265, "f1_score_4": 0.7524670824028687}, "pAtK_scores": {"pAtK_1": 0.9575278072033898, "pAtK_3": 0.8193083509887006, "pAtK_5": 0.5669690148305084}, "train_vector": [0.04252324039487617, 0.025237287818834157, 0.022347325837306777, 0.020602144259408088, 0.019278454387549885, 0.018299296488578958, 0.017446619234943807], "loss_vector": [0.02529247384518385, 0.02171552964975521, 0.020404539220982183, 0.019600080783968254, 0.019623115603512122, 0.020198648321931644, 0.02033259299725799], "train_finish": "2018-12-15 00:30:01.772174", "model": "ReutersModel(\n  (embedding): Embedding(400000, 50)\n  (conv1): Conv2d(1, 592, kernel_size=(1, 50), stride=(1, 1))\n  (bn1): BatchNorm2d(592, eps=1e-05, momentum=0.1, affine=True, track_running_stats=True)\n  (conv2): Conv2d(1, 592, kernel_size=(4, 50), stride=(1, 1))\n  (bn2): BatchNorm2d(592, eps=1e-05, momentum=0.1, affine=True, track_running_stats=True)\n  (conv3): Conv2d(1, 592, kernel_size=(7, 50), stride=(1, 1))\n  (bn3): BatchNorm2d(592, eps=1e-05, momentum=0.1, affine=True, track_running_stats=True)\n  (fc1): Linear(in_features=1776, out_features=258, bias=True)\n  (fc2): Linear(in_features=258, out_features=126, bias=True)\n  (dropout): Dropout(p=0.26075826983906975)\n)"}, "n_flt:451, btl_dim:270, glove:100,flt_sz:(3, 4, 5),bn:True,do_pctg:0.32041630202149163,txt_length:1755,stride:1": {"dropout_pctg": 0.32041630202149163, "num_filters": 451, "bottleneck_fc_dim": 270, "glove_dim": 100, "batch_norm": true, "filter_sizes": [3, 4, 5], "batch_size": 256, "num_workers": 15, "
…
7, 0.02212921041019784, 0.0211436283143778, 0.02029445266573773, 0.019591350384954312, 0.019078200946312816, 0.01861725064026337, 0.018178157800847427, 0.017618618283484423, 0.01713172443196941, 0.01671419037060646], "loss_vector": [0.02511818431538798, 0.021760423225745305, 0.02082864252724132, 0.020040947375661235, 0.01940640958689027, 0.019287376625116093, 0.019134927943538306, 0.019411530716628846, 0.019011974595171417, 0.018891690251559526, 0.019665448792215625, 0.019717606818461318, 0.019803837154818288], "train_finish": "2018-12-15 01:25:46.551972", "model": "ReutersModel(\n  (embedding): Embedding(400000, 100)\n  (conv1): Conv2d(1, 451, kernel_size=(3, 100), stride=(1, 1))\n  (bn1): BatchNorm2d(451, eps=1e-05, momentum=0.1, affine=True, track_running_stats=True)\n  (conv2): Conv2d(1, 451, kernel_size=(4, 100), stride=(1, 1))\n  (bn2): BatchNorm2d(451, eps=1e-05, momentum=0.1, affine=True, track_running_stats=True)\n  (conv3): Conv2d(1, 451, kernel_size=(5, 100), stride=(1, 1))\n  (bn3): BatchNorm2d(451, eps=1e-05, momentum=0.1, affine=True, track_running_stats=True)\n  (fc1): Linear(in_features=1353, out_features=270, bias=True)\n  (fc2): Linear(in_features=270, out_features=126, bias=True)\n  (dropout): Dropout(p=0.32041630202149163)\n)"}, "n_flt:532, btl_dim:215, glove:100,flt_sz:(3, 4, 5),bn:True,do_pctg:0.278196653812139,txt_length:877,stride:1": {"dropout_pctg": 0.278196653812139, "num_filters": 532, "bottleneck_fc_dim": 215, "glove_dim": 100, "batch_norm": true, "filter_sizes": [3, 4, 5], "batch_size": 256, "num_workers": 15, "epoch
…
0.8261608403954802, "pAtK_5": 0.5715572033898305}, "train_vector": [0.041278062552651935, 0.024701565995360008, 0.02228026524666817, 0.020806066697177106, 0.019825138501554332, 0.01904690044665218, 0.018316212594438438, 0.017694107209998526, 0.01715825276141827, 0.016731224628077003], "loss_vector": [0.023272904701594075, 0.020687455848111946, 0.01956782938312676, 0.01929763526955651, 0.018768164005635652, 0.01870737538941331, 0.01844990070340997, 0.01904438545737984, 0.018961375271427935, 0.01869140647478023], "train_finish": "2018-12-15 01:53:47.205627", "model": "ReutersModel(\n  (embedding): Embedding(400000, 100)\n  (conv1): Conv2d(1, 532, kernel_size=(3, 100), stride=(1, 1))\n  (bn1): BatchNorm2d(532, eps=1e-05, momentum=0.1, affine=True, track_running_stats=True)\n  (conv2): Conv2d(1, 532, kernel_size=(4, 100), stride=(1, 1))\n  (bn2): BatchNorm2d(532, eps=1e-05, momentum=0.1, affine=True, track_running_stats=True)\n  (conv3): Conv2d(1, 532, kernel_size=(5, 100), stride=(1, 1))\n  (bn3): BatchNorm2d(532, eps=1e-05, momentum=0.1, affine=True, track_running_stats=True)\n  (fc1): Linear(in_features=1596, out_features=215, bias=True)\n  (fc2): Linear(in_features=215, out_features=126, bias=True)\n  (dropout): Dropout(p=0.278196653812139)\n)"}, "n_flt:470, btl_dim:299, glove:100,flt_sz:(1, 4, 7),bn:True,do_pctg:0.23220307642341767,txt_length:2744,stride:1": {"dropout_pctg": 0.23220307642341767, "num_filters": 470, "bottleneck_fc_dim": 299, "glove_dim": 100, "batch_norm": true, "filter_sizes": [1, 4, 7], "batch_size": 256, "num_workers": 15, "epochs": 20, "txt_length": 2744, "train_start": "2018-12-15 01:54:13.778008", "train_error_message": "CUDA error: out of memory", "train_finish": "2018-12-15 02:00:31.796430", "model": "ReutersModel(\n  (embedding): Embedding(400000, 100)\n  (conv1): Conv2d(1, 470, kernel_size=(1, 100), stride=(1, 1))\n  (bn1): BatchNorm2d(470, eps=1e-05, momentum=0.1, affine=True, track_running_stats=True)\n  (conv2): Conv2d(1, 470, kernel_size=(4, 100), stride=(1, 1))\n  (bn2): BatchNorm2d(470, eps=1e-05, momentum=0.1, affine=True, track_running_stats=True)\n  (conv3): Conv2d(1, 470, kernel_size=(7, 100), stride=(1, 1))\n  (bn3): BatchNorm2d(470, eps=1e-05, momentum=0.1, affine=True, track_running_stats=True)\n  (fc1): Linear(in_features=1410, out_features=299, bias=True)\n  (fc2): Linear(in_features=299, out_features=126, bias=True)\n  (dropout): Dropout(p=0.23220307642341767)\n)"}, "n_flt:329, btl_dim:254, glove:50,flt_sz:(3, 4, 5),bn:False,do_pctg:0.33672889748790946,txt_length:1424,stride:1": {"dropout_pctg": 0.33672889748790946, "num_filters": 329, "bottleneck_fc_dim": 254, "glove_dim": 50, "batch_norm": false, "filter_sizes": [3, 4, 5], "batch_size": 256, "num_workers": 15, "
…
8163179731638418, "pAtK_5": 0.566306938559322}, "train_vector": [0.044521547661320195, 0.026668507391958016, 0.023864082909017745, 0.022346264203794767, 0.021269522100135656, 0.020458788374187936, 0.019793521637623632, 0.01924057254670241, 0.01876362140133157, 0.018353878284505864], "loss_vector": [0.026532587090159876, 0.022318629034936935, 0.021419991810127336, 0.0206513738859508, 0.020467072583229867, 0.020309172460209517, 0.02020484303771439, 0.02050820684407727, 0.020468263760587926, 0.020807028700739652], "train_finish": "2018-12-15 02:20:23.227221", "model": "ReutersModel(\n  (embedding): Embedding(400000, 50)\n  (conv1): Conv2d(1, 329, kernel_size=(3, 50), stride=(1, 1))\n  (bn1): BatchNorm2d(329, eps=1e-05, momentum=0.1, affine=True, track_running_stats=True)\n  (conv2): Conv2d(1, 329, kernel_size=(4, 50), stride=(1, 1))\n  (bn2): BatchNorm2d(329, eps=1e-05, momentum=0.1, affine=True, track_running_stats=True)\n  (conv3): Conv2d(1, 329, kernel_size=(5, 50), stride=(1, 1))\n  (bn3): BatchNorm2d(329, eps=1e-05, momentum=0.1, affine=True, track_running_stats=True)\n  (fc1): Linear(in_features=987, out_features=254, bias=True)\n  (fc2): Linear(in_features=254, out_features=126, bias=True)\n  (dropout): Dropout(p=0.33672889748790946)\n)"}, "n_flt:645, btl_dim:187, glove:100,flt_sz:(1, 4, 7),bn:True,do_pctg:0.20863987403915826,txt_length:1099,stride:2": {"dropout_pctg": 0.20863987403915826, "num_filters": 645, "bottleneck_fc_dim": 187, "glove_dim": 100, "batch_norm": true, "filter_sizes": [1, 4, 7], "batch_size": 256, "num_workers": 15, "
…
66101}, "train_vector": [0.04217225556885665, 0.02513300483088509, 0.02253305046258943, 0.02089154053535984, 0.019638044694244183, 0.018551858599727137, 0.01766772130928382, 0.016821855658831417, 0.016037611049587574, 0.015384179002744988, 0.01486993395145523], "loss_vector": [0.02424145145815308, 0.02128334947214541, 0.02038372471391902, 0.020249399459147353, 0.01982361502093026, 0.019481252342209977, 0.019271598165949522, 0.019179216080929262, 0.020021631966455507, 0.020124976286443615, 0.020240812491372984], "train_finish": "2018-12-15 02:43:46.795536", "model": "ReutersModel(\n  (embedding): Embedding(400000, 100)\n  (conv1): Conv2d(1, 645, kernel_size=(1, 100), stride=(2, 2))\n  (bn1): BatchNorm2d(645, eps=1e-05, momentum=0.1, affine=True, track_running_stats=True)\n  (conv2): Conv2d(1, 645, kernel_size=(4, 100), stride=(2, 2))\n  (bn2): BatchNorm2d(645, eps=1e-05, momentum=0.1, affine=True, track_running_stats=True)\n  (conv3): Conv2d(1, 645, kernel_size=(7, 100), stride=(2, 2))\n  (bn3): BatchNorm2d(645, eps=1e-05, momentum=0.1, affine=True, track_running_stats=True)\n  (fc1): Linear(in_features=1935, out_features=187, bias=True)\n  (fc2): Linear(in_features=187, out_features=126, bias=True)\n  (dropout): Dropout(p=0.20863987403915826)\n)"}, "n_flt:403, btl_dim:70, glove:100,flt_sz:(3, 4, 5),bn:True,do_pctg:0.17697067346202777,txt_length:2031,stride:1": {"dropout_pctg": 0.17697067346202777, "num_filters": 403, "bottleneck_fc_dim": 70, "glove_dim": 100, "batch_norm": true, "filter_sizes": [3, 4, 5], "batch_size": 256, "num_workers": 15, "ep
…
_3": 0.8068061440677966, "pAtK_5": 0.5576536016949153}, "train_vector": [0.06088395513580013, 0.03543308350227533, 0.03210024069641245, 0.03017514972882151, 0.029025801476904065, 0.028052425734783597, 0.027200664041927915, 0.02650357870141175, 0.025877361585239417, 0.025444662274414605], "loss_vector": [0.03161468522591611, 0.0270171814708639, 0.025234012548827518, 0.02416032555876142, 0.02422083754850141, 0.023538796436357295, 0.02317860466822729, 0.02330818431357206, 0.02362429941767606, 0.02386483456939459], "train_finish": "2018-12-15 03:28:59.014941", "model": "ReutersModel(\n  (embedding): Embedding(400000, 100)\n  (conv1): Conv2d(1, 403, kernel_size=(3, 100), stride=(1, 1))\n  (bn1): BatchNorm2d(403, eps=1e-05, momentum=0.1, affine=True, track_running_stats=True)\n  (conv2): Conv2d(1, 403, kernel_size=(4, 100), stride=(1, 1))\n  (bn2): BatchNorm2d(403, eps=1e-05, momentum=0.1, affine=True, track_running_stats=True)\n  (conv3): Conv2d(1, 403, kernel_size=(5, 100), stride=(1, 1))\n  (bn3): BatchNorm2d(403, eps=1e-05, momentum=0.1, affine=True, track_running_stats=True)\n  (fc1): Linear(in_features=1209, out_features=70, bias=True)\n  (fc2): Linear(in_features=70, out_features=126, bias=True)\n  (dropout): Dropout(p=0.17697067346202777)\n)"}, "n_flt:678, btl_dim:172, glove:100,flt_sz:(1, 3, 5),bn:False,do_pctg:0.40014594587297825,txt_length:2324,stride:2": {"dropout_pctg": 0.40014594587297825, "num_filters": 678, "bottleneck_fc_dim": 172, "glove_dim": 100, "batch_norm": false, "filter_sizes": [1, 3, 5], "batch_size": 256, "num_workers": 15, 
…
25372063, "f1_score_3": 0.7935544615715708, "f1_score_4": 0.7482788335912379}, "pAtK_scores": {"pAtK_1": 0.957130561440678, "pAtK_3": 0.813768979519774, "pAtK_5": 0.5639962923728814}, "train_vector": [0.05042124156481401, 0.0300609756020769, 0.02707290985361731, 0.025218552222344634, 0.023954831567403828, 0.02286011081867528, 0.02188573425557938], "loss_vector": [0.0274102203232252, 0.023653309713354557, 0.02273446860549561, 0.021820118713934543, 0.02190204098883827, 0.021848723686978978, 0.022314241234907658], "train_finish": "2018-12-15 03:53:49.539834", "model": "ReutersModel(\n  (embedding): Embedding(400000, 100)\n  (conv1): Conv2d(1, 678, kernel_size=(1, 100), stride=(2, 2))\n  (bn1): BatchNorm2d(678, eps=1e-05, momentum=0.1, affine=True, track_running_stats=True)\n  (conv2): Conv2d(1, 678, kernel_size=(3, 100), stride=(2, 2))\n  (bn2): BatchNorm2d(678, eps=1e-05, momentum=0.1, affine=True, track_running_stats=True)\n  (conv3): Conv2d(1, 678, kernel_size=(5, 100), stride=(2, 2))\n  (bn3): BatchNorm2d(678, eps=1e-05, momentum=0.1, affine=True, track_running_stats=True)\n  (fc1): Linear(in_features=2034, out_features=172, bias=True)\n  (fc2): Linear(in_features=172, out_features=126, bias=True)\n  (dropout): Dropout(p=0.40014594587297825)\n)"}, "n_flt:604, btl_dim:290, glove:50,flt_sz:(3, 4, 5),bn:True,do_pctg:0.24430305050136647,txt_length:1569,stride:1": {"dropout_pctg": 0.24430305050136647, "num_filters": 604, "bottleneck_fc_dim": 290, "glove_dim": 50, "batch_norm": true, "filter_sizes": [3, 4, 5], "batch_size": 256, "num_workers": 15, "epochs": 20, "txt_length": 1569, "train_start": "2018-12-15 03:54:15.739480", "train_error_message": "CUDA error: out of memory", "train_finish": "2018-12-15 03:58:07.964134", "model": "ReutersModel(\n  (embedding): Embedding(400000, 50)\n  (conv1): Conv2d(1, 604, kernel_size=(3, 50), stride=(1, 1))\n  (bn1): BatchNorm2d(604, eps=1e-05, momentum=0.1, affine=True, track_running_stats=True)\n  (conv2): Conv2d(1, 604, kernel_size=(4, 50), stride=(1, 1))\n  (bn2): BatchNorm2d(604, eps=1e-05, momentum=0.1, affine=True, track_running_stats=True)\n  (conv3): Conv2d(1, 604, kernel_size=(5, 50), stride=(1, 1))\n  (bn3): BatchNorm2d(604, eps=1e-05, momentum=0.1, affine=True, track_running_stats=True)\n  (fc1): Linear(in_features=1812, out_features=290, bias=True)\n  (fc2): Linear(in_features=290, out_features=126, bias=True)\n  (dropout): Dropout(p=0.24430305050136647)\n)"}, "n_flt:694, btl_dim:224, glove:100,flt_sz:(1, 4, 7),bn:True,do_pctg:0.34697041140777685,txt_length:1290,stride:1": {"dropout_pctg": 0.34697041140777685, "num_filters": 694, "bottleneck_fc_dim": 224, "glove_dim": 100, "batch_norm": true, "filter_sizes": [1, 4, 7], "batch_size": 256, "num_workers": 15, "epochs": 20, "txt_length": 1290, "train_start": "2018-12-15 03:58:33.639135", "train_error_message": "CUDA error: out of memory", "train_finish": "2018-12-15 04:03:16.224440", "model": "ReutersModel(\n  (embedding): Embedding(400000, 100)\n  (conv1): Conv2d(1, 694, kernel_size=(1, 100), stride=(1, 1))\n  (bn1): BatchNorm2d(694, eps=1e-05, momentum=0.1, affine=True, track_running_stats=True)\n  (conv2): Conv2d(1, 694, kernel_size=(4, 100), stride=(1, 1))\n  (bn2): BatchNorm2d(694, eps=1e-05, momentum=0.1, affine=True, track_running_stats=True)\n  (conv3): Conv2d(1, 694, kernel_size=(7, 100), stride=(1, 1))\n  (bn3): BatchNorm2d(694, eps=1e-05, momentum=0.1, affine=True, track_running_stats=True)\n  (fc1): Linear(in_features=2082, out_features=224, bias=True)\n  (fc2): Linear(in_features=224, out_features=126, bias=True)\n  (dropout): Dropout(p=0.34697041140777685)\n)"}, "n_flt:576, btl_dim:275, glove:100,flt_sz:(1, 3, 5),bn:False,do_pctg:0.14376573447540186,txt_length:737,stride:2": {"dropout_pctg": 0.14376573447540186, "num_filters": 576, "bottleneck_fc_dim": 275, "glove_dim": 100, "batch_norm": false, "filter_sizes": [1, 3, 5], "batch_size": 256, "num_workers": 15, 
…
2, "f1_score_3": 0.8007209533801415, "f1_score_4": 0.7541627672093475}, "pAtK_scores": {"pAtK_1": 0.9577926377118644, "pAtK_3": 0.8211180261299436, "pAtK_5": 0.5683130296610169}, "train_vector": [0.04051435024316725, 0.02258241150450435, 0.019711935052390172, 0.01789038049753409, 0.016490667772990082, 0.015323293545553762, 0.014298207760988196], "loss_vector": [0.023249372918853314, 0.020207540802973305, 0.019281270306052294, 0.018799759463359742, 0.01893756683852713, 0.02005768490765812, 0.020191985608662588], "train_finish": "2018-12-15 04:10:43.820896", "model": "ReutersModel(\n  (embedding): Embedding(400000, 100)\n  (conv1): Conv2d(1, 576, kernel_size=(1, 100), stride=(2, 2))\n  (bn1): BatchNorm2d(576, eps=1e-05, momentum=0.1, affine=True, track_running_stats=True)\n  (conv2): Conv2d(1, 576, kernel_size=(3, 100), stride=(2, 2))\n  (bn2): BatchNorm2d(576, eps=1e-05, momentum=0.1, affine=True, track_running_stats=True)\n  (conv3): Conv2d(1, 576, kernel_size=(5, 100), stride=(2, 2))\n  (bn3): BatchNorm2d(576, eps=1e-05, momentum=0.1, affine=True, track_running_stats=True)\n  (fc1): Linear(in_features=1728, out_features=275, bias=True)\n  (fc2): Linear(in_features=275, out_features=126, bias=True)\n  (dropout): Dropout(p=0.14376573447540186)\n)"}, "n_flt:540, btl_dim:139, glove:100,flt_sz:(3, 4, 5),bn:True,do_pctg:0.31562572939977507,txt_length:815,stride:1": {"dropout_pctg": 0.31562572939977507, "num_filters": 540, "bottleneck_fc_dim": 139, "glove_dim": 100, "batch_norm": true, "filter_sizes": [3, 4, 5], "batch_size": 256, "num_workers": 15, "e
…
1}, "train_vector": [0.046576289718076445, 0.02761888637629813, 0.024916311319514516, 0.02341855183222545, 0.022509584915550315, 0.021584760477197353, 0.02083846809346038, 0.020123547399010105, 0.019403375308798092, 0.018962240530499583, 0.01850990562804001], "loss_vector": [0.024759829131160246, 0.022042435293985627, 0.020365606717197067, 0.020559156116224445, 0.019962984713394256, 0.01971679771224321, 0.019907501384110775, 0.019487124851952167, 0.020485604213455976, 0.020474172670836167, 0.02017286996025655], "train_finish": "2018-12-15 04:39:30.758170", "model": "ReutersModel(\n  (embedding): Embedding(400000, 100)\n  (conv1): Conv2d(1, 540, kernel_size=(3, 100), stride=(1, 1))\n  (bn1): BatchNorm2d(540, eps=1e-05, momentum=0.1, affine=True, track_running_stats=True)\n  (conv2): Conv2d(1, 540, kernel_size=(4, 100), stride=(1, 1))\n  (bn2): BatchNorm2d(540, eps=1e-05, momentum=0.1, affine=True, track_running_stats=True)\n  (conv3): Conv2d(1, 540, kernel_size=(5, 100), stride=(1, 1))\n  (bn3): BatchNorm2d(540, eps=1e-05, momentum=0.1, affine=True, track_running_stats=True)\n  (fc1): Linear(in_features=1620, out_features=139, bias=True)\n  (fc2): Linear(in_features=139, out_features=126, bias=True)\n  (dropout): Dropout(p=0.31562572939977507)\n)"}, "n_flt:492, btl_dim:205, glove:50,flt_sz:(3, 4, 5),bn:True,do_pctg:0.48741655399003564,txt_length:1201,stride:1": {"dropout_pctg": 0.48741655399003564, "num_filters": 492, "bottleneck_fc_dim": 205, "glove_dim": 50, "batch_norm": true, "filter_sizes": [3, 4, 5], "batch_size": 256, "num_workers": 15, "ep
…
0.028580621155279297, 0.027483156403311063, 0.026823563169002307, 0.026102344756433474, 0.02541373480655663, 0.02490502948814427, 0.024492174994900286, 0.02397265818775888, 0.02366306096407279, 0.023384099987033308], "loss_vector": [0.028235287516046377, 0.024868955046443614, 0.024271942730361627, 0.023413072348082976, 0.02253762065922305, 0.02219702279731884, 0.021896267278214632, 0.021448762140284152, 0.02151714708119378, 0.021339950072815864, 0.021574817684684264, 0.022155998614064212, 0.021479198480245924], "train_finish": "2018-12-15 05:14:35.603692", "model": "ReutersModel(\n  (embedding): Embedding(400000, 50)\n  (conv1): Conv2d(1, 492, kernel_size=(3, 50), stride=(1, 1))\n  (bn1): BatchNorm2d(492, eps=1e-05, momentum=0.1, affine=True, track_running_stats=True)\n  (conv2): Conv2d(1, 492, kernel_size=(4, 50), stride=(1, 1))\n  (bn2): BatchNorm2d(492, eps=1e-05, momentum=0.1, affine=True, track_running_stats=True)\n  (conv3): Conv2d(1, 492, kernel_size=(5, 50), stride=(1, 1))\n  (bn3): BatchNorm2d(492, eps=1e-05, momentum=0.1, affine=True, track_running_stats=True)\n  (fc1): Linear(in_features=1476, out_features=205, bias=True)\n  (fc2): Linear(in_features=205, out_features=126, bias=True)\n  (dropout): Dropout(p=0.48741655399003564)\n)"}, "n_flt:421, btl_dim:90, glove:100,flt_sz:(1, 3, 5),bn:False,do_pctg:0.15482020890116555,txt_length:652,stride:2": {"dropout_pctg": 0.15482020890116555, "num_filters": 421, "bottleneck_fc_dim": 90, "glove_dim": 100, "batch_norm": false, "filter_sizes": [1, 3, 5], "batch_size": 256, "num_workers": 15, "e
…
 0.8165717690677966, "pAtK_5": 0.5649298199152543}, "train_vector": [0.04720351840784699, 0.02638757477498541, 0.023269015510144167, 0.021380826258286127, 0.020158098104888788, 0.01909884337187379, 0.018258801048208005, 0.017513334926083486, 0.01684976406695862, 0.016345353342903747], "loss_vector": [0.0257031311107389, 0.02248721833388179, 0.021213782753921665, 0.02080460016663044, 0.020260744120420542, 0.020341556250922762, 0.02013788868720501, 0.020370447889791202, 0.02089408518336082, 0.021714398163860126], "train_finish": "2018-12-15 05:21:47.332284", "model": "ReutersModel(\n  (embedding): Embedding(400000, 100)\n  (conv1): Conv2d(1, 421, kernel_size=(1, 100), stride=(2, 2))\n  (bn1): BatchNorm2d(421, eps=1e-05, momentum=0.1, affine=True, track_running_stats=True)\n  (conv2): Conv2d(1, 421, kernel_size=(3, 100), stride=(2, 2))\n  (bn2): BatchNorm2d(421, eps=1e-05, momentum=0.1, affine=True, track_running_stats=True)\n  (conv3): Conv2d(1, 421, kernel_size=(5, 100), stride=(2, 2))\n  (bn3): BatchNorm2d(421, eps=1e-05, momentum=0.1, affine=True, track_running_stats=True)\n  (fc1): Linear(in_features=1263, out_features=90, bias=True)\n  (fc2): Linear(in_features=90, out_features=126, bias=True)\n  (dropout): Dropout(p=0.15482020890116555)\n)"}, "n_flt:634, btl_dim:251, glove:100,flt_sz:(1, 4, 7),bn:True,do_pctg:0.27437999994952583,txt_length:998,stride:1": {"dropout_pctg": 0.27437999994952583, "num_filters": 634, "bottleneck_fc_dim": 251, "glove_dim": 100, "batch_norm": true, "filter_sizes": [1, 4, 7], "batch_size": 256, "num_workers": 15, "ep
…
score_4": 0.7594444084098554}, "pAtK_scores": {"pAtK_1": 0.9610037076271186, "pAtK_3": 0.8261498057909604, "pAtK_5": 0.5716498940677966}, "train_vector": [0.04186226381784203, 0.024944131018724683, 0.02241212445924472, 0.0209830014955825, 0.01987514701765561, 0.018964482954680298, 0.018166662490726987, 0.01750015633965381], "loss_vector": [0.02361540475828668, 0.020985408362506303, 0.01974355033204212, 0.019161265619667404, 0.018729126814879097, 0.019115629969006877, 0.018753135166430877, 0.019072464264739873], "train_finish": "2018-12-15 05:51:27.153890", "model": "ReutersModel(\n  (embedding): Embedding(400000, 100)\n  (conv1): Conv2d(1, 634, kernel_size=(1, 100), stride=(1, 1))\n  (bn1): BatchNorm2d(634, eps=1e-05, momentum=0.1, affine=True, track_running_stats=True)\n  (conv2): Conv2d(1, 634, kernel_size=(4, 100), stride=(1, 1))\n  (bn2): BatchNorm2d(634, eps=1e-05, momentum=0.1, affine=True, track_running_stats=True)\n  (conv3): Conv2d(1, 634, kernel_size=(7, 100), stride=(1, 1))\n  (bn3): BatchNorm2d(634, eps=1e-05, momentum=0.1, affine=True, track_running_stats=True)\n  (fc1): Linear(in_features=1902, out_features=251, bias=True)\n  (fc2): Linear(in_features=251, out_features=126, bias=True)\n  (dropout): Dropout(p=0.27437999994952583)\n)"}, "n_flt:455, btl_dim:281, glove:100,flt_sz:(3, 4, 5),bn:True,do_pctg:0.07841412978642195,txt_length:2961,stride:1": {"dropout_pctg": 0.07841412978642195, "num_filters": 455, "bottleneck_fc_dim": 281, "glove_dim": 100, "batch_norm": true, "filter_sizes": [3, 4, 5], "batch_size": 256, "num_workers": 15, "epochs": 20, "txt_length": 2961, "train_start": "2018-12-15 05:51:49.275585", "train_error_message": "CUDA error: out of memory", "train_finish": "2018-12-15 05:58:08.425685", "model": "ReutersModel(\n  (embedding): Embedding(400000, 100)\n  (conv1): Conv2d(1, 455, kernel_size=(3, 100), stride=(1, 1))\n  (bn1): BatchNorm2d(455, eps=1e-05, momentum=0.1, affine=True, track_running_stats=True)\n  (conv2): Conv2d(1, 455, kernel_size=(4, 100), stride=(1, 1))\n  (bn2): BatchNorm2d(455, eps=1e-05, momentum=0.1, affine=True, track_running_stats=True)\n  (conv3): Conv2d(1, 455, kernel_size=(5, 100), stride=(1, 1))\n  (bn3): BatchNorm2d(455, eps=1e-05, momentum=0.1, affine=True, track_running_stats=True)\n  (fc1): Linear(in_features=1365, out_features=281, bias=True)\n  (fc2): Linear(in_features=281, out_features=126, bias=True)\n  (dropout): Dropout(p=0.07841412978642195)\n)"}, "n_flt:662, btl_dim:262, glove:100,flt_sz:(1, 3, 5),bn:False,do_pctg:0.2961450668824462,txt_length:1053,stride:2": {"dropout_pctg": 0.2961450668824462, "num_filters": 662, "bottleneck_fc_dim": 262, "glove_dim": 100, "batch_norm": false, "filter_sizes": [1, 3, 5], "batch_size": 256, "num_workers": 15, "
…
1246, "f1_score_3": 0.8022381836279019, "f1_score_4": 0.7558769840902142}, "pAtK_scores": {"pAtK_1": 0.9592161016949152, "pAtK_3": 0.8226739053672316, "pAtK_5": 0.5697033898305085}, "train_vector": [0.04146403416750893, 0.024080371022917175, 0.021242591944758197, 0.0195097396860652, 0.018118800513227198, 0.01696512244634712, 0.0159927345847665], "loss_vector": [0.023773194535367064, 0.020751487076977045, 0.01997876091528747, 0.019353435753639472, 0.019741304573934464, 0.01991649975179363, 0.020426722874833367], "train_finish": "2018-12-15 06:09:35.997083", "model": "ReutersModel(\n  (embedding): Embedding(400000, 100)\n  (conv1): Conv2d(1, 662, kernel_size=(1, 100), stride=(2, 2))\n  (bn1): BatchNorm2d(662, eps=1e-05, momentum=0.1, affine=True, track_running_stats=True)\n  (conv2): Conv2d(1, 662, kernel_size=(3, 100), stride=(2, 2))\n  (bn2): BatchNorm2d(662, eps=1e-05, momentum=0.1, affine=True, track_running_stats=True)\n  (conv3): Conv2d(1, 662, kernel_size=(5, 100), stride=(2, 2))\n  (bn3): BatchNorm2d(662, eps=1e-05, momentum=0.1, affine=True, track_running_stats=True)\n  (fc1): Linear(in_features=1986, out_features=262, bias=True)\n  (fc2): Linear(in_features=262, out_features=126, bias=True)\n  (dropout): Dropout(p=0.2961450668824462)\n)"}, "n_flt:349, btl_dim:300, glove:50,flt_sz:(3, 4, 5),bn:True,do_pctg:0.3720400374873935,txt_length:2491,stride:1": {"dropout_pctg": 0.3720400374873935, "num_filters": 349, "bottleneck_fc_dim": 300, "glove_dim": 50, "batch_norm": true, "filter_sizes": [3, 4, 5], "batch_size": 256, "num_workers": 15, "epoch
…
.02174372980070691, 0.021383037737639624, 0.0209597864451569, 0.020567906006951544, 0.020150186698989804, 0.019742186171527547, 0.019518702329830946, 0.019111411463101687], "loss_vector": [0.02652594254557359, 0.023552733126206923, 0.022394215096167083, 0.021435310551107437, 0.02106385096370921, 0.020503413208397263, 0.02046204089992127, 0.020695361979621445, 0.020186933744067357, 0.019988310744322963, 0.020026593911066905, 0.019861317973710216, 0.019879563774724128, 0.019866748357791515, 0.020069326384592863], "train_finish": "2018-12-15 07:05:44.571165", "model": "ReutersModel(\n  (embedding): Embedding(400000, 50)\n  (conv1): Conv2d(1, 349, kernel_size=(3, 50), stride=(1, 1))\n  (bn1): BatchNorm2d(349, eps=1e-05, momentum=0.1, affine=True, track_running_stats=True)\n  (conv2): Conv2d(1, 349, kernel_size=(4, 50), stride=(1, 1))\n  (bn2): BatchNorm2d(349, eps=1e-05, momentum=0.1, affine=True, track_running_stats=True)\n  (conv3): Conv2d(1, 349, kernel_size=(5, 50), stride=(1, 1))\n  (bn3): BatchNorm2d(349, eps=1e-05, momentum=0.1, affine=True, track_running_stats=True)\n  (fc1): Linear(in_features=1047, out_features=300, bias=True)\n  (fc2): Linear(in_features=300, out_features=126, bias=True)\n  (dropout): Dropout(p=0.3720400374873935)\n)"}, "n_flt:705, btl_dim:215, glove:100,flt_sz:(1, 4, 7),bn:True,do_pctg:0.32867710830183994,txt_length:1561,stride:1": {"dropout_pctg": 0.32867710830183994, "num_filters": 705, "bottleneck_fc_dim": 215, "glove_dim": 100, "batch_norm": true, "filter_sizes": [1, 4, 7], "batch_size": 256, "num_workers": 15, "epochs": 20, "txt_length": 1561, "train_start": "2018-12-15 07:06:06.954522", "train_error_message": "CUDA error: out of memory", "train_finish": "2018-12-15 07:11:49.416285", "model": "ReutersModel(\n  (embedding): Embedding(400000, 100)\n  (conv1): Conv2d(1, 705, kernel_size=(1, 100), stride=(1, 1))\n  (bn1): BatchNorm2d(705, eps=1e-05, momentum=0.1, affine=True, track_running_stats=True)\n  (conv2): Conv2d(1, 705, kernel_size=(4, 100), stride=(1, 1))\n  (bn2): BatchNorm2d(705, eps=1e-05, momentum=0.1, affine=True, track_running_stats=True)\n  (conv3): Conv2d(1, 705, kernel_size=(7, 100), stride=(1, 1))\n  (bn3): BatchNorm2d(705, eps=1e-05, momentum=0.1, affine=True, track_running_stats=True)\n  (fc1): Linear(in_features=2115, out_features=215, bias=True)\n  (fc2): Linear(in_features=215, out_features=126, bias=True)\n  (dropout): Dropout(p=0.32867710830183994)\n)"}, "n_flt:728, btl_dim:166, glove:100,flt_sz:(3, 4, 5),bn:True,do_pctg:0.04028597035277323,txt_length:2296,stride:2": {"dropout_pctg": 0.04028597035277323, "num_filters": 728, "bottleneck_fc_dim": 166, "glove_dim": 100, "batch_norm": true, "filter_sizes": [3, 4, 5], "batch_size": 256, "num_workers": 15, "
…
8209525070621468, "pAtK_5": 0.5675715042372881}, "train_vector": [0.0389606916403974, 0.022720921966662557, 0.02016185970881519, 0.018642292282874545, 0.017342567885651534, 0.016348055124714038, 0.015371822646025575, 0.0144372046182897, 0.013650367728326703, 0.012881266461257633], "loss_vector": [0.023572552017867565, 0.020959865728045923, 0.02012131831182514, 0.019996095093566986, 0.019738085489025562, 0.019601061671845995, 0.019421894600520195, 0.019652590747543816, 0.020054223536813662, 0.02099138100521039], "train_finish": "2018-12-15 07:55:32.784168", "model": "ReutersModel(\n  (embedding): Embedding(400000, 100)\n  (conv1): Conv2d(1, 728, kernel_size=(3, 100), stride=(2, 2))\n  (bn1): BatchNorm2d(728, eps=1e-05, momentum=0.1, affine=True, track_running_stats=True)\n  (conv2): Conv2d(1, 728, kernel_size=(4, 100), stride=(2, 2))\n  (bn2): BatchNorm2d(728, eps=1e-05, momentum=0.1, affine=True, track_running_stats=True)\n  (conv3): Conv2d(1, 728, kernel_size=(5, 100), stride=(2, 2))\n  (bn3): BatchNorm2d(728, eps=1e-05, momentum=0.1, affine=True, track_running_stats=True)\n  (fc1): Linear(in_features=2184, out_features=166, bias=True)\n  (fc2): Linear(in_features=166, out_features=126, bias=True)\n  (dropout): Dropout(p=0.04028597035277323)\n)"}, "n_flt:520, btl_dim:238, glove:100,flt_sz:(3, 4, 5),bn:False,do_pctg:0.17069671260680525,txt_length:1765,stride:1": {"dropout_pctg": 0.17069671260680525, "num_filters": 520, "bottleneck_fc_dim": 238, "glove_dim": 100, "batch_norm": false, "filter_sizes": [3, 4, 5], "batch_size": 256, "num_workers": 15,
…
e_4": 0.7558862501274081}, "pAtK_scores": {"pAtK_1": 0.9578257415254238, "pAtK_3": 0.8224863170903954, "pAtK_5": 0.5693723516949153}, "train_vector": [0.04004917727991854, 0.02261247792399614, 0.019748598976905476, 0.018025456137771397, 0.01657976933438649, 0.015399512525584259, 0.014396747502637938, 0.013540911909715896], "loss_vector": [0.023048950011952448, 0.019856186046943825, 0.01926490022816648, 0.019496223865613595, 0.018566510663762435, 0.019307972886994228, 0.019380712660692506, 0.020595822972640142], "train_finish": "2018-12-15 08:33:35.587997", "model": "ReutersModel(\n  (embedding): Embedding(400000, 100)\n  (conv1): Conv2d(1, 520, kernel_size=(3, 100), stride=(1, 1))\n  (bn1): BatchNorm2d(520, eps=1e-05, momentum=0.1, affine=True, track_running_stats=True)\n  (conv2): Conv2d(1, 520, kernel_size=(4, 100), stride=(1, 1))\n  (bn2): BatchNorm2d(520, eps=1e-05, momentum=0.1, affine=True, track_running_stats=True)\n  (conv3): Conv2d(1, 520, kernel_size=(5, 100), stride=(1, 1))\n  (bn3): BatchNorm2d(520, eps=1e-05, momentum=0.1, affine=True, track_running_stats=True)\n  (fc1): Linear(in_features=1560, out_features=238, bias=True)\n  (fc2): Linear(in_features=238, out_features=126, bias=True)\n  (dropout): Dropout(p=0.17069671260680525)\n)"}, "n_flt:561, btl_dim:141, glove:50,flt_sz:(1, 3, 5),bn:True,do_pctg:0.41133867602088486,txt_length:624,stride:1": {"dropout_pctg": 0.41133867602088486, "num_filters": 561, "bottleneck_fc_dim": 141, "glove_dim": 50, "batch_norm": true, "filter_sizes": [1, 3, 5], "batch_size": 256, "num_workers": 15, "epo
…
5, 0.02792619282213628, 0.027414085483090135, 0.026950962079840886, 0.02654717564830235, 0.02613437343282763, 0.025924874633988914, 0.025639272086407133, 0.025308908769185786], "loss_vector": [0.03108068393006668, 0.027049768921303546, 0.02577460314131389, 0.0246515128035414, 0.024336752821138855, 0.024067783286258325, 0.023793352010138963, 0.023855303714083412, 0.023423932500625567, 0.022718481506394633, 0.02287312122693254, 0.022592630008456564, 0.02344929270635722, 0.02264882425256705, 0.022804767903635056], "train_finish": "2018-12-15 08:56:43.989473", "model": "ReutersModel(\n  (embedding): Embedding(400000, 50)\n  (conv1): Conv2d(1, 561, kernel_size=(1, 50), stride=(1, 1))\n  (bn1): BatchNorm2d(561, eps=1e-05, momentum=0.1, affine=True, track_running_stats=True)\n  (conv2): Conv2d(1, 561, kernel_size=(3, 50), stride=(1, 1))\n  (bn2): BatchNorm2d(561, eps=1e-05, momentum=0.1, affine=True, track_running_stats=True)\n  (conv3): Conv2d(1, 561, kernel_size=(5, 50), stride=(1, 1))\n  (bn3): BatchNorm2d(561, eps=1e-05, momentum=0.1, affine=True, track_running_stats=True)\n  (fc1): Linear(in_features=1683, out_features=141, bias=True)\n  (fc2): Linear(in_features=141, out_features=126, bias=True)\n  (dropout): Dropout(p=0.41133867602088486)\n)"}, "n_flt:620, btl_dim:188, glove:100,flt_sz:(3, 4, 5),bn:True,do_pctg:0.12749923444769587,txt_length:1664,stride:1": {"dropout_pctg": 0.12749923444769587, "num_filters": 620, "bottleneck_fc_dim": 188, "glove_dim": 100, "batch_norm": true, "filter_sizes": [3, 4, 5], "batch_size": 256, "num_workers": 15, "epochs": 20, "txt_length": 1664, "train_start": "2018-12-15 08:57:10.481270", "train_error_message": "CUDA error: out of memory", "train_finish": "2018-12-15 09:02:08.721026", "model": "ReutersModel(\n  (embedding): Embedding(400000, 100)\n  (conv1): Conv2d(1, 620, kernel_size=(3, 100), stride=(1, 1))\n  (bn1): BatchNorm2d(620, eps=1e-05, momentum=0.1, affine=True, track_running_stats=True)\n  (conv2): Conv2d(1, 620, kernel_size=(4, 100), stride=(1, 1))\n  (bn2): BatchNorm2d(620, eps=1e-05, momentum=0.1, affine=True, track_running_stats=True)\n  (conv3): Conv2d(1, 620, kernel_size=(5, 100), stride=(1, 1))\n  (bn3): BatchNorm2d(620, eps=1e-05, momentum=0.1, affine=True, track_running_stats=True)\n  (fc1): Linear(in_features=1860, out_features=188, bias=True)\n  (fc2): Linear(in_features=188, out_features=126, bias=True)\n  (dropout): Dropout(p=0.12749923444769587)\n)"}, "n_flt:776, btl_dim:246, glove:100,flt_sz:(3, 4, 5),bn:True,do_pctg:0.20087460808262886,txt_length:1363,stride:2": {"dropout_pctg": 0.20087460808262886, "num_filters": 776, "bottleneck_fc_dim": 246, "glove_dim": 100, "batch_norm": true, "filter_sizes": [3, 4, 5], "batch_size": 256, "num_workers": 15, "
…
_score_4": 0.7558677180530201}, "pAtK_scores": {"pAtK_1": 0.9595471398305084, "pAtK_3": 0.8223539018361582, "pAtK_5": 0.5698953919491525}, "train_vector": [0.04073025663321452, 0.024154843857946612, 0.02165392366815818, 0.020176730262719985, 0.01909458245799313, 0.01810028044545786, 0.017183257213862616, 0.016490457378030954], "loss_vector": [0.02374579280741134, 0.02068688373191882, 0.02049905413730165, 0.019569160811350506, 0.01909078596065105, 0.019532771039185888, 0.019102006692881302, 0.01951264228545508], "train_finish": "2018-12-15 09:26:27.451167", "model": "ReutersModel(\n  (embedding): Embedding(400000, 100)\n  (conv1): Conv2d(1, 776, kernel_size=(3, 100), stride=(2, 2))\n  (bn1): BatchNorm2d(776, eps=1e-05, momentum=0.1, affine=True, track_running_stats=True)\n  (conv2): Conv2d(1, 776, kernel_size=(4, 100), stride=(2, 2))\n  (bn2): BatchNorm2d(776, eps=1e-05, momentum=0.1, affine=True, track_running_stats=True)\n  (conv3): Conv2d(1, 776, kernel_size=(5, 100), stride=(2, 2))\n  (bn3): BatchNorm2d(776, eps=1e-05, momentum=0.1, affine=True, track_running_stats=True)\n  (fc1): Linear(in_features=2328, out_features=246, bias=True)\n  (fc2): Linear(in_features=246, out_features=126, bias=True)\n  (dropout): Dropout(p=0.20087460808262886)\n)"}, "n_flt:748, btl_dim:226, glove:100,flt_sz:(1, 4, 7),bn:False,do_pctg:0.30727947806810946,txt_length:1488,stride:1": {"dropout_pctg": 0.30727947806810946, "num_filters": 748, "bottleneck_fc_dim": 226, "glove_dim": 100, "batch_norm": false, "filter_sizes": [1, 4, 7], "batch_size": 256, "num_workers": 15,
…
1944, "f1_score_3": 0.8029914185026766, "f1_score_4": 0.7569611104418973}, "pAtK_scores": {"pAtK_1": 0.9589181673728814, "pAtK_3": 0.8234463276836158, "pAtK_5": 0.5700741525423729}, "train_vector": [0.04150201133019388, 0.02426735113111574, 0.02134631952161298, 0.019507791544796732, 0.018062574232255147, 0.016829677650694378, 0.01580583528956607], "loss_vector": [0.023349967232700122, 0.020406664720089254, 0.01994709239609666, 0.01901959688639489, 0.019677654745341357, 0.019558752784347634, 0.0202200188838198], "train_finish": "2018-12-15 10:06:19.820117", "model": "ReutersModel(\n  (embedding): Embedding(400000, 100)\n  (conv1): Conv2d(1, 748, kernel_size=(1, 100), stride=(1, 1))\n  (bn1): BatchNorm2d(748, eps=1e-05, momentum=0.1, affine=True, track_running_stats=True)\n  (conv2): Conv2d(1, 748, kernel_size=(4, 100), stride=(1, 1))\n  (bn2): BatchNorm2d(748, eps=1e-05, momentum=0.1, affine=True, track_running_stats=True)\n  (conv3): Conv2d(1, 748, kernel_size=(7, 100), stride=(1, 1))\n  (bn3): BatchNorm2d(748, eps=1e-05, momentum=0.1, affine=True, track_running_stats=True)\n  (fc1): Linear(in_features=2244, out_features=226, bias=True)\n  (fc2): Linear(in_features=226, out_features=126, bias=True)\n  (dropout): Dropout(p=0.30727947806810946)\n)"}, "n_flt:677, btl_dim:197, glove:50,flt_sz:(3, 4, 5),bn:True,do_pctg:0.24903332047764268,txt_length:1904,stride:1": {"dropout_pctg": 0.24903332047764268, "num_filters": 677, "bottleneck_fc_dim": 197, "glove_dim": 50, "batch_norm": true, "filter_sizes": [3, 4, 5], "batch_size": 256, "num_workers": 15, "epochs": 20, "txt_length": 1904, "train_start": "2018-12-15 10:06:45.095701", "train_error_message": "CUDA error: out of memory", "train_finish": "2018-12-15 10:11:47.902917", "model": "ReutersModel(\n  (embedding): Embedding(400000, 50)\n  (conv1): Conv2d(1, 677, kernel_size=(3, 50), stride=(1, 1))\n  (bn1): BatchNorm2d(677, eps=1e-05, momentum=0.1, affine=True, track_running_stats=True)\n  (conv2): Conv2d(1, 677, kernel_size=(4, 50), stride=(1, 1))\n  (bn2): BatchNorm2d(677, eps=1e-05, momentum=0.1, affine=True, track_running_stats=True)\n  (conv3): Conv2d(1, 677, kernel_size=(5, 50), stride=(1, 1))\n  (bn3): BatchNorm2d(677, eps=1e-05, momentum=0.1, affine=True, track_running_stats=True)\n  (fc1): Linear(in_features=2031, out_features=197, bias=True)\n  (fc2): Linear(in_features=197, out_features=126, bias=True)\n  (dropout): Dropout(p=0.24903332047764268)\n)"}, "n_flt:594, btl_dim:116, glove:100,flt_sz:(1, 3, 5),bn:True,do_pctg:0.22098774667039806,txt_length:2704,stride:1": {"dropout_pctg": 0.22098774667039806, "num_filters": 594, "bottleneck_fc_dim": 116, "glove_dim": 100, "batch_norm": true, "filter_sizes": [1, 3, 5], "batch_size": 256, "num_workers": 15, "epochs": 20, "txt_length": 2704, "train_start": "2018-12-15 10:12:13.566594", "train_error_message": "CUDA error: out of memory", "train_finish": "2018-12-15 10:19:06.597878", "model": "ReutersModel(\n  (embedding): Embedding(400000, 100)\n  (conv1): Conv2d(1, 594, kernel_size=(1, 100), stride=(1, 1))\n  (bn1): BatchNorm2d(594, eps=1e-05, momentum=0.1, affine=True, track_running_stats=True)\n  (conv2): Conv2d(1, 594, kernel_size=(3, 100), stride=(1, 1))\n  (bn2): BatchNorm2d(594, eps=1e-05, momentum=0.1, affine=True, track_running_stats=True)\n  (conv3): Conv2d(1, 594, kernel_size=(5, 100), stride=(1, 1))\n  (bn3): BatchNorm2d(594, eps=1e-05, momentum=0.1, affine=True, track_running_stats=True)\n  (fc1): Linear(in_features=1782, out_features=116, bias=True)\n  (fc2): Linear(in_features=116, out_features=126, bias=True)\n  (dropout): Dropout(p=0.22098774667039806)\n)"}, "n_flt:491, btl_dim:282, glove:100,flt_sz:(3, 4, 5),bn:True,do_pctg:0.08812747627526638,txt_length:753,stride:2": {"dropout_pctg": 0.08812747627526638, "num_filters": 491, "bottleneck_fc_dim": 282, "glove_dim": 100, "batch_norm": true, "filter_sizes": [3, 4, 5], "batch_size": 256, "num_workers": 15, "e
…
e_4": 0.7598243159348042}, "pAtK_scores": {"pAtK_1": 0.9596464512711864, "pAtK_3": 0.8263484286723164, "pAtK_5": 0.5718816207627119}, "train_vector": [0.03793891104365888, 0.022124490941003445, 0.019636558832696143, 0.018087134100107982, 0.01691862199353001, 0.015907220723570467, 0.014965263691039817, 0.014180519925589467], "loss_vector": [0.02272152349005564, 0.020245525291410542, 0.01927527151528304, 0.018779727504036184, 0.018392927660527875, 0.018718752686439428, 0.018856616982779767, 0.018684980222734356], "train_finish": "2018-12-15 10:28:08.920155", "model": "ReutersModel(\n  (embedding): Embedding(400000, 100)\n  (conv1): Conv2d(1, 491, kernel_size=(3, 100), stride=(2, 2))\n  (bn1): BatchNorm2d(491, eps=1e-05, momentum=0.1, affine=True, track_running_stats=True)\n  (conv2): Conv2d(1, 491, kernel_size=(4, 100), stride=(2, 2))\n  (bn2): BatchNorm2d(491, eps=1e-05, momentum=0.1, affine=True, track_running_stats=True)\n  (conv3): Conv2d(1, 491, kernel_size=(5, 100), stride=(2, 2))\n  (bn3): BatchNorm2d(491, eps=1e-05, momentum=0.1, affine=True, track_running_stats=True)\n  (fc1): Linear(in_features=1473, out_features=282, bias=True)\n  (fc2): Linear(in_features=282, out_features=126, bias=True)\n  (dropout): Dropout(p=0.08812747627526638)\n)"}, "n_flt:569, btl_dim:233, glove:100,flt_sz:(3, 4, 5),bn:True,do_pctg:0.3652016129207566,txt_length:2031,stride:1": {"dropout_pctg": 0.3652016129207566, "num_filters": 569, "bottleneck_fc_dim": 233, "glove_dim": 100, "batch_norm": true, "filter_sizes": [3, 4, 5], "batch_size": 256, "num_workers": 15, "epochs": 20, "txt_length": 2031, "train_start": "2018-12-15 10:28:35.264274", "train_error_message": "CUDA error: out of memory", "train_finish": "2018-12-15 10:34:15.324482", "model": "ReutersModel(\n  (embedding): Embedding(400000, 100)\n  (conv1): Conv2d(1, 569, kernel_size=(3, 100), stride=(1, 1))\n  (bn1): BatchNorm2d(569, eps=1e-05, momentum=0.1, affine=True, track_running_stats=True)\n  (conv2): Conv2d(1, 569, kernel_size=(4, 100), stride=(1, 1))\n  (bn2): BatchNorm2d(569, eps=1e-05, momentum=0.1, affine=True, track_running_stats=True)\n  (conv3): Conv2d(1, 569, kernel_size=(5, 100), stride=(1, 1))\n  (bn3): BatchNorm2d(569, eps=1e-05, momentum=0.1, affine=True, track_running_stats=True)\n  (fc1): Linear(in_features=1707, out_features=233, bias=True)\n  (fc2): Linear(in_features=233, out_features=126, bias=True)\n  (dropout): Dropout(p=0.3652016129207566)\n)"}, "n_flt:778, btl_dim:270, glove:100,flt_sz:(3, 4, 5),bn:True,do_pctg:0.040139205782366155,txt_length:856,stride:1": {"dropout_pctg": 0.040139205782366155, "num_filters": 778, "bottleneck_fc_dim": 270, "glove_dim": 100, "batch_norm": true, "filter_sizes": [3, 4, 5], "batch_size": 256, "num_workers": 15, "
…
: {"pAtK_1": 0.962162341101695, "pAtK_3": 0.8306850282485876, "pAtK_5": 0.574510063559322}, "train_vector": [0.03507119979341806, 0.02071071925186031, 0.018441596403329208, 0.017037311696095757, 0.015974411636633372, 0.01499818127948713, 0.014016637332080042, 0.013138312989566652, 0.012434734810900077], "loss_vector": [0.02171219516766526, 0.019586489362231757, 0.018346999211520967, 0.017969616609862297, 0.01834037299346873, 0.017896325682621388, 0.018040554069172023, 0.01850995914694869, 0.018221747619494542], "train_finish": "2018-12-15 11:09:27.743446", "model": "ReutersModel(\n  (embedding): Embedding(400000, 100)\n  (conv1): Conv2d(1, 778, kernel_size=(3, 100), stride=(1, 1))\n  (bn1): BatchNorm2d(778, eps=1e-05, momentum=0.1, affine=True, track_running_stats=True)\n  (conv2): Conv2d(1, 778, kernel_size=(4, 100), stride=(1, 1))\n  (bn2): BatchNorm2d(778, eps=1e-05, momentum=0.1, affine=True, track_running_stats=True)\n  (conv3): Conv2d(1, 778, kernel_size=(5, 100), stride=(1, 1))\n  (bn3): BatchNorm2d(778, eps=1e-05, momentum=0.1, affine=True, track_running_stats=True)\n  (fc1): Linear(in_features=2334, out_features=270, bias=True)\n  (fc2): Linear(in_features=270, out_features=126, bias=True)\n  (dropout): Dropout(p=0.040139205782366155)\n)"}, "n_flt:761, btl_dim:267, glove:100,flt_sz:(3, 4, 5),bn:True,do_pctg:0.04633182725288213,txt_length:505,stride:1": {"dropout_pctg": 0.04633182725288213, "num_filters": 761, "bottleneck_fc_dim": 267, "glove_dim": 100, "batch_norm": true, "filter_sizes": [3, 4, 5], "batch_size": 256, "num_workers": 15, "
…
8299126059322034, "pAtK_5": 0.5731660487288136}, "train_vector": [0.03494710034286105, 0.020452036234272726, 0.018081957723528316, 0.016658635672174776, 0.015494021384727627, 0.014412824956937013, 0.013508408962160462, 0.012610637583722143, 0.011821317244356451, 0.011165116302601894], "loss_vector": [0.021488290153822656, 0.01912321082426835, 0.0182246940873437, 0.01795972455135089, 0.01820292646633619, 0.01799647916518783, 0.017828421825069492, 0.018234211280626262, 0.018828838542735173, 0.020272619753949724], "train_finish": "2018-12-15 11:30:38.551708", "model": "ReutersModel(\n  (embedding): Embedding(400000, 100)\n  (conv1): Conv2d(1, 761, kernel_size=(3, 100), stride=(1, 1))\n  (bn1): BatchNorm2d(761, eps=1e-05, momentum=0.1, affine=True, track_running_stats=True)\n  (conv2): Conv2d(1, 761, kernel_size=(4, 100), stride=(1, 1))\n  (bn2): BatchNorm2d(761, eps=1e-05, momentum=0.1, affine=True, track_running_stats=True)\n  (conv3): Conv2d(1, 761, kernel_size=(5, 100), stride=(1, 1))\n  (bn3): BatchNorm2d(761, eps=1e-05, momentum=0.1, affine=True, track_running_stats=True)\n  (fc1): Linear(in_features=2283, out_features=267, bias=True)\n  (fc2): Linear(in_features=267, out_features=126, bias=True)\n  (dropout): Dropout(p=0.04633182725288213)\n)"}, "n_flt:728, btl_dim:271, glove:100,flt_sz:(3, 4, 5),bn:True,do_pctg:0.04137198211259365,txt_length:861,stride:1": {"dropout_pctg": 0.04137198211259365, "num_filters": 728, "bottleneck_fc_dim": 271, "glove_dim": 100, "batch_norm": true, "filter_sizes": [3, 4, 5], "batch_size": 256, "num_workers": 15, "e
…
core_4": 0.7606304611706711}, "pAtK_scores": {"pAtK_1": 0.958057468220339, "pAtK_3": 0.8272532662429378, "pAtK_5": 0.5724841101694915}, "train_vector": [0.035658638447212086, 0.020943326583976875, 0.01870993264125522, 0.01719250121070832, 0.016046389682038177, 0.01511260942490577, 0.014267051466996914, 0.013321719677549781], "loss_vector": [0.02193863133473669, 0.019349023368272742, 0.018802350031811806, 0.018302083662632158, 0.0181332403178311, 0.018257488583419787, 0.018340626171142873, 0.018636900671142136], "train_finish": "2018-12-15 11:59:27.450454", "model": "ReutersModel(\n  (embedding): Embedding(400000, 100)\n  (conv1): Conv2d(1, 728, kernel_size=(3, 100), stride=(1, 1))\n  (bn1): BatchNorm2d(728, eps=1e-05, momentum=0.1, affine=True, track_running_stats=True)\n  (conv2): Conv2d(1, 728, kernel_size=(4, 100), stride=(1, 1))\n  (bn2): BatchNorm2d(728, eps=1e-05, momentum=0.1, affine=True, track_running_stats=True)\n  (conv3): Conv2d(1, 728, kernel_size=(5, 100), stride=(1, 1))\n  (bn3): BatchNorm2d(728, eps=1e-05, momentum=0.1, affine=True, track_running_stats=True)\n  (fc1): Linear(in_features=2184, out_features=271, bias=True)\n  (fc2): Linear(in_features=271, out_features=126, bias=True)\n  (dropout): Dropout(p=0.04137198211259365)\n)"}, "n_flt:778, btl_dim:294, glove:100,flt_sz:(3, 4, 5),bn:True,do_pctg:0.038270287777948664,txt_length:1214,stride:1": {"dropout_pctg": 0.038270287777948664, "num_filters": 778, "bottleneck_fc_dim": 294, "glove_dim": 100, "batch_norm": true, "filter_sizes": [3, 4, 5], "batch_size": 256, "num_workers": 15, "epochs": 20, "txt_length": 1214, "train_start": "2018-12-15 11:59:53.722190", "train_error_message": "CUDA error: out of memory", "train_finish": "2018-12-15 12:04:49.204214", "model": "ReutersModel(\n  (embedding): Embedding(400000, 100)\n  (conv1): Conv2d(1, 778, kernel_size=(3, 100), stride=(1, 1))\n  (bn1): BatchNorm2d(778, eps=1e-05, momentum=0.1, affine=True, track_running_stats=True)\n  (conv2): Conv2d(1, 778, kernel_size=(4, 100), stride=(1, 1))\n  (bn2): BatchNorm2d(778, eps=1e-05, momentum=0.1, affine=True, track_running_stats=True)\n  (conv3): Conv2d(1, 778, kernel_size=(5, 100), stride=(1, 1))\n  (bn3): BatchNorm2d(778, eps=1e-05, momentum=0.1, affine=True, track_running_stats=True)\n  (fc1): Linear(in_features=2334, out_features=294, bias=True)\n  (fc2): Linear(in_features=294, out_features=126, bias=True)\n  (dropout): Dropout(p=0.038270287777948664)\n)"}, "n_flt:756, btl_dim:268, glove:100,flt_sz:(3, 4, 5),bn:True,do_pctg:0.011126185125408167,txt_length:526,stride:1": {"dropout_pctg": 0.011126185125408167, "num_filters": 756, "bottleneck_fc_dim": 268, "glove_dim": 100, "batch_norm": true, "filter_sizes": [3, 4, 5], "batch_size": 256, "num_workers": 15,
…
core_4": 0.7625022006838336}, "pAtK_scores": {"pAtK_1": 0.9623278601694916, "pAtK_3": 0.8292725988700564, "pAtK_5": 0.573973781779661}, "train_vector": [0.033261422608648575, 0.01980116658895303, 0.017599368155129833, 0.016160763687042404, 0.015008324991374417, 0.013944213257385046, 0.012965133149473729, 0.012109530938566579], "loss_vector": [0.02100938633557851, 0.019290026427262415, 0.018437305086497532, 0.018389027660428468, 0.01790872594278495, 0.01793711745353826, 0.0189210063288525, 0.019088512886378726], "train_finish": "2018-12-15 12:22:41.639779", "model": "ReutersModel(\n  (embedding): Embedding(400000, 100)\n  (conv1): Conv2d(1, 756, kernel_size=(3, 100), stride=(1, 1))\n  (bn1): BatchNorm2d(756, eps=1e-05, momentum=0.1, affine=True, track_running_stats=True)\n  (conv2): Conv2d(1, 756, kernel_size=(4, 100), stride=(1, 1))\n  (bn2): BatchNorm2d(756, eps=1e-05, momentum=0.1, affine=True, track_running_stats=True)\n  (conv3): Conv2d(1, 756, kernel_size=(5, 100), stride=(1, 1))\n  (bn3): BatchNorm2d(756, eps=1e-05, momentum=0.1, affine=True, track_running_stats=True)\n  (fc1): Linear(in_features=2268, out_features=268, bias=True)\n  (fc2): Linear(in_features=268, out_features=126, bias=True)\n  (dropout): Dropout(p=0.011126185125408167)\n)"}, "n_flt:757, btl_dim:266, glove:100,flt_sz:(3, 4, 5),bn:True,do_pctg:0.011748593253843576,txt_length:516,stride:1": {"dropout_pctg": 0.011748593253843576, "num_filters": 757, "bottleneck_fc_dim": 266, "glove_dim": 100, "batch_norm": true, "filter_sizes": [3, 4, 5], "batch_size": 256, "num_workers": 15,
…
re_4": 0.761371744146181}, "pAtK_scores": {"pAtK_1": 0.9612354343220338, "pAtK_3": 0.8290408721751412, "pAtK_5": 0.5732786016949153}, "train_vector": [0.033499219566159505, 0.019881269101944155, 0.01765272492256574, 0.016243489831155856, 0.015012572145715102, 0.013952845810034243, 0.013031114975213157, 0.011990612363919927], "loss_vector": [0.021570642020995335, 0.019270426483225016, 0.018399663514189295, 0.018099073304842086, 0.01793706209509302, 0.01812814609384385, 0.01844184054851027, 0.019030595348232378], "train_finish": "2018-12-15 12:40:15.047849", "model": "ReutersModel(\n  (embedding): Embedding(400000, 100)\n  (conv1): Conv2d(1, 757, kernel_size=(3, 100), stride=(1, 1))\n  (bn1): BatchNorm2d(757, eps=1e-05, momentum=0.1, affine=True, track_running_stats=True)\n  (conv2): Conv2d(1, 757, kernel_size=(4, 100), stride=(1, 1))\n  (bn2): BatchNorm2d(757, eps=1e-05, momentum=0.1, affine=True, track_running_stats=True)\n  (conv3): Conv2d(1, 757, kernel_size=(5, 100), stride=(1, 1))\n  (bn3): BatchNorm2d(757, eps=1e-05, momentum=0.1, affine=True, track_running_stats=True)\n  (fc1): Linear(in_features=2271, out_features=266, bias=True)\n  (fc2): Linear(in_features=266, out_features=126, bias=True)\n  (dropout): Dropout(p=0.011748593253843576)\n)"}, "n_flt:785, btl_dim:289, glove:100,flt_sz:(3, 4, 5),bn:True,do_pctg:0.06620931088943112,txt_length:948,stride:1": {"dropout_pctg": 0.06620931088943112, "num_filters": 785, "bottleneck_fc_dim": 289, "glove_dim": 100, "batch_norm": true, "filter_sizes": [3, 4, 5], "batch_size": 256, "num_workers": 15, "
…
285001765536724, "pAtK_5": 0.5734970868644068}, "train_vector": [0.035403784109982864, 0.021089460202395577, 0.018847214634153828, 0.017479163560966838, 0.01628741611014394, 0.015381526889410259, 0.01459684907379198, 0.013739063082867261, 0.013015761039267512, 0.012321106876570032], "loss_vector": [0.022334141451549733, 0.019677562820646217, 0.018761485996577194, 0.01831215519016072, 0.018110723866118214, 0.018114104109295343, 0.0178943047284196, 0.018316764913309934, 0.018385676706557053, 0.01854278515014103], "train_finish": "2018-12-15 13:23:21.404626", "model": "ReutersModel(\n  (embedding): Embedding(400000, 100)\n  (conv1): Conv2d(1, 785, kernel_size=(3, 100), stride=(1, 1))\n  (bn1): BatchNorm2d(785, eps=1e-05, momentum=0.1, affine=True, track_running_stats=True)\n  (conv2): Conv2d(1, 785, kernel_size=(4, 100), stride=(1, 1))\n  (bn2): BatchNorm2d(785, eps=1e-05, momentum=0.1, affine=True, track_running_stats=True)\n  (conv3): Conv2d(1, 785, kernel_size=(5, 100), stride=(1, 1))\n  (bn3): BatchNorm2d(785, eps=1e-05, momentum=0.1, affine=True, track_running_stats=True)\n  (fc1): Linear(in_features=2355, out_features=289, bias=True)\n  (fc2): Linear(in_features=289, out_features=126, bias=True)\n  (dropout): Dropout(p=0.06620931088943112)\n)"}, "n_flt:787, btl_dim:287, glove:100,flt_sz:(3, 4, 5),bn:True,do_pctg:0.06578338950728257,txt_length:961,stride:1": {"dropout_pctg": 0.06578338950728257, "num_filters": 787, "bottleneck_fc_dim": 287, "glove_dim": 100, "batch_norm": true, "filter_sizes": [3, 4, 5], "batch_size": 256, "num_workers": 15, "e
…
 "f1_score_3": 0.8070696473246712, "f1_score_4": 0.7616404592248034}, "pAtK_scores": {"pAtK_1": 0.9604409427966102, "pAtK_3": 0.8276284427966102, "pAtK_5": 0.573583156779661}, "train_vector": [0.03583813582386192, 0.021320641000156047, 0.01898053286162398, 0.017687873766391735, 0.016531210072847538, 0.015578697655576174, 0.014759147856066418], "loss_vector": [0.022140240020481712, 0.019527971310446323, 0.018859864757159502, 0.018229320850539004, 0.018254820162714538, 0.018343665116166665, 0.019063534199307532], "train_finish": "2018-12-15 13:54:41.218480", "model": "ReutersModel(\n  (embedding): Embedding(400000, 100)\n  (conv1): Conv2d(1, 787, kernel_size=(3, 100), stride=(1, 1))\n  (bn1): BatchNorm2d(787, eps=1e-05, momentum=0.1, affine=True, track_running_stats=True)\n  (conv2): Conv2d(1, 787, kernel_size=(4, 100), stride=(1, 1))\n  (bn2): BatchNorm2d(787, eps=1e-05, momentum=0.1, affine=True, track_running_stats=True)\n  (conv3): Conv2d(1, 787, kernel_size=(5, 100), stride=(1, 1))\n  (bn3): BatchNorm2d(787, eps=1e-05, momentum=0.1, affine=True, track_running_stats=True)\n  (fc1): Linear(in_features=2361, out_features=287, bias=True)\n  (fc2): Linear(in_features=287, out_features=126, bias=True)\n  (dropout): Dropout(p=0.06578338950728257)\n)"}, "n_flt:711, btl_dim:276, glove:100,flt_sz:(3, 4, 5),bn:True,do_pctg:0.09235399278243328,txt_length:1086,stride:1": {"dropout_pctg": 0.09235399278243328, "num_filters": 711, "bottleneck_fc_dim": 276, "glove_dim": 100, "batch_norm": true, "filter_sizes": [3, 4, 5], "batch_size": 256, "num_workers": 15, "
…
4}, "train_vector": [0.036821768046542296, 0.021588919433346284, 0.01933796107026782, 0.017943556740371056, 0.01698028450863581, 0.015991918869896225, 0.015220418147410512, 0.014370828605410722, 0.013675575189652943, 0.013040669095407345, 0.012500567267166425], "loss_vector": [0.022296785771594208, 0.019706521491062338, 0.019409277010709047, 0.018374052206527883, 0.018212174941485717, 0.01827767244303378, 0.01841425020405549, 0.018154768281126932, 0.0186083779780794, 0.018723808378928293, 0.019288960749567565], "train_finish": "2018-12-15 14:42:03.462881", "model": "ReutersModel(\n  (embedding): Embedding(400000, 100)\n  (conv1): Conv2d(1, 711, kernel_size=(3, 100), stride=(1, 1))\n  (bn1): BatchNorm2d(711, eps=1e-05, momentum=0.1, affine=True, track_running_stats=True)\n  (conv2): Conv2d(1, 711, kernel_size=(4, 100), stride=(1, 1))\n  (bn2): BatchNorm2d(711, eps=1e-05, momentum=0.1, affine=True, track_running_stats=True)\n  (conv3): Conv2d(1, 711, kernel_size=(5, 100), stride=(1, 1))\n  (bn3): BatchNorm2d(711, eps=1e-05, momentum=0.1, affine=True, track_running_stats=True)\n  (fc1): Linear(in_features=2133, out_features=276, bias=True)\n  (fc2): Linear(in_features=276, out_features=126, bias=True)\n  (dropout): Dropout(p=0.09235399278243328)\n)"}}