…
orm": true, "filter_sizes": [1, 4, 7], "batch_size": 512, "num_workers": 15, "epochs": 10, "max_txt_len": 500, "train_vector": [0.1944999451938119, 0.062120106205542126, 0.056107845581516595, 0.053566112951773166, 0.048483345678793636, 0.043937170188838665, 0.04250545585545688, 0.04166502350732769, 0.04108831423566282, 0.0405810368680298], "loss_vector": [0.07040058183720556, 0.057721624245583, 0.05445143574122655, 0.052440541338617516, 0.045133084185042624, 0.04322713783989519, 0.04233261374598843, 0.041764856521355906, 0.0413816623642283, 0.041081382877240745], "model": "Model(\n  (embedding): Embedding(400000, 50)\n  (conv1): Conv2d(1, 50, kernel_size=(1, 50), stride=(1, 1))\n  (bn1): BatchNorm2d(50, eps=1e-05, momentum=0.1, affine=True, track_running_stats=True)\n  (conv2): Conv2d(1, 50, kernel_size=(4, 50), stride=(1, 1))\n  (bn2): BatchNorm2d(50, eps=1e-05, momentum=0.1, affine=True, track_running_stats=True)\n  (conv3): Conv2d(1, 50, kernel_size=(7, 50), stride=(1, 1))\n  (bn3): BatchNorm2d(50, eps=1e-05, momentum=0.1, affine=True, track_running_stats=True)\n  (fc1): Linear(in_features=150, out_features=10, bias=True)\n  (fc2): Linear(in_features=10, out_features=126, bias=True)\n  (dropout): Dropout(p=0.0)\n)", "train_start": "2018-12-09 16:20:22.388201", "train_finish": "2018-12-09 16:24:16.786160", "f1_scores": {"f1_score_2": 0.6248588730370522, "f1_score_3": 0.6829688214564335, "f1_score_4": 0.6462504980494992}, "pAtK_scores": {"pAtK_1": 0.9257481461864406, "pAtK_3": 0.7003663488700564, "pAtK_5": 0.4888903601694915}, "train
…
rm": false, "filter_sizes": [1, 4, 7], "batch_size": 512, "num_workers": 15, "epochs": 10, "max_txt_len": 500, "train_vector": [0.1421950119114578, 0.055745155262483366, 0.04710879790432313, 0.0430109357245733, 0.04071288770047039, 0.03924791854178883, 0.038178474658241306, 0.03735146648913226, 0.03666161963154175, 0.036106567165374304], "loss_vector": [0.06375071368480133, 0.049883346499527914, 0.044512825055142584, 0.0417255965708676, 0.03999571009712704, 0.03895557548661353, 0.03816356822469477, 0.03750347529174918, 0.037081810819395516, 0.036556736550341216], "model": "Model(\n  (embedding): Embedding(400000, 50)\n  (conv1): Conv2d(1, 50, kernel_size=(1, 50), stride=(1, 1))\n  (bn1): BatchNorm2d(50, eps=1e-05, momentum=0.1, affine=True, track_running_stats=True)\n  (conv2): Conv2d(1, 50, kernel_size=(4, 50), stride=(1, 1))\n  (bn2): BatchNorm2d(50, eps=1e-05, momentum=0.1, affine=True, track_running_stats=True)\n  (conv3): Conv2d(1, 50, kernel_size=(7, 50), stride=(1, 1))\n  (bn3): BatchNorm2d(50, eps=1e-05, momentum=0.1, affine=True, track_running_stats=True)\n  (fc1): Linear(in_features=150, out_features=10, bias=True)\n  (fc2): Linear(in_features=10, out_features=126, bias=True)\n  (dropout): Dropout(p=0.0)\n)", "train_start": "2018-12-09 16:24:17.595497", "train_finish": "2018-12-09 16:28:08.453861", "f1_scores": {"f1_score_2": 0.6417941085907831, "f1_score_3": 0.7084281602238184, "f1_score_4": 0.6726123738660685}, "pAtK_scores": {"pAtK_1": 0.934520656779661, "pAtK_3": 0.7264742231638418, "pAtK_5": 0.5090704449152542}, "train_
…
true, "filter_sizes": [1, 4, 7], "batch_size": 512, "num_workers": 15, "epochs": 10, "max_txt_len": 500, "train_vector": [0.12912599634965863, 0.046911188113225706, 0.04001910537057176, 0.03646813345758467, 0.03400400845047645, 0.032145617473198974, 0.030845972714659387, 0.029930558458564405, 0.029253371632472387, 0.028710714143752147], "loss_vector": [0.05295542046680289, 0.042339015941498644, 0.038044376519777004, 0.03557509676379673, 0.03369304266268924, 0.03240624932035551, 0.03134093411519366, 0.030719760963219708, 0.03052819476036702, 0.029948255868028788], "model": "Model(\n  (embedding): Embedding(400000, 100)\n  (conv1): Conv2d(1, 50, kernel_size=(1, 100), stride=(1, 1))\n  (bn1): BatchNorm2d(50, eps=1e-05, momentum=0.1, affine=True, track_running_stats=True)\n  (conv2): Conv2d(1, 50, kernel_size=(4, 100), stride=(1, 1))\n  (bn2): BatchNorm2d(50, eps=1e-05, momentum=0.1, affine=True, track_running_stats=True)\n  (conv3): Conv2d(1, 50, kernel_size=(7, 100), stride=(1, 1))\n  (bn3): BatchNorm2d(50, eps=1e-05, momentum=0.1, affine=True, track_running_stats=True)\n  (fc1): Linear(in_features=150, out_features=10, bias=True)\n  (fc2): Linear(in_features=10, out_features=126, bias=True)\n  (dropout): Dropout(p=0.0)\n)", "train_start": "2018-12-09 16:28:09.320622", "train_finish": "2018-12-09 16:32:19.823544", "f1_scores": {"f1_score_2": 0.6711613466078209, "f1_score_3": 0.752578484383827, "f1_score_4": 0.7086294604386542}, "pAtK_scores": {"pAtK_1": 0.9467028601694916, "pAtK_3": 0.7717492055084746, "pAtK_5": 0.5345471398305085}, "train_
…
m": false, "filter_sizes": [1, 4, 7], "batch_size": 512, "num_workers": 15, "epochs": 10, "max_txt_len": 500, "train_vector": [0.17093936459247935, 0.05456895528951451, 0.04683683727085025, 0.043465369679669956, 0.041593861061040543, 0.04036862174830129, 0.03941763523237981, 0.03865575610149291, 0.03802807933776383, 0.03741204225417559], "loss_vector": [0.06053827330470085, 0.04957400937959299, 0.044873324491209905, 0.042755824340096976, 0.04142117828635846, 0.04049656988453057, 0.03993810549125833, 0.03932717142595073, 0.038858723779351026, 0.03840371240246094], "model": "Model(\n  (embedding): Embedding(400000, 100)\n  (conv1): Conv2d(1, 50, kernel_size=(1, 100), stride=(1, 1))\n  (bn1): BatchNorm2d(50, eps=1e-05, momentum=0.1, affine=True, track_running_stats=True)\n  (conv2): Conv2d(1, 50, kernel_size=(4, 100), stride=(1, 1))\n  (bn2): BatchNorm2d(50, eps=1e-05, momentum=0.1, affine=True, track_running_stats=True)\n  (conv3): Conv2d(1, 50, kernel_size=(7, 100), stride=(1, 1))\n  (bn3): BatchNorm2d(50, eps=1e-05, momentum=0.1, affine=True, track_running_stats=True)\n  (fc1): Linear(in_features=150, out_features=10, bias=True)\n  (fc2): Linear(in_features=10, out_features=126, bias=True)\n  (dropout): Dropout(p=0.0)\n)", "train_start": "2018-12-09 16:32:20.757295", "train_finish": "2018-12-09 16:36:25.616014", "f1_scores": {"f1_score_2": 0.629169660268911, "f1_score_3": 0.6963441207327898, "f1_score_4": 0.6567674502645454}, "pAtK_scores": {"pAtK_1": 0.9351165254237288, "pAtK_3": 0.7140823622881356, "pAtK_5": 0.49427966101694915}, "train
…
 true, "filter_sizes": [1, 4, 7], "batch_size": 512, "num_workers": 15, "epochs": 10, "max_txt_len": 500, "train_vector": [0.09081167634399838, 0.04132918624005915, 0.035109686281751186, 0.031779787080818384, 0.02977312385215931, 0.02846686093161409, 0.027540721504664512, 0.026857707999378047, 0.026299859876028727, 0.025841537979652354], "loss_vector": [0.04643925102585453, 0.037249125950669836, 0.03313043138990968, 0.03080240734931776, 0.02936427266794746, 0.028486138304411355, 0.02779797758212534, 0.02732345499729706, 0.026986583278088245, 0.02675534304925951], "model": "Model(\n  (embedding): Embedding(400000, 50)\n  (conv1): Conv2d(1, 50, kernel_size=(1, 50), stride=(1, 1))\n  (bn1): BatchNorm2d(50, eps=1e-05, momentum=0.1, affine=True, track_running_stats=True)\n  (conv2): Conv2d(1, 50, kernel_size=(4, 50), stride=(1, 1))\n  (bn2): BatchNorm2d(50, eps=1e-05, momentum=0.1, affine=True, track_running_stats=True)\n  (conv3): Conv2d(1, 50, kernel_size=(7, 50), stride=(1, 1))\n  (bn3): BatchNorm2d(50, eps=1e-05, momentum=0.1, affine=True, track_running_stats=True)\n  (fc1): Linear(in_features=150, out_features=30, bias=True)\n  (fc2): Linear(in_features=30, out_features=126, bias=True)\n  (dropout): Dropout(p=0.0)\n)", "train_start": "2018-12-09 16:36:26.504204", "train_finish": "2018-12-09 16:40:27.044957", "f1_scores": {"f1_score_2": 0.6806681720209381, "f1_score_3": 0.7671912409544562, "f1_score_4": 0.7254473179455343}, "pAtK_scores": {"pAtK_1": 0.9460076800847458, "pAtK_3": 0.7867341984463276, "pAtK_5": 0.5475370762711864}, "train
…
orm": true, "filter_sizes": [3, 4, 5], "batch_size": 512, "num_workers": 15, "epochs": 10, "max_txt_len": 500, "train_vector": [0.13480004244810942, 0.054397409658108534, 0.04632531260573208, 0.0427707769047377, 0.04067659867923898, 0.039214140302598816, 0.03821905016672905, 0.037459262323334276, 0.03695177305949254, 0.0364576313623441], "loss_vector": [0.06189270784794274, 0.048621460416559445, 0.04402636199937028, 0.041592172710067134, 0.039990464067560134, 0.03901205773828393, 0.0382180077860416, 0.03766423018680791, 0.037281431131443735, 0.03695315990786431], "model": "Model(\n  (embedding): Embedding(400000, 50)\n  (conv1): Conv2d(1, 50, kernel_size=(3, 50), stride=(1, 1))\n  (bn1): BatchNorm2d(50, eps=1e-05, momentum=0.1, affine=True, track_running_stats=True)\n  (conv2): Conv2d(1, 50, kernel_size=(4, 50), stride=(1, 1))\n  (bn2): BatchNorm2d(50, eps=1e-05, momentum=0.1, affine=True, track_running_stats=True)\n  (conv3): Conv2d(1, 50, kernel_size=(5, 50), stride=(1, 1))\n  (bn3): BatchNorm2d(50, eps=1e-05, momentum=0.1, affine=True, track_running_stats=True)\n  (fc1): Linear(in_features=150, out_features=10, bias=True)\n  (fc2): Linear(in_features=10, out_features=126, bias=True)\n  (dropout): Dropout(p=0.0)\n)", "train_start": "2018-12-09 16:20:15.431806", "train_finish": "2018-12-09 16:24:10.382454", "f1_scores": {"f1_score_2": 0.639536077183619, "f1_score_3": 0.7074597153848223, "f1_score_4": 0.6708981569852022}, "pAtK_scores": {"pAtK_1": 0.9371358580508474, "pAtK_3": 0.7254811087570622, "pAtK_5": 0.5064221398305084}, "train_
…
": true, "filter_sizes": [1, 3, 5], "batch_size": 512, "num_workers": 15, "epochs": 10, "max_txt_len": 500, "train_vector": [0.1282428601222993, 0.052040485407188676, 0.04270724663104459, 0.03843646851391222, 0.03577126010163798, 0.033960858656825105, 0.032734842331235275, 0.031857330797406255, 0.031247182040558368, 0.03078124279145724], "loss_vector": [0.058658683262134005, 0.04598409297355151, 0.04002518358372026, 0.03701638487183442, 0.034854666913970045, 0.033472245874798905, 0.03244911380491014, 0.03187683246777219, 0.03153497245857271, 0.03117317703189486], "model": "Model(\n  (embedding): Embedding(400000, 50)\n  (conv1): Conv2d(1, 50, kernel_size=(1, 50), stride=(1, 1))\n  (bn1): BatchNorm2d(50, eps=1e-05, momentum=0.1, affine=True, track_running_stats=True)\n  (conv2): Conv2d(1, 50, kernel_size=(3, 50), stride=(1, 1))\n  (bn2): BatchNorm2d(50, eps=1e-05, momentum=0.1, affine=True, track_running_stats=True)\n  (conv3): Conv2d(1, 50, kernel_size=(5, 50), stride=(1, 1))\n  (bn3): BatchNorm2d(50, eps=1e-05, momentum=0.1, affine=True, track_running_stats=True)\n  (fc1): Linear(in_features=150, out_features=10, bias=True)\n  (fc2): Linear(in_features=10, out_features=126, bias=True)\n  (dropout): Dropout(p=0.0)\n)", "train_start": "2018-12-09 16:20:20.467346", "train_finish": "2018-12-09 16:24:16.042591", "f1_scores": {"f1_score_2": 0.6639767012213896, "f1_score_3": 0.7443682242487828, "f1_score_4": 0.7021617664773308}, "pAtK_scores": {"pAtK_1": 0.9431276483050848, "pAtK_3": 0.763329802259887, "pAtK_5": 0.5299126059322034}, "train_
…
m": false, "filter_sizes": [3, 4, 5], "batch_size": 512, "num_workers": 15, "epochs": 10, "max_txt_len": 500, "train_vector": [0.15652506380736037, 0.047577517584277286, 0.04129165871178403, 0.03860110006307515, 0.0369804420489005, 0.03586276643600251, 0.03499236771133525, 0.03432493976386267, 0.033801606504610636, 0.033344652949067174], "loss_vector": [0.05505071315219847, 0.043116106635938255, 0.03976777928360438, 0.037972278356299564, 0.03681169033555661, 0.03589675281891378, 0.035288731867479065, 0.03472966574511285, 0.03444079761156591, 0.03409448452293873], "model": "Model(\n  (embedding): Embedding(400000, 50)\n  (conv1): Conv2d(1, 50, kernel_size=(3, 50), stride=(1, 1))\n  (bn1): BatchNorm2d(50, eps=1e-05, momentum=0.1, affine=True, track_running_stats=True)\n  (conv2): Conv2d(1, 50, kernel_size=(4, 50), stride=(1, 1))\n  (bn2): BatchNorm2d(50, eps=1e-05, momentum=0.1, affine=True, track_running_stats=True)\n  (conv3): Conv2d(1, 50, kernel_size=(5, 50), stride=(1, 1))\n  (bn3): BatchNorm2d(50, eps=1e-05, momentum=0.1, affine=True, track_running_stats=True)\n  (fc1): Linear(in_features=150, out_features=10, bias=True)\n  (fc2): Linear(in_features=10, out_features=126, bias=True)\n  (dropout): Dropout(p=0.0)\n)", "train_start": "2018-12-09 16:24:11.337012", "train_finish": "2018-12-09 16:28:02.276678", "f1_scores": {"f1_score_2": 0.649376475418249, "f1_score_3": 0.7215990100341645, "f1_score_4": 0.6855014316027465}, "pAtK_scores": {"pAtK_1": 0.9353151483050848, "pAtK_3": 0.7399805790960452, "pAtK_5": 0.5181408898305084}, "train_
…
m": false, "filter_sizes": [1, 3, 5], "batch_size": 512, "num_workers": 15, "epochs": 10, "max_txt_len": 500, "train_vector": [0.12467811167579448, 0.04846205191944763, 0.04166385016812319, 0.03828645798694024, 0.03613705060089562, 0.03474805422438277, 0.033794170150098585, 0.03310528099961028, 0.03261432229793954, 0.03220448730623021], "loss_vector": [0.054706427000336726, 0.043916500410286045, 0.03975872657561706, 0.03720414518552311, 0.03549897642332619, 0.03456438421192816, 0.033769027661469025, 0.03326007970056291, 0.032839909543172785, 0.03262727552930177], "model": "Model(\n  (embedding): Embedding(400000, 50)\n  (conv1): Conv2d(1, 50, kernel_size=(1, 50), stride=(1, 1))\n  (bn1): BatchNorm2d(50, eps=1e-05, momentum=0.1, affine=True, track_running_stats=True)\n  (conv2): Conv2d(1, 50, kernel_size=(3, 50), stride=(1, 1))\n  (bn2): BatchNorm2d(50, eps=1e-05, momentum=0.1, affine=True, track_running_stats=True)\n  (conv3): Conv2d(1, 50, kernel_size=(5, 50), stride=(1, 1))\n  (bn3): BatchNorm2d(50, eps=1e-05, momentum=0.1, affine=True, track_running_stats=True)\n  (fc1): Linear(in_features=150, out_features=10, bias=True)\n  (fc2): Linear(in_features=10, out_features=126, bias=True)\n  (dropout): Dropout(p=0.0)\n)", "train_start": "2018-12-09 16:24:17.093261", "train_finish": "2018-12-09 16:28:11.113063", "f1_scores": {"f1_score_2": 0.6566380991481064, "f1_score_3": 0.7344793263928119, "f1_score_4": 0.6949527895404971}, "pAtK_scores": {"pAtK_1": 0.939353813559322, "pAtK_3": 0.7531890007062146, "pAtK_5": 0.5249602754237288}, "train_
…
: true, "filter_sizes": [3, 4, 5], "batch_size": 512, "num_workers": 15, "epochs": 10, "max_txt_len": 500, "train_vector": [0.16996908634618293, 0.06214176551695114, 0.05401273759566177, 0.050761062142914565, 0.048961431841300605, 0.04777384097679064, 0.04691778229411684, 0.046217917561870374, 0.045523717865149936, 0.04501254064873907], "loss_vector": [0.07050712368750976, 0.05619423659676212, 0.05208508556677123, 0.049770710958262625, 0.04857738505480653, 0.047599731171030106, 0.047073941046403625, 0.046620323812052354, 0.04605621718249078, 0.04578648949578657], "model": "Model(\n  (embedding): Embedding(400000, 100)\n  (conv1): Conv2d(1, 50, kernel_size=(3, 100), stride=(1, 1))\n  (bn1): BatchNorm2d(50, eps=1e-05, momentum=0.1, affine=True, track_running_stats=True)\n  (conv2): Conv2d(1, 50, kernel_size=(4, 100), stride=(1, 1))\n  (bn2): BatchNorm2d(50, eps=1e-05, momentum=0.1, affine=True, track_running_stats=True)\n  (conv3): Conv2d(1, 50, kernel_size=(5, 100), stride=(1, 1))\n  (bn3): BatchNorm2d(50, eps=1e-05, momentum=0.1, affine=True, track_running_stats=True)\n  (fc1): Linear(in_features=150, out_features=10, bias=True)\n  (fc2): Linear(in_features=10, out_features=126, bias=True)\n  (dropout): Dropout(p=0.0)\n)", "train_start": "2018-12-09 16:28:03.155413", "train_finish": "2018-12-09 16:32:14.209554", "f1_scores": {"f1_score_2": 0.5977753258749872, "f1_score_3": 0.6442417883948028, "f1_score_4": 0.6143753301025751}, "pAtK_scores": {"pAtK_1": 0.9320709745762712, "pAtK_3": 0.6606528072033898, "pAtK_5": 0.46430746822033897}, "trai
…
 true, "filter_sizes": [1, 3, 5], "batch_size": 512, "num_workers": 15, "epochs": 10, "max_txt_len": 500, "train_vector": [0.20277752703235996, 0.043751433901700845, 0.03701703639902471, 0.034608806269614475, 0.03322763385452627, 0.032212059361686966, 0.03149891648604137, 0.03100619927062821, 0.030584428247340038, 0.030237598026584857], "loss_vector": [0.05441793875168946, 0.038789095262349665, 0.035611242434736026, 0.03419109582269596, 0.0332201751170017, 0.032792602744648014, 0.032109162375583485, 0.03192286262825384, 0.031632320229279795, 0.03152640252295187], "model": "Model(\n  (embedding): Embedding(400000, 100)\n  (conv1): Conv2d(1, 50, kernel_size=(1, 100), stride=(1, 1))\n  (bn1): BatchNorm2d(50, eps=1e-05, momentum=0.1, affine=True, track_running_stats=True)\n  (conv2): Conv2d(1, 50, kernel_size=(3, 100), stride=(1, 1))\n  (bn2): BatchNorm2d(50, eps=1e-05, momentum=0.1, affine=True, track_running_stats=True)\n  (conv3): Conv2d(1, 50, kernel_size=(5, 100), stride=(1, 1))\n  (bn3): BatchNorm2d(50, eps=1e-05, momentum=0.1, affine=True, track_running_stats=True)\n  (fc1): Linear(in_features=150, out_features=10, bias=True)\n  (fc2): Linear(in_features=10, out_features=126, bias=True)\n  (dropout): Dropout(p=0.0)\n)", "train_start": "2018-12-09 16:28:12.107539", "train_finish": "2018-12-09 16:32:14.526169", "f1_scores": {"f1_score_2": 0.663720106743303, "f1_score_3": 0.7412799612622065, "f1_score_4": 0.6981032421864141}, "pAtK_scores": {"pAtK_1": 0.947265625, "pAtK_3": 0.7601628707627118, "pAtK_5": 0.5258143538135593}, "train_error_m
…
rm": false, "filter_sizes": [1, 3, 5], "batch_size": 512, "num_workers": 15, "epochs": 10, "max_txt_len": 500, "train_vector": [0.13508943767345155, 0.04598272299178411, 0.038419495935797465, 0.03487754772210483, 0.032716638523470294, 0.0313118422718496, 0.03037298974745414, 0.029676323859074084, 0.02911140325442098, 0.028708362785756475], "loss_vector": [0.0527787139102564, 0.04092325068126291, 0.036330900770627846, 0.0337951814092822, 0.03233796585414369, 0.03148619205517284, 0.030727791079020097, 0.03029580215402579, 0.02995142694246971, 0.029742973746132044], "model": "Model(\n  (embedding): Embedding(400000, 100)\n  (conv1): Conv2d(1, 50, kernel_size=(1, 100), stride=(1, 1))\n  (bn1): BatchNorm2d(50, eps=1e-05, momentum=0.1, affine=True, track_running_stats=True)\n  (conv2): Conv2d(1, 50, kernel_size=(3, 100), stride=(1, 1))\n  (bn2): BatchNorm2d(50, eps=1e-05, momentum=0.1, affine=True, track_running_stats=True)\n  (conv3): Conv2d(1, 50, kernel_size=(5, 100), stride=(1, 1))\n  (bn3): BatchNorm2d(50, eps=1e-05, momentum=0.1, affine=True, track_running_stats=True)\n  (fc1): Linear(in_features=150, out_features=10, bias=True)\n  (fc2): Linear(in_features=10, out_features=126, bias=True)\n  (dropout): Dropout(p=0.0)\n)", "train_start": "2018-12-09 16:32:15.759954", "train_finish": "2018-12-09 16:36:13.626065", "f1_scores": {"f1_score_2": 0.6694549933285435, "f1_score_3": 0.749995964813171, "f1_score_4": 0.7074990039010016}, "pAtK_scores": {"pAtK_1": 0.9478614936440678, "pAtK_3": 0.7691009004237288, "pAtK_5": 0.5334149894067797}, "train_
…
orm": false, "filter_sizes": [3, 4, 5], "batch_size": 512, "num_workers": 15, "epochs": 10, "max_txt_len": 500, "train_vector": [0.19127378537826792, 0.06884633134732436, 0.053875092212004726, 0.050851650451233986, 0.049112895542518915, 0.04759855505496094, 0.04656070309639882, 0.04580082602275843, 0.045147976518186264, 0.0446345452466658], "loss_vector": [0.07829648243673777, 0.056706712028737796, 0.0518992832404072, 0.05035154704572791, 0.048576623453932294, 0.04761463934082096, 0.04689283896300752, 0.0464187157734976, 0.04600605494895224, 0.04554036360676006], "model": "Model(\n  (embedding): Embedding(400000, 100)\n  (conv1): Conv2d(1, 50, kernel_size=(3, 100), stride=(1, 1))\n  (bn1): BatchNorm2d(50, eps=1e-05, momentum=0.1, affine=True, track_running_stats=True)\n  (conv2): Conv2d(1, 50, kernel_size=(4, 100), stride=(1, 1))\n  (bn2): BatchNorm2d(50, eps=1e-05, momentum=0.1, affine=True, track_running_stats=True)\n  (conv3): Conv2d(1, 50, kernel_size=(5, 100), stride=(1, 1))\n  (bn3): BatchNorm2d(50, eps=1e-05, momentum=0.1, affine=True, track_running_stats=True)\n  (fc1): Linear(in_features=150, out_features=10, bias=True)\n  (fc2): Linear(in_features=10, out_features=126, bias=True)\n  (dropout): Dropout(p=0.0)\n)", "train_start": "2018-12-09 16:32:15.231979", "train_finish": "2018-12-09 16:36:16.586463", "f1_scores": {"f1_score_2": 0.5950939135789798, "f1_score_3": 0.6471901649046351, "f1_score_4": 0.6164601884711965}, "pAtK_scores": {"pAtK_1": 0.9231660487288136, "pAtK_3": 0.663676288841808, "pAtK_5": 0.4659229343220339}, "train_
…
 true, "filter_sizes": [1, 3, 5], "batch_size": 512, "num_workers": 15, "epochs": 10, "max_txt_len": 500, "train_vector": [0.09082580553597472, 0.04105597869466559, 0.03507312462511393, 0.031710319535584106, 0.02958450119313298, 0.028243428689959604, 0.027308056431431926, 0.026637840015810176, 0.026110281524525873, 0.02573128814404332], "loss_vector": [0.04577814995989961, 0.03715009466445042, 0.033123292597168584, 0.03059960971191778, 0.029041463067218408, 0.02802504393887722, 0.027454618585564323, 0.02703996441500672, 0.026579448953270912, 0.02638322935771134], "model": "Model(\n  (embedding): Embedding(400000, 50)\n  (conv1): Conv2d(1, 50, kernel_size=(1, 50), stride=(1, 1))\n  (bn1): BatchNorm2d(50, eps=1e-05, momentum=0.1, affine=True, track_running_stats=True)\n  (conv2): Conv2d(1, 50, kernel_size=(3, 50), stride=(1, 1))\n  (bn2): BatchNorm2d(50, eps=1e-05, momentum=0.1, affine=True, track_running_stats=True)\n  (conv3): Conv2d(1, 50, kernel_size=(5, 50), stride=(1, 1))\n  (bn3): BatchNorm2d(50, eps=1e-05, momentum=0.1, affine=True, track_running_stats=True)\n  (fc1): Linear(in_features=150, out_features=30, bias=True)\n  (fc2): Linear(in_features=30, out_features=126, bias=True)\n  (dropout): Dropout(p=0.0)\n)", "train_start": "2018-12-09 16:36:14.633393", "train_finish": "2018-12-09 16:40:15.588313", "f1_scores": {"f1_score_2": 0.6818998255157549, "f1_score_3": 0.7686223872165281, "f1_score_4": 0.7277638272440025}, "pAtK_scores": {"pAtK_1": 0.9460076800847458, "pAtK_3": 0.7882018008474576, "pAtK_5": 0.5498013771186441}, "train
…
rm": true, "filter_sizes": [3, 4, 5], "batch_size": 512, "num_workers": 15, "epochs": 10, "max_txt_len": 500, "train_vector": [0.09050270074543736, 0.04097543282883217, 0.03472236817812219, 0.03160709994836256, 0.02959398265779584, 0.0282135063312255, 0.027201861468279836, 0.026481061145323954, 0.025927648906095883, 0.02549569736423936], "loss_vector": [0.04631809650336282, 0.03661884013879097, 0.032861996157947236, 0.03061335521229243, 0.029213549916521978, 0.028224302960907, 0.027550789922223252, 0.026962400240413215, 0.02659823271935269, 0.026329885252704053], "model": "Model(\n  (embedding): Embedding(400000, 50)\n  (conv1): Conv2d(1, 50, kernel_size=(3, 50), stride=(1, 1))\n  (bn1): BatchNorm2d(50, eps=1e-05, momentum=0.1, affine=True, track_running_stats=True)\n  (conv2): Conv2d(1, 50, kernel_size=(4, 50), stride=(1, 1))\n  (bn2): BatchNorm2d(50, eps=1e-05, momentum=0.1, affine=True, track_running_stats=True)\n  (conv3): Conv2d(1, 50, kernel_size=(5, 50), stride=(1, 1))\n  (bn3): BatchNorm2d(50, eps=1e-05, momentum=0.1, affine=True, track_running_stats=True)\n  (fc1): Linear(in_features=150, out_features=30, bias=True)\n  (fc2): Linear(in_features=30, out_features=126, bias=True)\n  (dropout): Dropout(p=0.0)\n)", "train_start": "2018-12-09 16:36:17.446885", "train_finish": "2018-12-09 16:40:18.248985", "f1_scores": {"f1_score_2": 0.6824515036436416, "f1_score_3": 0.7693756220913028, "f1_score_4": 0.7265499763716051}, "pAtK_scores": {"pAtK_1": 0.945511122881356, "pAtK_3": 0.7889742231638418, "pAtK_5": 0.5480865995762711}, "train_
…
": false, "filter_sizes": [1, 3, 5], "batch_size": 512, "num_workers": 15, "epochs": 10, "max_txt_len": 500, "train_vector": [0.0908919378789937, 0.03956231632512027, 0.034312283620238304, 0.03107091940345642, 0.029066511067567108, 0.02785127014416558, 0.02695418378617438, 0.026294852117433494, 0.025768651780751897, 0.02536283210061307], "loss_vector": [0.04354261152319989, 0.03634757832702944, 0.0324366135617434, 0.030139194138474382, 0.02874936229722985, 0.028035560654381574, 0.02726943588862985, 0.026713801326893143, 0.026338419292942953, 0.02606378678800696], "model": "Model(\n  (embedding): Embedding(400000, 50)\n  (conv1): Conv2d(1, 50, kernel_size=(1, 50), stride=(1, 1))\n  (bn1): BatchNorm2d(50, eps=1e-05, momentum=0.1, affine=True, track_running_stats=True)\n  (conv2): Conv2d(1, 50, kernel_size=(3, 50), stride=(1, 1))\n  (bn2): BatchNorm2d(50, eps=1e-05, momentum=0.1, affine=True, track_running_stats=True)\n  (conv3): Conv2d(1, 50, kernel_size=(5, 50), stride=(1, 1))\n  (bn3): BatchNorm2d(50, eps=1e-05, momentum=0.1, affine=True, track_running_stats=True)\n  (fc1): Linear(in_features=150, out_features=30, bias=True)\n  (fc2): Linear(in_features=30, out_features=126, bias=True)\n  (dropout): Dropout(p=0.0)\n)", "train_start": "2018-12-09 16:40:16.594326", "train_finish": "2018-12-09 16:44:14.966075", "f1_scores": {"f1_score_2": 0.6813609771117725, "f1_score_3": 0.7680197993167084, "f1_score_4": 0.7251322726809426}, "pAtK_scores": {"pAtK_1": 0.9450476694915254, "pAtK_3": 0.7875838629943502, "pAtK_5": 0.5479740466101695}, "train
…
se, "filter_sizes": [3, 4, 5], "batch_size": 512, "num_workers": 15, "epochs": 10, "max_txt_len": 500, "train_vector": [0.09203833234151808, 0.03981131972635493, 0.03435208113330365, 0.03147630247886538, 0.029582243052221114, 0.028284634762148476, 0.027371849189644974, 0.026664597952501597, 0.026132922690269844, 0.02575281289612885], "loss_vector": [0.044575588493529016, 0.036354513523184646, 0.03285627123915543, 0.030633541392320295, 0.02931803575385425, 0.028269644258385997, 0.027736511302448936, 0.027226677164435387, 0.027046251189658196, 0.02658483259758707], "model": "Model(\n  (embedding): Embedding(400000, 50)\n  (conv1): Conv2d(1, 50, kernel_size=(3, 50), stride=(1, 1))\n  (bn1): BatchNorm2d(50, eps=1e-05, momentum=0.1, affine=True, track_running_stats=True)\n  (conv2): Conv2d(1, 50, kernel_size=(4, 50), stride=(1, 1))\n  (bn2): BatchNorm2d(50, eps=1e-05, momentum=0.1, affine=True, track_running_stats=True)\n  (conv3): Conv2d(1, 50, kernel_size=(5, 50), stride=(1, 1))\n  (bn3): BatchNorm2d(50, eps=1e-05, momentum=0.1, affine=True, track_running_stats=True)\n  (fc1): Linear(in_features=150, out_features=30, bias=True)\n  (fc2): Linear(in_features=30, out_features=126, bias=True)\n  (dropout): Dropout(p=0.0)\n)", "train_start": "2018-12-09 16:40:19.153130", "train_finish": "2018-12-09 16:44:16.381914", "f1_scores": {"f1_score_2": 0.6796674535563995, "f1_score_3": 0.766502569068948, "f1_score_4": 0.7239832840689023}, "pAtK_scores": {"pAtK_1": 0.9450476694915254, "pAtK_3": 0.7860279837570622, "pAtK_5": 0.5461136122881356}, "train_
…
lse, "filter_sizes": [1, 4, 7], "batch_size": 512, "num_workers": 15, "epochs": 10, "max_txt_len": 500, "train_vector": [0.08635295145001538, 0.04106573256499627, 0.034961116208608284, 0.03149770027418856, 0.029485643086725213, 0.028119264951636715, 0.027138095013302464, 0.026416063814139457, 0.025819441208181165, 0.025340712585078244], "loss_vector": [0.04568467415490393, 0.037260924829012255, 0.032926288259736564, 0.03057755271004418, 0.029072818930371332, 0.02844046536138502, 0.02739962133563171, 0.02695040925705837, 0.026563693564069474, 0.02608004853255668], "model": "Model(\n  (embedding): Embedding(400000, 50)\n  (conv1): Conv2d(1, 50, kernel_size=(1, 50), stride=(1, 1))\n  (bn1): BatchNorm2d(50, eps=1e-05, momentum=0.1, affine=True, track_running_stats=True)\n  (conv2): Conv2d(1, 50, kernel_size=(4, 50), stride=(1, 1))\n  (bn2): BatchNorm2d(50, eps=1e-05, momentum=0.1, affine=True, track_running_stats=True)\n  (conv3): Conv2d(1, 50, kernel_size=(7, 50), stride=(1, 1))\n  (bn3): BatchNorm2d(50, eps=1e-05, momentum=0.1, affine=True, track_running_stats=True)\n  (fc1): Linear(in_features=150, out_features=30, bias=True)\n  (fc2): Linear(in_features=30, out_features=126, bias=True)\n  (dropout): Dropout(p=0.0)\n)", "train_start": "2018-12-09 16:40:27.863393", "train_finish": "2018-12-09 16:44:23.015721", "f1_scores": {"f1_score_2": 0.6821564199938416, "f1_score_3": 0.7682888117719849, "f1_score_4": 0.7268001593758396}, "pAtK_scores": {"pAtK_1": 0.9457759533898306, "pAtK_3": 0.7878597281073446, "pAtK_5": 0.5476496292372881}, "train
…
 true, "filter_sizes": [1, 3, 5], "batch_size": 512, "num_workers": 15, "epochs": 10, "max_txt_len": 500, "train_vector": [0.08961606677444882, 0.03568700045361351, 0.02933076701959351, 0.026574963021606376, 0.02505329684610611, 0.0240932556339301, 0.023387668717942383, 0.022814830337461983, 0.02234798111728405, 0.021943924195739303], "loss_vector": [0.04088526155989049, 0.03152122645307395, 0.027964265196252676, 0.026254333334706597, 0.025235884049433773, 0.02481511405716508, 0.024164007913510678, 0.02385395563254922, 0.023635214605068757, 0.023310743461726076], "model": "Model(\n  (embedding): Embedding(400000, 100)\n  (conv1): Conv2d(1, 50, kernel_size=(1, 100), stride=(1, 1))\n  (bn1): BatchNorm2d(50, eps=1e-05, momentum=0.1, affine=True, track_running_stats=True)\n  (conv2): Conv2d(1, 50, kernel_size=(3, 100), stride=(1, 1))\n  (bn2): BatchNorm2d(50, eps=1e-05, momentum=0.1, affine=True, track_running_stats=True)\n  (conv3): Conv2d(1, 50, kernel_size=(5, 100), stride=(1, 1))\n  (bn3): BatchNorm2d(50, eps=1e-05, momentum=0.1, affine=True, track_running_stats=True)\n  (fc1): Linear(in_features=150, out_features=30, bias=True)\n  (fc2): Linear(in_features=30, out_features=126, bias=True)\n  (dropout): Dropout(p=0.0)\n)", "train_start": "2018-12-09 16:44:15.995255", "train_finish": "2018-12-09 16:48:18.024033", "f1_scores": {"f1_score_2": 0.6955506517499743, "f1_score_3": 0.7851397519705161, "f1_score_4": 0.7398745378563949}, "pAtK_scores": {"pAtK_1": 0.9534229343220338, "pAtK_3": 0.8051399187853108, "pAtK_5": 0.5581634004237288}, "train
…
rue, "filter_sizes": [3, 4, 5], "batch_size": 512, "num_workers": 15, "epochs": 10, "max_txt_len": 500, "train_vector": [0.08707538903805744, 0.0365940975573133, 0.03036265785627392, 0.02705306992415459, 0.025345462167624958, 0.024247166391398466, 0.023435427710074626, 0.022800824285062485, 0.022296546702140648, 0.021865124494346314], "loss_vector": [0.04174088749845149, 0.03271284566844924, 0.028713478659421712, 0.026624133999822504, 0.02556415795648502, 0.02491827021842286, 0.024475706899065083, 0.024081588833261343, 0.023729092993978726, 0.023643509690034186], "model": "Model(\n  (embedding): Embedding(400000, 100)\n  (conv1): Conv2d(1, 50, kernel_size=(3, 100), stride=(1, 1))\n  (bn1): BatchNorm2d(50, eps=1e-05, momentum=0.1, affine=True, track_running_stats=True)\n  (conv2): Conv2d(1, 50, kernel_size=(4, 100), stride=(1, 1))\n  (bn2): BatchNorm2d(50, eps=1e-05, momentum=0.1, affine=True, track_running_stats=True)\n  (conv3): Conv2d(1, 50, kernel_size=(5, 100), stride=(1, 1))\n  (bn3): BatchNorm2d(50, eps=1e-05, momentum=0.1, affine=True, track_running_stats=True)\n  (fc1): Linear(in_features=150, out_features=30, bias=True)\n  (fc2): Linear(in_features=30, out_features=126, bias=True)\n  (dropout): Dropout(p=0.0)\n)", "train_start": "2018-12-09 16:44:17.337367", "train_finish": "2018-12-09 16:48:27.360272", "f1_scores": {"f1_score_2": 0.6944344657702965, "f1_score_3": 0.7845048825760632, "f1_score_4": 0.7404675642368028}, "pAtK_scores": {"pAtK_1": 0.9509070444915254, "pAtK_3": 0.804488877118644, "pAtK_5": 0.5581435381355933}, "train_
…
e, "filter_sizes": [1, 4, 7], "batch_size": 512, "num_workers": 15, "epochs": 10, "max_txt_len": 500, "train_vector": [0.07879816578874325, 0.034637151081008975, 0.029276731143046377, 0.026610236176673102, 0.024982289840560938, 0.023875941474704634, 0.023023728974008017, 0.02237908447080025, 0.02183257683093679, 0.021356748360468948], "loss_vector": [0.03995657787989762, 0.03121487808934713, 0.028018680764204364, 0.026223335888678746, 0.02523304398913505, 0.024542396256731727, 0.02398099267255452, 0.023511341315204815, 0.023210773497062215, 0.022980106236823533], "model": "Model(\n  (embedding): Embedding(400000, 100)\n  (conv1): Conv2d(1, 50, kernel_size=(1, 100), stride=(1, 1))\n  (bn1): BatchNorm2d(50, eps=1e-05, momentum=0.1, affine=True, track_running_stats=True)\n  (conv2): Conv2d(1, 50, kernel_size=(4, 100), stride=(1, 1))\n  (bn2): BatchNorm2d(50, eps=1e-05, momentum=0.1, affine=True, track_running_stats=True)\n  (conv3): Conv2d(1, 50, kernel_size=(7, 100), stride=(1, 1))\n  (bn3): BatchNorm2d(50, eps=1e-05, momentum=0.1, affine=True, track_running_stats=True)\n  (fc1): Linear(in_features=150, out_features=30, bias=True)\n  (fc2): Linear(in_features=30, out_features=126, bias=True)\n  (dropout): Dropout(p=0.0)\n)", "train_start": "2018-12-09 16:44:23.836423", "train_finish": "2018-12-09 16:48:39.198273", "f1_scores": {"f1_score_2": 0.6964359026993739, "f1_score_3": 0.7869259946735534, "f1_score_4": 0.7422003131920573}, "pAtK_scores": {"pAtK_1": 0.9509401483050848, "pAtK_3": 0.8069716631355932, "pAtK_5": 0.5592624470338983}, "train
…
