…
": true, "filter_sizes": [1, 4, 7], "batch_size": 512, "num_workers": 15, "epochs": 10, "max_txt_len": 500, "train_vector": [0.15775904972000185, 0.05476448698361639, 0.046602604843577124, 0.043044345463984834, 0.0409580633906644, 0.03957288752555621, 0.03861541686971907, 0.037870270491664276, 0.037359160280996756, 0.03685229152893432], "loss_vector": [0.06177712080337233, 0.049036629182302345, 0.044379668973260004, 0.041807251714043696, 0.04041181586809078, 0.03931088669825408, 0.03860310544023069, 0.03811065590608928, 0.037830997384705786, 0.03747470673741931], "model": "Model(\n  (embedding): Embedding(400000, 50)\n  (conv1): Conv2d(1, 50, kernel_size=(1, 50), stride=(1, 1))\n  (bn1): BatchNorm2d(50, eps=1e-05, momentum=0.1, affine=True, track_running_stats=True)\n  (conv2): Conv2d(1, 50, kernel_size=(4, 50), stride=(1, 1))\n  (bn2): BatchNorm2d(50, eps=1e-05, momentum=0.1, affine=True, track_running_stats=True)\n  (conv3): Conv2d(1, 50, kernel_size=(7, 50), stride=(1, 1))\n  (bn3): BatchNorm2d(50, eps=1e-05, momentum=0.1, affine=True, track_running_stats=True)\n  (fc1): Linear(in_features=150, out_features=10, bias=True)\n  (fc2): Linear(in_features=10, out_features=126, bias=True)\n  (dropout): Dropout(p=0.0)\n)", "train_start": "2018-12-09 15:59:04.064459", "train_finish": "2018-12-09 16:03:01.367477", "f1_scores": {"f1_score_2": 0.6373293646720721, "f1_score_3": 0.7035106125413607, "f1_score_4": 0.666524587429694}, "pAtK_scores": {"pAtK_1": 0.9354806673728814, "pAtK_3": 0.721431408898305, "pAtK_5": 0.5040188029661017}, "train_e
…
: false, "filter_sizes": [1, 4, 7], "batch_size": 512, "num_workers": 15, "epochs": 10, "max_txt_len": 500, "train_vector": [0.11510025101238455, 0.04672677054350924, 0.03929506059898597, 0.03579887824815184, 0.033722791248186716, 0.03225474821958528, 0.03114119509987858, 0.030306125791351075, 0.029642225283797143, 0.029145333668538696], "loss_vector": [0.05272477776822397, 0.0416652663784512, 0.03707153271189181, 0.03480924514390654, 0.03335313846246671, 0.032128441100150854, 0.03138979909531141, 0.030697186335416165, 0.030513577510492277, 0.030042235313330667], "model": "Model(\n  (embedding): Embedding(400000, 50)\n  (conv1): Conv2d(1, 50, kernel_size=(1, 50), stride=(1, 1))\n  (bn1): BatchNorm2d(50, eps=1e-05, momentum=0.1, affine=True, track_running_stats=True)\n  (conv2): Conv2d(1, 50, kernel_size=(4, 50), stride=(1, 1))\n  (bn2): BatchNorm2d(50, eps=1e-05, momentum=0.1, affine=True, track_running_stats=True)\n  (conv3): Conv2d(1, 50, kernel_size=(7, 50), stride=(1, 1))\n  (bn3): BatchNorm2d(50, eps=1e-05, momentum=0.1, affine=True, track_running_stats=True)\n  (fc1): Linear(in_features=150, out_features=10, bias=True)\n  (fc2): Linear(in_features=10, out_features=126, bias=True)\n  (dropout): Dropout(p=0.0)\n)", "train_start": "2018-12-09 16:03:02.200901", "train_finish": "2018-12-09 16:06:52.786057", "f1_scores": {"f1_score_2": 0.6668120702042492, "f1_score_3": 0.7475533317192588, "f1_score_4": 0.7063685473633491}, "pAtK_scores": {"pAtK_1": 0.9419028072033898, "pAtK_3": 0.7665960451977402, "pAtK_5": 0.5337327860169492}, "train
…
tch_norm": true, "filter_sizes": [1, 4, 7], "batch_size": 512, "num_workers": 15, "epochs": 10, "max_txt_len": 500, "train_vector": [0.18290602970705766, 0.05055457591105684, 0.04477358092704127, 0.04243468641669293, 0.0410467774114188, 0.040095471340519655, 0.039329091818610905, 0.03865184135155388, 0.0381185320087583, 0.03757629212013232], "loss_vector": [0.057488056373293114, 0.04646558339818049, 0.04330532278044749, 0.04174259967975697, 0.04093573596012794, 0.04010951765260454, 0.03958035664538206, 0.03913175766119512, 0.0389380882794069, 0.0384047034243911], "model": "Model(\n  (embedding): Embedding(400000, 100)\n  (conv1): Conv2d(1, 50, kernel_size=(1, 100), stride=(1, 1))\n  (bn1): BatchNorm2d(50, eps=1e-05, momentum=0.1, affine=True, track_running_stats=True)\n  (conv2): Conv2d(1, 50, kernel_size=(4, 100), stride=(1, 1))\n  (bn2): BatchNorm2d(50, eps=1e-05, momentum=0.1, affine=True, track_running_stats=True)\n  (conv3): Conv2d(1, 50, kernel_size=(7, 100), stride=(1, 1))\n  (bn3): BatchNorm2d(50, eps=1e-05, momentum=0.1, affine=True, track_running_stats=True)\n  (fc1): Linear(in_features=150, out_features=10, bias=True)\n  (fc2): Linear(in_features=10, out_features=126, bias=True)\n  (dropout): Dropout(p=0.0)\n)", "train_start": "2018-12-09 16:06:53.662936", "train_finish": "2018-12-09 16:11:07.525301", "f1_scores": {"f1_score_2": 0.6315303294673098, "f1_score_3": 0.7021332687703441, "f1_score_4": 0.6605387274024518}, "pAtK_scores": {"pAtK_1": 0.9304819915254238, "pAtK_3": 0.720018979519774, "pAtK_5": 0.49807335805084746}, "train
…
